results/ParticipantRankingsAndAcceptedRankings/AgentBehavior/AgentBehavior-1499937.onnx (onnx, 333671 bytes, 11 tensors)

discrete_act_size_vector f4 [1, 3]
000000 00 00 80 40 00 00 70 41 00 00 70 41
       4.0 15.0 15.0

network_body._body_endoder.seq_layers.0.weight f4 [256, 30]
000000 a5 dc 88 3e 95 ad e5 3d c5 aa 85 3d a2 56 79 3e
       0.26730838 0.11214749 0.06526712 0.24349454
000010 17 27 36 3e 4a c9 a8 bd 19 45 17 3e 57 40 5b 3e
       0.17788349 -0.08241518 0.14772452 0.21411262
000020 81 5e f5 bd 31 a4 a5 3e af b4 94 3c ca 64 83 3e
       -0.11980916 0.3235183 0.018152563 0.25662833
000030 c7 01 b5 bb 28 87 d5 bd 30 ad 9c 3e ac a8 eb 3d
       -0.0055238935 -0.1042617 0.30600882 0.11506781
000040 e3 b7 0b bf 3a 57 9e 3d 4d 47 dc 3d b7 85 0a 3d
       -0.54577464 0.07731481 0.10755787 0.033818927
000050 1a d3 50 be ee 13 23 be 0c a1 14 be 9d c5 da 3e
       -0.20393029 -0.15925571 -0.1451456 0.42728892
000060 88 a4 5a 3e 6d 4e 98 3e ca 18 6a be e1 e8 ab 3d
       0.21351826 0.29747334 -0.22861019 0.083940275
000070 45 36 15 bd 71 87 f9 3d 1e e8 0c bd 83 c3 27 bd
       -0.03642871 0.121840365 -0.03440105 -0.04095794
000080 5e 03 cb 3e 14 b9 5b 3e 5c 99 15 bc ae 65 d7 3d
       0.39651006 0.2145732 -0.009130802 0.10517441
000090 35 aa ce be e7 a2 91 bd 22 50 bc 3e 60 c5 9b 3e
       -0.40364233 -0.07111149 0.36779886 0.30424023
0000a0 4a a6 e5 3c 37 d7 a8 3e 6a e2 f5 3d df af db 3d
       0.028033394 0.32976696 0.12006076 0.10726904
0000b0 79 b9 fb 3d 18 df 05 be 56 e9 b5 3d 56 17 1a bd
       0.122912355 -0.13073385 0.08882396 -0.03761991
0000c0 08 ed 22 bd 2f 58 6b bd d5 33 1b 3c c8 a8 91 3d
       -0.039776832 -0.057457145 0.009472807 0.071122706
0000d0 40 a4 d3 bd fe 53 dd 3d e7 35 9d 3d c1 b8 04 bc
       -0.103340626 0.10807036 0.07676297 -0.008100689
0000e0 25 c9 3e 3e 1d 90 92 be 97 9b 00 3e c2 d1 29 be
       0.18631418 -0.28625575 0.12559353 -0.16583923
0000f0 e7 e1 ec bd 0f b0 c1 3d e7 c5 3d be 74 31 fe be
       -0.11566525 0.09457409 -0.18532525 -0.49647105
000100 17 e9 a6 be e2 1e 6f 3e eb 0d b3 bd dc 6e 1f be
       -0.32599708 0.23351625 -0.08742889 -0.15569633
000110 14 3d 62 be 7c fb 91 3d 81 a8 3a 3d 6b b1 a1 3c
       -0.22093612 0.07128045 0.045570854 0.01973792
000120 ed a9 ff bd b1 b0 80 3d 7b 87 99 be 4b 62 a1 be
       -0.12483583 0.06283701 -0.29986176 -0.31520304
000130 94 75 d6 be 6e 89 05 bd a3 34 49 3e 47 6d a0 3c
       -0.4188658 -0.032601766 0.19648986 0.019583357
000140 bd 3b 09 3c 4e 98 f3 bd 9a f7 8f be 7c 32 6e be
       0.008376059 -0.11894284 -0.28118593 -0.23261446
000150 90 5c a3 3d 5c 12 40 3e 10 65 71 3d f3 af 0a 3e
       0.07976639 0.18757004 0.05893427 0.13543682
000160 84 f9 e1 3e 92 c4 28 be 2b a9 96 bd e7 f3 76 bd
       0.44135678 -0.16481236 -0.07356485 -0.060291197
000170 eb 0e b0 3d 27 5b 19 bc f8 68 b9 bd 6a a7 f9 bd
       0.085965954 -0.009360111 -0.09053224 -0.12190135
000180 e7 55 4f 3e f6 8c 85 3e 71 4c 80 3e 39 31 dd be
       0.20247613 0.26084107 0.2505832 -0.43201616
000190 3d 37 06 bd de 40 0c 3d 70 58 f4 3d ef a2 7f be
       -0.032767523 0.03424155 0.119309306 -0.24964498
0001a0 43 48 09 3e 81 2a 97 bb 58 e7 a6 bc 24 07 25 be
       0.13406472 -0.004613221 -0.020373985 -0.16116005
0001b0 be 65 4b 3e 65 0c 47 3e f9 b5 da 3c 7c 6b d6 3d
       0.1986303 0.19438322 0.0266981 0.1046972
0001c0 aa e6 4b be bb cc 98 be e5 b3 d5 bc 79 50 66 be
       -0.1991221 -0.29843697 -0.026086757 -0.22491635
0001d0 a7 87 af 3e 3f ac 19 be 8b 3b 64 3e eb 35 91 be
       0.34283182 -0.15007113 0.22288339 -0.2836145
0001e0 36 f5 2b be 27 fd 39 3e fc b6 91 3d 9b bc 81 bc
       -0.1679276 0.18162976 0.071149796 -0.015837004
0001f0 07 0c 8b 3e 1d 3d 9b 3d 24 9c e3 bd c4 53 83 bc
       0.27157614 0.07580016 -0.11113766 -0.016031154
000200 6b 7c 1d bd 97 78 88 3e a0 fd 85 3c 8d 78 18 be
       -0.038448732 0.26654503 0.01635629 -0.14889736
000210 2e bd 07 3d 8e 65 d8 3e 90 81 8d 3e e2 cf 07 3e
       0.0331394 0.4226498 0.2763791 0.13262895
000220 3b 0e 30 3e 84 96 4e 3e 52 c8 86 3d b6 c0 39 be
       0.17192928 0.20174605 0.06581177 -0.1813992
000230 18 90 51 be 48 d4 2c bd c6 18 04 3e 7a 7f 2a bb
       -0.20465124 -0.042194635 0.12900075 -0.0026015923
000240 f8 f4 10 3c 2d 46 0b be cd 5b 8e 3d 43 2d a2 bd
       0.008847468 -0.13600989 0.06951103 -0.07918789
000250 fc 75 4d be 72 20 58 3e e8 b5 1b be ec 2a 03 3b
       -0.20064539 0.21106127 -0.1520611 0.0020014597
000260 88 54 a2 3e 74 c4 40 3e f4 66 09 3f 2c 8a 33 bc
       0.31705117 0.18824941 0.5367272 -0.010958236
000270 98 13 b2 bc fd c0 83 3e 45 97 c5 3d 24 62 61 bd
       -0.021737859 0.25733176 0.09647993 -0.055025235
000280 ec a3 87 3d ae d0 51 bd a8 6f fb bd 6e 19 03 3e
       0.066230625 -0.051224403 -0.12277156 0.1280267
000290 09 17 51 3e 7d 0a 5c 3e bf a8 1d bd 14 4e 18 3e
       0.20418943 0.21488376 -0.038491007 0.14873534
0002a0 15 f1 bf bd a3 2d 13 be 2a c0 b8 bd f7 b7 74 be
       -0.093721546 -0.14372878 -0.090210274 -0.23898302
0002b0 88 02 ae 3b 65 fb 93 3c 60 91 c5 bb 05 80 f7 bd
       0.0053103603 0.01806421 -0.006029293 -0.12084965
0002c0 fb 94 82 be 4c b3 d0 3d 61 50 2e 3d 05 21 02 be
       -0.25504288 0.10190448 0.042557124 -0.12707908
0002d0 88 82 83 3c 93 ce 8b be 15 7c f2 bc 03 e2 3d 3e
       0.016053453 -0.2730604 -0.029600183 0.18543248
0002e0 e0 87 75 3e a8 1d ce bc ef aa 73 3e 81 a4 41 be
       0.23977613 -0.025160626 0.23795675 -0.1891041
0002f0 b9 45 a8 bd 0d fd 7a 3d 15 60 00 3c 1c c5 1b 3e
       -0.082164235 0.061276484 0.007835408 0.1521191
000300 f3 24 b7 3e 7a 33 2a 3e 2e d9 97 3e 75 c3 13 3e
       0.35770378 0.16621199 0.29657882 0.1443003
000310 5e 1a 56 be 99 02 11 3c 8e 88 1d 3d 17 bb 1d 3b
       -0.20908496 0.008850717 0.038460307 0.0024067813
000320 11 06 b3 3e a9 b9 f5 bd d8 08 4b be 07 df 45 be
       0.34965566 -0.119983025 -0.19827592 -0.1932336
000330 61 c8 ef 3d 7a 96 20 bd 4b c0 93 3e 2b 37 1b be
       0.11708141 -0.039206006 0.28857645 -0.15157764
000340 b1 11 4b 3e af cd 01 bf f0 89 2a be ca ac 35 be
       0.19830967 -0.50704473 -0.16654181 -0.17741695
000350 86 3f 8f be 55 c9 9f 3c e7 64 c8 bd 6a 92 a9 bd
       -0.27978152 0.019505182 -0.097848706 -0.082798794
000360 35 76 1c be d3 8b 89 be 09 b3 7c 3d 65 f7 6e be
       -0.15279467 -0.2686449 0.06169418 -0.23336561
000370 ca b6 8a be da b9 7a 3d 81 40 72 3e 8b fa 80 be
       -0.27092582 0.061212398 0.23657419 -0.2519115
000380 fe 94 8d be f2 17 02 3e fc b6 5c be da 6e e2 3c
       -0.27652735 0.12704447 -0.21554178 0.027640749
000390 8c 43 f5 3c 7f e6 22 3d 06 d6 ec bd 7f 57 a8 be
       0.029939435 0.0397706 -0.11564259 -0.32879254
0003a0 d6 56 5b 3d 40 e1 bc 3e 66 40 e7 3d ea b2 6c be
       0.05354961 0.36890602 0.1129158 -0.23115125
0003b0 5e d1 37 be 93 56 fb 3d e8 92 2d 3e a6 04 89 be
       -0.17950961 0.12272372 0.16950572 -0.2676136
0003c0 93 89 19 bc 32 f8 ef bc 98 49 6d bb 57 aa 14 39
       -0.009371179 -0.029293153 -0.0036207195 0.00014177836
0003d0 a3 dc 6d be 2c 1e 9e 3d 99 3c 33 3e c9 cd d5 3d
       -0.23228697 0.077205986 0.17503585 0.10439641
0003e0 42 72 b3 3e ca de 83 3e 62 e5 47 be 6c c8 0b 3e
       0.3504811 0.25755912 -0.19521096 0.13650674
0003f0 19 ff 27 3e 7d 39 ed 3d 13 1d b0 bd 73 ce 43 3d
       0.16405906 0.11583231 -0.085992955 0.047804307

network_body._body_endoder.seq_layers.0.bias f4 [256]
000000 a3 53 8d 3c 19 53 67 3d 45 e6 73 3c 6f 8b 81 3d
       0.017251795 0.056475732 0.0148864435 0.06325423
000010 5b a4 46 bc 62 22 51 3d b0 18 39 3d 5d e2 3e bb
       -0.012124146 0.05105818 0.04518956 -0.0029126622
000020 ec df d3 3c b4 c6 c0 3c de 32 1e bd 6f 88 8d bc
       0.02586361 0.023532249 -0.03862273 -0.01727697
000030 05 54 4c 3d 34 c2 8b bc 3f 26 8c 3c a4 97 97 3c
       0.049884815 -0.017060377 0.01710808 0.018504925
000040 5b 39 55 bd 7a 20 13 3d 3b 11 f9 bc 68 1f c4 bc
       -0.05205665 0.035919644 -0.030403724 -0.023940757
000050 77 77 fe 3c 82 d6 53 3d 6b e0 3a bd 78 f1 0c 3d
       0.031062825 0.051718242 -0.045624178 0.03440997
000060 0b 62 0f 3d e2 5f a7 bd d4 60 10 bd 80 52 4b bd
       0.03500561 -0.08172585 -0.035248592 -0.049639225
000070 45 fe a5 3c d8 81 96 3c 3d 21 ba 3c 32 54 17 3d
       0.020262847 0.018372461 0.022720927 0.03694553
000080 d2 09 c0 bc ca ce e5 3a 9f 28 bb bb 81 3e 54 bc
       -0.023442183 0.0017532941 -0.0057116295 -0.012954355
000090 46 33 0b bd e0 d4 e1 bc 47 a4 d6 3c c6 2d e5 bc
       -0.033984445 -0.027567327 0.02620138 -0.027975928
0000a0 9f 82 53 3d 58 38 b8 bc 90 18 96 3c b6 68 01 3d
       0.05163824 -0.022487804 0.01832226 0.031594
0000b0 a8 39 8d bd e6 d1 42 3d f8 ef 62 3d 49 b0 a3 3c
       -0.06895763 0.047563456 0.055404633 0.01998152
0000c0 07 22 97 3d 19 5c a5 bd 69 2f 07 3c ba df 3f bd
       0.07379537 -0.08074207 0.00825105 -0.04684422
0000d0 d0 5f 4c 3d d5 74 6c 3d 7d 5a 81 3c 4c 93 09 3d
       0.04989606 0.057728607 0.015790218 0.03358774
0000e0 2e 83 d5 3b 29 91 ea bc 25 73 52 3d c5 6c cf 3c
       0.006515882 -0.02863367 0.05137934 0.02532042
0000f0 95 20 19 3d 61 72 f8 3b 9b cc 84 bc e6 06 26 3d
       0.03738459 0.0075819944 -0.016210845 0.040533923
000100 62 83 8c 3c 17 7e 69 3c 21 a8 30 3d 29 75 db bb
       0.017152492 0.014251254 0.04312909 -0.006697316
000110 28 fa 26 bd d8 72 c4 3c 85 6f ca bc c1 07 a8 bc
       -0.04076591 0.023980543 -0.02471138 -0.02051151
000120 ca 5c 13 bd 40 7d 4f 3c e3 0e 19 3d 97 a0 9e bc
       -0.035977162 0.012664139 0.037367713 -0.019363685
000130 c3 16 30 3d 26 05 f4 bc 91 b9 5f 3d ba e2 b6 bb
       0.042990457 -0.029787611 0.05462033 -0.005581227
000140 9d 23 06 bd 7b 5d 2c 3c cd c1 34 3d 2e e1 ec bb
       -0.032748807 0.010520334 0.044130135 -0.007228992
000150 89 7d 44 3d 48 65 f5 bc 86 1a 9f bc 4c 5b 4d 3d
       0.047971282 -0.029955521 -0.019421827 0.050135896
000160 d8 f6 2d bd 9c 36 82 3b 33 64 b3 3d 1c 55 11 bc
       -0.042471737 0.003973795 0.08759346 -0.008870389
000170 72 be c1 3b dc da 48 bd 9a 79 86 3d 13 e3 ee 3d
       0.0059125954 -0.049036846 0.065661624 0.11664405
000180 28 ab 07 3d d8 97 40 3c e7 68 3c bd 9f c4 54 bb
       0.03312221 0.011754952 -0.04599848 -0.0032465828
000190 43 5e 45 3d 64 38 19 3d bf dc c7 bc e0 e1 a2 3d
       0.048185598 0.037407294 -0.024397252 0.079532385
0001a0 a2 a6 5d 3c f1 a7 ab bb 68 40 f9 bc 5d db e9 bb
       0.013528498 -0.005238526 -0.03042622 -0.007136746
0001b0 a1 12 07 bd 70 44 05 bd 10 43 70 bb ff 6d 0d 3c
       -0.03297675 -0.03253597 -0.0036661066 0.008632182
0001c0 d3 ec a9 3d 28 0b 01 bc 48 40 9f bb a8 fd 48 3c
       0.08297124 -0.007876195 -0.004859958 0.012267508
0001d0 b9 a6 35 bd cf d7 74 bb bc bc be 3c 1b 19 1b ba
       -0.044348452 -0.0037360077 0.023283355 -0.0005916522
0001e0 4c 01 40 bc e3 69 5a 3a 30 dc 97 3c 26 8e 09 3d
       -0.011719059 0.00083318184 0.01853761 0.03358283
0001f0 02 d0 80 3b ad b2 6d 3a 9d 14 40 bd 4b 4d e6 3c
       0.0039310465 0.0009067457 -0.04689466 0.028113028
000200 2e 5a f2 bc 51 27 88 3c e4 5e c7 bc ab 93 1c 3d
       -0.029584017 0.01662031 -0.02433724 0.038226765
000210 35 ec 61 3c 20 bb 1f bd e8 bc 90 3d fd 43 1b 3d
       0.013789226 -0.038996816 0.07067281 0.037906636
000220 b1 f3 02 3d 82 86 fa bc d7 3e 55 3b b4 2f 1d bd
       0.031970683 -0.030581716 0.0032538676 -0.03837557
000230 fc ea 76 bc cf 42 2d 3c 22 28 8d 3c 64 f8 75 bb
       -0.015070673 0.01057501 0.01723105 -0.0037532086
000240 80 91 cc bc 6d a1 05 bc 6a 4f 3b bc b1 a2 54 3b
       -0.024971724 -0.008156163 -0.011432508 0.0032445604
000250 33 3d 33 3d 78 33 c2 bb fd c2 86 bc d5 86 51 3d
       0.043759536 -0.0059265457 -0.0164504 0.051153976
000260 3f 18 0d bd 94 8b 76 3b 3f b7 df bc 0c 9c ad 3d
       -0.03444695 0.0037619816 -0.027309058 0.08477029
000270 ac 7f 43 3c 49 1d 95 3d 92 96 85 3b 80 5c ff bb
       0.011932295 0.07280976 0.0040767873 -0.0077930093
000280 f9 8b b4 bc 4a 0f 2e 3d c2 10 12 bc 88 99 eb 3a
       -0.0220394 0.04249505 -0.008915128 0.0017974833
000290 2d d2 f3 bc 50 14 1a 3d 03 3e fa bc b6 f6 26 3d
       -0.029763306 0.037617028 -0.030547148 0.040762626
0002a0 e4 ad f8 bd d9 d5 b0 3b 33 5a 9f bc 7c 9e d0 3b
       -0.12142542 0.0053965864 -0.01945219 0.006366549
0002b0 3c 0c a8 3d 7d 2a 16 3c 45 98 8b 3d 14 b4 ae bc
       0.082054585 0.009165403 0.068161525 -0.021326102
0002c0 e8 23 96 bc 85 bd e4 bc 46 81 1b bc 34 ec b6 3c
       -0.018327668 -0.027922401 -0.00949127 0.022329427
0002d0 ee e9 25 bc e3 49 db 3c 12 93 96 3d 8c 2c 9e 3d
       -0.010126574 0.02676863 0.0735227 0.077233404
0002e0 7f b2 37 3b 57 69 81 3d 27 90 01 bc f2 93 f8 3c
       0.0028029976 0.0631892 -0.007907904 0.030343983
0002f0 cb 16 cf 3c 99 a8 0b 3d cb d4 ee bb c3 9e c6 3b
       0.025279423 0.034096334 -0.0072885505 0.0060614063
000300 f2 2d a4 bc b8 33 a2 3d 01 0b 26 3c e2 51 ed 3c
       -0.02004144 0.07920021 0.0101344595 0.028969709
000310 0f e1 26 3d d0 af b3 bd 5e f8 c2 bb 4e 26 92 bc
       0.040741976 -0.08773768 -0.005950018 -0.01784053
000320 22 8c 0d bd 3b 3c 9f 3d 70 d9 99 3c 5a 00 d0 3c
       -0.03455747 0.0777516 0.01878044 0.025390793
000330 5f 5b 4f 3d dd 8b 4f 3d d3 92 c9 bc 7d 18 e1 bb
       0.050624248 0.050670493 -0.024606144 -0.0068693743
000340 7a 28 31 3d 38 a0 9a 3c 38 d1 63 3d e9 9b 93 3d
       0.043251492 0.018875226 0.05561945 0.07207472
000350 d7 84 1e 3d 78 33 d8 bc 60 bc 81 bb e6 b6 d3 3c
       0.038700905 -0.02639173 -0.0039592236 0.025844049
000360 58 f5 84 3d 6e 3c c0 3c 7f f5 57 3a 53 47 df 3c
       0.06492108 0.023466315 0.0008238181 0.02725569
000370 69 cb 04 3d 2e 03 1a bd 3f 77 c8 ba 29 54 19 3d
       0.03242055 -0.03760069 -0.0015294327 0.037433777
000380 b2 33 50 3d 86 1a aa 3d 91 e4 25 3d 40 86 b4 bc
       0.05083055 0.0830584 0.04050118 -0.022036672
000390 39 b7 41 3b 6f 21 2f bd 5c a9 ef bc ca db 44 3b
       0.0029558672 -0.042756494 -0.029255562 0.003003823
0003a0 1b 13 a9 3d 01 e5 24 3d 96 d4 73 3c 2b 55 a7 3c
       0.08255597 0.040257458 0.014882227 0.020426353
0003b0 05 35 07 3d ec 40 a8 3c 15 0d 9c ba 46 41 7e 3c
       0.033009548 0.02053877 -0.0011905754 0.015518492
0003c0 b7 06 8b 3d 0b 28 26 bc 7e 00 14 bd 22 80 02 bd
       0.0678839 -0.010141383 -0.036133282 -0.03186048
0003d0 00 67 ab 3d 56 91 77 bc 75 24 8c 3c 4a b3 46 bd
       0.08369255 -0.015110334 0.017107228 -0.048510827
0003e0 2f 2c 1f 3d a6 34 ae 3d 99 38 69 3d 08 0c ff bc
       0.038860496 0.08506136 0.05693874 -0.031133667
0003f0 ba 81 20 ba 31 b0 b3 3c 20 24 92 3c cb 74 16 3d
       -0.00061228464 0.0219346 0.017839491 0.036732476

network_body._body_endoder.seq_layers.2.weight f4 [256, 256]
000000 53 20 2e 3d 94 e1 8a 3d ae c2 9b bd ac 57 d4 bd
       0.042511296 0.06781307 -0.076054916 -0.103682846
000010 39 03 18 bd ce a3 79 3d 4b 6f cf 3d ba 1a 14 bd
       -0.03711245 0.060947232 0.10128649 -0.0361583
000020 fe 7a 8f bd 12 5a 50 3e 93 d0 e7 3c 2d 1e 22 bc
       -0.07005881 0.20346859 0.028297698 -0.00989489
000030 48 b8 2e bd 41 e4 a1 3c 87 fd be bb fc f5 4b bd
       -0.042656213 0.01976216 -0.0058285627 -0.049795136
000040 1b cf 87 bd 1c 4e 98 bd c8 45 6e bc 5f 06 45 bd
       -0.06631299 -0.07436773 -0.014543004 -0.04810178
000050 44 14 bd 3d 05 25 f8 bc a3 1b 78 bd 6b d2 81 3d
       0.09232381 -0.03029109 -0.06057323 0.06338962
000060 5c 04 0e 3d c3 2c a8 bd 4c 69 8d 3d 7f 2e 03 3b
       0.034672126 -0.082116626 0.069048494 0.0020016728
000070 57 08 ae 3d d9 a2 ec bb 03 36 6e bb ca 08 ee 3c
       0.084976844 -0.0072215614 -0.0036348111 0.029056925
000080 3e 99 9a bd 37 a3 0d bd 86 f9 99 3d 90 a8 e1 bc
       -0.0754876 -0.034579482 0.07518296 -0.027546197
000090 66 92 07 bc a9 d5 09 3d b8 53 69 bc 54 ce 03 3d
       -0.00827465 0.033651028 -0.0142411515 0.03217919
0000a0 e4 5c 35 3c 39 0a 86 bd 83 e4 67 3d 0e f2 d4 3c
       0.01106951 -0.065449186 0.05661441 0.025994327
0000b0 80 f9 3c 3d 0c 4c 47 3d 8b 45 93 3b c7 d9 2c bb
       0.04613638 0.04865651 0.004494374 -0.0026374923
0000c0 45 16 e4 3b 77 bf 87 3d 6f ea 01 be ca db 03 3e
       0.0069606625 0.06628316 -0.12687086 0.12876812
0000d0 9d 99 c6 bd a0 a5 8c bb 07 dd c9 3d ed 21 61 3d
       -0.09697268 -0.004292205 0.09856611 0.054963995
0000e0 40 92 06 3e 0b 73 2a bd bc bd b9 3c d4 4b 62 3d
       0.13141727 -0.04161362 0.02267348 0.055248097
0000f0 23 19 00 bd 40 46 9a 3c 44 05 31 3c 97 d2 b8 bd
       -0.031273972 0.018832326 0.010804478 -0.09024542
000100 26 bc 1e bd 32 c4 86 bd 47 5a 93 3d e7 74 eb 3c
       -0.03875365 -0.0658039 0.071949534 0.028742267
000110 79 a1 65 bc a9 dc 21 bd 00 65 71 bd 29 1e 35 bd
       -0.014015549 -0.03951708 -0.05893421 -0.044218216
000120 40 99 b1 3c 71 89 ee 3d 40 3f 1a 3d 1e a7 12 3e
       0.02167952 0.116473086 0.037657976 0.14321563
000130 fa 44 2e be c9 10 b6 bd 07 3c 9b 3d 02 88 b8 bc
       -0.170185 -0.0888992 0.07579809 -0.022525791
000140 4d 6c 39 3d 54 ac 93 3d 90 4a 00 3d d9 42 96 bd
       0.0452693 0.07210603 0.03132111 -0.07336969
000150 5b 13 19 bd 6e e5 67 bd 49 7b 24 be aa 1f bd bc
       -0.037371974 -0.056615286 -0.16062655 -0.023086388
000160 eb 37 c8 3d 00 5c af bd 10 96 f0 bc 71 e0 44 3d
       0.097762905 -0.085624695 -0.02936843 0.048065607
000170 f0 bb be 3d fe fd 79 3d 76 c5 f9 3d b3 33 ab 3d
       0.0931319 0.06103324 0.12195866 0.0835947
000180 b3 08 ad bd a9 be 90 bd 6e ce e2 bc 23 a4 60 3d
       -0.08448925 -0.070676155 -0.027686324 0.054844033
000190 c3 36 40 3d ce 81 05 3e 09 8e e7 bc da 07 82 3d
       0.046927225 0.13037798 -0.02826597 0.06349154
0001a0 3c 1c 90 bd 23 26 dc 3d c9 14 1d 3d a5 e9 10 3d
       -0.07036635 0.107494615 0.0383499 0.03537907
0001b0 63 ac aa bc fb 73 d9 3d 94 a7 a5 bc cf ba 21 3e
       -0.020834154 0.10617825 -0.020221509 0.15793918
0001c0 e2 a9 00 3d 1e 7b b3 3d 14 3c af bd c6 47 80 bd
       0.031412013 0.08763717 -0.08556381 -0.0626369
0001d0 58 e6 1a be a3 5e 5a 3d 8d d0 85 3d e3 ff be 3c
       -0.15126932 0.05331291 0.065339185 0.023315376
0001e0 0a 18 9c 3d 66 29 a3 bd 43 fd 3d 3d b8 b4 cb bd
       0.076217726 -0.079668805 0.046384107 -0.09946579
0001f0 18 44 d3 3c e3 e5 e4 bb de 08 bb bc 53 9c be bd
       0.025789306 -0.0069854124 -0.022831377 -0.0930716
000200 8e 02 49 3d bf 4d 26 bc 97 f7 64 3d 95 07 d3 3c
       0.049074702 -0.010150372 0.055900183 0.025760451
000210 d5 24 cb 3c f0 e0 18 bd 93 c2 85 3d 26 96 07 bc
       0.024797836 -0.037323892 0.06531253 -0.008275544
000220 d0 a5 81 bd 63 b2 fc bc 21 3d 33 3d 65 06 90 bd
       -0.06330454 -0.03084678 0.04375947 -0.0703247
000230 2b f4 92 bc 97 9b 8e 3c ed f3 17 3c 3a 27 dc bd
       -0.017938694 0.017408175 0.009274465 -0.107496694
000240 c7 43 d5 bc 47 41 c4 bc d9 e7 a1 3d cb 4b d0 3d
       -0.026033295 -0.023956908 0.079055496 0.10170706
000250 83 95 ba 3d 76 79 70 3d 8b 48 dc bb 5d 16 a5 bc
       0.09110548 0.058709584 -0.006722515 -0.020152265
000260 2a bb ac bd a5 72 a3 3d e4 22 27 bc f4 33 11 3d
       -0.08434136 0.07980851 -0.01020119 0.035449937
000270 5a 85 5e bd 8e f8 a1 3c 00 4d 94 3c ad 52 ea 3d
       -0.054326393 0.01977184 0.018103123 0.114415504
000280 44 30 ea 3c 27 d8 8f bc 7f c3 76 3d ba 23 3e bd
       0.028587468 -0.017559124 0.060245033 -0.04642079
000290 b0 9b 14 bd f3 af 8e 3c b0 f2 db bd d7 fd df bc
       -0.036281288 0.017417884 -0.10739648 -0.02734272
0002a0 33 07 be bb 00 5b 15 bd 84 74 29 bd d8 27 aa bd
       -0.005799198 -0.036463737 -0.041370884 -0.08308381
0002b0 1c 6b 76 3d 77 dd a4 3d 76 2b 8f 3d e3 49 1c 3e
       0.06016074 0.080500536 0.069907114 0.1526256
0002c0 38 be 6c 3c 80 d4 0d bd 90 c2 12 3d 3e c9 3b 3d
       0.014449649 -0.034626484 0.03583008 0.045846216
0002d0 8a 68 40 3c e3 2e 76 bd c7 7b 8a 3d 2e 35 ac 3d
       0.011743674 -0.06010331 0.0676189 0.08408581
0002e0 4c 0d 15 bc 13 26 81 3d 33 b3 65 bb 21 d1 a6 bd
       -0.0090974085 0.0630609 -0.0035049438 -0.08145357
0002f0 3b 5d a2 3d af 1b 30 3d 32 f4 11 bd e8 60 9d 3d
       0.079279386 0.04299515 -0.035633273 0.07684499
000300 10 9d db bc 6b 58 2d bd 59 20 2d 3e fe 5a 2f 3d
       -0.026808292 -0.04232065 0.16906871 0.042811386
000310 71 10 3f bd 41 43 86 bc 6f 5c 8d 3d 19 22 73 bd
       -0.04664654 -0.016389491 0.06902396 -0.05935869
000320 65 d4 d2 3c 04 27 93 3c 69 e6 e1 bd 6b 62 2c 3c
       0.025736043 0.01796294 -0.110302754 0.010521512
000330 20 6c ab bc da 84 9b bd 2e f9 9a 3d 21 38 8b bd
       -0.020925581 -0.07593699 0.075670585 -0.06797815
000340 57 a3 28 b9 c1 d2 de 3c eb df 08 bd 02 25 81 3d
       -0.00016082577 0.027200105 -0.03341667 0.06305887
000350 6d 20 54 bd 15 74 5c 3c 49 6b 48 bd 71 13 34 bc
       -0.051788736 0.0134554105 -0.04893044 -0.010990963
000360 cb 8b b3 3d c7 59 ef bc 66 58 3b 3e e8 3a 9a bd
       0.08766898 -0.029217614 0.1829544 -0.07530767
000370 f8 92 1f 3e c3 f6 4e bc 62 e8 5f 3d 2b 81 18 3d
       0.15583408 -0.012632075 0.054664977 0.03723256
000380 db 8f b0 bb a2 fe fe 3d 4f 37 6a 3d c7 d0 68 bc
       -0.0053882427 0.12450911 0.057181653 -0.014209933
000390 6d 44 c1 bc bf 6f 63 bd 0a 39 91 bc bf b9 ee bd
       -0.023592198 -0.05552649 -0.017727394 -0.11656522
0003a0 bd ef 97 3d 91 ab 84 bc b7 b6 cd bd 4d 5b 63 3c
       0.07418773 -0.01619509 -0.10044616 0.013876748
0003b0 a1 9a 89 3d 9d 3f c7 bd 11 69 89 bc 55 ba aa bd
       0.06718946 -0.0972893 -0.016773732 -0.08336321
0003c0 c1 a0 3b 3e 08 4b 3a bd 6a d8 81 3d a1 75 95 bd
       0.18323041 -0.04548171 0.06340106 -0.072978266
0003d0 a7 d1 21 3c fc cf 12 3c e5 5e e5 3d 12 5c 89 3a
       0.009876645 0.00896072 0.1119974 0.001047971
0003e0 19 ee a5 3b 96 1a 82 bd ab 87 0e bc 64 78 a5 3d
       0.005063784 -0.06352727 -0.008699338 0.08079603
0003f0 23 14 c3 3d dc 73 a2 bd e8 9f 68 3d 4e 33 02 3c
       0.09525325 -0.07932255 0.056793123 0.007946802

network_body._body_endoder.seq_layers.2.bias f4 [256]
000000 fb d4 cc 3c 44 ff e5 bc 3d 3e 9c 3c 3a 3a 9f bc
       0.0250039 -0.028075822 0.019072646 -0.019436944
000010 bd 19 37 bc 3b df ba 3c 58 8d 62 bb 5a 9b 6a 3c
       -0.01117557 0.022811523 -0.003456911 0.014319265
000020 b7 4b 5c bc 70 96 bb 3c 93 cb 65 bc f1 02 04 3d
       -0.013445786 0.022898883 -0.014025587 0.032229368
000030 e5 0e 8c bc 54 f0 3f 3b 6a cb a8 3c fc 1b 2a 3d
       -0.017096946 0.0029287534 0.020604808 0.041530594
000040 4b ce 28 3d 0d b1 b6 bc 3d 7c b7 3b 91 2c 09 3d
       0.04121236 -0.022301221 0.005599527 0.033489767
000050 57 64 05 3c ad 0b 7b bc 08 a2 2d bb e0 6d de bc
       0.008141599 -0.015322608 -0.0026494283 -0.027152002
000060 52 1b 8d 3c 28 38 0f 3d 0f b0 3d 3b 8b bb 17 bd
       0.017224941 0.034965664 0.002894405 -0.03704409
000070 be 21 d6 3c 81 9b d6 bc 13 49 78 3c e5 66 12 3c
       0.026139136 -0.026197197 0.015154141 0.008935665
000080 09 4c 0b ba 50 35 1b bd ce 01 f4 3c a6 6e b9 3c
       -0.00053137593 -0.03789264 0.029786017 0.02263577
000090 1f f8 d1 3c e7 98 07 3c 7a 15 d8 bc f3 d0 ac 3c
       0.025631009 0.008276201 -0.026377428 0.021095729
0000a0 27 de f2 3b 57 af ed 3c 02 54 25 bd 84 6c 39 bb
       0.0074117365 0.029014273 -0.04036332 -0.002829344
0000b0 60 4b 19 3d bd 7c b3 bb f8 66 c3 3c d2 b8 6b bc
       0.0374254 -0.0054775164 0.02385281 -0.014387326
0000c0 85 e3 26 bd be eb dd 3c 30 89 62 bc c4 4d be bc
       -0.040744323 0.02708995 -0.013826653 -0.02323044
0000d0 2d 9e e5 bb e6 67 05 bd ed f3 dc 3c 0f 14 68 3b
       -0.0070073814 -0.03256979 0.026971782 0.0035412346
0000e0 b2 ef 56 bc b6 ff 0d 3d 6d b7 06 bd cf b9 e8 ba
       -0.013118671 0.034667693 -0.032889772 -0.0017755571
0000f0 f1 c2 27 bc f5 a8 c3 bc 6b 15 bb 3c 7e fd fd bb
       -0.010239349 -0.023884276 0.022837361 -0.007751166
000100 a0 da e6 3c 00 f2 20 3d cf 46 b8 3c 41 39 67 bb
       0.02818042 0.03929329 0.022494702 -0.0035281929
000110 d0 e9 76 bc 9e dd c1 bc 1e 3d 00 bc 69 ca 58 bb
       -0.015070394 -0.023665246 -0.0078270715 -0.003307963
000120 6d 66 51 bb b1 7d 94 bc bf cc 8c bb 78 29 0f 3d
       -0.003195192 -0.01812634 -0.0042968686 0.034951657
000130 09 9b 0f 3c bb d6 2a 3c 8b 63 33 3d 88 6b 93 3c
       0.008764991 0.010427172 0.043796103 0.01799561
000140 b8 02 15 bd b2 1a e0 3c 80 6d 65 bc 7e 33 bd bc
       -0.036379546 0.02735648 -0.014003158 -0.023095842
000150 5a 19 d6 ba bf 58 82 3d 85 f4 17 bc 10 ed dd 3c
       -0.001633446 0.06364583 -0.009274607 0.02709058
000160 39 cb 3b 3d d8 a1 bf bb 70 a7 13 bd 7d 9e 8e 3c
       0.045848105 -0.0058481507 -0.036048353 0.017409557
000170 be e6 a0 3c 7b f4 d7 bc 9b bc 75 bc c6 38 55 3d
       0.019641276 -0.026361695 -0.01499858 0.052056096
000180 c0 f2 ce 3c fd b0 9b bc 21 07 21 3c 0d 8b 14 3d
       0.025262237 -0.019005293 0.00982836 0.03626542
000190 07 7c 00 3d 5e df 23 3d 79 9b 84 3c 93 45 b7 bc
       0.03136828 0.04000794 0.016187416 -0.022372043
0001a0 fe 4b 03 3d 62 e4 52 3c 23 b1 af 3c bb 97 5f 3c
       0.032054894 0.0128718335 0.02144677 0.013647015
0001b0 91 f1 00 bc ff f5 9f 3b 2f 02 1f 3c a8 31 96 ba
       -0.007870094 0.00488162 0.00970511 -0.001145889
0001c0 29 6f d1 bc 77 b9 27 3d 0f 26 85 bc 4a 97 f9 bc
       -0.0255657 0.040948357 -0.0162535 -0.030467648
0001d0 30 88 58 bc 35 d7 c5 3c 51 2e a1 bc d7 e8 aa 36
       -0.013216063 0.02415047 -0.019675406 5.093501e-06
0001e0 80 01 91 3c aa a8 0d bc 41 88 91 bc 33 a6 9b 3c
       0.01770091 -0.00864617 -0.017765166 0.019000148
0001f0 2e aa 3f 3d f1 2c 23 3d 84 2c ca 3c a8 b7 b8 3c
       0.046793155 0.03983778 0.02467943 0.022548512
000200 fe 85 f9 3c 75 a0 52 3b 24 de 0c bb 04 57 d6 b9
       0.0304594 0.0032139097 -0.002149471 -0.00040882092
000210 47 6e d4 3c 49 6f 7a bb 49 44 78 bc d3 c7 f7 bc
       0.02593149 -0.0038213304 -0.015152999 -0.03024665
000220 34 d4 d2 3b 79 9f ba bc 75 ee db bc 3a e1 d2 bc
       0.006433988 -0.02278112 -0.026847104 -0.025742162
000230 ef b2 1a 3d 99 51 95 3c c7 7b 7f 3c 5c 19 dc 3c
       0.0377683 0.018227385 0.015593476 0.026867561
000240 87 e5 8a 3c 50 7b c0 bc b6 29 00 bb 15 de 00 bc
       0.01695515 -0.0234963 -0.0019556112 -0.0078654485
000250 38 6e 0c 3d 9b e0 9b bc 11 c0 5d bc 64 28 cd bb
       0.0342848 -0.019027999 -0.013534562 -0.0062609185
000260 65 d7 b1 bc fe 44 c4 3c 62 1d 64 3c e7 8f db bc
       -0.021709153 0.02395868 0.013923021 -0.026802016
000270 b0 c3 1b 3c 34 a4 16 bd 0a 44 25 3c 6f fd a6 bb
       0.009507105 -0.03677769 0.010087023 -0.0050961296
000280 91 8f f9 bb 41 53 b2 bc 1e 60 be bb 85 02 8e 3c
       -0.0076159914 -0.021768214 -0.005809798 0.017335186
000290 34 cd 4d bc d6 66 de bc b6 06 80 bc 29 90 e2 bc
       -0.012561131 -0.027148645 -0.0156282 -0.027656632
0002a0 6c 1e 1c 3c 1d e4 58 3d 19 b0 50 3c 0d 66 07 3d
       0.0095287375 0.05295192 0.012737297 0.033056308
0002b0 2f 3e 3c 3d b8 8c 8f 3c 93 03 ea bc 3d b4 33 bc
       0.04595774 0.017523155 -0.028566157 -0.010968265
0002c0 5b 12 77 bc ee 3b 00 3d 36 a6 40 3c fc c0 a0 3c
       -0.01508006 0.031307153 0.011758378 0.019623272
0002d0 6e fa b0 bc 58 4a c5 3c 51 75 b4 3c c5 a2 b4 3c
       -0.02160379 0.024083301 0.022028597 0.02205027
0002e0 7d ec 3d 3d 6b 91 c5 3c fa c2 0b 3d c5 46 a7 3b
       0.04636811 0.024117192 0.03412149 0.005104872
0002f0 ec a0 10 bd 29 96 e9 bc 5a 90 d6 bc 66 3c a2 3b
       -0.035309717 -0.028513985 -0.026191879 0.0049510477
000300 52 f4 b7 3c 0d 4a 0b 3c 7e 86 6a bb 12 47 2b 3c
       0.022455368 0.008501542 -0.003578573 0.010453956
000310 98 03 c8 ba 8d 39 26 3d 73 91 d1 b9 44 32 d2 bc
       -0.001525986 0.04058223 -0.00039971955 -0.025658734
000320 e8 65 2b 3d c3 86 16 3d 51 46 2f bd 54 2b 33 3d
       0.041845232 0.036749613 -0.04279167 0.043742493
000330 25 af 1e 3d a7 28 c1 3b 35 64 d5 3b cb dc 0c bc
       0.03874125 0.0058947387 0.0065121897 -0.008597563
000340 9b 89 6d 3c 29 c9 5c 3c d4 f8 06 3d ec 1d 11 bc
       0.01449814 0.013475695 0.032952145 -0.008857232
000350 e8 a0 26 bd 82 4c b6 bc eb 6a dc 3b 25 ab 0a 3d
       -0.040680796 -0.022253279 0.006726613 0.033854622
000360 99 91 18 3c 10 24 14 3d b6 69 2a bd 1e 2c de bc
       0.009312057 0.036167204 -0.04160472 -0.027120646
000370 36 c0 04 bc fc 60 8e b9 1b c3 c9 bb 4b 52 be 3c
       -0.008102467 -0.0002715661 -0.0061572916 0.0232326
000380 42 2c 8c bb d5 de f8 3c 03 12 ba bc bc 78 18 3d
       -0.004277737 0.030379692 -0.022713667 0.037224516
000390 14 c4 85 3c 75 5c ca bb d8 82 24 3c a7 0f ba bc
       0.016328849 -0.0061755725 0.010040961 -0.022712542
0003a0 44 38 df 3c 40 2e 9e bc 71 70 10 bc c5 8b 82 3c
       0.02724851 -0.019309163 -0.008815871 0.015935788
0003b0 b9 9b cf 3c 1e 67 37 bc ae a5 19 3d 8d d6 c4 bc
       0.025342809 -0.011194019 0.03751152 -0.024028087
0003c0 c0 8a d8 bc 8f a4 fc 3b 73 f4 03 3d 54 c4 7e 3b
       -0.026433349 0.0077100466 0.032215547 0.0038874345
0003d0 f9 83 92 bc 56 d2 ef 3c c8 f9 f2 bc 60 e0 e0 bc
       -0.017885195 0.0292751 -0.02966012 -0.02745074
0003e0 37 8a c9 3c 82 4f e1 3a e3 52 80 3b 69 3f 8e bc
       0.024602039 0.0017189833 0.003916131 -0.01736422
0003f0 47 92 f5 b8 7e 6b 26 3d 8c 0c 16 3d be b9 a0 b9
       -0.00011709757 0.040629856 0.03663306 -0.00030655967

action_model._discrete_distribution.branches.0.weight f4 [4, 256]
000000 6a 17 2d 3c 5c 2e 93 3c e9 1c 18 bc 56 8e d9 bc
       0.010564664 0.017966442 -0.0092842365 -0.026557129
000010 2d 0f 01 3d e4 4c 24 bc a3 07 79 3c 49 24 d7 bc
       0.031508613 -0.010028098 0.015199575 -0.02626242
000020 ab a1 ec 38 36 e2 bd bc 2d c4 cd bb 30 1b ff 3c
       0.0001128347 -0.023179155 -0.0062794895 0.031140894
000030 67 bf 87 bc fa 2f c1 3b 5e 1f ac bc 23 b2 3d bd
       -0.01657076 0.005895612 -0.02101105 -0.046312463
000040 7e 58 ea bc d1 58 86 bc 71 b5 0b 3d 1d 07 70 bc
       -0.02860665 -0.016399773 0.034108583 -0.014650133
000050 af 5d 27 bc 87 34 d1 3c 5a fe 25 bc 2c c2 0e 3c
       -0.010215207 0.025537742 -0.010131443 0.008713286
000060 b1 a8 a8 bc 67 c4 96 bc b3 51 82 bb 6c ce 30 3d
       -0.02058825 -0.018404199 -0.0039770245 0.04316561
000070 d8 76 30 bb a4 e0 1a 3c ea 11 0b 3d 30 6c b8 3c
       -0.0026926305 0.009452973 0.03395263 0.022512525
000080 e1 56 b0 bb 75 c4 a7 3c e1 44 06 bd b0 7d ac bc
       -0.0053814505 0.02047942 -0.03278053 -0.021056026
000090 13 bd 93 bc 0c 69 a8 3a 50 a9 32 3d af b7 02 3b
       -0.018034494 0.0012848689 0.0436185 0.001994591
0000a0 09 1c d5 bb 81 58 00 bd 91 79 f2 3c 68 0d 56 ba
       -0.006503586 -0.031334404 0.029598983 -0.000816545
0000b0 5a 63 5f bc 72 7e af bc d2 58 4e bc 5a 05 81 3b
       -0.013634527 -0.021422599 -0.012594419 0.0039374055
0000c0 3e cc 25 3c 6b 84 4c 3c d6 a0 00 3d 1b de 0b 3c
       0.010119496 0.012482743 0.031403385 0.008536841
0000d0 d5 75 ef 3c 30 1f 7f 3c 82 7d 6a bc c6 ef c2 bc
       0.029230991 0.0155714005 -0.01431215 -0.023795974
0000e0 16 0f 13 3c fc 1c ad bc e5 70 19 3d 3b a2 9c ba
       0.008975765 -0.021131985 0.03746118 -0.0011950204
0000f0 2f 2c a7 bb f6 41 19 3d 0a 87 e7 bb 54 6b 26 3c
       -0.0051017026 0.03741642 -0.0070656585 0.010157425
000100 52 1f 9a bc a1 66 66 bd 8d 5e 1e bc db a0 8d bb
       -0.018813763 -0.05625022 -0.009666097 -0.004322154
000110 74 d9 51 3a 2a 2c e0 bc 15 df 0b bd 15 eb 02 3d
       0.00080051203 -0.027364809 -0.034148294 0.031962473
000120 f6 a9 aa bb fe 50 8a bc c2 0a 68 3c c9 dc 1a bd
       -0.005208249 -0.016884323 0.014162721 -0.037808213
000130 e8 99 02 3c 65 70 09 bd 05 12 11 bd df 28 7b bc
       0.007971264 -0.033554453 -0.035417575 -0.015329569
000140 83 36 a0 bb 06 7b 20 3c b1 be f4 bc 8f e4 36 3d
       -0.004889311 0.009794956 -0.029876085 0.044651564
000150 2e 19 8a bc 7f 7a b3 bc 5c ea 86 3c fa e7 66 3b
       -0.01685771 -0.021908997 0.016469173 0.0035233484
000160 26 9f d8 bc ba 7b 5a 3c 9f 5b eb 3b 7a 03 61 bc
       -0.026443075 0.013335163 0.007182553 -0.013733739
000170 5e 1b 09 bd ce 06 45 3d 7f 08 71 3c 95 68 90 bc
       -0.033473365 0.048102193 0.014711498 -0.017627994
000180 d9 d5 9d 3a 6d 1f ba 3b 7d a4 31 bc d7 48 cb bc
       0.0012041881 0.005680016 -0.01084244 -0.024815006
000190 d2 a5 d2 bc 5b 0b f5 bc c2 83 39 3c 05 35 89 3c
       -0.025713835 -0.029912641 0.011322917 0.016748914
0001a0 41 44 66 bb 1e 68 79 3c 6f c6 71 3c d7 c6 19 3c
       -0.0035135897 0.015222577 0.014756783 0.009385786
0001b0 02 55 2b 3c ee dc b4 bc ca 35 c9 3c 45 fe cf 3b
       0.010457279 -0.022078004 0.024561781 0.00634745
0001c0 73 24 91 bc 20 78 2b bd d5 14 fc bc 06 c8 00 3d
       -0.017717576 -0.041862607 -0.030771652 0.031440757
0001d0 9a d5 90 bc 76 e9 97 bc 67 9d 5f 38 66 57 29 3a
       -0.017679978 -0.01854394 5.3313935e-05 0.0006459862
0001e0 59 16 19 bd 14 b0 40 bc de 39 ef 3c 1c 43 b9 3b
       -0.037374828 -0.01176073 0.029202398 0.005653752
0001f0 ed c6 d6 bc d6 62 16 bd 62 bd 18 b7 8a c1 81 3b
       -0.026217902 -0.03671535 -9.104e-06 0.003959839
000200 94 7f 20 bc 6b 1a 0f bd 6c ca b2 ba 01 36 b7 3c
       -0.009796042 -0.034937304 -0.0013640649 0.022364618
000210 10 7c 98 bc eb be c4 3c 2e 60 f0 ba f2 97 e2 3a
       -0.018613845 0.024016818 -0.0018339211 0.0017287715
000220 fb b5 fc ba 4b 38 5d 3c 15 8e 3a bc 15 7f aa 3c
       -0.0019280309 0.013502191 -0.011386414 0.02081255
000230 39 35 29 bc 40 99 a3 3c 2d 4b 96 bc 52 fb 33 3c
       -0.010327631 0.019970536 -0.018346393 0.010985212
000240 6c e0 1e bc 79 51 d7 3c 65 7d 48 bc b9 ea 1c bd
       -0.009697061 0.026283966 -0.012236928 -0.038309786
000250 3c 81 cc bb ba db a8 bc 4a 36 89 bc e3 6f fb bc
       -0.006240992 -0.020612586 -0.01674952 -0.030693
000260 91 a0 ac bc a6 4a 99 bb 52 32 d2 3c ba 95 f4 3a
       -0.021072658 -0.0046780882 0.02565876 0.0018660345
000270 55 61 1e 3c b5 41 a6 3c 51 7d fa bc bc 9a 1b ba
       0.00966676 0.020295003 -0.030577334 -0.0005935838
000280 04 0d b6 3b 92 12 e2 3c aa ca 09 3c c3 23 d1 3b
       0.005555751 0.027596746 0.008410135 0.006382437
000290 37 90 85 3c e1 53 f5 3c ea 8d eb 3b 65 26 c0 3c
       0.016304119 0.029947223 0.0071885483 0.023455808
0002a0 71 ee 08 bd af a7 d3 bc f1 4d 05 bd 16 2f 9a bc
       -0.03343052 -0.025836794 -0.032545034 -0.01882128
0002b0 58 df 62 3c d9 b5 84 bc 8b 12 aa 3c 77 c6 15 bc
       0.013847195 -0.016199993 0.020760795 -0.009141556
0002c0 39 1a 25 3c b0 bb d1 3b c9 ee bf bc dd 9a 09 bd
       0.010077053 0.006400548 -0.023429291 -0.033594955
0002d0 65 62 04 3c ba 08 e4 3b 62 b1 75 bc 1e 26 13 bd
       0.0080801 0.006959048 -0.014995905 -0.035925023
0002e0 93 8d 9e bc e7 bb e9 bc f1 7e 3e bd 38 17 02 bc
       -0.019354617 -0.028531982 -0.04650778 -0.007940106
0002f0 10 e8 7a 3c 8b 05 e0 3c cb 50 ad bc 71 76 f9 bb
       0.015314117 0.027346393 -0.02115669 -0.0076129963
000300 56 cf 31 3c 7d d5 23 bd 82 af 0e bc 03 88 c1 bb
       0.010852655 -0.03999852 -0.0087088365 -0.0059061064
000310 ff 36 f6 bc 39 10 ef bc 7a 77 7b 3c 22 8e 86 3b
       -0.030055521 -0.02918254 0.01534831 0.004106299
000320 9d 79 5f bc 35 90 dd bb a3 23 29 3d ae a0 61 bc
       -0.013639835 -0.0067615756 0.04129375 -0.013771219
000330 4a 9d 92 bc d0 72 68 bc cb 44 99 bc 85 f9 34 bc
       -0.017897267 -0.01418753 -0.01870956 -0.011045818
000340 b9 d4 e6 3c 1e 06 d0 bc ab 44 2c bc b2 19 24 3a
       0.028177606 -0.025393542 -0.010514419 0.00062599324
000350 1f 36 77 3c f1 ff 4e bc fd 60 28 bc ea 53 e2 bc
       0.015088587 -0.012634263 -0.01027703 -0.027627904
000360 d4 18 10 bc 96 25 80 bc 8a f6 64 3b ae b4 d8 3b
       -0.008794982 -0.015642922 0.0034936988 0.0066133356
000370 16 bd 82 3c 07 d7 24 bc 16 33 ce bc e9 c8 a3 bc
       0.015959304 -0.010061032 -0.025170844 -0.019993262
000380 44 95 45 bc 9b f7 0e 3c b4 a4 32 3d b5 3a 5f bd
       -0.0120595135 0.008726026 0.043614104 -0.054499347
000390 af 10 80 3b 6b 38 b6 3c 5e 45 de bc 7e f3 57 3c
       0.003908239 0.022243699 -0.027132686 0.013180612
0003a0 7c bd d7 bb d7 28 13 3c b4 5f d6 bc b4 16 8e bd
       -0.0065838676 0.008981905 -0.026168682 -0.06937924
0003b0 0e a4 99 bb 08 fd 90 bc ba d2 37 bd 17 1a b0 3c
       -0.0046887463 -0.01769878 -0.0448787 0.021496816
0003c0 f7 27 78 3c 27 4b 12 bc b4 4f 0e bd 91 59 6d bc
       0.015146247 -0.0089290505 -0.03474398 -0.014486686
0003d0 b4 03 0e bc 1f f6 16 bc 9f 7a 9e bc 98 27 64 3c
       -0.008667875 -0.009213953 -0.01934558 0.0139254555
0003e0 a3 58 6c bd 13 a6 26 3b 40 7e 25 bc 77 6d 03 bc
       -0.057701718 0.0025428578 -0.010100901 -0.008021704
0003f0 14 8e 85 bc 23 49 f1 bc 41 b0 06 bd 1a 79 8a 3c
       -0.0163031 -0.02945382 -0.032882933 0.016903449

action_model._discrete_distribution.branches.0.bias f4 [4]
000000 23 fc 8d bc 4b 1a 31 3d 35 3b 8a 3c 14 12 3e bd
       -0.017332142 0.043237966 0.016873935 -0.04640396

action_model._discrete_distribution.branches.1.weight f4 [15, 256]
000000 5a 82 c8 3c 8d e5 73 bb 75 05 28 3d 5f 54 50 bc
       0.024476219 -0.003721568 0.04102083 -0.012715428
000010 9f 52 20 3c e4 b0 a9 3b 1d ff c3 3b 66 83 92 bc
       0.009785323 0.0051785577 0.0059813396 -0.017884921
000020 2a 5c 28 bd 14 57 d5 3c c3 53 96 bc df 1e 2a 3d
       -0.04110352 0.026042499 -0.018350488 0.041533347
000030 ca f0 8f bc 0f 2a 49 3c 67 5a eb 3b 55 bf a3 3a
       -0.017570872 0.012278094 0.0071824077 0.0012492934
000040 1b c6 0a 3d 3b 95 4e bc d6 74 88 3c 52 2b 00 3d
       0.033880334 -0.0126088215 0.016657274 0.031291313
000050 1a 43 00 3c 1e 18 0e 3c a2 24 f5 3b 8d 90 94 3c
       0.007828498 0.008672742 0.0074811736 0.018135333
000060 b4 3f 0e 3b 50 df e0 3c 51 21 00 bc bc 6b a5 bb
       0.002170545 0.027450234 -0.007820443 -0.0050482433
000070 22 49 79 bc 09 1b be bb 4e 92 52 3c 30 68 9c 3c
       -0.01521519 -0.0058015627 0.012852265 0.01909265
000080 db 01 80 bc 3d a3 0c bd 5d 4a 13 bc d2 13 b7 3b
       -0.015625885 -0.034335364 -0.008989898 0.0055870796
000090 d7 bc 8a 3c ff 02 ed 3c b0 72 11 3d 66 24 41 3d
       0.016935749 0.028932093 0.035509765 0.047153853
0000a0 12 9f 20 3c 1c c6 09 bc b3 b6 55 bc 77 21 18 3c
       0.00980355 -0.008409049 -0.013044047 0.009285322
0000b0 98 e0 f3 3c 69 1c 14 bd 75 8b d1 3c 48 34 86 3c
       0.02977018 -0.036159907 0.025579194 0.016382352
0000c0 57 df d1 bc 6c e8 d6 3c 25 0a dd 3c 0c 3e 4a bc
       -0.025619192 0.026233874 0.026982376 -0.012343895
0000d0 62 86 25 bb 84 4d ee bb a4 4a a0 bc 7f 72 0b 3c
       -0.00252571 -0.007272424 -0.019566841 0.008511185
0000e0 5b bd 55 bc 65 f4 f9 bb 27 a8 a5 3c 4a 82 3e bc
       -0.013045634 -0.007628011 0.020221783 -0.011627743
0000f0 3d d7 6e bc 34 99 1c 3c f4 c8 15 3c ce 2c 16 3c
       -0.014577684 0.009558011 0.009142149 0.009165956
000100 b1 49 ee ba aa fd da 3b 8b 0d 99 3c cd 71 3a 3b
       -0.0018179921 0.006683071 0.018683216 0.0028449178
000110 59 f3 16 3b 7f d9 66 bd d1 dd c3 bc 34 ad 64 3c
       0.002303323 -0.056359764 -0.023909481 0.0139573105
000120 97 59 a2 bc a0 82 7a bc 9e de 3a 3c c9 85 1d 3c
       -0.01981811 -0.0152899325 0.011405615 0.009614416
000130 79 79 56 3c 6f 35 17 bc 4c 9b 57 3c 39 87 c7 bc
       0.013090485 -0.009229048 0.013159584 -0.024356471
000140 bb 12 e0 bc fb e6 01 3d b5 69 77 bc 01 0e b8 3c
       -0.027352681 0.03171442 -0.015100886 0.022467615
000150 c0 72 21 bc 73 35 f2 3c 39 63 82 3b 2a 28 fc 3c
       -0.009854019 0.029566502 0.0039791134 0.03078087
000160 b8 21 cb 3c c5 2f 04 3d c3 48 04 bd 31 d7 3c 3c
       0.024796352 0.03227212 -0.032295953 0.011525915
000170 82 0b d1 bb a6 25 7d 3c 35 be be 3b a8 54 95 3b
       -0.0063795457 0.015450871 0.0058210143 0.004557211
000180 13 6a f7 3c 6f 56 a9 bc 47 b9 01 3d 1e ca 94 3b
       0.030201947 -0.020671098 0.031670835 0.004540696
000190 e0 a8 34 3d 9f ea c5 3c f0 dc 18 3d 27 ed 62 bb
       0.044106364 0.024159728 0.037320077 -0.0034626217
0001a0 34 9b 15 3d 87 23 3c 3a 75 99 f1 3b 10 6b 35 3c
       0.036524966 0.0007176925 0.00737303 0.011072889
0001b0 c5 cf 29 3a 97 15 8a 3c ac d7 74 3d 1c 3a 2d bc
       0.00064777985 0.016855998 0.059775993 -0.010572936
0001c0 0a 99 c7 bc 90 d9 bd 3b c5 77 35 3a 7d 26 48 bc
       -0.024364967 0.0057937577 0.0006922449 -0.012216208
0001d0 fa 9c ae bc 4c ba d4 3b e7 16 25 bc 39 c5 15 bc
       -0.021315087 0.006491935 -0.010076261 -0.00914126
0001e0 8d 6f 04 bc 52 ab 87 bc 33 dd af bb f1 d1 fd bb
       -0.008083236 -0.016561184 -0.005366945 -0.007745974
0001f0 72 df 19 3d 3a 47 d7 3b aa 72 15 3d fb 2c 0c 3d
       0.03756661 0.00656977 0.036486305 0.034222584
000200 45 8f a5 3c 95 20 b3 bb 0e 06 a9 bb 0d cd fe 3c
       0.020209918 -0.0054665306 -0.0051581925 0.031103635
000210 a8 11 06 3c 96 dd ad 3c 2e 17 8f 3c 9e 96 13 bc
       0.0081829205 0.021223824 0.017467108 -0.009008078
000220 fd 70 19 bc ce da a2 bc 5c 6a 31 bd d7 be 1a bc
       -0.009365317 -0.019879725 -0.043314323 -0.009444914
000230 18 f7 92 3c ea e8 de 3c 8d b0 00 3c bb 1b 3e 3d
       0.01794009 0.027210671 0.007854593 0.046413165
000240 e6 b6 20 bb 05 72 d0 bb c7 be f3 bc e6 78 c3 bc
       -0.0024523078 -0.0063612484 -0.029754056 -0.02386136
000250 e8 72 a2 bb af 8a 27 bc 0f 8c a1 bb 9d 97 a3 bc
       -0.0049575455 -0.010225936 -0.0049300264 -0.019969756
000260 8d b1 f4 bb 99 c7 ff 3a 4d f4 d8 3c 79 27 f4 bc
       -0.0074674548 0.0019514441 0.02648368 -0.029803978
000270 8e a5 f7 3b a9 2d 85 bc 42 09 3e 3c 74 88 d3 3c
       0.0075575775 -0.016257124 0.011598887 0.025821902
000280 79 bd 1a bc 7d 9a 17 3d ce 26 30 bc 05 16 52 3d
       -0.009444588 0.037012566 -0.010751439 0.05129053
000290 ed 64 f2 bc cf 08 c6 3c b6 65 03 3c 80 5d 36 3c
       -0.02958914 0.024174122 0.008019855 0.011130691
0002a0 3f 1d 21 bc da d1 d5 3c e6 7a 79 bc b1 76 dc 3c
       -0.009833633 0.026101042 -0.015227055 0.026912065
0002b0 c8 de 1b 3d 5c d1 ee 3c 31 67 42 bb c8 21 6c bc
       0.038054258 0.029152565 -0.0029663558 -0.014412351
0002c0 de 70 6d bc c5 41 e0 3b 9d 55 4b 3c a0 ac 25 bd
       -0.014492242 0.006843778 0.0124105485 -0.04044783
0002d0 45 eb 12 bc e1 1c c7 3c 30 5b 53 3b e6 45 14 3c
       -0.008967225 0.024305763 0.0032250397 0.009049868
0002e0 32 46 48 3c 0c ee ac bc 93 57 2b bc d3 c9 ee bc
       0.012223767 -0.021109603 -0.010457891 -0.029148972
0002f0 96 f8 d8 bc 70 bf 77 bc 2f cf 20 3b 5b 07 5e 3c
       -0.026485723 -0.015121326 0.0024537554 0.013551558
000300 31 f7 a1 3c d7 46 5e bb 78 33 6e bc b0 db 56 bc
       0.01977119 -0.0033916736 -0.014538638 -0.013113901
000310 c4 6f 1a bd 3a 0f 61 3c c5 f6 f6 3b 6b 6c 5c bc
       -0.037704244 0.01373654 0.0075367414 -0.013453583
000320 57 51 21 3c 95 3b 29 3d a2 2f 0d 3b 43 40 db 3c
       0.009846053 0.041316587 0.0021543284 0.02676404
000330 8e 89 da 3c 61 3c b2 bc ab 8f 04 bc 14 1b 74 bb
       0.02667692 -0.021757307 -0.008090894 -0.0037247585
000340 d5 24 a2 3c d9 6c cd bc 38 18 0f 3d 0a 36 4f 3c
       0.019792954 -0.025076317 0.034935206 0.012647161
000350 b8 d8 08 3c 44 5c cf bc 8e 2c 1b ba a3 a9 8d 3c
       0.008352451 -0.02531255 -0.000591942 0.017292803
000360 65 e8 e8 ba 9a a9 2d 3d 97 b1 d8 bc d0 4c c2 bc
       -0.0017769454 0.042398073 -0.026451869 -0.023718268
000370 8e 2b da 3c 29 e7 84 3c 94 ee ed bc 31 60 5d 3b
       0.026632097 0.016223507 -0.029044427 0.0033779258
000380 43 d3 a0 bc 74 20 77 3c 39 7b 93 3c bc c2 3b bd
       -0.019631987 0.015083421 0.018003093 -0.04584001
000390 e2 b0 d7 3c 97 b4 5e 3c 71 67 2d 3c 42 8a 9b bc
       0.026329461 0.013592861 0.010583744 -0.018986825
0003a0 5d dd dc 3c 8b 1b 9f 3a 42 53 21 bc 9d bc c8 bb
       0.026961023 0.0012138946 -0.00984651 -0.006126
0003b0 6f 15 46 3c 58 a7 c8 bc 7b 80 dc 3b 37 71 00 bb
       0.012090071 -0.024493858 0.0067291833 -0.0019598731
0003c0 9f a0 11 bc d6 8e f9 3c 35 51 a4 bc 31 2e 2e bc
       -0.008888393 0.030463617 -0.020058254 -0.01063113
0003d0 f6 b1 8c bb a5 c7 d5 3c 1f d4 71 bd c2 36 4d bc
       -0.0042936755 0.026096174 -0.059040185 -0.012525262
0003e0 89 73 f8 bc d7 43 3b 3c 55 84 ca bc 9d 57 ea 3c
       -0.030328529 0.0114297485 -0.024721304 0.02860623
0003f0 1f 34 b8 ba b9 4f 81 3c 0a 86 36 bc b8 24 a8 3c
       -0.0014053619 0.015785085 -0.011140356 0.020525321

action_model._discrete_distribution.branches.1.bias f4 [15]
000000 7d 1c 11 3d 58 a6 31 bc 71 da af bc c5 87 21 3c
       0.03542756 -0.010842882 -0.021466466 0.00985903
000010 3a 30 49 bc fb 9d 79 3c e3 58 99 bb 30 8d 2b 3c
       -0.0122795645 0.015235419 -0.0046797856 0.010470673
000020 54 43 1c bc 8f 2a c3 3c d1 7f 8a b9 f3 c6 01 3b
       -0.009537537 0.023824004 -0.00026416642 0.001980242
000030 41 4e 2f bd 47 3c 6a ba 46 38 1f 3b
       -0.042799238 -0.00089353736 0.0024295016
