results/ParticipantRankingsAndAcceptedRankings/AgentBehavior/AgentBehavior-999970.onnx (onnx, 333671 bytes, 11 tensors)

discrete_act_size_vector f4 [1, 3]
0	0x40800000	4.0
1	0x41700000	15.0
2	0x41700000	15.0

network_body._body_endoder.seq_layers.0.weight f4 [256, 30]
0	0x3e889f72	0.26684147
1	0x3de3e236	0.11127131
2	0x3d86ddda	0.065852836
3	0x3e7c9036	0.24664387
4	0x3e279540	0.16365528
5	0xbde25781	-0.11051846
6	0x3e0c9d47	0.13731872
7	0x3e4e3347	0.20136748
8	0xbdf13a80	-0.11778736
9	0x3e96b597	0.29435417
10	0x3d1d5101	0.03840733
11	0x3e844f9f	0.25841996
12	0xbcf0f918	-0.029415652
13	0xbdffa934	-0.12483445
14	0x3e9bef49	0.30455998
15	0x3dfaf065	0.12252883
16	0xbf0bf7ee	-0.54675186
17	0x3d9a7072	0.075409785
18	0x3de792af	0.113072746
19	0x3d3294dd	0.043599
20	0xbe47ac8a	-0.19499412
21	0xbe19dfcf	-0.15026782
22	0xbe0d3cfa	-0.13792792
23	0x3ee1166e	0.43962425
24	0x3e68995b	0.2271475
25	0x3e9b2b93	0.30306682
26	0xbe60c422	-0.21949819
27	0x3dbe1b7f	0.09282588
28	0xbcd71908	-0.026257053
29	0x3dfaef3c	0.122526616
30	0xbcda04cb	-0.026613614
31	0xbd115a3b	-0.03548644
32	0x3ecc5f07	0.3991625
33	0x3e6a653b	0.22890179
34	0xbc743d7e	-0.014907239
35	0x3ddad9cd	0.106860735
36	0xbed40a92	-0.41414315
37	0xbdb36612	-0.08759703
38	0x3eb7532d	0.35805646
39	0x3ea207e1	0.31646636
40	0x3d21bbca	0.03948573
41	0x3eab2809	0.33428982
42	0x3e0041e4	0.12525135
43	0x3db91e93	0.09039035
44	0x3e05d7cd	0.13070603
45	0xbe05a003	-0.13049321
46	0x3d9724f6	0.073800966
47	0xbd4c792b	-0.049920242
48	0xbd6a5d7a	-0.057218052
49	0xbd86eeb1	-0.065884955
50	0x3c68615c	0.0141833685
51	0x3d60590a	0.054772414
52	0xbdcdd4ac	-0.100503296
53	0x3de9db3d	0.114187695
54	0x3d860810	0.065445065
55	0xbca7adc1	-0.020468595
56	0x3e3a625e	0.18201587
57	0xbe908aa2	-0.28230768
58	0x3dff3f61	0.124632604
59	0xbe2b71f3	-0.16742687
60	0xbdce9411	-0.10086835
61	0x3dc13f43	0.09435894
62	0xbe2a7d36	-0.16649327
63	0xbf00b676	-0.50278413
64	0xbea48653	-0.3213373
65	0x3e6a6edf	0.22893856
66	0xbd83bae0	-0.06432128
67	0xbe11739f	-0.14204262
68	0xbe79a56b	-0.24379508
69	0x3d85bc26	0.06530027
70	0x3d358f30	0.044326007
71	0x3c81c1ff	0.015839575
72	0xbe110df1	-0.14165474
73	0x3d7ad764	0.06124057
74	0xbe93e6f9	-0.28887156
75	0xbea65e68	-0.324939
76	0xbed38172	-0.41309696
77	0xbd122642	-0.035681017
78	0x3e3a6baf	0.1820514
79	0x3be4aa9e	0.006978347
80	0xbb9029ab	-0.0043994985
81	0xbdef6620	-0.11689401
82	0xbe96b423	-0.29434308
83	0xbe82426f	-0.2544131
84	0x3d833ab5	0.06407682
85	0x3e325d2b	0.17418353
86	0x3d4e6182	0.05038596
87	0x3deee7ea	0.11665328
88	0x3edfd5fb	0.43717942
89	0xbe2985f8	-0.16555011
90	0xbd92ac7f	-0.07161807
91	0xbd921722	-0.071333185
92	0x3dd2df29	0.10296471
93	0x3aa03e0c	0.0012225523
94	0xbdd76327	-0.10516959
95	0xbddd68fe	-0.10811041
96	0x3e45fa95	0.1933387
97	0x3e8a27cb	0.26983485
98	0x3e63daed	0.22251482
99	0xbed1344f	-0.4086022
100	0xbd0593d9	-0.0326117
101	0x3cd3b442	0.02584279
102	0x3dfd3a93	0.12364688
103	0xbe802062	-0.25024706
104	0x3e07d513	0.13264875
105	0xbbae1dc8	-0.005313609
106	0xbcb553ab	-0.022134623
107	0xbe31d9f2	-0.17368296
108	0x3e36f23e	0.17865846
109	0x3e3d05e7	0.18459283
110	0x3ccf7b9b	0.025327494
111	0x3dc80d63	0.09768178
112	0xbe4afd2a	-0.19823137
113	0xbe967678	-0.2938726
114	0xbd262c32	-0.04056949
115	0xbe72fcd9	-0.23729266
116	0x3eac8a3a	0.33699208
117	0xbe1ce0cc	-0.15320128
118	0x3e63473b	0.22195141
119	0xbe9502a7	-0.29103586
120	0xbe2ce799	-0.16885222
121	0x3e3d695c	0.18497223
122	0x3d901079	0.07034392
123	0xbc9ff759	-0.019527124
124	0x3e8d0ed6	0.2755038
125	0x3d8abad7	0.06773918
126	0xbdfd51e6	-0.123691365
127	0xbd5b3594	-0.053517893
128	0xbd1926b1	-0.037390415
129	0x3e84750f	0.2587056
130	0x3c4f7ccc	0.012664031
131	0xbe15955c	-0.14607757
132	0x3ca42e1a	0.020041514
133	0x3ee01c2f	0.43771502
134	0x3e85df6b	0.26147017
135	0x3e14503b	0.1448373
136	0x3e2f0ca3	0.17094664
137	0x3e59a48d	0.21254177
138	0x3d8ed8e2	0.06974961
139	0xbe2ae856	-0.16690192
140	0xbe46efcb	-0.19427411
141	0xbd150c67	-0.03638878
142	0x3e0de9a0	0.13858652
143	0x3c38936a	0.011265615
144	0x3c917a35	0.017758468
145	0xbdea923a	-0.11453672
146	0x3da051ce	0.07828103
147	0xbd7d6b6f	-0.061870035
148	0xbe4e8846	-0.20169172
149	0x3e6108db	0.21976034
150	0xbe104466	-0.14088592
151	0x3c40cca0	0.011767536
152	0x3ea36a38	0.31916976
153	0x3e57c943	0.21072869
154	0x3f09795d	0.5370081
155	0xbcf7e372	-0.030259822
156	0xbccfd4b4	-0.02536998
157	0x3e7a3047	0.24432479
158	0x3d96e58d	0.07368002
159	0xbd8745ff	-0.066051476
160	0x3d8db4a4	0.0691922
161	0xbd1e62d3	-0.038668465
162	0xbdf50a32	-0.11964835
163	0x3e0151d3	0.1262887
164	0x3e519a90	0.20469117
165	0x3e5d1121	0.21588565
166	0xbd4cf504	-0.050038353
167	0x3e0df02c	0.1386115
168	0xbde1d067	-0.11026078
169	0xbe1df322	-0.15424779
170	0xbda3f727	-0.08006125
171	0xbe835d5b	-0.25657162
172	0x3c5ded03	0.0135452775
173	0x3cfba223	0.030716961
174	0xbbb5f915	-0.0055533745
175	0xbe0214f1	-0.12703301
176	0xbe81b5d9	-0.2533405
177	0x3dd76c8b	0.1051875
178	0x3d13a12a	0.03604237
179	0xbe01bfbe	-0.126708
180	0x3d136107	0.035981204
181	0xbe8dea6a	-0.27717906
182	0xbc046224	-0.008080039
183	0x3e3fa56a	0.18715444
184	0x3e7657ee	0.2405698
185	0xbd335188	-0.043778926
186	0x3e667c1b	0.2250828
187	0xbe51e694	-0.20498115
188	0xbde2aa51	-0.110676415
189	0x3db2d67b	0.08732315
190	0x3c43e3bf	0.011956154
191	0x3e34bed0	0.17650914
192	0x3eadaa54	0.33919013
193	0x3e31a0b7	0.17346464
194	0x3e8f9783	0.28045282
195	0x3e1576f6	0.14596161
196	0xbe61862f	-0.22023843
197	0xbbebb57a	-0.0071932646
198	0x3cdaaace	0.026692774
199	0xbbcec464	-0.0063100327
200	0x3eb8cfd7	0.3609607
201	0xbdedb1c6	-0.11606173
202	0xbe433c9d	-0.19066091
203	0xbe3bffe0	-0.18359327
204	0x3ddb7266	0.10715179
205	0xbd084ad7	-0.033274498
206	0x3e8f7a81	0.2802315
207	0xbe080db6	-0.1328648
208	0x3e405016	0.1878055
209	0xbf03637e	-0.5132369
210	0xbe18af53	-0.14910631
211	0xbe4653ef	-0.19367956
212	0xbe93fdd5	-0.28904596
213	0x3c1b02c3	0.009461108
214	0xbdbf6408	-0.09345251
215	0xbd9385cf	-0.07203256
216	0xbe046efa	-0.12932959
217	0xbe8647c9	-0.26226643
218	0x3d473bd3	0.048641037
219	0xbe6a9be1	-0.22911026
220	0xbe8f2bd4	-0.27963126
221	0x3d93492a	0.07191689
222	0x3e73dbde	0.23814341
223	0xbe669b31	-0.22520138
224	0xbe9fdfcf	-0.3122544
225	0x3dcd32a9	0.10019428
226	0xbe51e4f5	-0.20497496
227	0x3bbebc78	0.005820807
228	0x3c36b6a9	0.011151948
229	0x3c870ff0	0.016487092
230	0xbe1a3543	-0.1505938
231	0xbeaa7e46	-0.33299464
232	0x3d04e89a	0.03244839
233	0x3eb566e7	0.3543007
234	0x3dc7abd9	0.09749574
235	0xbe70c004	-0.23510748
236	0xbe4c15af	-0.19930147
237	0x3dbd3e42	0.0924039
238	0x3e0e1374	0.13874608
239	0xbe8edbfc	-0.2790221
240	0x3c09280d	0.008371365
241	0xbcd301c4	-0.025757678
242	0x3c15ba93	0.009138721
243	0x3cf97658	0.030451939
244	0xbe6683e7	-0.22511254
245	0x3d42445b	0.04742847
246	0x3e39cad6	0.18143782
247	0x3de38938	0.11110157
248	0x3eb57bf6	0.35446137
249	0x3e8753b2	0.26431042
250	0xbe470fc8	-0.19439614
251	0x3e1b9bb3	0.15196113
252	0x3e2bbb46	0.16770658
253	0x3df12f63	0.117766164
254	0xbda1360c	-0.07871637
255	0x3d1b6f00	0.037947655

network_body._body_endoder.seq_layers.0.bias f4 [256]
0	0x3c99e758	0.018787071
1	0x3d5db55d	0.05412804
2	0x390de1c2	0.00013530909
3	0x3d5e720e	0.05430799
4	0xba91133d	-0.0011068356
5	0x3d5b15b1	0.053487483
6	0x3d3d12a3	0.04616035
7	0xbc7c90cd	-0.015415383
8	0x3c8bc9d2	0.017064009
9	0x3cb562e2	0.022141878
10	0xbcf23447	-0.029565943
11	0xbccc82b9	-0.024964677
12	0x3d5da897	0.054115858
13	0xbbfcb24d	-0.007711685
14	0x3b815c0f	0.003947742
15	0x3c8c75a7	0.017145945
16	0xbd1b294a	-0.037881173
17	0x3ceec1f5	0.02914522
18	0xbca8ee56	-0.02062146
19	0xbcbe3e72	-0.023223136
20	0x3cbf93ff	0.023386
21	0x3d31d813	0.043418955
22	0xbd093b4b	-0.03350381
23	0x3cbec55c	0.023287468
24	0x3d0397d3	0.032127213
25	0xbd8b20df	-0.06793379
26	0xbcd61766	-0.026134204
27	0xbcac2239	-0.021012412
28	0x3c9a770b	0.018855592
29	0x3c683c2a	0.0141745005
30	0x3c57b65c	0.013166036
31	0x3d04be54	0.032408074
32	0xbb4dee6b	-0.0031422626
33	0x3c667b35	0.014067461
34	0xbc3f5803	-0.0116786985
35	0xbbd9b134	-0.0066434387
36	0xbcdfb507	-0.027308
37	0xbc91fd30	-0.017820925
38	0x3d17aeee	0.03703206
39	0xbc3ba277	-0.011452309
40	0x3d3d4077	0.046204057
41	0xbc90afd4	-0.017661966
42	0x3cc03682	0.023463491
43	0x3cc45d8c	0.023970388
44	0xbd52d330	-0.051470935
45	0x3d5b918f	0.053605612
46	0x3d46f467	0.048572924
47	0x3cbbd83a	0.022930253
48	0x3d90c32f	0.07068478
49	0xbd732276	-0.059359036
50	0x3bd988bf	0.006638616
51	0xbd16ddfa	-0.036832787
52	0x3d37d068	0.044876486
53	0x3d28f41c	0.041248426
54	0x3ca715c2	0.020396117
55	0x3d01cb69	0.031688128
56	0x3b5edae8	0.003400499
57	0xbc80ccd7	-0.015722675
58	0x3d296b1d	0.041361917
59	0x3c9bdd7f	0.019026516
60	0x3cf3b89b	0.029751113
61	0x3b636011	0.0034694711
62	0xbcde76ec	-0.027156316
63	0x3ce7a220	0.02827555
64	0x3c8e212e	0.017349806
65	0x3caeb90e	0.021328475
66	0x3d15e580	0.03659582
67	0xbc762656	-0.015023788
68	0xbcc1a187	-0.023636593
69	0x3cce6e44	0.025199063
70	0xbc760bd1	-0.015017466
71	0xbcc82847	-0.024433268
72	0xbd05a0f8	-0.032624215
73	0x3ca8ddf5	0.02061365
74	0x3d0ba83e	0.034095995
75	0xbc979aae	-0.018506374
76	0x3d114ac8	0.035471708
77	0xbcd3e798	-0.025867268
78	0x3d6d2bbe	0.057903044
79	0x3ba3ac8e	0.0049949354
80	0xbc931a48	-0.017956868
81	0x3c7f2725	0.015573298
82	0x3d3e8573	0.046513986
83	0xba886553	-0.0010406174
84	0x3ccc4904	0.02493716
85	0xbc8a087a	-0.016849745
86	0xbc74c798	-0.014940165
87	0x3d207d93	0.039182257
88	0xbc8c41f4	-0.017121293
89	0xbc357cfb	-0.011077161
90	0x3d858314	0.06519142
91	0x3c73baf3	0.014876115
92	0x3c7c83e3	0.015412304
93	0xbd05c7e1	-0.032661323
94	0x3d713938	0.05889246
95	0x3dd8c0fb	0.10583683
96	0x3cd27cd8	0.025694296
97	0xb89dd5f9	-7.526199e-05
98	0xbd5603eb	-0.05224983
99	0x3a7c9f8e	0.00096368126
100	0x3cf65139	0.030068027
101	0x3d2486de	0.040167682
102	0xbcf13629	-0.02944477
103	0x3d917663	0.071026586
104	0x3c2f48cb	0.010698508
105	0xbb8e58bd	-0.0043440745
106	0xbc64d32b	-0.013966362
107	0xbb4865a8	-0.003057817
108	0xbcc59f7c	-0.0241239
109	0xbcb18fc7	-0.021675004
110	0x3c2651cf	0.010151341
111	0x3cf25672	0.029582236
112	0x3dbdb178	0.09262365
113	0x3a921765	0.0011145888
114	0xbb95f3c2	-0.0045761773
115	0x3c1e873e	0.009675799
116	0xbd1fe5a3	-0.039037358
117	0xbc1d073a	-0.0095842425
118	0x3d2409c3	0.040048372
119	0xbb8dc917	-0.0043269503
120	0x3b8b2724	0.0042466093
121	0xbc0fe2dc	-0.008782115
122	0x3cf8e782	0.030383829
123	0x3d010c86	0.031506084
124	0x3c4979b2	0.012297081
125	0x3ca17706	0.019710075
126	0xbd156a8d	-0.036478568
127	0x3cc82482	0.02443147
128	0xbb393ae2	-0.0028263857
129	0x3c97a87e	0.01851296
130	0xbcc7148e	-0.024301793
131	0x3cec51a3	0.028847521
132	0x3b93d961	0.0045119976
133	0xbd01f22d	-0.031725097
134	0x3d6b9298	0.05751285
135	0x3d384fc5	0.04499795
136	0x3d030ae0	0.031992793
137	0xbcae787e	-0.02129769
138	0xbb8e6aa3	-0.004346208
139	0xbcb4b754	-0.022060074
140	0xbc8627de	-0.016376432
141	0x3c8acee2	0.016944353
142	0x3c879692	0.01655129
143	0xbc3e9e20	-0.01163438
144	0xbc81fd92	-0.015867982
145	0xbc885c37	-0.016645534
146	0xbadb1825	-0.001671557
147	0x3c3f3925	0.011671339
148	0x3d08fa7d	0.03344201
149	0xbadfc3a3	-0.0017071854
150	0xbc8c7df3	-0.017149901
151	0x3d28ffd5	0.041259605
152	0xbbc4b7de	-0.006003364
153	0x3a016870	0.0004936522
154	0xbce1bb99	-0.027555274
155	0x3d8db4cf	0.06919252
156	0x3c0c30d1	0.008556561
157	0x3d8ed43e	0.06974076
158	0xbadfcabf	-0.0017073973
159	0xbc251605	-0.010076051
160	0xbc6e9c82	-0.014563682
161	0x3d0a27e9	0.033729468
162	0x3a24d342	0.00062875834
163	0x38b5998c	8.659353e-05
164	0xbc9b93c0	-0.018991351
165	0x3d38ab74	0.045085385
166	0xbcfa9c9b	-0.030592253
167	0x3cddfeea	0.027099092
168	0xbdd97c99	-0.10619468
169	0xb95f4062	-0.00021290922
170	0xbcdb9639	-0.02680503
171	0x3b0f765a	0.0021890611
172	0x3d5cf40e	0.053943686
173	0x3c5c6354	0.013451416
174	0x3d5ea70a	0.05435852
175	0xbc911d8b	-0.017714282
176	0xbc4156fd	-0.011800525
177	0xbc852677	-0.016253693
178	0xbba4a221	-0.00502421
179	0x3d00c8e2	0.031441577
180	0xbc0d2e0f	-0.008616938
181	0x3ca588ba	0.020206798
182	0x3da01620	0.0781672
183	0x3d8b5a29	0.06804306
184	0x3afa4052	0.0019092655
185	0x3d60ca2c	0.054880306
186	0xbcb449c8	-0.022007838
187	0x3c42c09c	0.011886742
188	0x3cf0c91a	0.029392768
189	0x3d18e65a	0.037329055
190	0xbc7fd6b0	-0.01561515
191	0x3c0c32a8	0.008556999
192	0xbba84d2c	-0.0051361527
193	0x3d96f9d6	0.07371871
194	0x3bcfbbf8	0.0063395463
195	0x3cf5953f	0.029978393
196	0x3d0e453b	0.034733992
197	0xbd9d2239	-0.07672543
198	0xbc1f056e	-0.009705884
199	0xbc86e2c4	-0.016465552
200	0xbd14962d	-0.03627603
201	0x3da1ac5e	0.078942046
202	0x3c5ef449	0.013608047
203	0x3cfe9ab2	0.031079624
204	0x3d5cc318	0.053896993
205	0x3d5f8715	0.054572184
206	0xbc84d6e8	-0.016215757
207	0xbba6332d	-0.0050720186
208	0x3d1a34ef	0.037648138
209	0x3cc234c1	0.023706796
210	0x3d427df6	0.047483407
211	0x3d6fbe1c	0.05853091
212	0x3cdff475	0.027338246
213	0xbcb59b09	-0.022168653
214	0x3b37d922	0.0028053005
215	0x3c8e3391	0.017358573
216	0x3d64b137	0.055833068
217	0x3ced0aae	0.028935757
218	0xbbe19f90	-0.0068854764
219	0x3c8251e8	0.015908197
220	0x3d2c3ea7	0.042051937
221	0xbcc67739	-0.024226772
222	0x3b8859f6	0.004161115
223	0x3c70848e	0.014680041
224	0x3d3c53cd	0.045978356
225	0x3d790c51	0.06080276
226	0x3d224875	0.03961988
227	0xbc05913f	-0.008152305
228	0x3b8b1181	0.00424403
229	0xbd227343	-0.039660703
230	0xbd1b8b63	-0.037974726
231	0xbb0f9acd	-0.0021912337
232	0x3d83b127	0.064302735
233	0x3cf0b531	0.029383274
234	0x3b6671a8	0.003516296
235	0x3ca9e277	0.02073787
236	0x3cd2c1da	0.025727201
237	0x3cde0bb9	0.0271052
238	0x3c09a069	0.008400061
239	0xbb14b13e	-0.0022688652
240	0x3d87a302	0.06622888
241	0xbc0a6ae9	-0.008448341
242	0xbd05a1f9	-0.032625172
243	0xbc438cd9	-0.011935436
244	0x3d95c48d	0.0731288
245	0xbc4785cc	-0.012177896
246	0x3cc69b98	0.024244115
247	0xbc8a47b4	-0.016879894
248	0x3d386158	0.04501471
249	0x3d9f7147	0.07785278
250	0x3d653d0c	0.055966422
251	0xbc9cc9e1	-0.019139232
252	0x3a8cc9d1	0.0010741298
253	0x3c70b6c3	0.014692011
254	0x3c376e34	0.011195708
255	0x3ceb8fb8	0.028755054

network_body._body_endoder.seq_layers.2.weight f4 [256, 256]
0	0x3d4f767b	0.0506501
1	0x3d6845cb	0.056707185
2	0xbd9c75ff	-0.076396935
3	0xbe0d31bc	-0.13788503
4	0xbd22d3be	-0.039752714
5	0x3d35bc2e	0.044368915
6	0x3dac422a	0.08411057
7	0xbd183d3d	-0.037167776
8	0xbd82c56f	-0.06385314
9	0x3e458cb5	0.19291957
10	0x3d0796df	0.033102866
11	0xbd11867b	-0.03552864
12	0xbd8c2bee	-0.068443164
13	0x3c9a7842	0.018856172
14	0x3b55dd7b	0.0032633233
15	0xbd725cc5	-0.059170503
16	0xbd3f7836	-0.0467455
17	0xbd8e2ab2	-0.06941737
18	0xbc4a6390	-0.012352839
19	0xbd2cc85a	-0.042183258
20	0x3db9afe5	0.09066752
21	0xbcccc08c	-0.024994157
22	0xbd873d50	-0.06603491
23	0x3d2351f9	0.039873097
24	0x3d19a330	0.037509143
25	0xbdc0f791	-0.094222195
26	0x3daeda73	0.0853776
27	0x3c36c024	0.011154208
28	0x3d94a82c	0.07258639
29	0xbc5adc5f	-0.013358205
30	0xbc495fa1	-0.012290866
31	0x3cab7fe1	0.020935
32	0xbdc04557	-0.093882255
33	0xbd495632	-0.049154468
34	0x3d818be1	0.06325508
35	0xbc2fc0ea	-0.010727147
36	0x3babd907	0.0052443775
37	0x3cf6f0c7	0.030144108
38	0xbcc7c060	-0.024383724
39	0x3d1fd44c	0.03902082
40	0x3b320c33	0.0027167916
41	0xbd85d12e	-0.065340385
42	0x3d5c062a	0.053716816
43	0x3c90216f	0.017594067
44	0x3d16f083	0.036850464
45	0x3d8872da	0.06662531
46	0x3b13d2cb	0.0022556062
47	0x3ce4c84b	0.027927538
48	0x3c1c18f9	0.009527438
49	0x3d75c6ce	0.060004048
50	0xbdf9e1a9	-0.122012444
51	0x3e0435f3	0.12911205
52	0xbdbcf4ca	-0.09226377
53	0xbc2acff9	-0.010425561
54	0x3df3954e	0.11893712
55	0x3d85c0bb	0.06530901
56	0x3e0547a0	0.13015604
57	0xbd19112f	-0.037369903
58	0xbc21cd0e	-0.009875549
59	0x3d8c8712	0.068617
60	0xbba5c929	-0.0050593805
61	0x3c36ee3e	0.0111652
62	0x3cd4b222	0.025963847
63	0xbdbb85f5	-0.0915641
64	0xbcefc37c	-0.029268019
65	0xbd70e1b0	-0.058808982
66	0x3d800249	0.06250436
67	0x3d054c79	0.032543633
68	0x3bd5d4eb	0.006525626
69	0xbd09962c	-0.03359048
70	0xbd82d46e	-0.06388174
71	0xbd27eb44	-0.04099585
72	0x3c9dd767	0.01926775
73	0x3e007981	0.1254635
74	0x3d0424d9	0.032261703
75	0x3e1872a8	0.14887488
76	0xbe3618a9	-0.17782845
77	0xbda03c54	-0.07824007
78	0x3d87564c	0.06608257
79	0xbd10b1f8	-0.035325974
80	0x3d34fbc2	0.044185407
81	0x3d71b1de	0.059007518
82	0x3ca13874	0.01968024
83	0xbdaa9899	-0.08329887
84	0xbd2c0190	-0.041993678
85	0xbd6547fe	-0.05597686
86	0xbe26d615	-0.16292603
87	0xbcc0e5cb	-0.023547074
88	0x3ddf526f	0.10904395
89	0xbdc3470b	-0.09535035
90	0xbcb0036f	-0.021486012
91	0x3d0ab8fd	0.033867825
92	0x3d9c8a31	0.076435454
93	0x3daac04f	0.08337461
94	0x3df800c5	0.12109522
95	0x3da32918	0.079668224
96	0xbd88e07e	-0.066834435
97	0xbd29c9ba	-0.041452147
98	0xbd01c781	-0.031684402
99	0x3d06932d	0.0328552
100	0x3d244af9	0.040110562
101	0x3e1b893a	0.15189067
102	0xbce2e635	-0.027697662
103	0x3d51c5ed	0.051214147
104	0xbd2b0083	-0.041748535
105	0x3de8b376	0.113623545
106	0x3d1a8d90	0.03773266
107	0x3ce721d1	0.028214367
108	0xbccf8876	-0.025333624
109	0x3dbe90a0	0.09304929
110	0xbc88b8bb	-0.016689649
111	0x3e0bf647	0.13668166
112	0x3cfdede4	0.030997224
113	0x3d8b0933	0.06788864
114	0xbdeec2d1	-0.11658252
115	0xbd532118	-0.051545233
116	0xbe0e6815	-0.13906892
117	0x3d32efe2	0.0436858
118	0x3d5d53f2	0.054035135
119	0x3cb3bb21	0.021939816
120	0x3d98c9a3	0.07460334
121	0xbdade77c	-0.08491418
122	0x3d375d48	0.044766694
123	0xbdbafc48	-0.0913015
124	0x3c6c8915	0.01443698
125	0xbc252614	-0.010079879
126	0xbcc86441	-0.024461867
127	0xbdc03eee	-0.09387003
128	0x3d693022	0.05693067
129	0x3c19d704	0.009389643
130	0x3d9cefeb	0.07662948
131	0x3d0d3c6b	0.034481447
132	0x3c3e0bc0	0.011599481
133	0xbccc6e0f	-0.024954824
134	0x3d263ec2	0.040587194
135	0xbd16f8f7	-0.036858525
136	0xbd8a31c1	-0.06747771
137	0xbcdb7b07	-0.026792062
138	0x3cedc3b9	0.029023992
139	0xbd5b4b64	-0.053538695
140	0xbcf2b3fc	-0.029626839
141	0x3c7a13ba	0.015263492
142	0x3c990574	0.018679358
143	0xbdf7cbfb	-0.12099453
144	0xbccf4905	-0.025303373
145	0xbc8b0613	-0.01697067
146	0x3d9bac67	0.076012425
147	0x3dbc2da1	0.091883905
148	0x3daf9c68	0.08574754
149	0x3d287e10	0.041135848
150	0xbd2a7b6f	-0.04162162
151	0xbceee95d	-0.02916401
152	0xbd50251b	-0.050816637
153	0x3daa64bc	0.08319995
154	0xbb6b2452	-0.0035879803
155	0x3c6f9513	0.014622944
156	0xbd63f383	-0.055652153
157	0x3d0e7f32	0.03478927
158	0x3c818740	0.015811563
159	0x3dd891eb	0.10574707
160	0x3d1b06d2	0.0378483
161	0xbc103c8e	-0.0088035
162	0x3d790546	0.060796045
163	0xbd5ad578	-0.053426236
164	0xbd0724a2	-0.03299392
165	0x3c5cbdc4	0.013472978
166	0xbdb1344f	-0.08652555
167	0xbd27e4cb	-0.04098968
168	0xbc57ca38	-0.013170771
169	0xbcd64a50	-0.026158482
170	0xbd30820d	-0.043092776
171	0xbd806f32	-0.06271209
172	0x3d448229	0.047975693
173	0x3d9e85a7	0.07740336
174	0x3d823692	0.06358065
175	0x3e1007b8	0.14065444
176	0x3c6b06e3	0.014344904
177	0xbd1250ea	-0.035721697
178	0x3d5a3f58	0.053283066
179	0x3d1ae9d2	0.037820645
180	0xbb9d0806	-0.0047922162
181	0xbd68a315	-0.056796152
182	0x3db5f248	0.08884102
183	0x3d7b4c82	0.06135226
184	0xbb75fc8e	-0.0037534568
185	0x3d69941d	0.057026017
186	0x3c11a09d	0.008888391
187	0xbd958763	-0.073012136
188	0x3d9b4f3d	0.07583473
189	0x3d23542c	0.039875194
190	0xbc603444	-0.013684336
191	0x3d838b6c	0.06423077
192	0xbc83ca59	-0.016087698
193	0xbd2196ce	-0.03945046
194	0x3e24cfd4	0.16094905
195	0x3d36bb1a	0.044612028
196	0xbda12524	-0.07868412
197	0xbcb5d160	-0.022194564
198	0x3d566815	0.052345354
199	0xbd705bf5	-0.058681447
200	0x3d47974d	0.048728276
201	0x3ca5854e	0.020205166
202	0xbde9aa91	-0.11409486
203	0x3c84b8f1	0.016201468
204	0xbcfb22ee	-0.030656304
205	0xbd90d005	-0.070709266
206	0x3d234f57	0.039870586
207	0xbdb676bf	-0.08909368
208	0xbc7337f7	-0.014844886
209	0x3a612509	0.00085885875
210	0xbd03b70b	-0.032156985
211	0x3d83a4e1	0.064279325
212	0xbd03b410	-0.032154143
213	0x3d069964	0.03286113
214	0xbd1807f3	-0.037116956
215	0xbb992cca	-0.0046745287
216	0x3d9d1733	0.076704405
217	0xbd0ca817	-0.03433999
218	0x3e5b2125	0.21399362
219	0xbda3c89b	-0.07997247
220	0x3e147234	0.1449669
221	0xbc6da9b5	-0.014505793
222	0x3d845ef6	0.06463425
223	0x3c856194	0.01628188
224	0x3be082ce	0.0068515306
225	0x3deaab8e	0.11458503
226	0x3d7c52c6	0.061602376
227	0xbbda5060	-0.0066624135
228	0xbc99c5fe	-0.018771168
229	0xbd34dafe	-0.04415416
230	0xbb4b12d3	-0.0030986562
231	0xbdf6d453	-0.120522164
232	0x3d87766b	0.06614383
233	0x3b6fa7a3	0.0036568425
234	0xbdb020d2	-0.0860001
235	0x3c080f51	0.008304433
236	0x3d5be39f	0.053683873
237	0xbdc4e42e	-0.09613834
238	0xbd19cdc3	-0.037549745
239	0xbd83ad41	-0.0642953
240	0x3e24e314	0.16102248
241	0xbd12ba35	-0.035822112
242	0x3d6fa845	0.058510084
243	0xbda4dfb7	-0.08050483
244	0xbb11d1c4	-0.0022250274
245	0x3c888fc6	0.016670119
246	0x3dd5698c	0.10420522
247	0xbc174182	-0.009231927
248	0x3c809c37	0.015699489
249	0xbd858ab1	-0.06520594
250	0xbcc1ab9c	-0.0236414
251	0x3d9ebc36	0.07750742
252	0x3da6bfc9	0.08142049
253	0xbda461b9	-0.080264516
254	0x3d580084	0.052734867
255	0x3b990ff4	0.004671091

network_body._body_endoder.seq_layers.2.bias f4 [256]
0	0x3d050730	0.032477558
1	0xbc77cf99	-0.015125179
2	0x3af63944	0.0018785377
3	0xbca4a865	-0.020099828
4	0xbc368337	-0.0111396825
5	0x3ce366e2	0.02775902
6	0xbc4ce15f	-0.0125049045
7	0x3cce93b2	0.025216911
8	0xbc057d9a	-0.0081476215
9	0x3cd6f245	0.02623857
10	0xbc2e0377	-0.010620943
11	0xbb344b7d	-0.0027510815
12	0xbba18949	-0.0049296957
13	0x3c2d4f7f	0.010578035
14	0x3caa80c7	0.020813359
15	0x3d26cf28	0.040724903
16	0x3d235fcf	0.039886292
17	0xbc818806	-0.015811931
18	0x3b8b39f1	0.0042488505
19	0x3cd71b0d	0.026258016
20	0x3c8c53d8	0.017129824
21	0xbce0312a	-0.027367193
22	0xbba2debe	-0.0049704006
23	0xbc3fffec	-0.011718731
24	0x3c8a16ee	0.016856637
25	0x3cf366d9	0.029712128
26	0xbc6f80f4	-0.014618147
27	0xbcc5eb5a	-0.024160076
28	0x3d1001d6	0.035158
29	0xbc2fce82	-0.010730388
30	0x3c65a792	0.014017003
31	0xbbc7f8dd	-0.006102665
32	0x3b36b641	0.0027879628
33	0xbc8b18de	-0.016979631
34	0x3ce170eb	0.027519664
35	0x3c9ea5dd	0.0193662
36	0x3c76dd33	0.015067386
37	0x3c6db08b	0.014507423
38	0xbcee6ab9	-0.029103624
39	0x3b808111	0.003921636
40	0xbb2c1b3c	-0.002626135
41	0x3c82c404	0.015962608
42	0xbd144300	-0.03619671
43	0x3bc3e238	0.005977895
44	0x3cc42cd8	0.023947164
45	0xbc7e3338	-0.015515141
46	0x3c69cfa0	0.014270693
47	0xb91f45ed	-0.00015189471
48	0xbcc472d5	-0.023980537
49	0x3cf6c32f	0.030122368
50	0xbc6f0331	-0.014588163
51	0xbc6103a3	-0.013733777
52	0xbbba8448	-0.0056920387
53	0xbce974a0	-0.028497994
54	0x3d0c97d5	0.034324486
55	0x3bc21a2c	0.00592353
56	0xbb83eb08	-0.0040258206
57	0x3d1470bf	0.036240336
58	0xbc87adfd	-0.016562456
59	0xbc2f101b	-0.010684992
60	0xbaf12475	-0.0018397706
61	0xbca74567	-0.020418836
62	0x3cc0e376	0.023545962
63	0xbbf67caa	-0.0075221853
64	0x3d01c4e3	0.031681906
65	0x3d152390	0.03641087
66	0x3c90ebc0	0.01769054
67	0x3b9a73ad	0.0047134967
68	0xbc8217b0	-0.015880436
69	0xbcaf48aa	-0.021396954
70	0xbbcb3e89	-0.006202523
71	0xbc5debba	-0.013544971
72	0xba3cdc4d	-0.0007204458
73	0xbcb23a00	-0.021756172
74	0xbc08aeb9	-0.008342438
75	0x3d0469ea	0.03232757
76	0x3bc7d0ce	0.0060978895
77	0x3c50c087	0.012741215
78	0x3d0bf73e	0.034171335
79	0x3ca98db8	0.02069746
80	0xbcc45691	-0.02396706
81	0x3cfc8cc8	0.030828848
82	0xbb4d0148	-0.0031281281
83	0xbca4c4a7	-0.020113302
84	0xbc6ea80c	-0.014566433
85	0x3d6dd66e	0.058065824
86	0xbc55cd0f	-0.013049378
87	0x3bcf168c	0.0063198265
88	0x3d01b082	0.03166247
89	0xbc01247c	-0.007882234
90	0xbcd77c3b	-0.026304355
91	0x3a5bd291	0.0008385564
92	0x3ccfbbee	0.025358167
93	0xbc9599c0	-0.01826179
94	0xbb9d37c1	-0.004797906
95	0x3d4d8835	0.050178725
96	0x3cd013f3	0.025400138
97	0xbd280143	-0.04101683
98	0x3c202e0f	0.009776606
99	0x3cd4538e	0.025918748
100	0x3cbf22a1	0.023331942
101	0x3d1eadcb	0.03873996
102	0x3cbfb1cf	0.023400215
103	0xbcb1cf22	-0.021705214
104	0x3c1857ba	0.009298259
105	0x3c950af7	0.018193705
106	0x3c89a699	0.016803073
107	0xbc08a505	-0.008340125
108	0xbb3d2745	-0.0028862518
109	0x3c6aa96a	0.014322618
110	0x3c122874	0.008920778
111	0x3954bb3c	0.00020287646
112	0xbccedd92	-0.025252137
113	0x3d007252	0.031359024
114	0xbcb3ae5e	-0.02193373
115	0xbcb15d5e	-0.021650966
116	0xbc35060f	-0.011048808
117	0x3ca86164	0.020554252
118	0xbc945c92	-0.018110547
119	0xbbbd4afd	-0.0057767616
120	0x3c5327e7	0.012887931
121	0x3c1b1904	0.009466413
122	0xbc079783	-0.008275869
123	0xb9d5258d	-0.00040654503
124	0x3d119e19	0.035551164
125	0x3d12ba9d	0.0358225
126	0x3c888405	0.016664514
127	0x3cab247a	0.020891417
128	0x3ccd8391	0.02508715
129	0x3c9e3909	0.019314306
130	0xb9218521	-0.00015403751
131	0xbc814997	-0.01578216
132	0x3c8f41b6	0.017487388
133	0x3c03b8f6	0.008039704
134	0xbc0bc9f4	-0.008532036
135	0xbcf7a6fd	-0.030230993
136	0x3be4bb24	0.0069803167
137	0xbc81373e	-0.015773412
138	0xbcb2e3fe	-0.02183723
139	0xbbc27223	-0.0059340163
140	0x3d06ed94	0.032941416
141	0x3c23d9dd	0.010000673
142	0x3c7afd88	0.015319236
143	0x3c9d62fa	0.019212235
144	0x3c2f4cbb	0.010699446
145	0xbcb0f34e	-0.021600392
146	0xbc00e3f8	-0.007866852
147	0x3c1c186b	0.009527306
148	0x3d176846	0.036964677
149	0xbc986e8f	-0.018607406
150	0xbcb6bd10	-0.022306949
151	0x3ac71d8b	0.00151913
152	0xbb59941a	-0.0033199848
153	0x3c735815	0.014852543
154	0xbb2ae0ff	-0.002607405
155	0xbcd74b77	-0.026281102
156	0x3c9019b6	0.017590385
157	0xbcc2310e	-0.023705032
158	0xbbc3d154	-0.0059758816
159	0x3c091eb5	0.0083691375
160	0xbc0ca9d4	-0.008585412
161	0xbcca33d2	-0.024682913
162	0xbabe7354	-0.001453022
163	0x3c4055fe	0.011739252
164	0x3b9d4096	0.004798959
165	0xbc59359e	-0.013257412
166	0xbb758c81	-0.003746778
167	0xbb4333ce	-0.0029785517
168	0x3b8d0907	0.0043040547
169	0x3d42607e	0.047455303
170	0x3c9981b8	0.018738613
171	0x3ca337f0	0.019924134
172	0x3d315851	0.043297116
173	0x3bba406f	0.0056839506
174	0xbcea7c26	-0.028623652
175	0xbc3180cf	-0.010833933
176	0xbc5120ae	-0.012764139
177	0x3ceb58f7	0.028728945
178	0x3b435caa	0.002980987
179	0x3cfe0e39	0.031012641
180	0xbc6a211f	-0.014290123
181	0x3cecc9e0	0.028904855
182	0x3c88e809	0.016712205
183	0x3c930317	0.01794581
184	0x3d1ad3de	0.03779971
185	0x3cc7fc1b	0.024412205
186	0x3cbf1743	0.023326522
187	0xba8048f5	-0.0009787368
188	0xbcae4c1b	-0.021276524
189	0xbca0d093	-0.019630706
190	0xbbbdd092	-0.005792686
191	0x3bbac805	0.0057001137
192	0x3c2af081	0.010433317
193	0x3c18984d	0.009313655
194	0xbaae7928	-0.0013311254
195	0x3c570dd3	0.013125855
196	0x3a995007	0.0011696824
197	0x3cba182d	0.022716606
198	0x3b723ea5	0.0036963609
199	0xbc7da9ea	-0.015482405
200	0x3d0d5c28	0.034511715
201	0x3cc1772d	0.023616398
202	0xbd13c4b0	-0.036076248
203	0x3d1ad9a5	0.03780522
204	0x3cea02fb	0.028565874
205	0x3bace595	0.0052763917
206	0x3bd11610	0.006380804
207	0x3c834b9f	0.01602727
208	0x3c575199	0.013142013
209	0x3c4ea238	0.012611918
210	0x3ce7931c	0.02826839
211	0xbae694e2	-0.0017591978
212	0xbcc53ad6	-0.024075907
213	0xbc5b143d	-0.013371524
214	0xbb739e37	-0.003717316
215	0x3d01bc28	0.03167358
216	0x3b9e9bb1	0.004840337
217	0x3d085221	0.03328145
218	0xbcb2b0e8	-0.021812871
219	0xbcce3738	-0.025172815
220	0xbba8c078	-0.005149897
221	0xbbeeff50	-0.007293619
222	0xbb7dfd34	-0.0038755657
223	0x3cca26d2	0.024676714
224	0xbc044c32	-0.008074807
225	0x3cc3c05c	0.023895435
226	0xbc549861	-0.012975783
227	0x3cf69dce	0.030104544
228	0x3c95c038	0.018280134
229	0x3ba3732e	0.0049880957
230	0x3c4b36cf	0.012403204
231	0xbcc7f448	-0.024408475
232	0x3c27c63c	0.010240134
233	0xbcc76e62	-0.024344627
234	0xbbdaa046	-0.006671938
235	0x3c0e068a	0.008668551
236	0xba0f4734	-0.0005465627
237	0xbcb26e7a	-0.021781195
238	0x3d14564b	0.036215108
239	0xbd080151	-0.03320438
240	0xbc9da97b	-0.019245854
241	0x3c20cacb	0.009813975
242	0x3cc8b991	0.024502547
243	0x3bfb5e58	0.0076711588
244	0xbb9fe267	-0.004879284
245	0x3cfa07a9	0.03052123
246	0xbc68c69b	-0.0142075075
247	0xbc98661c	-0.018603377
248	0x3cd3be6d	0.025847638
249	0x3ae60be0	0.0017551146
250	0x3bc4b80a	0.0060033845
251	0x3ba77d22	0.0051113525
252	0xbb33d37e	-0.0027439292
253	0x3c9fc46b	0.01950284
254	0x3d2d9d7a	0.04238651
255	0xbbd1083b	-0.006379155

action_model._discrete_distribution.branches.0.weight f4 [4, 256]
0	0x3c0d87f9	0.008638375
1	0x3c8afd8f	0.01696661
2	0xbc115d49	-0.008872339
3	0xbcaa4f23	-0.020789688
4	0x3d053667	0.032522585
5	0xbbd5e48b	-0.0065274886
6	0xbbe5f252	-0.007017412
7	0xbcbe62a8	-0.023240402
8	0xbbdd0464	-0.006744908
9	0xbbb39f93	-0.005481669
10	0xbaef9659	-0.001827906
11	0x3c65817f	0.014007925
12	0xbcadcb45	-0.02121509
13	0x3c32dcfb	0.010916944
14	0xbc1e6e9d	-0.009669927
15	0xbd0afa6b	-0.033930223
16	0xbc82a2d0	-0.015946776
17	0xbbaae5bf	-0.005215376
18	0x3be8359f	0.0070864703
19	0x3bb5b2df	0.0055450047
20	0xbc50456a	-0.012711862
21	0xbb27e14f	-0.0025616472
22	0x3ae6f108	0.001761944
23	0x3ab49188	0.0013776282
24	0xbc29786e	-0.010343654
25	0xbcb4a822	-0.022052828
26	0xbbf2646e	-0.007397226
27	0x3d10840a	0.035282172
28	0x3c425b18	0.011862539
29	0xbb0b8120	-0.0021286681
30	0x3d1309c0	0.03589797
31	0x3be9baab	0.0071328483
32	0x3bd98254	0.006637851
33	0x3bfc602e	0.007701895
34	0xbcc9800e	-0.024597194
35	0xbcb71787	-0.022350086
36	0xbc962520	-0.01832825
37	0x3a667bb8	0.0008792239
38	0x3d03a3f3	0.032138776
39	0xbc202a8e	-0.009775771
40	0x3af22086	0.0018472828
41	0xbca1d63a	-0.019755471
42	0x3c6a7229	0.014309444
43	0x3c0b90cd	0.00851841
44	0x3ab39436	0.0013700787
45	0xbcb44d21	-0.022009434
46	0xbc04cc32	-0.008105325
47	0xbbc0b749	-0.0058812243
48	0x3c8b3fe4	0.016998239
49	0x3ccc2d8c	0.024924062
50	0x3c088a70	0.008333787
51	0x3b2c3947	0.0026279257
52	0x3cf3cb6f	0.02976009
53	0x3c991bc8	0.018690005
54	0xbc544877	-0.01295673
55	0xbac22d21	-0.0014814475
56	0x3a213093	0.0006148901
57	0xbcaeebd7	-0.021352692
58	0x3c94549a	0.018106747
59	0xbcd37903	-0.025814539
60	0x3b88e9cc	0.0041782614
61	0x3d15fcb6	0.036617957
62	0xbc1f44fb	-0.009721036
63	0x3c3aa650	0.011392191
64	0xbc33014a	-0.0109256
65	0xbd343243	-0.043993246
66	0xbc507407	-0.012722976
67	0x3bc7eb84	0.0061010737
68	0x3b85a6ae	0.0040787077
69	0xbc993060	-0.018699825
70	0xbcc7e964	-0.024403282
71	0x3c685420	0.014180213
72	0xbaf7d569	-0.0018908206
73	0xbbf8170d	-0.0075711072
74	0x3b640f10	0.0034799017
75	0xbcae510b	-0.021278879
76	0x3ce079ca	0.027401824
77	0xbcd40548	-0.025881425
78	0xbc6ba7f1	-0.014383302
79	0xbb8adaae	-0.0042374944
80	0x3b35ec0e	0.0027759108
81	0x3ba4b228	0.0050261207
82	0xbccc48a4	-0.024936981
83	0x3d0c0c35	0.03419133
84	0xbcc51ca3	-0.024061507
85	0xbc81cde4	-0.015845247
86	0x3b5b6b77	0.0033480802
87	0x3b230c0a	0.0024879002
88	0xbcb82cd9	-0.022482323
89	0x3c8f6ee8	0.017508939
90	0xb918ecfc	-0.00014584133
91	0xbc732a5a	-0.01484164
92	0xbcb7eb79	-0.02245115
93	0x3cf19763	0.029491132
94	0x3c9d4f37	0.019202812
95	0xbbcd4321	-0.006264106
96	0xba14348e	-0.0005653583
97	0xbc951408	-0.018198028
98	0xbbc5078e	-0.0060128635
99	0xbcb6e1d1	-0.022324475
100	0xbc92be4c	-0.017913006
101	0xbc2ff7a3	-0.010740194
102	0x3b93abb6	0.0045065535
103	0x3b649953	0.0034881427
104	0x3a089924	0.0005210808
105	0x3c89988a	0.01679637
106	0x3ca00473	0.019533372
107	0x3bc6b1b0	0.0060636625
108	0x3b4cc75b	0.0031246755
109	0xbc992e2e	-0.018698778
110	0x3cbbf4e8	0.022943929
111	0x3c23fed6	0.010009488
112	0xb9493d41	-0.00019191673
113	0xbcc3eb9d	-0.02391606
114	0xbcd413aa	-0.025888283
115	0x3cb5b387	0.022180332
116	0xbb861f13	-0.00409306
117	0xbba1ca36	-0.0049374355
118	0x3b46d2fa	0.0030338154
119	0x3c5024bc	0.012704071
120	0xbcdfd288	-0.027322069
121	0xbbd09505	-0.0063654208
122	0x3c814430	0.015779585
123	0xbc0d9d17	-0.00864341
124	0xbca1d9ed	-0.019757235
125	0xbcc95b8f	-0.024579791
126	0xbaba3e58	-0.0014209254
127	0x3afcf804	0.0019299989
128	0xbc2266eb	-0.009912233
129	0xbc41e0fd	-0.011833427
130	0xbc87ca0c	-0.016575836
131	0x3cacc24c	0.021088742
132	0xbc9ef726	-0.019404959
133	0x3c8e0164	0.017334647
134	0xbc4b4103	-0.012405637
135	0x3c324f6e	0.010883195
136	0xbb8e0830	-0.004334472
137	0x3c138125	0.009002958
138	0xbc2c63ef	-0.010521873
139	0x3c929342	0.017892484
140	0xbcaaeb0f	-0.020864038
141	0x3a847bcc	0.0010107695
142	0xbc86c9db	-0.016453674
143	0x3ce35fd6	0.02775566
144	0xbc4d79e5	-0.012541269
145	0x3cc53d53	0.024077093
146	0xbccdc09b	-0.025116256
147	0xbd1a628b	-0.037691634
148	0xbbd09fa1	-0.0063666855
149	0xbc3e5c05	-0.011618619
150	0xbb5ec081	-0.0033989253
151	0xbcce365c	-0.025172405
152	0xbc8bdca1	-0.017072977
153	0x3a9412f6	0.0011297155
154	0x3c462987	0.012094862
155	0xbbc5de14	-0.0060384367
156	0x3bef8f09	0.0073107523
157	0x3c53d5b0	0.012929365
158	0xbcbb9d9b	-0.0229023
159	0x3a4ba73e	0.00077687565
160	0x3c286684	0.010278348
161	0x3ba615c8	0.0050685145
162	0x3ce21ca3	0.027601546
163	0x3ae6e5b5	0.0017616065
164	0x3ca17fd8	0.019714281
165	0x3b95154b	0.0045496575
166	0x3b187d13	0.002326791
167	0x3cbef8c5	0.023311982
168	0xbc7b6f31	-0.015346334
169	0xbc5d77a3	-0.013517293
170	0xbcdcbe13	-0.026946103
171	0xbc3b58e3	-0.011434766
172	0x3cc594c7	0.024118794
173	0xbc4b8402	-0.01242161
174	0x3c272758	0.010202251
175	0xbb1e550c	-0.0024159579
176	0x3ba8c6aa	0.0051506357
177	0x3c99bc88	0.018766657
178	0xbc5f8766	-0.013643121
179	0xbcea3f4e	-0.02859464
180	0xbb7dd7e6	-0.0038733422
181	0xbb870386	-0.004120293
182	0x3b7bed0d	0.0038440854
183	0xbca3a360	-0.019975364
184	0xbbb26fc5	-0.005445453
185	0xbc7cfe64	-0.015441511
186	0xbd037192	-0.03209073
187	0xbbe2c7aa	-0.0069207745
188	0xba789d38	-0.00094838766
189	0x3cce2360	0.025163352
190	0xbbda7dc9	-0.006667827
191	0xbab37be1	-0.0013693535
192	0x3c5c8969	0.0134604955
193	0xbcdaa22c	-0.026688658
194	0x3bcd37bd	0.006262748
195	0xbc298d39	-0.0103486115
196	0xbca14c3d	-0.019689674
197	0xbcba5756	-0.022746723
198	0x3c5ca50c	0.013467085
199	0xbbed9ed8	-0.0072516017
200	0xbc8a4324	-0.016877718
201	0x3937b102	0.0001751818
202	0x3cc3e8cc	0.023914717
203	0xbb9521e5	-0.0045511597
204	0xbb89781f	-0.0041952278
205	0xbae60dd9	-0.0017551734
206	0xbb053b0a	-0.002032938
207	0x3b0211d8	0.0019847061
208	0x3c89cfa0	0.016822636
209	0xbc04908c	-0.008091103
210	0xbc348e11	-0.011020199
211	0x39cab3a8	0.00038662297
212	0xbb8cb058	-0.0042934828
213	0xbc532db9	-0.012889319
214	0xbc642708	-0.013925321
215	0xbc7d51d5	-0.015461405
216	0x3b397ef9	0.0028304441
217	0xbcbf1526	-0.023325514
218	0x3b6f57d7	0.0036520862
219	0xbc35f02e	-0.011104627
220	0x3c2c767f	0.010526299
221	0xbca0aa9b	-0.019612601
222	0xbc12b3d4	-0.008954007
223	0xbb8a16f0	-0.00421416
224	0xbcbcd00c	-0.023048423
225	0x3c0e9c35	0.008704235
226	0x3d1166db	0.03549848
227	0xbd297d7d	-0.04137944
228	0x3c9e3150	0.019310623
229	0x3cb7bd9a	0.022429276
230	0xbc6eaf2c	-0.014568131
231	0x3bb6660e	0.005566365
232	0xba866a6e	-0.0010255107
233	0x3bdf2d54	0.0068108235
234	0x3b50e96d	0.0031877414
235	0xbd405ce9	-0.046963606
236	0xbc5cb0c7	-0.013469881
237	0xbcc509db	-0.024052551
238	0xbcee6eb3	-0.02910552
239	0x3cb2167d	0.021739239
240	0x3b8b03e8	0.004242409
241	0xbc40ac0d	-0.01175977
242	0xbcf14bb8	-0.02945505
243	0xba445965	-0.00074901275
244	0xbc6aa43a	-0.014321381
245	0xbc6baec4	-0.014384929
246	0xbc8f5d52	-0.017500553
247	0x3bbdf243	0.005796702
248	0xbd40a14f	-0.047028836
249	0xbbe0ad16	-0.006856571
250	0xbc3e03d5	-0.011597593
251	0xbb8f1e40	-0.0043676198
252	0xbc3786db	-0.011201586
253	0xbc6230fa	-0.013805622
254	0xbcd6f34a	-0.026239056
255	0x3cd337f9	0.025783526

action_model._discrete_distribution.branches.0.bias f4 [4]
0	0xbc8a721c	-0.016900115
1	0x3d0f2988	0.034951717
2	0x3c0a6d62	0.00844893
3	0xbcde59cb	-0.027142426

action_model._discrete_distribution.branches.1.weight f4 [15, 256]
0	0x3b37af1e	0.0028027962
1	0x3b2d52c7	0.0026447044
2	0x3c7bccd4	0.015368659
3	0x3c9cd20d	0.019143129
4	0xbba45388	-0.0050148405
5	0xbb1328a1	-0.0022454637
6	0x3c192837	0.009347967
7	0xbc9e5df1	-0.019331904
8	0xbd1c3910	-0.038140357
9	0x3c3fe4c7	0.01171226
10	0xbcecdfa9	-0.028915243
11	0x3b8833df	0.004156574
12	0xbb41788c	-0.0029521314
13	0x3b6bd8aa	0.0035987296
14	0x3a3096a0	0.0006736312
15	0xbbcb6be4	-0.00620793
16	0x3ca47cbb	0.020079007
17	0x3c0f169d	0.008733419
18	0xbc5a9afc	-0.013342615
19	0x3c3e7af3	0.011625993
20	0x3c8fb54c	0.017542504
21	0xbc711168	-0.014713623
22	0xbc5dc0b7	-0.013534716
23	0x3c7a42bd	0.015274701
24	0xba4dccb6	-0.00078506337
25	0x3d2a3c02	0.041561134
26	0xbcc0d625	-0.023539612
27	0xbbb3dd1c	-0.005489005
28	0x3b23ebf1	0.0025012458
29	0x3aeddea6	0.001814802
30	0xba939865	-0.0011260627
31	0x3c0d7d98	0.008635901
32	0xbcca2b78	-0.02467893
33	0xbc94cfae	-0.018165436
34	0xbcd69e57	-0.02619855
35	0xbc8a09b6	-0.016850334
36	0x3cc9d721	0.024638714
37	0x3d11bd87	0.035581138
38	0x3c8adf46	0.016952168
39	0x3c5ed2d4	0.01360007
40	0x3c9434ed	0.018091643
41	0xbcf836fb	-0.030299654
42	0x3a3ef08a	0.0007283768
43	0x3badd6c8	0.005305145
44	0x3cc40692	0.023928914
45	0xbc5e7179	-0.013576859
46	0x3be5124a	0.0069907056
47	0xba0968a8	-0.000524173
48	0xbca410b8	-0.020027503
49	0x3c9eea05	0.019398699
50	0x3d214872	0.03937573
51	0xbc54d094	-0.012989182
52	0xbcb9d7ed	-0.02268597
53	0x3c8f15b4	0.017466404
54	0xbc608373	-0.013703215
55	0x3bf06728	0.007336516
56	0xbae1b3f3	-0.0017219767
57	0xbb416d7a	-0.0029514716
58	0x3c70539b	0.014668371
59	0x3cd0c85c	0.025486164
60	0xba04952a	-0.00050576276
61	0x3b2906c7	0.0025791393
62	0xbc5acea2	-0.013354929
63	0x3c025627	0.007955111
64	0xbc238f4d	-0.009982896
65	0x3c9f136a	0.019418437
66	0x3cb8c7ac	0.022556148
67	0xbbf9386d	-0.0076056034
68	0x3c128a0c	0.008944046
69	0xbd0bc265	-0.034120936
70	0xbd33931e	-0.043841474
71	0xbc08c9e4	-0.008348916
72	0xbd10cbad	-0.03535049
73	0xbab85a8d	-0.0014065072
74	0xbc56c29b	-0.013107921
75	0xbb88caff	-0.0041745896
76	0x3c6fbddf	0.014632671
77	0xbb6c4e26	-0.0036057322
78	0xbc07c2f7	-0.008286229
79	0xbd1b35cc	-0.0378931
80	0xbcb8f56b	-0.022577962
81	0x3c1552f2	0.009114014
82	0xbc9ef006	-0.019401561
83	0x3bed0fbc	0.0072345417
84	0xbd1b457f	-0.037908074
85	0x3ca93d4f	0.020659117
86	0xbbd7b0b7	-0.0065823453
87	0xbc0f812a	-0.008758822
88	0x3ca04200	0.019562721
89	0xbc334d52	-0.010943728
90	0xbcb17382	-0.021661524
91	0xba114537	-0.0005541625
92	0x3b0ad790	0.0021185614
93	0x3bcde465	0.0062833303
94	0x3c5d4db0	0.013507292
95	0x3ca17229	0.019707756
96	0x3c608bba	0.013705188
97	0xbc6dcab0	-0.0145136565
98	0x3c68d396	0.014210602
99	0xbc081d5f	-0.008307784
100	0x3cfe0be7	0.031011535
101	0x3c51796d	0.012785298
102	0x3c5183d1	0.012787775
103	0xbc831c27	-0.016004635
104	0xbb9da61f	-0.004811063
105	0xbbe6dcbd	-0.007045357
106	0x3c0f951c	0.008763578
107	0x3bc83d33	0.006110811
108	0xbc7d52f0	-0.015461668
109	0x3d1f9cd7	0.038967934
110	0x3d33013c	0.04370235
111	0xbcb9e1d9	-0.0226907
112	0xbc3725f1	-0.0111784795
113	0xbba6a0a4	-0.005085068
114	0x3ca7131f	0.02039486
115	0xbb92aea2	-0.0044763843
116	0xbd212dd4	-0.039350346
117	0xbc3f5151	-0.011677102
118	0xbc4561de	-0.012047259
119	0x3a50b3e3	0.00079613755
120	0xbcff91d7	-0.031197472
121	0x3c2ccdb0	0.010547087
122	0xbbb0922d	-0.0053885193
123	0xbca7b304	-0.020471103
124	0x3cbf16c3	0.023326283
125	0x3c2db353	0.010601836
126	0x3ca2d6fd	0.019877905
127	0x3c942cb9	0.018087732
128	0x3ca1c785	0.019748459
129	0xbc5b72c3	-0.013394061
130	0xbb7c2214	-0.003847246
131	0x3baf9b0d	0.0053590597
132	0xbb841cc6	-0.0040317504
133	0x3c79ca60	0.015246004
134	0x3c95156d	0.018198693
135	0x3b0312c4	0.00200002
136	0x3c057ace	0.008146955
137	0xbc60c086	-0.013717776
138	0xbc90be2b	-0.017668804
139	0x3c205d4a	0.009787867
140	0xbbc2061d	-0.005921139
141	0x3c7ea955	0.015543302
142	0xbb159f46	-0.002283053
143	0x3cc6476c	0.024203978
144	0xbc62ee51	-0.013850764
145	0xbb761c00	-0.003755331
146	0xbd213f3f	-0.039366957
147	0xbca75bbc	-0.020429485
148	0x3b8c65d1	0.0042845984
149	0xbd01b743	-0.031668913
150	0x3bdb7248	0.006696973
151	0xbc678709	-0.014131316
152	0xbc5cb70d	-0.013471377
153	0x3b84a6f4	0.0040482227
154	0x3cbd0be4	0.023076959
155	0xbc94089c	-0.018070512
156	0x3c901494	0.017587937
157	0xbc577df3	-0.013152587
158	0xbbdd95a2	-0.0067622224
159	0x397ac94b	0.00023916845
160	0xbbd20fd1	-0.006410577
161	0x3d0d02f1	0.034426633
162	0xbcb79148	-0.022408143
163	0x3c836571	0.016039582
164	0xbcade19d	-0.021225745
165	0x3bad42cc	0.005287504
166	0x3bb0d0aa	0.0053959684
167	0x3c3702e3	0.011170122
168	0xbcbc6700	-0.022998333
169	0x3cac2335	0.021012882
170	0xbc8023f6	-0.015642148
171	0x3bfefcd1	0.007781603
172	0x3cd70fc4	0.026252635
173	0x3cac1899	0.021007823
174	0x3b85cb09	0.0040830416
175	0x3c7055ef	0.014668926
176	0xbc1270d6	-0.008938035
177	0x3b7d23a4	0.003862598
178	0xbbbee5e0	-0.005825743
179	0xbcad0aad	-0.021123255
180	0xbcdb4852	-0.026767883
181	0x3c3660a8	0.011131443
182	0xbbf187b6	-0.0073709143
183	0xbc272eb5	-0.010204007
184	0xbb18d1b4	-0.0023318352
185	0xbc0a89f4	-0.008455742
186	0xbbfc24e8	-0.0076948293
187	0xbccc0b4d	-0.024907732
188	0x39f09112	0.00045884453
189	0xbb92c694	-0.0044792388
190	0x3b8411b5	0.004030431
191	0x3b1139c3	0.0022159673
192	0x3c1462ea	0.009056786
193	0xbcbb46e2	-0.022860948
194	0x3c1084ae	0.008820696
195	0xbd0307f1	-0.031989995
196	0xbced0fc1	-0.028938176
197	0xbb6499d6	-0.0034881732
198	0xbc407ad3	-0.011748034
199	0xbca4878d	-0.020084167
200	0xbbc4a736	-0.0060013784
201	0x3b084077	0.0020790377
202	0x3c48bd99	0.012252235
203	0x3c545df2	0.012961851
204	0x3b41b9a9	0.0029560125
205	0xbc7dc116	-0.01548793
206	0x3b34c53f	0.0027583388
207	0x3c126bb7	0.008936814
208	0xbc848a1b	-0.016179135
209	0xbbb0d777	-0.005396779
210	0x3cf68e03	0.030097013
211	0x39abaa94	0.00032742752
212	0x3c506d42	0.012721362
213	0xbcf86b80	-0.030324697
214	0x3cbdd3a0	0.0231722
215	0x3c92d4df	0.01792377
216	0xbc858802	-0.016300205
217	0x3d754e6e	0.05988925
218	0xbc9cffd9	-0.019164966
219	0xbc8f0f68	-0.017463401
220	0x3c50f778	0.012754314
221	0x3cbc1870	0.022960871
222	0xbd17ad9d	-0.037030805
223	0xbbde0577	-0.006775554
224	0xbc5f3cd1	-0.01362534
225	0x3b722cfb	0.003695308
226	0x3c846d3e	0.016165372
227	0xbca05e35	-0.019576171
228	0x3cc9a45b	0.024614504
229	0x3b303604	0.0026887665
230	0x3b9fe3dd	0.0048794583
231	0xbcc8840e	-0.024477031
232	0xbc21a6f1	-0.009866462
233	0x3cdd41a7	0.027008845
234	0x3aa1345e	0.0012298932
235	0xbb99f977	-0.004698928
236	0xba14fc77	-0.0005683372
237	0xbc5f71d0	-0.013637975
238	0x3b7aff61	0.003829919
239	0xbc003236	-0.007824471
240	0x3a6846ad	0.0008860629
241	0x3d09df97	0.033660498
242	0xbd34f22d	-0.04417627
243	0xbc3a0f2c	-0.011356156
244	0xbb843c48	-0.0040355064
245	0x3cb1f1f9	0.021721827
246	0xbc56e18d	-0.013115299
247	0xbacb0c48	-0.0015491331
248	0xbcb46026	-0.022018503
249	0x3c942587	0.0180843
250	0x3c131a03	0.00897837
251	0x3d388678	0.045050114
252	0xbce1f257	-0.027581377
253	0xbc65d72c	-0.014028352
254	0xbc52e998	-0.012873076
255	0xbc460445	-0.012085979

action_model._discrete_distribution.branches.1.bias f4 [15]
0	0x3cda90c0	0.02668035
1	0xbc9ff677	-0.019526703
2	0xba8f0d86	-0.0010914064
3	0xbbc18f1c	-0.0059069525
4	0xbbf81a3c	-0.0075714868
5	0x3cc254c5	0.023722062
6	0x3b15d2c3	0.002286122
7	0x3b278535	0.0025561575
8	0xbc535a5c	-0.012899961
9	0x3c93fca3	0.018064803
10	0x3be01034	0.006837869
11	0xbafec9c1	-0.001943879
12	0xbcf93715	-0.030421773
13	0xbc52d984	-0.012869243
14	0x3c2615e0	0.010137051

action_model._discrete_distribution.branches.2.weight f4 [15, 256]
0	0xbd1eb0ca	-0.038742818
1	0x3ce57c83	0.028013473
2	0x3c22a64d	0.0099273445
3	0xbb491dea	-0.0030687996
4	0x3cd19f1b	0.025588563
5	0xbcf71b7c	-0.030164473
6	0x3baaf9cf	0.005217768
7	0x3b170ffc	0.00230503
8	0xbc2a28a0	-0.010385662
9	0xbc98103c	-0.018562429
10	0xbce3b6d3	-0.027797138
11	0x3c9eba0d	0.019375825
12	0x3cbe979b	0.02326565
13	0x3ca6ba9c	0.020352654
14	0x3b5be49c	0.003355301
15	0x3c5c6b9c	0.01345339
16	0x3c1ed8e7	0.009695268
17	0xbbead614	-0.0071666334
18	0x3c5f44cc	0.013627242
19	0xbcaf9ada	-0.021436144
20	0x3d38ac95	0.045086462
21	0x3b745811	0.0037283937
22	0xbc4d3ecd	-0.01252718
23	0x3d2737cf	0.040824708
24	0x3c4cb420	0.012494117
25	0xbbe82e3b	-0.007085589
26	0xbc918b4a	-0.017766614
27	0xbc984319	-0.018586682
28	0xbd00d3d6	-0.031452022
29	0x3d05f9b5	0.032708842
30	0xbcd0398d	-0.025418067
31	0x3c016e69	0.007899859
32	0xbd72b307	-0.059252765
33	0x3ca06c65	0.019582937
34	0x3d14c741	0.036322836
35	0x3a3aab15	0.000712083
36	0x3ca3cfdd	0.019996578
37	0x3c39d3f4	0.0113420375
38	0x3c3bee69	0.011470416
39	0xbcebf62a	-0.028803904
40	0xbca0860f	-0.019595174
41	0xbcc94ca7	-0.024572683
42	0x3c91b9c1	0.01778877
43	0x3c3fbf37	0.011703304
44	0x3c15ca8a	0.009142527
45	0xbc1e0e83	-0.009647015
46	0xbccf0866	-0.02527256
47	0x3cd4fc80	0.025999308
48	0x3ca36ce3	0.019949382
49	0xbd0f01f8	-0.034913987
50	0xbba6cbf5	-0.0050902315
51	0x3c43b24e	0.011944367
52	0xbd152141	-0.036408667
53	0x3d42d1ee	0.047563486
54	0xbb7315a5	-0.0037091759
55	0xbb570d3c	-0.0032814285
56	0x3c72cafb	0.014818902
57	0x3a1acf38	0.0005905512
58	0x3c9a0f97	0.018806262
59	0x3c8518f3	0.016247248
60	0xbcd37fb0	-0.025817722
61	0x3cb4c47d	0.02206635
62	0xbce6252f	-0.028093902
63	0xbc550fdd	-0.01300427
64	0x3c64a43e	0.013955174
65	0x3c0d0b1d	0.008608607
66	0x3d054af2	0.032542177
67	0x3c92a785	0.017902145
68	0xbcbfeeba	-0.023429263
69	0x3ca1bd6f	0.01974365
70	0x3ca73227	0.020409657
71	0x3caec9b7	0.02133642
72	0x3cae2f46	0.021262776
73	0xbceeea9a	-0.029164601
74	0xbceb0cc1	-0.028692605
75	0x3b80d5f2	0.0039317543
76	0xbcbe4cf9	-0.023230063
77	0x38c09e38	9.184744e-05
78	0xbaf5cf80	-0.0018753856
79	0x3c571c87	0.01312936
80	0x3c688e57	0.014194093
81	0xbb8fd4f6	-0.0043894006
82	0xbb959d0a	-0.0045658397
83	0x3d60af2c	0.054854557
84	0x3bbfab95	0.0058493116
85	0x3c515aae	0.012777967
86	0x3d261a09	0.040552173
87	0x3b5fa603	0.003412605
88	0x3c467bf6	0.0121145155
89	0x3c785949	0.015158006
90	0x3c59649c	0.013268616
91	0xbbd3a9f8	-0.006459471
92	0xbc2f81ef	-0.010712131
93	0x3c24ccea	0.010058621
94	0xbc0ccb04	-0.008593325
95	0xbcb4db7a	-0.02207731
96	0xbcac8e34	-0.021063901
97	0x3c3fb908	0.01170183
98	0xbc309dd9	-0.010779821
99	0xbc87a2aa	-0.016557056
100	0xbd1c770b	-0.038199466
101	0x3c14f3c1	0.009091319
102	0xbc572acc	-0.013132762
103	0xbba27759	-0.004958075
104	0xbc721d56	-0.014777502
105	0x3bd2ca5d	0.006432815
106	0x3b1f4fbc	0.0024309
107	0x3b36cc2c	0.0027892692
108	0xbc697a12	-0.014250295
109	0x3c7ca937	0.015421203
110	0xbd243fa9	-0.040099774
111	0xbcfc161a	-0.030772258
112	0xbc704e0d	-0.014667046
113	0x3c3341be	0.010940967
114	0x3c0c4158	0.008560501
115	0x3c29b790	0.010358706
116	0xbc97885e	-0.018497642
117	0x3d021e62	0.031767257
118	0xbc138aad	-0.009005231
119	0xbcc9c243	-0.024628764
120	0x3c64f1ad	0.013973636
121	0x3bd63ae5	0.0065377825
122	0x3d69c3aa	0.057071365
123	0x3cc91035	0.02454386
124	0xbcf9dfb2	-0.030502174
125	0xbd1e188c	-0.03859763
126	0x3d1194ac	0.035542175
127	0x3cadd6e8	0.02122064
128	0xbc15ed6b	-0.009150843
129	0xbcc801b1	-0.024414869
130	0x3ce2f6c2	0.027705554
131	0xbafde026	-0.001936917
132	0xba7c4ad3	-0.0009624187
133	0xbc1037f5	-0.008802404
134	0xbca6a6cc	-0.020343207
135	0xbcaf5e55	-0.021407286
136	0xbd116ee2	-0.035506137
137	0xbc8dc1fe	-0.017304417
138	0x3880a38f	6.133981e-05
139	0x3becdc91	0.007228442
140	0x3c5c40ce	0.013443185
141	0x3b90f229	0.004423399
142	0xbcb927ba	-0.02260195
143	0x3a763b2c	0.00093929726
144	0xbd1d6f04	-0.03843595
145	0x3b8c5bb5	0.0042833933
146	0xbd0d38fd	-0.034478176
147	0xbd27e429	-0.040989075
148	0xbc9da078	-0.019241557
149	0xbc907459	-0.017633604
150	0x3b6a4363	0.0035745732
151	0x3b61cff1	0.0034456218
152	0xbbf7e82e	-0.00756552
153	0xbd195c80	-0.03744173
154	0x3ce2aa86	0.027669203
155	0x3c57380c	0.013135921
156	0xbd19d0a9	-0.03755251
157	0x3d066afd	0.032816876
158	0x3b912bd8	0.0044302754
159	0xbc5a6685	-0.013330107
160	0x3b1586e0	0.0022815987
161	0xbbf505b9	-0.007477489
162	0xbcd70680	-0.026248217
163	0xbc2adf16	-0.010429164
164	0xbc54ab66	-0.012980318
165	0xba10a7a7	-0.0005518146
166	0x3d50cb71	0.050975267
167	0xbc338c11	-0.010958687
168	0xbcd7ce11	-0.026343377
169	0x3ab42d37	0.0013746385
170	0xbc90234e	-0.01759496
171	0x3b51c9ff	0.0032011268
172	0xbc4b5ab1	-0.012411759
173	0xbbf7ca61	-0.0075619672
174	0x3b814add	0.003945692
175	0xbb905717	-0.004404913
176	0x3c6ff2b4	0.014645267
177	0xbd124264	-0.035707846
178	0xbc61ab77	-0.013773791
179	0xbd361a67	-0.044458773
180	0xbb7b3a3d	-0.0038334273
181	0xbc9672a4	-0.018365212
182	0xbcf0e8b8	-0.029407844
183	0x3c7e3e64	0.015517805
184	0xbbd6579f	-0.006541207
185	0xbd4584d0	-0.048222363
186	0xbc608e92	-0.013705866
187	0xbd4711a2	-0.0486008
188	0x3c821a9a	0.015881825
189	0x3b9b75ab	0.0047442517
190	0x3c172347	0.009224719
191	0x3c12f42e	0.00896935
192	0xbc399bd5	-0.011328657
193	0xba6892f3	-0.0008871995
194	0xbb59fe97	-0.003326332
195	0xbd13455f	-0.03595483
196	0xbd81d237	-0.063389234
197	0xbcc3992c	-0.023876749
198	0xbc99f0e8	-0.01879163
199	0x3b3d3ef2	0.002887663
200	0x3c056577	0.008141867
201	0x3b10f41c	0.0022118157
202	0x3cbff940	0.023434281
203	0xbbbccb9c	-0.005761577
204	0xbd08b9a7	-0.033380177
205	0xbc8ecc14	-0.017431296
206	0xbb01e751	-0.0019821713
207	0x3d1686f2	0.036749788
208	0x3bef1d24	0.007297175
209	0xbc1ac57b	-0.009446497
210	0x3b8f6a07	0.004376653
211	0x3bd8ba8a	0.006614034
212	0x3b95aa4f	0.0045674215
213	0x3b565beb	0.0032708596
214	0xbc125e9d	-0.00893369
215	0x3c00c4bb	0.007859404
216	0xbcf480d4	-0.029846586
217	0xbc2c04d0	-0.010499194
218	0x3c6658e0	0.014059275
219	0xbba79294	-0.005113909
220	0x3d0a261e	0.033727758
221	0x3c1212bd	0.0089156
222	0x3bf83500	0.0075746775
223	0xbd07f8ec	-0.033196375
224	0xbc8af848	-0.016964093
225	0xbc5a75fb	-0.013333793
226	0x3be6ae6a	0.0070398347
227	0xbcb5c56a	-0.02218886
228	0xbd1361bf	-0.03598189
229	0xbd24a6b5	-0.040198047
230	0x3c8eb72a	0.017421324
231	0xbca77b1d	-0.020444447
232	0xbbe1e330	-0.006893538
233	0xba3110c9	-0.00067545153
234	0x3bfd234d	0.0077251554
235	0xba6bcee3	-0.0008995367
236	0xbca5bb00	-0.02023077
237	0xbbaa91d9	-0.0052053747
238	0x3c1685ad	0.009187144
239	0x3b85b59a	0.0040804865
240	0x3cb60f74	0.022224165
241	0xbcaa8ed2	-0.020820055
242	0xbc0e9d00	-0.008704424
243	0x3b9fa5a4	0.004872041
244	0xbc24a461	-0.010048957
245	0xba21b9a8	-0.00061693275
246	0x3bceebe0	0.0063147396
247	0x3d217443	0.039417516
248	0xbd221bad	-0.039577175
249	0x3c144614	0.009049911
250	0xbbf23f48	-0.0073927976
251	0x3cb148d6	0.021641176
252	0xbc6ce3de	-0.014458625
253	0xbc6a6a37	-0.01430755
254	0x3bc86fab	0.0061168275
255	0xbbce5b77	-0.0062975246

action_model._discrete_distribution.branches.2.bias f4 [15]
0	0xbc8a7be7	-0.016904784
1	0x3bf226f6	0.0073898984
2	0xbcdccde8	-0.026953653
3	0xbc5f9939	-0.013647371
4	0x3b63a57b	0.0034736085
5	0x3c570637	0.01312404
6	0x3cbc6c82	0.02300096
7	0xb9f28cbc	-0.00046262692
8	0x3d024f2b	0.03181378
9	0x3c4ff3da	0.012692416
10	0xbcd7679a	-0.026294518
11	0xbc960055	-0.018310705
12	0x3b914954	0.00443379
13	0x3b88377c	0.004157005
14	0x3a4954f1	0.0007680199
