results/ParticipantRankingsAndAcceptedRankings/AgentBehavior/AgentBehavior-499978.onnx (onnx, 333671 bytes, 11 tensors)

discrete_act_size_vector f4 [1, 3]
00000000: 0000 8040 0000 7041 0000 7041
4.0 15.0 15.0

network_body._body_endoder.seq_layers.0.weight f4 [256, 30]
00000000: c95c 893e f48f f03d ef74 8d3d 5b20 853e
00000010: 5489 253e 3aba e0bd 2469 eb3d 9f8c 473e
00000020: 3bbc e0bd d0d8 8a3e e401 383d d59c 833e
00000030: 5829 bf3b ed4a f2bd 7284 993e 4048 f03d
00000040: 2a77 0abf 95b8 8e3d 8caf d83d b96b 3e3d
00000050: 82b5 51be 6eac 1ebe 8bbd 11be 863c db3e
00000060: 2df3 773e 9f96 973e 04ce 5fbe 23a7 b03d
00000070: 587d e4bc 31ab ef3d 3289 07bd 608c 52bd
00000080: 8c50 c33e 44b3 713e 53fd 62bc f8ac e03d
00000090: 8742 c9be 2d95 dfbd e680 be3e c750 9c3e
000000a0: a52d 303b 8ec8 a33e 2013 f03d ca48 dd3d
000000b0: 5674 e43d 8c37 fcbd 98b7 bb3d f075 4fbd
000000c0: 79d7 79bd cbc0 65bd 6fa9 f43b 97f6 423d
000000d0: a557 e6bd 5d5e e93d 795a 833d a11e b2bc
000000e0: d64f 3f3e 1921 92be 2264 ed3d 828d 29be
000000f0: b312 dabd 606d cd3d 7c6e 00be 272d ffbe
00000100: 1392 a2be 3d62 773e 52e1 a7bd 352c 02be
00000110: ab6c 87be 7c1f c83d 7bd9 573d 5865 b33c
00000120: e503 06be f36e 573d 0369 8bbe b5c8 a0be
00000130: 037b dfbe ddf2 38bd 735a 393e c485 acbb
00000140: aa74 9dbc fcd9 00be 5aad 9dbe da10 81be
00000150: b984 633d bdb1 2c3e abbe 483d 4fd6 e73d
00000160: 6e71 df3e 036c 30be 7662 94bd 52b6 95bd
00000170: f901 a33d e948 073c 2e48 c2bd b975 a3bd
00000180: c356 343e ce93 7e3e dec4 583e d82c c8be
00000190: f000 aabd 5aae 07bb bedc b03d b02e 66be
000001a0: fe8b f23d 4742 c0bb 716e e6bc 6702 2fbe
000001b0: d171 2c3e fae6 323e 2d2e 4a3c f396 be3d
000001c0: 1f99 60be 1608 95be 81ae 4bbd 7bf7 7abe
000001d0: 802d ae3e a570 1dbe 4ae4 513e e9af 97be
000001e0: 93b4 31be 9a7e 323e 1143 3f3d 1c48 62bd
000001f0: 4b85 923e 19a6 d33c bbc4 01be b756 3bbd
00000200: 2654 30bd 74c1 833e 720f 133d f243 02be
00000210: 9a6e 013d 3aae d33e 0456 823e 8ffa 1c3e
00000220: 5828 463e e087 683e aae0 ad3d f35d 24be
00000230: f3c8 37be 033c a8bc ad4a 163e d7c6 e13c
00000240: 8129 b13c 6c66 e1bd 63bb b33d f02f 4fbd
00000250: e22c 3ebe 434f 713e 9762 10be a916 493b
00000260: a208 983e 5437 653e 8151 063f d4c1 aabc
00000270: 5ad1 20bc db95 673e 7220 983d 270b ccbd
00000280: 92cd 543d 302e 4dbd f4db ebbd 1ab1 023e
00000290: 0b67 3f3e 0035 523e 3a6a 8abd b15e 073e
000002a0: 87f5 06be 7e7f 2abe d6e4 bfbd 1e7c 89be
000002b0: e3a7 7c3b 28e5 633c be08 6cbc 192b 0dbe
000002c0: c148 86be f039 b53d 7578 973c 391a 0ebe
000002d0: 6203 443d 7fdc 89be c351 8bba 9e73 553e
000002e0: 618c 6e3e 7ff5 59bd f243 503e bef8 5cbe
000002f0: ba18 c9bd a1bf b73d c37a cb3b 9166 243e
00000300: 5382 b13e 5e97 273e 6430 7b3e 5030 143e
00000310: 1f13 54be 8211 0cbc e0d4 3d3c 9376 d0bb
00000320: 4010 b53e 3a03 e3bd 87c2 56be 21bb 3ebe
00000330: 7959 e63d 52cb 26bd c9ca 8d3e d5bf 0ebe
00000340: 2c56 3b3e d9b4 06bf 9650 1cbe 4cb2 37be
00000350: 85b5 87be e2d5 453d 26e3 bbbd 8b81 aebd
00000360: efff e2bd d3e7 6bbe f9b5 243d 847d 66be
00000370: aa03 7bbe ede6 913d cd5f 833e 7f00 6ebe
00000380: 1c03 96be a152 c13d 50d5 5dbe 4fa0 7cbb
00000390: e152 04bb 9769 5e3c ce99 20be eea6 adbe
000003a0: cab9 d23c 6be4 b13e 7b48 d93d afa7 77be
000003b0: e03c 5bbe 3807 b73d 508b 0a3e 3cd1 93be
000003c0: 77e5 ffbb 5391 e3bc 361a 83bc 4110 1d3d
000003d0: d207 72be d711 323d ea0e 293e 5cc8 b63d
000003e0: 8609 bd3e 3034 873e 2b84 54be e041 183e
000003f0: 4e1d 113e e367 e63d 43d9 b7bd ed6b 563d
0.26828602 0.11746207 0.06907069 0.26001248 0.16165668 -0.1097302 0.11494663 0.19487236
-0.10973402 0.2711854 0.044923678 0.2570559 0.005833786 -0.11830697 0.2998386 0.117325306
-0.5408808 0.069688 0.10580358 0.04648945 -0.20479396 -0.15495464 -0.14232461 0.42819613
0.24213858 0.29607102 -0.21855932 0.08625629 -0.0278918 0.11702574 -0.033089824 -0.051403403
0.3814739 0.2360354 -0.0138543425 0.10970491 -0.3930857 -0.10917125 0.37207717 0.30530378
0.0026882675 0.3198895 0.11722398 0.10804899 0.11155002 -0.12315282 0.09165877 -0.050649583
-0.060996506 -0.056092065 0.007466487 0.047598448 -0.112471856 0.113949515 0.06413741 -0.02174312
0.18682799 -0.28540877 0.115913644 -0.16557887 -0.10648098 0.10030627 -0.12542146 -0.49839136
-0.3175207 0.24158569 -0.08197273 -0.12712176 -0.26450095 0.0977163 0.05269764 0.02189891
-0.13087423 0.052596044 -0.27228555 -0.31403127 -0.43648538 -0.045153487 0.1810091 -0.0052649695
-0.019220669 -0.12583154 -0.3079632 -0.2520817 0.055546496 0.16864677 0.04900996 0.11320173
0.43641227 -0.17228703 -0.072453424 -0.073101655 0.07959361 0.008257129 -0.094864234 -0.07981438
0.17611222 0.2486107 0.21168849 -0.39096713 -0.0830096 -0.0020703287 0.08635853 -0.22478747
0.11843108 -0.005867276 -0.028128834 -0.1709076 0.16840293 0.17470923 0.012340111 0.09306135
-0.21933411 -0.29107732 -0.049726967 -0.24508469 0.3401909 -0.15375002 0.20497242 -0.29626396
-0.1735404 0.17431107 0.04669482 -0.05524455 0.2861732 0.025836037 -0.12672703 -0.045736995
-0.043049 0.2573353 0.0359034 -0.12721232 0.03159962 0.41343862 0.2545625 0.15329956
0.19351327 0.22708082 0.08490117 -0.16051464 -0.1794775 -0.020536428 0.14676924 0.027560635
0.021626236 -0.110058635 0.087759756 -0.050582826 -0.18571809 0.23565392 -0.14100109 0.0030683673
0.29694086 0.22384387 0.52468115 -0.020844378 -0.009815538 0.22615759 0.074280635 -0.09963065
0.05195386 -0.050092876 -0.11516562 0.12762871 0.18691652 0.2052803 -0.06758542 0.13219716
-0.13179599 -0.16650197 -0.09369819 -0.26852506 0.0038552217 0.013909616 -0.014406381 -0.13785972
-0.26227382 0.08848941 0.018490056 -0.1387719 0.04785479 -0.26926038 -0.0010629225 0.20844886
0.23295738 -0.05321264 0.20338419 -0.21579263 -0.09819169 0.08972097 0.0062097027 0.16054751
0.34669742 0.16366336 0.24530178 0.14471555 -0.20710419 -0.008549096 0.011586398 -0.0063617914
0.3536396 -0.110846 -0.20972644 -0.18626072 0.11247534 -0.040721245 0.27693775 -0.13940366
0.1829459 -0.526197 -0.15265116 -0.17939109 -0.26505676 0.048299678 -0.091741845 -0.08520802
-0.11083972 -0.23037653 0.040212605 -0.22508818 -0.24513116 0.07124124 0.25659028 -0.23242377
-0.29299247 0.09439588 -0.21663404 -0.00385477 -0.0020191001 0.013574979 -0.15683672 -0.3391642
0.025723357 0.34744582 0.10609528 -0.2418506 -0.2140994 0.08936924 0.13529706 -0.2887057
-0.0078093368 -0.027779257 -0.01600371 0.03834558 -0.23635796 0.043474045 0.16509596 0.08924934
0.36921328 0.26407003 -0.20753543 0.1486888 0.14171335 0.112502836 -0.08976986 0.05234902

network_body._body_endoder.seq_layers.0.bias f4 [256]
00000000: 9546 db3b 12db 1d3d a298 58bb a980 073d
00000010: 4c97 d83b 234d 103d d913 043d e3c4 e6bb
00000020: 04b4 273c b6b6 a53c 78b9 7abc 5236 27bd
00000030: c775 e53c e674 a8bb 3431 7f3c 7de9 043c
00000040: 2469 b6bc 06c3 a63c b21e 92bc 5bc1 c5bb
00000050: 7dcc 663c dd50 b13c 3afb 85bc f349 ac3a
00000060: 9651 223c 337a 27bd 6dcc ab3a 3e6d dbba
00000070: 3f72 c53c 8d55 693c 78eb db3c fb40 203c
00000080: 22d8 ff3a 743e 803c bc7c 423b ff04 9f3b
00000090: de89 aabc 0eb4 31bc faf7 4d3c 04d3 b2ba
000000a0: 2344 153d 867b a3ba 7f6a 9b3c 5cb4 9d3c
000000b0: 6deb 1cbd f386 a63c 9f8c 0f3d e837 c03a
000000c0: 69e5 403d 962e 0fbd 2375 a0ba b953 58bc
000000d0: 7486 ce3c ae5b af3c 3512 413c 2707 9e3c
000000e0: bef4 b3bc b944 d1bb b001 213d b940 06bc
000000f0: 4852 8a3c 1758 963b 16ea c0bc c0ee 8b3c
00000100: f4a3 97ba c707 d43c 4cd8 103d 2374 213b
00000110: 370d a3bc 1bb6 a83c 2bf0 d4bb 66c5 a0bc
00000120: e768 b2bc 93aa ca3c a09e 453c 3b0e 9cbb
00000130: 6f07 103b 652d 81bc 6849 083d 2314 193b
00000140: 0326 37bc f07c aa3c 3992 013d 772e e53a
00000150: 76e3 ac3c f1f5 7fbc 22d8 e0bb a80e f53b
00000160: ab5f 4c3b 2bce 64bc 3e45 1b3d 7a4e 283a
00000170: a717 8a3c b3bc a3bc d895 0d3d e335 883d
00000180: 200b 6e3c 293a 4b3b 35aa 12bd a5cb 6b3c
00000190: 7988 df3c 28f7 8e3c 6823 8bbc 0bc5 2f3d
000001a0: a66c 1c3c 7246 00b9 0050 ecbb 5225 36bc
000001b0: e149 87bc 0c41 c7bb 04a6 063c 342e cb39
000001c0: 3845 883d a514 fe3b ef89 243a 3584 1b3c
000001d0: 8fbf dbbc 956c b63a 0e3d 983c 45c1 0fbc
000001e0: d5cf e7bb 82c1 0abc 20fa 903c 05f6 ea3c
000001f0: abdb 13ba 8dbd b53c 149a bdbc 6f76 723c
00000200: 859a d33b 59c4 8a3c 1783 38bc d097 fc3c
00000210: 6a19 253b dbb1 84bc 4770 183d db46 193d
00000220: 851d e23c 48ce 82bc 8125 cc3b f902 4dbc
00000230: 1205 dbbb 00ae df3c 390d 9c3c c744 5bbc
00000240: fa32 e83a 3b3f b1bc 20de 0c3c 5011 6a3c
00000250: 4bb0 983c 4c8e ea3a 3822 eeba 7bcd 063d
00000260: 3263 093b 6f69 0c3c 82e0 2abc 57d0 1d3d
00000270: 8322 c6bc abcf 1b3d c782 fa3b 0d42 2cbc
00000280: 2fdd 843b 521e 6d3c 6eda 3c3c 69f1 f939
00000290: bb37 f9bb ee29 943c 0973 a3bc dfdd ab3c
000002a0: b106 5fbd 7da7 35bb 34cc a9bc 15e8 cc3c
000002b0: 0f28 1d3d 970a d13c 563b 1e3d 254d 3dbc
000002c0: 13e8 e83b 11f1 81bb b614 4fbc 502f 613c
000002d0: 4806 49bc 7102 373c 9096 1b3d 48c0 593d
000002e0: ab7b 8b3c 3a46 e93c 6f0c e9bb 50e2 0c3c
000002f0: 2f2a 7a3c 057e 9e3c 7aee d5bb e735 1c3c
00000300: 98dc 22bb c2d7 0c3d af28 933c 809c ab3c
00000310: 3746 0f3d 14a6 09bd c68a fe3a 9f99 9a39
00000320: ae9a 8dbc 094a 4f3d 9bd7 3cbc 59ce 0c3c
00000330: f9b4 043d 2192 4d3d 7119 90bc bddb b63b
00000340: 325a ff3c 4a51 a83c cddb d83c 34c5 183d
00000350: 7dfc de3a f64e 50bc dc24 803c ed63 fd3b
00000360: 455e 1b3d 79ad 9f3b 4c9b 4fbb 5ebd 43bc
00000370: 284f 193d d80b d9bb b2ca 953c a853 c63c
00000380: aa2b ce3c 214d 3f3d 86f0 e73c 4a95 83bc
00000390: 14b1 3a3c 4906 a7bc 513c a4bc 526c 893b
000003a0: 9ae6 493d 031b 853c 00ea 353c 7cc1 703c
000003b0: 9465 9c3c fd7b 1b3c 9122 783c 72da 65ba
000003c0: dd53 2e3d a59d 6e3c e604 c5bb c500 8e3a
000003d0: bd44 3d3d 7250 89ba b6df 633c c14b bf3c
000003e0: e90a ee3c 9588 613d 15b6 023d 26cb 363b
000003f0: 4a04 44bc b0ac 4d3c 04ee 8c3b 7adc 453c
0.0066917636 0.038539 -0.003304996 0.033081684 0.006609833 0.035229813 0.03224549 -0.0070425137
0.01023579 0.020228725 -0.015303008 -0.04082329 0.028010262 -0.0051408885 0.015575696 0.008112309
-0.022266932 0.020356666 -0.017836902 -0.0060350127 0.01408684 0.021645004 -0.016355146 0.0013144597
0.009907147 -0.040888023 0.0013107188 -0.0016740931 0.024102328 0.014241588 0.026845679 0.009781118
0.0019519369 0.01565478 0.0029676398 0.0048528905 -0.020817693 -0.010846151 0.012571329 -0.001364321
0.036441933 -0.0012472726 0.01897168 0.019251041 -0.038310457 0.02032802 0.035046216 0.0014665099
0.047093783 -0.034956537 -0.0012241941 -0.013203555 0.025210597 0.021406021 0.011784126 0.01929052
-0.021967288 -0.006386366 0.03930825 -0.008194142 0.016884938 0.004588138 -0.02354912 0.017081618
-0.0011569248 0.025882615 0.035362527 0.0024635873 -0.019903762 0.020594647 -0.006498357 -0.019625377
-0.021778537 0.02473954 0.012061745 -0.0047624386 0.0021977087 -0.015768716 0.03327313 0.002335795
-0.011178496 0.020811528 0.03163359 0.0017485161 0.021104556 -0.015622602 -0.0068617025 0.007478554
0.0031184952 -0.01396517 0.03790783 0.00064203853 0.016856981 -0.01998744 0.03456673 0.06650903
0.01452902 0.0031010008 -0.035806853 0.014391814 0.027286755 0.017451838 -0.016984656 0.042912524
0.009547388 -0.00012233274 -0.007211685 -0.011117296 -0.01651472 -0.0060807522 0.008218292 0.000387536
0.066538274 0.007753926 0.0006276657 0.00949197 -0.02682474 0.0013917858 0.0185838 -0.008774106
-0.007074336 -0.008468987 0.017697394 0.028681764 -0.0005640338 0.022185111 -0.02314476 0.014798745
0.006457629 0.016939329 -0.011261723 0.030834109 0.002519215 -0.01619809 0.03721645 0.03742109
0.027601967 -0.015967503 0.0062300568 -0.012512916 -0.006683954 0.02730465 0.019049274 -0.013383097
0.0017715388 -0.021636596 0.008597881 0.014286354 0.01863875 0.0017895191 -0.0018168157 0.032910805
0.0020963666 0.008570059 -0.010429503 0.038528766 -0.024186378 0.038039844 0.0076449844 -0.010513795
0.0040546875 0.014472561 0.011526687 0.00047672846 -0.0076055205 0.0180864 -0.019952314 0.02097982
-0.05444974 -0.002771824 -0.020727254 0.02501301 0.03836828 0.025517745 0.038630806 -0.011554037
0.0071077435 -0.003965505 -0.012639215 0.01374419 -0.012269564 0.011170016 0.037985384 0.05316189
0.017026743 0.02847587 -0.007112078 0.008598879 0.015268846 0.0193472 -0.0065286728 0.009534336
-0.0024850722 0.03438545 0.017963735 0.020948648 0.03497907 -0.03360565 0.001942002 0.00029487626
-0.017285671 0.050607715 -0.011526014 0.008594119 0.03239915 0.050188188 -0.017590256 0.005580394
0.031170938 0.020546574 0.026471997 0.037297443 0.0017012503 -0.012714138 0.015642576 0.0077328593
0.0379317 0.0048729745 -0.0031678258 -0.011947004 0.037429005 -0.0066237263 0.01828513 0.024209812
0.025167305 0.046704415 0.028312933 -0.016062398 0.011394758 -0.02038874 -0.020048292 0.004193821
0.049292184 0.016248232 0.011103153 0.014694568 0.019091405 0.00949001 0.01514496 -0.00087682076
0.042560447 0.014563953 -0.006012547 0.001083397 0.046208132 -0.0010476245 0.013908317 0.023351552
0.029057937 0.055061895 0.03191193 0.0027892082 -0.011963913 0.012553379 0.0043008346 0.0120764915

network_body._body_endoder.seq_layers.2.weight f4 [256, 256]
00000000: 452d 183d 16a6 7b3d bc66 a3bd 58a5 05be
00000010: 3b9b 16bd c3de fa3c 1e1f 8a3d dc8a 31bd
00000020: 007a 94bd 8eed 2d3e 115b be3c 5389 19bd
00000030: 8843 63bd a272 5c3c 8031 6dbc a0ef 2dbd
00000040: 63b1 88bd 23eb a2bd 3105 4ebb a4d7 e1bc
00000050: 131f c63d 5113 39bd 970e 9fbd ad9a 2b3d
00000060: 7aab 853d 1e7f bfbd 5b76 9c3d 570f 913b
00000070: 0a75 693d f508 80bc 72dd fdbb 5097 ea3c
00000080: 74f5 c7bd c66f 7bbd d245 373d 6d43 61bc
00000090: 2303 8c3b 0eeb 0d3d e311 49bd 9704 093d
000000a0: efbd 033c 4b8f 6abd 3ade 673d 5e79 323c
000000b0: ddc9 163d 15e9 993d 6f09 a53c ff4e 133d
000000c0: 2339 9137 cd5a 753d 4e2f dbbd d6fd 0d3e
000000d0: 6c6f b7bd e62d d7bb eef1 c53d a266 663d
000000e0: 33e0 f93d 8ebb 05bd 9af8 2e3c cae0 c83d
000000f0: fb4a 85bc cef9 ea3c 5244 be3c c686 b2bd
00000100: 438a 05bd 4353 8fbd 446d 8e3d 2c7a fe3c
00000110: fbcf 823c e519 30bd 91af 4abd aab0 33bd
00000120: ea89 903c 9494 f03d 15cf d13c 31d7 1c3e
00000130: c919 35be c7dc 64bd be11 6f3d 8e14 3ebd
00000140: 61ca fb3c 5540 503d d29b 743c c5ba c6bd
00000150: 5f1f 25bd 759d 35bd 59c8 2bbe e3a4 8abc
00000160: d22d da3d 1509 b8bd 9a65 0ebc 5b07 ad3c
00000170: b862 a53d 95ad 8d3d 5a5c 023e 511b aa3d
00000180: d261 92bd 10a3 67bd a8dc 0dbd 8345 243c
00000190: c3d1 2e3d 70ad 083e 0690 eebc 9e51 2e3d
000001a0: 5320 68bd 3246 f33d f619 f73c 62d0 0b3d
000001b0: e890 18bd c090 bf3d 556c b9ba a76f 073e
000001c0: 7ea9 493d ac4a 7f3d 413e 06be 4292 74bd
000001d0: 13fc 03be bbba 4e3d c4c4 693d 2f40 8e3c
000001e0: 62f8 8f3d 3b11 68bd 0439 093d 467c ccbd
000001f0: ddb2 213b c650 eebc 790f bebc d4c3 adbd
00000200: 3f84 333d 76f8 b63c 0f44 883d 9099 b33c
00000210: b148 053c 1979 a7bc b0bd 383d 6029 25bd
00000220: 36c3 43bd ed3c 00bd 1ced 823c 3727 8dbd
00000230: 26fb 1ebd 4638 6a3a db2c d33b 0bf2 ecbd
00000240: f6eb 63bd 1dcc 52bc 1cf4 8a3d 4fc0 9a3d
00000250: 0505 9b3d 8c72 ad3c 5c30 3dbd 6dc9 ddbc
00000260: 81c9 49bd 7f9b 863d 1b8d eebc e112 d1b9
00000270: 1dc6 43bd 6fac 673d 656c 8d3c eb34 ad3d
00000280: 0f7c c93c 24c7 ef3c 1cdb 643d f3ad c8bc
00000290: 27a6 1bbd 44a4 1a3d 10d3 94bd d045 0ebd
000002a0: d533 cbbb faf6 40bd d829 25bd a687 92bd
000002b0: 78f6 3b3d 1415 c93d 2648 933d d677 1b3e
000002c0: a05e f43b 0452 08bd 5212 583d 90ea 5e3c
000002d0: 58b2 a6bc b273 89bd c300 c33d 8872 6e3d
000002e0: 499c 183c 1037 3d3d 256f 493b 9e97 95bd
000002f0: 5c71 813d 9515 f63c 6f0d 9abc aab1 513d
00000300: 859c 9e3c b448 28bd 46ea 1f3e 4a66 573d
00000310: 85cd c0bd 2b81 8dbc 693a 4b3d 5912 77bd
00000320: 8d1e 423d c031 8b3c dcea c8bd eb1f 703c
00000330: d011 73bc ade8 90bd 66c3 9a3d e3aa c8bd
00000340: 779d 10bd 5776 86bc 3a90 d9bc 36af 8f3d
00000350: 9c08 a2bc 5f53 033d 691b 34bd da45 943a
00000360: a667 883d c0de 06bc 85d3 493e 0fc1 bfbd
00000370: 82c6 043e c40e 62bc 80bf 983d 1fb0 693c
00000380: 3684 da3c 2418 ed3d 5c75 4a3d 4875 2abb
00000390: b38f 8abc f0dd 3dbd 3e55 843b 3790 febd
000003a0: db10 483d 2def 03bc c1bb bbbd 11a8 8f3c
000003b0: 1bf6 f63c 3b68 c0bd df87 d4bc 3084 aabd
000003c0: 1279 133e 5112 cfbc f689 533d 7299 c9bd
000003d0: df35 173b 708e 113b d8b1 f13d 5f86 3cbc
000003e0: c6f7 173c 3b60 68bd db75 29bd 0cdd 2b3d
000003f0: 6c1f 903d 911d bfbd f342 503d d01a ef3c
0.037152547 0.06143769 -0.079785794 -0.13051355 -0.036769133 0.0306238 0.067442164 -0.043345317
-0.07249832 0.16985151 0.023236783 -0.03748448 -0.055484325 0.013455065 -0.014477134 -0.042464852
-0.06674459 -0.07955005 -0.00314362 -0.027568646 0.09673896 -0.045184437 -0.07766455 0.041895557
0.06526847 -0.093504176 0.07639762 0.0044268775 0.056996383 -0.015629271 -0.0077473456 0.028636605
-0.09763613 -0.061385892 0.04474432 -0.013748986 0.004272835 0.034647994 -0.049089324 0.033451643
0.008040889 -0.05726556 0.056608416 0.010893194 0.036813606 0.0751516 0.0201461 0.03596401
1.7311953e-05 0.059901047 -0.10702382 0.13866362 -0.08956799 -0.006566751 0.09665285 0.056250222
0.12200966 -0.03264957 0.010679388 0.098085 -0.016271105 0.02868357 0.023225937 -0.08717112
-0.03260256 -0.06998303 0.069544345 0.031064115 0.015968313 -0.042993445 -0.04948384 -0.04386965
0.017643888 0.11747089 0.02561144 0.15316464 -0.17685618 -0.055874612 0.05836653 -0.04640632
0.03073615 0.0508426 0.014929729 -0.09703592 -0.04031312 -0.044339616 -0.16775645 -0.016924327
0.10653271 -0.08986107 -0.008691216 0.021121671 0.0807547 0.06917874 0.12730542 0.083059914
-0.07147564 -0.056551993 -0.034634262 0.0100263385 0.042680513 0.13347411 -0.02912141 0.042558305
-0.05667145 0.11878623 0.030163746 0.034134276 -0.03724757 0.09353781 -0.0014146665 0.13226186
0.049233906 0.062327072 -0.13109685 -0.059709795 -0.12889127 0.05047105 0.057072416 0.01736459
0.07029797 -0.056657057 0.03350164 -0.09984641 0.0024673261 -0.02909125 -0.023200737 -0.08484617
0.04382729 0.022335272 0.06653606 0.02192381 0.008135007 -0.020443486 0.045102775 -0.04032266
-0.04779359 -0.031308103 0.015982203 -0.06892245 -0.038813733 0.0008934777 0.006444556 -0.115696035
-0.05564495 -0.012866047 0.067848414 0.07556211 0.07569317 0.021172784 -0.046188697 -0.027073586
-0.049264435 0.06572627 -0.029120019 -0.00039877652 -0.047796357 0.05656093 0.0172636 0.08457359
0.024595289 0.029269762 0.05587302 -0.024497008 -0.038000252 0.037754312 -0.072668195 -0.034734547
-0.006201247 -0.047110535 -0.04032311 -0.07154779 0.045889348 0.098184735 0.071914956 0.15182433
0.0074575692 -0.03328134 0.052751847 0.013605729 -0.020348713 -0.0671152 0.0952163 0.058214694
0.009314605 0.04619509 0.0030736413 -0.07304309 0.0632045 0.030039588 -0.018805234 0.051194824
0.019361744 -0.04108496 0.15616712 0.052587785 -0.094142 -0.017273506 0.04961625 -0.060320232
0.047392417 0.016991496 -0.09810421 0.014656047 -0.01483579 -0.070756294 0.075568005 -0.09798219
-0.03530642 -0.01641385 -0.02655803 0.07015841 -0.019779496 0.03206193 -0.043971453 0.0011312321
0.06660394 -0.008231819 0.19709595 -0.09362995 0.1296635 -0.013797466 0.07458401 0.014263182
0.026674371 0.1157687 0.04942833 -0.0026009846 -0.016914224 -0.046354234 0.004038482 -0.124298505
0.0488442 -0.008052629 -0.091666706 0.017536195 0.03014665 -0.093948804 -0.025943695 -0.08325994
0.14401653 -0.025277289 0.05164524 -0.098437205 0.002307288 0.0022210144 0.11801499 -0.011506646
0.009275382 -0.056732398 -0.04137216 0.041958854 0.07037243 -0.09331811 0.050845098 0.02918759

network_body._body_endoder.seq_layers.2.bias f4 [256]
00000000: 6b6a d53c 478d 23bc f486 55bb 0dd0 90bc
00000010: 93db 5cbc 4e6e 953c 822d 33bc af91 a93b
00000020: 59c3 0d3c 4c79 183c e925 a2bb b7a2 fd3b
00000030: 6d3f f0ba c2b5 1cbc 43e2 e43b 174d d23c
00000040: f492 133c c560 cbbb fb2c a4bb 820d ba3c
00000050: 7c6f b0b9 3133 ddbc 79fc 0e3c 4c6f 15bc
00000060: c1dd 143c d41a cd3b 39a1 2cbb f6d9 b1bc
00000070: 45ad 2a3d 6f05 b8bc d462 973c 6548 03bc
00000080: 611a 523c 69e0 4bbc 27f4 883c d2ef ad3c
00000090: 1588 c73c 8222 813c 1917 bebc 4b71 293b
000000a0: 73a7 d7bb cd65 4f3c ab03 7cbc ed8e 1d3c
000000b0: cac0 b83c a528 a0ba 9b2b 4d3c 3a4c 62bb
000000c0: 2006 bcbc dbdc ce3c 9cb2 c3bb 268f b4bc
000000d0: 2481 f7bb de5f bfbc 2c7b 8a3c 59d7 44bc
000000e0: 8c15 483b e51a ba3c 44dc 31bc c007 54bc
000000f0: 99b3 3d3c 9ca7 aabc 32ef b93c ba00 f9bb
00000100: 2675 963c e36b c23c 64dc b43c 800c fabb
00000110: 9875 09bc f4e1 12bc df76 30bc e46e fb3a
00000120: dbf8 983a e6c5 51bc f582 ddbb f372 6f3c
00000130: b952 433c 42bc 533c 9c45 343c f01e b23c
00000140: 5388 a0bc 2f37 e13c e0cc 4dba eb8d 96bc
00000150: 988f 22bc 0389 083d 58f7 44bb 58db 363c
00000160: 3bf9 453c 2721 4cbc 4c2e 29bc 88c2 1e3b
00000170: 2deb c13c f6b0 71bc 6d48 463c f18f 4a3d
00000180: 5626 7d3c 8544 cebc 52d3 bdbb cb94 fc3c
00000190: 24eb 3f3c 3eac 9c3c da65 503c 8623 99bc
000001a0: 5782 44ba 4682 983c 0437 113d 1dcf c4bb
000001b0: c0ea 9e3b 10f9 53bb 0e65 8d3c c6a1 d93b
000001c0: 127b a4bc fd97 a23c d7b7 9abc d27d 82bc
000001d0: cb99 c3bc e500 383c 670f b9bb 74cd 673b
000001e0: 35bd 0538 a348 6cba b010 86bc 5d3d 00bc
000001f0: ed0f a23c 1306 7d3c fe7f 383c 3cbf 3c3c
00000200: e039 0c3a 3dae ff3b 1a7e 333b 6a3e 4abb
00000210: 2bd8 db3b 0163 5b3c 1ed3 daba e1b5 8ebc
00000220: 51cd 3f3c 582c a1bb 20d6 04bc 11e4 f0bb
00000230: 3331 813c d51a 023c 8af5 863c 92dc de3b
00000240: 7a82 0aba e00d 45bc 383e e93a 9c13 103c
00000250: 07ce f23c d4ca 60bc db53 60bc 4fd8 b63b
00000260: d579 543a df34 893b 9f5f 9c3a 9d98 a9bc
00000270: 9066 933c 5713 12bc 6e3c 1cbc d39d d9ba
00000280: a448 1d3c c8d1 56bc 4c33 a6bb cb05 483c
00000290: 4b77 50bb 6a8f 88bc 207f 49bc 2593 1bbc
000002a0: 17e6 be3b 3fad b03c 3385 47bb c3b5 9e3c
000002b0: 2433 aa3c 5d6b d9ba 8f92 27bc f959 68bc
000002c0: 2a20 cfbb 1e1a 053d f5d6 96bb d84b 6f3c
000002d0: 1a78 20bc 4eb5 133c c829 783c ee4e 3c3c
000002e0: a4b3 fb3c 7136 a93c ab02 9b3c 50bf 5dbb
000002f0: 185c 9abb 7c86 f8bb c734 d5bb ace6 c73b
00000300: bcf8 af3c cda8 af3b 29d7 75ba d184 c33b
00000310: 458e 343c a5fc 8a3c 4301 19bc 2f6d 53bc
00000320: 1feb c83c 6d1b c03c 22ac c1bc d535 c73c
00000330: aea1 eb3c 84a0 993b 2690 2c3c 2a71 193c
00000340: 5636 293c 2503 83bb 3494 103c aec6 003b
00000350: 64dd d6bc 4d9c 8abc ec0e d13b 598f 003d
00000360: 19a0 2bbc 2c61 853c 96d1 2fbc 094e e9bc
00000370: 44a4 a6bb 9292 1dbb f6d7 913b 8895 a53c
00000380: 37ac 123b 01f7 a53c 4e2f 92bb d10a e43c
00000390: 08c7 a53c 81db b53b 8996 203a abe8 91bc
000003a0: b3d3 7db9 7381 94bc b526 82bc d633 12bb
000003b0: ae57 543b 9fd6 b0bc f427 f13c 2673 dbbb
000003c0: c3e4 79bc f15d cbbb c861 0c3c e8ab 983c
000003d0: 4f0a 67bb 1f6e 9d3c 22b4 36bc 70c2 56bc
000003e0: 1dbe 933c eeed 81ba 28da 0d3c 859b 3fbc
000003f0: fdf4 a0bb 4287 173c 8e8b d73c 4e3b 723b
0.02605172 -0.009982414 -0.003258166 -0.017677331 -0.013480085 0.018241074 -0.010936143 0.0051748375
0.008652532 0.009306263 -0.004948367 0.0077403444 -0.0018329449 -0.009564819 0.0069849803 0.025671525
0.009007204 -0.006206604 -0.005010245 0.02271152 -0.00033652398 -0.027001949 0.008727186 -0.0091207735
0.009086073 0.0062593017 -0.0026341213 -0.021710377 0.04166915 -0.022463528 0.018479742 -0.008012866
0.012823672 -0.01244364 0.016717983 0.02123252 0.024356881 0.015763525 -0.023204373 0.0025854881
-0.006581241 0.012658549 -0.015381734 0.009616596 0.022552866 -0.0012219144 0.012522603 -0.0034530298
-0.02295214 0.025251796 -0.0059722196 -0.022040915 -0.0075532366 -0.023361143 0.016904436 -0.0120142335
0.003053042 0.022717902 -0.010855738 -0.012941301 0.011578464 -0.020831876 0.022697065 -0.0075989636
0.018366408 0.023733085 0.022077747 -0.0076308846 -0.008389853 -0.008965004 -0.010770529 0.0019182828
0.0011670844 -0.01280353 -0.006759996 0.014614808 0.011921578 0.012923302 0.011002924 0.021743268
-0.019596254 0.027492134 -0.0007850658 -0.018378219 -0.009921931 0.03333379 -0.0030054655 0.011160694
0.012083347 -0.012459076 -0.010325979 0.0024224836 0.02367171 -0.014751663 0.012102229 0.04945368
0.0154510345 -0.025179157 -0.0057930136 0.030832669 0.011713777 0.0191251 0.012719596 -0.018693697
-0.0007496229 0.018616807 0.035452858 -0.006006135 0.0048497617 -0.0032344498 0.0172601 0.0066415993
-0.020078216 0.019847864 -0.01888649 -0.015929136 -0.023877045 0.011230682 -0.005647588 0.0035370262
3.1885884e-05 -0.0009013509 -0.01636538 -0.00782713 0.019782985 0.015443343 0.011260984 0.011520203
0.00053492 0.0078027532 0.0027388395 -0.0030859956 0.006709119 0.013390304 -0.0016694998 -0.017420711
0.011706666 -0.0049186163 -0.008107692 -0.0073514064 0.01577053 0.007940968 0.016474504 0.0068011964
-0.0005283725 -0.012027234 0.0017795032 0.008793738 0.029639257 -0.013720233 -0.013691868 0.005579985
0.00081053126 0.004187211 0.0011930353 -0.020702654 0.017993242 -0.008915744 -0.009535892 -0.0016602821
0.009599838 -0.013111539 -0.005072033 0.012208412 -0.0031809385 -0.016669948 -0.012298375 -0.009495531
0.0058257687 0.021566985 -0.0030444383 0.01937378 0.020776339 -0.0016587783 -0.010227813 -0.014181607
-0.006320973 0.03249561 -0.0046032616 0.014605485 -0.009794259 0.009015394 0.01514668 0.011493428
0.030725308 0.020655842 0.01892217 -0.0033835955 -0.0047106855 -0.007584391 -0.0065065357 0.0061004963
0.02148091 0.005360699 -0.00093780697 0.0059667607 0.011020248 0.016966173 -0.00933868 -0.012904449
0.024526177 0.023450578 -0.02364165 0.024317661 0.028763618 0.0046883244 0.010532415 0.009365359
0.010327896 -0.0039981776 0.008824397 0.0019649672 -0.026228614 -0.016920233 0.0063799527 0.031386707
-0.010475182 0.016281687 -0.0107311215 -0.028479593 -0.0050855 -0.0024043662 0.0044507934 0.020212904
0.002238048 0.020259382 -0.0044612056 0.027837189 0.020236507 0.0055498485 0.0006125947 -0.01781114
-0.00024206824 -0.018128132 -0.015887598 -0.0022308729 0.0032400894 -0.021586714 0.029437996 -0.0066970764
-0.015252295 -0.006206267 0.008568235 0.018636659 -0.0035253947 0.019217549 -0.011151345 -0.013107881
0.018034989 -0.0009912828 0.00865797 -0.011694794 -0.0049120174 0.009248557 0.026311662 0.0036961618

action_model._discrete_distribution.branches.0.weight f4 [4, 256]
00000000: b3f4 3c3b 78d0 873c d328 de3b 03e0 7fbc
00000010: 0acf 453c 9071 16bc 4ce3 7d3c aca7 3bbc
00000020: 4a46 e3bb cb63 6fbc 10d3 613b db9b ad3a
00000030: 2c5b c239 e7fc a83c 999e eebb 2cba 3cbc
00000040: 9e88 65bc d3c9 213b dcb5 af3c a096 c33b
00000050: 5a84 c5bb b512 b0bb 4dea f8bb f880 09bc
00000060: 6358 a3bb 2a05 3dbc 3c4e 92bc fa52 be3c
00000070: e6c1 e43b 6f36 1dba 161f 9d3c d3e3 79bb
00000080: 664a 5d3a 8676 943b 2b31 9fbb bafe 88bc
00000090: 592a 14bc 87a8 05bb 5575 dd3c 62d0 94bb
000000a0: db16 67bb 1985 d4bc 43a4 953c 86e6 253c
000000b0: 8edd babb 2f75 cdbb f59c 25bc 63aa 87bc
000000c0: 2da3 5f3c abb3 6c3c 2e3b 8c3c 4387 4f3b
000000d0: 9815 0c3c 0c55 923c 6d65 883a c405 10bc
000000e0: 2d0a 233b 0c2d 88bb 970d 933c caeb 98bc
000000f0: f03a 3dbb 48cb b13c ca4d 7dbb f6e7 00bc
00000100: 0351 583c 6f6d 86bc 6093 55bb 7316 a8bc
00000110: 3a65 4dbc eb93 fcba 9e06 5ebc 7cdd ef3b
00000120: 6b7c 1c3c 85c8 4bbb ee60 01bb 9198 0abc
00000130: 4be3 903b 4a52 76bc 4105 8b3b d925 ba3b
00000140: 4eb5 42bc 25a8 a13b e490 8ebc 0065 083d
00000150: d324 5639 406f bebb 490e 803b 7dd4 d63b
00000160: 9f8d 26bc f53a 773c 66b2 613c fc64 4b3c
00000170: 1bd9 8cbc 331c c53c 3d14 df3c bdb6 d5bb
00000180: f1a2 7dbb 9d67 ab3a 0785 a539 7c30 57bc
00000190: e497 c7bc fc8f 49bc a892 713c acc5 f83b
000001a0: 22e3 1ebc 317d c63c 2c55 633c 216f f33b
000001b0: e681 26bc f7f8 febb ee35 a33b 2d79 14bc
000001c0: eed1 fcb8 375f 96bb 1058 4fbb e43f 2a3c
000001d0: bc39 44bc 053c bf3b c63a 1b3c c77d 5f3b
000001e0: c503 6cbc 0264 0f3c e448 963c 865f 66ba
000001f0: 7899 3dbc bbdd babc 42cb 473b 01b4 8b3b
00000200: e5c9 103c 95c1 b93b 5c73 ddbb 6e00 303c
00000210: d4cb 533a eca1 0e3c 31ff 1c3a 3988 123c
00000220: 859f 47bc 46f1 b23b 6c3d 0abc 2eda 2a3c
00000230: e876 ff3b c37a 633c dd3b 7abc f438 183c
00000240: 15df 4fbc f8e6 e03c d6ea acbc c1e1 abbc
00000250: 3584 5b3a b14b cbbb 85a7 d7b9 3669 e9bb
00000260: 5dbd 74ba 14a2 98bb 7649 bb3c 94f0 243c
00000270: c03d 4e3c e9ab 6a3c 70ae e5bb a418 07bc
00000280: f528 ebba 8856 693b 1a79 073b a2ae 1f3b
00000290: f6f0 21b9 6208 99bb 7f3c 3239 2238 953b
000002a0: 5db4 9fbc c21d a73b 0013 c2bc 7b27 92ba
000002b0: 976b f73b 2034 36bc 6e9d 1a3c 2091 8d3b
000002c0: e38e 9a3c 5413 5a3c 4c54 86bc d02a 4ebb
000002d0: 78ee bf3a 2034 abbb 0593 3bbc e040 193a
000002e0: 2483 17bc fd16 b7bc f966 8bbc ec3f dab9
000002f0: c4d4 9e3b 0bfc f03c 7fa6 0839 2671 35bc
00000300: 4f3e fc3b e793 8ebc e25c 0939 b724 70ba
00000310: 5ff2 22bc 160f 4cbc c1a8 bb3b 86e2 133b
00000320: 97ea 07bc 7ad5 4c3b 1289 c43c fd55 8d3b
00000330: 4053 7fbc 3c4a 85bc aade 803b 3249 eebb
00000340: f9f7 2e3c b4e6 3bbc eb75 5ebc 368a 94bb
00000350: 560c e03b 55c5 e4ba a789 ec3b 0d31 89bc
00000360: 02fc fcba 799a 3cbb b7b9 a73b 0612 743b
00000370: 1b18 6c3c 01a4 b1bb 053f 38bc e253 8ebb
00000380: 7c7f 6bbc f469 7d3c 2b5f 923c 8061 b5bc
00000390: 3d8b b639 ec51 323c 356a 67bb 2936 063c
000003a0: d5cf 653a 12fe a43b 458d 473b 3311 04bd
000003b0: ca8c 60bb 25f6 68bc 30a3 45bc 121c 993c
000003c0: 146b 8cbb e00b 4fbc 7fb1 88bc 4b75 183b
000003d0: ee93 0cba 26ce 47bc 23cf 353c 7a06 523c
000003e0: 1705 94bc ea1d 4539 fd6f 3fbc 2fe1 833b
000003f0: 37ea c9b9 d866 4f3b b7e4 efbb 1291 b43b
0.0028832376 0.016578898 0.006779769 -0.015617373 0.012073288 -0.009182349 0.015496086 -0.01145355
-0.0069358693 -0.014611195 0.0034458078 0.0013245301 0.00037070492 0.020628406 -0.00728209 -0.011518996
-0.014009623 0.0024686947 0.021449022 0.0059688836 -0.0060277404 -0.005373324 -0.00759629 -0.008392565
-0.0049849018 -0.011536876 -0.01785957 0.023232926 0.0069811223 -0.0005997186 0.019179862 -0.0038130179
0.0008441567 0.0045307307 -0.004858156 -0.016723026 -0.0090433 -0.002039464 0.027033487 -0.0045414427
-0.0035261426 -0.025942372 0.018266803 0.010125762 -0.005702681 -0.006270073 -0.010108222 -0.016560739
0.013649744 0.014447133 0.017118063 0.0031666316 0.00855007 0.01786282 0.0010406204 -0.008790437
0.0024877891 -0.0041557606 0.017950816 -0.01866712 -0.002887424 0.021703377 -0.0038651102 -0.007867804
0.013202908 -0.016409604 -0.0032589063 -0.020518517 -0.012536341 -0.0019270157 -0.013551382 0.007320104
0.009551148 -0.003109486 -0.0019741612 -0.008459226 0.0044216267 -0.015034268 0.0042425697 0.0056807813
-0.011884047 0.0049333745 -0.017403074 0.033299446 0.00020422348 -0.005811602 0.003907953 0.0065560923
-0.010165601 0.01508974 0.013775444 0.012414213 -0.017193368 0.024061298 0.02723133 -0.0065220282
-0.0038701857 0.0013077144 0.00031570366 -0.013134118 -0.02436442 -0.012302395 0.014744438 0.0075919237
-0.009697707 0.024229618 0.013875287 0.007429019 -0.010162806 -0.0077811438 0.004980794 -0.009062094
-0.00012055399 -0.004588987 -0.0031638183 0.010391209 -0.011976656 0.0058360123 0.009474462 0.0034102069
-0.014405196 0.008751871 0.018345304 -0.0008788038 -0.011572234 -0.022810807 0.0030486141 0.0042634015
0.008837198 0.0056688287 -0.0067581367 0.01074229 0.0008079384 0.008705597 0.0005988954 0.008943611
-0.0121840285 0.005460891 -0.008437496 0.010427995 0.007796157 0.013884249 -0.015273062 0.009290922
-0.012687464 0.027453884 -0.021108072 -0.020981671 0.00083738874 -0.0062040915 -0.00041132807 -0.007123138
-0.00093360787 -0.004657993 0.022862177 0.010067124 0.012587965 0.014323213 -0.00700932 -0.008245621
-0.0017941283 0.0035604555 0.0020671547 0.0024365564 -0.00015443921 -0.0046701888 0.0001699794 0.0045538107
-0.019495184 0.005099983 -0.0236907 -0.0011150682 0.0075506675 -0.011120826 0.009436948 0.0043202788
0.018866962 0.013310272 -0.016397618 -0.0031458624 0.0014643213 -0.0052247196 -0.011448626 0.0005846154
-0.009247575 -0.022349829 -0.017016875 -0.00041627826 0.004847141 0.029417058 0.00013031995 -0.01107434
0.0076978575 -0.01740451 0.0001309994 -0.00091607444 -0.009945481 -0.012454769 0.005726904 0.0022565438
-0.008295677 0.0031255172 0.023991141 0.004313229 -0.015583813 -0.01627075 0.0039327936 -0.007271909
0.0106792385 -0.011468578 -0.0135779185 -0.0045330776 0.006837408 -0.0017453829 0.007218558 -0.016747022
-0.0019301178 -0.0028778596 0.0051185745 0.0037242188 0.014410044 -0.005421162 -0.011245494 -0.0043434957
-0.014373656 0.015467156 0.017867645 -0.022141218 0.00034817486 0.0108837895 -0.0035311107 0.008191624
0.0008766626 0.0050351704 0.0030449193 -0.032242965 -0.0034263604 -0.014218842 -0.012062833 0.018690143
-0.0042852256 -0.012637109 -0.0166862 0.0023263271 -0.00053626194 -0.012195146 0.0110967485 0.012818927
-0.018068833 0.00018798528 -0.011684415 0.0040246467 -0.0003851221 0.0031646993 -0.007320966 0.005510458

action_model._discrete_distribution.branches.0.bias f4 [4]
00000000: 36b0 aebc f202 dc3c f850 783c 1c27 b3bc
-0.021324258 0.026856873 0.015156023 -0.021869235

action_model._discrete_distribution.branches.1.weight f4 [15, 256]
00000000: d414 46bb 9826 e3b9 ebeb 393c 7aee 1e3b
00000010: eb3d 843a 26fc bd3b 0296 55bb 283f aabc
00000020: cbcf a8bc 921c aeba 297c eebb 861f 8d3c
00000030: 2c88 6cbc 30e8 f53a 0f0f 3f3b a6e2 aabc
00000040: 450e ac3c 20e9 82bb 0a7a 07bb 20d5 7639
00000050: 1624 2f3c fdbe 30bb 1a2d 24bc e187 aabc
00000060: c8c4 403b 91fe 8a3c 627c 1dbc bbdf 773b
00000070: 346f 903b 1184 573a 7bfa 043c 313c 923c
00000080: 5569 06bc 6f4a 62bc 559f 75bc 67ab 9dbc
00000090: 00ae 003c 3284 4b3c e177 f7b9 b206 9e3c
000000a0: 7dca ae3c c774 59bc d41b 923b 68b1 64bc
000000b0: d670 8d3c 2e09 f3ba b6ec 9f3b b605 a6bc
000000c0: 982d 523a 3bbc c13b b50f cc3c ba7d a2bc
000000d0: 0fcc 24bb 7434 cd3c 416c 9bbc 3bbf 7abb
000000e0: 1fba e53b c3c6 02bc dca1 e63b a5df b83c
000000f0: 725e a7bb 9774 ac3b 14df 81bc 46b0 223c
00000100: 9de4 2fbc 9594 a03b 9911 4a3c c661 32bc
00000110: c132 053c b9b3 9fbc a3ca 00bd 6456 293c
00000120: a468 06bd 5e40 0e3b 25e0 fdbb 24c2 81bb
00000130: 014b 133c 7b94 7ebc 8def 72ba 7923 91bc
00000140: 974b aabc 7b3d 56b9 822a d2bc c4ca e03b
00000150: 1186 17bc e7c6 623b 9a91 bfbb a70a c7ba
00000160: b2e5 be3c 3dfd c6bb 3d83 c8bb 17e3 063c
00000170: c810 37bb cd44 043b 8129 1ebb 433b 053c
00000180: 2eb1 333c be39 eeb9 0de6 c23a f8e5 49bb
00000190: 6c00 a43c 6eef 77bc c548 7ebc f44f 4cbc
000001a0: 9d96 223c 67e9 ecbb f7c8 603c 1387 b73b
000001b0: d462 23bc bba6 983b f77e 1c3d f0c3 06bc
000001c0: f724 32bc 0383 7cbb 6a32 073c 4c24 5abc
000001d0: 563a 70bc 5733 8eb9 3a52 eb3a 404b 9f3b
000001e0: f812 86bc 8be0 173a 8b86 29bc e5df 64bb
000001f0: 423e 703c 3831 8a3c 6ace 483c 6ae2 6e3c
00000200: ba69 233c 2274 77ba 6cda a0bc 09fc 933c
00000210: 41fc acbc 21e5 9cbb a8dc 98bb 4923 94bb
00000220: ff3b b83b 7011 d5bc 3c5e 86bb a81b 0b3c
00000230: 7750 babb 55c2 113a 6402 93bb 37a4 e13c
00000240: 2402 d83a ef31 873b b6a8 c0bc e4d2 16bc
00000250: 9b0b be3a df85 b0bc bedf 123c 0300 64bc
00000260: 30cb ebbc f9fe 493c d444 423c d20a 82bb
00000270: 33a9 783c 20cb 9fbc 5898 9f3b c108 87bb
00000280: ee23 9db9 0b89 833c 1b3f 97bb f7f3 e9bb
00000290: c248 a4bc d08b 1abc 0c17 f13a 64ca 0ebb
000002a0: 5ac3 ebbb fb83 803c aaa3 ba3b 301c a83b
000002b0: 00c2 6d3c a2eb 92ba a597 8cbb 93d4 153c
000002c0: 01ff b6ba 699b ad3b 7a98 613c 86b7 37bc
000002d0: db8e d7bc b833 a53b 3f08 3f3b 5a10 02bc
000002e0: eee0 56bb d0ac 5b3b e2b4 ac3b 0a1b 12bc
000002f0: c768 803b 42d8 573c 3808 07bc 8764 0bbc
00000300: 18fe 593c bc73 4abc 214d 823b 421e a9bc
00000310: 1615 3ebc a0fe ed3a 33e0 f839 2913 cebb
00000320: 54fe 5abb 9cc4 1abb 69c4 223b ecd1 ee3b
00000330: ce2c 173a f14b 3d3b 4b60 ae3b 5eda c33a
00000340: 4d96 cbbb fbe2 8e3c f859 403c 53c6 233c
00000350: 9432 613b 7907 77bc 9088 553a 3dbb e0bb
00000360: d289 16bc 5af8 033d 46be 9bbc b773 173b
00000370: d82d 033b 1439 093c 6dea 4dbc 7df1 8e3a
00000380: b543 fcbb 9e53 653c 2d8f 513c 9cea a1bb
00000390: 0af5 823c a9b2 cf3a 6721 333c ffd3 8abc
000003a0: 80e9 a2bb db79 9e3c 664a 893a 6088 403a
000003b0: fe6b 2f3b f8a9 033c 19a6 8abb f960 b53a
000003c0: a7e5 983a 7c5d 013c 3756 91bc 5678 38bc
000003d0: 8510 b4ba 604d 1b3a 929b a7bb 478f 983b
000003e0: 9c33 19bc b722 e139 66bb a03b 3e86 09b5
000003f0: 3e93 42bc ebc2 003a f90a abbc aa9e 0ebc
-0.0030224817 -0.0004332557 0.011347751 0.002425103 0.0010089254 0.0057978807 -0.0032590632 -0.020782068
-0.020606896 -0.0013283661 -0.0072779846 0.017226946 -0.014436763 0.0018761214 0.0029153263 -0.020860028
0.021002898 -0.003995076 -0.0020672106 0.00023539783 0.010689756 -0.0026969307 -0.010020519 -0.020816745
0.0029414166 0.01696709 -0.009612175 0.0037822563 0.0044077877 0.00082212785 0.00811636 0.017850967
-0.008203824 -0.013811692 -0.014991601 -0.01924677 0.007853985 0.012421655 -0.00047200828 0.019290302
0.021336788 -0.013272471 0.004458884 -0.013958313 0.017265718 -0.0018542164 0.004880513 -0.020266395
0.0008017658 0.0059123314 0.024909833 -0.019835342 -0.0025146042 0.025049426 -0.018972518 -0.0038260955
0.0070107128 -0.007981959 0.007038338 0.02256758 -0.0051076943 0.005262922 -0.015853442 0.009929722
-0.010735658 0.004900525 0.012333297 -0.010887569 0.008129776 -0.019494878 -0.03144325 0.010335539
-0.032814637 0.0021705846 -0.0077476674 -0.003959911 0.00899005 -0.01553833 -0.0009267263 -0.01771711
-0.020787997 -0.00020431534 -0.025655035 0.006860109 -0.0092482725 0.0034603418 -0.0058462145 -0.001518567
0.023302887 -0.006072669 -0.0061191604 0.008232853 -0.0027933586 0.002018261 -0.0024133625 0.008131805
0.010967536 -0.0004543792 0.0014869586 -0.0030807238 0.020019732 -0.015132768 -0.015520279 -0.012470234
0.009923604 -0.007229972 0.013719789 0.005600819 -0.009972293 0.0046585477 0.03820702 -0.008225426
-0.010873071 -0.0038530238 0.008251766 -0.013314318 -0.014662346 -0.00027122602 0.0017953583 0.0048612654
-0.016366467 0.00057936524 -0.010347019 -0.003492349 0.014663281 0.016869172 0.012256244 0.0145803485
0.009973938 -0.00094396074 -0.019635402 0.018064516 -0.021116378 -0.0047880565 -0.004664976 -0.004520808
0.0056223865 -0.026009291 -0.004100589 0.0084904805 -0.0056858617 0.0005560269 -0.004486369 0.027544124
0.001648013 0.0041258256 -0.023517948 -0.009205554 0.0014499308 -0.02154821 0.008964477 -0.013916018
-0.02878341 0.012328857 0.01185723 -0.003968575 0.015177059 -0.019506037 0.0048704557 -0.0041209166
-0.00029972143 0.016056558 -0.004615677 -0.0071396786 -0.020054225 -0.009432748 0.0018393709 -0.0021788115
-0.0071949186 0.015687933 0.00569578 0.0051303133 0.014511585 -0.001120914 -0.0042905384 0.00914492
-0.0013961495 0.0052980673 0.013769263 -0.011213189 -0.026313236 0.0050415657 0.0029149202 -0.007938469
-0.0032787877 0.0033519752 0.0052705863 -0.008917579 0.0039187404 0.0131741185 -0.008241706 -0.008507854
0.01330521 -0.012356695 0.0039764796 -0.02064431 -0.011601707 0.0018157549 0.00047469288 -0.006288905
-0.0033415752 -0.0023615723 0.0024836308 0.007288208 0.0005766869 0.0028884376 0.0053215376 0.0014942398
-0.0062129856 0.017442217 0.0117402 0.009996015 0.0034362422 -0.015077465 0.00081456546 -0.006858258
-0.009188132 0.03221927 -0.019011628 0.0023109743 0.0020016339 0.008375425 -0.0125680985 0.0010905709
-0.007698501 0.013996987 0.012790483 -0.0049412977 0.015985984 0.0015846092 0.010933257 -0.01694679
-0.004971683 0.019345215 0.0010474443 0.000734454 0.002676725 0.008036129 -0.004231226 0.0013838104
0.0011665121 0.007895824 -0.017741306 -0.011259159 -0.0013737833 0.00059243105 -0.005114981 0.004655752
-0.009350684 0.0004294121 0.004905152 -5.1231825e-07 -0.011875926 0.00049118575 -0.020879256 -0.008704821

action_model._discrete_distribution.branches.1.bias f4 [15]
00000000: 129b 7b3b 5677 18bc f426 bfbb d464 b238
00000010: cc73 64bc ecf7 d13c 7dd6 21bb b222 edbb
00000020: cf95 8eba 5db8 903b e751 303c ada0 d8b9
00000030: c032 1cbc f597 bdbb 8463 023c
0.003839199 -0.009305796 -0.005833501 8.506482e-05 -0.013943624 0.025630914 -0.0024694495 -0.007236802
-0.0010878387 0.004416509 0.010761715 -0.00041318443 -0.009533584 -0.005785937 0.007958297

action_model._discrete_distribution.branches.2.weight f4 [15, 256]
00000000: b17e 15bd ca34 a03b 083b b4bb adce 053b
00000010: e2c7 c83b de1e 64bb 576d 2fbb 29a0 ba3c
00000020: 707f 8fbc ae1e 70ba fdb8 adba aac0 a1b9
00000030: c4e8 9c3c 9797 ea3c 5706 84bb cac1 133d
00000040: 547b 003d 1cdb cfbc 8426 7b3c adaa c73b
00000050: 690c 0b3d 91ff 263b cdc2 ddbb c7e6 453c
00000060: 6b4f 463c 5d5d 8f3c ec5d e6bc cf5b b6bc
00000070: d2d7 a3bc dfb2 923c 5e0f 64bc 0f2f f23b
00000080: b2b6 20bd 747a 3a3c d933 253d 79a4 cc3b
00000090: cac4 b43c 8a96 993c d671 633b 395e e6bc
000000a0: 5395 75bc a5f2 98bc 3fad b33b 2416 8cba
000000b0: 3001 873c 2225 c5bc 90f5 073b 82b3 b03b
000000c0: 6608 593b d045 86bc 5fea 85bc a761 8e3c
000000d0: 789b 13bd a933 b13c 7307 a23c 0c7b 033d
000000e0: 182a 97bb 9853 b23c be5a 5eba 32da a23c
000000f0: f46e 95bb c4c2 5a3b 5239 babb 826d 4ebc
00000100: 577a de3c 6ab7 153c 760e a43b 54f5 773c
00000110: 28e0 a7bc db81 3a3c acfa 813b d770 2fbc
00000120: bbad 683c 5232 8ebc a989 18bd 18b4 493c
00000130: 4e4a e1bb c608 873c 3224 893c aa67 7e3c
00000140: 2c1f f33a 797c 66bc 5fca 7bbb ace7 213d
00000150: 026a 7d3c 918a 073d 0963 aa3c 12a1 51bb
00000160: 21b6 c33c 9986 523c a728 4abb 89db c43a
00000170: e508 643c 9e22 3dbc 1e95 60bc d58d bfbb
00000180: 8f45 cfbc d7a6 323b 8c6c 5eba 43f5 d3bb
00000190: 3201 91bc 45af d43c 97e1 863b e7e6 133c
000001a0: 01f1 c2ba 0d9d 963c d9b6 f8bb 46a6 0f3c
000001b0: a60f 3ebc eb1b d13b c22c 18bd 1f9c fabc
000001c0: 2cd8 1fba 3777 983c bef8 243c 3574 47b9
000001d0: 1c5d a63b 5f82 ac3c d65f 6cbc f340 cbbc
000001e0: 1d49 0b3c d2c9 043b 3e74 2a3d 5f33 eb3c
000001f0: acd6 e3bb e62d afbc 6366 003d e600 523c
00000200: c491 803c bce4 03bc c743 d23c 3298 6dbc
00000210: 7c0c 7e3c 8f49 02bb 0ebb 83bc 3496 0ebc
00000220: c07e ebbc 8af2 08bc 2403 50bc 083c febb
00000230: dfe1 c03c 85b5 7e3c d3aa 24ba 74f7 8d3c
00000240: 2d5c 0bbc c330 83bb 128e a3bc 3e17 84bc
00000250: 21d1 d73b aef2 0bbc f9fb 353b 112c ac3b
00000260: 9db5 06bb d719 aa39 8645 863c a7be 553c
00000270: 8ff9 acbc 2fbb 003c f3da 2b3c cd3e a6bb
00000280: 61a2 ecba db47 73bc 50d6 dcbc 5a79 4bbc
00000290: 4f8f 6ebb 6b43 82bc a8c6 313d d328 22bc
000002a0: d794 b139 fb4f ee3b a18c 893a dd41 623c
000002b0: b710 0c3c 2a33 253c 7e3b 1dbc 49bf d5bb
000002c0: 6883 8f3c 6451 b6bc 2fa5 4dbc 6812 35bc
000002d0: 865f 8139 fc6b 2d3b fdc6 013c ff97 ed3c
000002e0: 4982 163c cd16 09bd 2b2b e03b 5659 c1bc
000002f0: 4a50 f8bb bb8d ed3b 4474 4dbc 6d94 8db7
00000300: 4a0b 28bc 3262 90bb 448c a6bb 196e a3bc
00000310: 3fef 16bd 1144 a33b 3515 d5bb 5a18 50ba
00000320: 4c7a 443c 5ab2 79bc e334 d4ba a7f6 203c
00000330: c3a9 b8bc c26c 5dbc 7e85 a43c 1b52 413c
00000340: 975c a33b bf98 383c 8f48 d63b ce38 9c3b
00000350: 395f d4ba 98e4 3a3b b64f 993c dd0b 3f3c
00000360: 35bc 09ba bc98 893c 0795 0dbc 383d d93b
00000370: da67 8e3c 8d1d 003c 111b 32bc afc6 6a3b
00000380: fcb1 fcbc 70a5 1dbc 4d34 50bc ad8d 20bc
00000390: 2dd8 9abc abc7 0bbd 9983 0abb f6de babc
000003a0: 0e39 233c 47a9 f23a 7343 953c ea83 8f3c
000003b0: 64ab 94bb aa1a 5abb 4198 e73c f37b d6bb
000003c0: 4047 50bb 8026 98ba d500 f339 669f a4bb
000003d0: aa1b 8cbc d947 8c3b 0be1 cdbb c964 523c
000003e0: 767b b6bb 399c 9e3c 7d74 a6bc 0ef8 0a3d
000003f0: 883e 00bc fd45 a9bb 8863 ad3c ca2b bcbc
-0.036497775 0.0048891054 -0.005500201 0.0020417378 0.0061273435 -0.0034808437 -0.0026768052 0.022781448
-0.017516822 -0.0009159845 -0.0013253983 -0.0003085186 0.01915396 0.028636737 -0.004029076 0.036073484
0.031367615 -0.025373034 0.015329007 0.006093344 0.033947382 0.002548192 -0.006767607 0.012078947
0.012103896 0.017500574 -0.028120957 -0.022260575 -0.020000372 0.017907558 -0.013919679 0.0073908637
-0.03923673 0.011381734 0.04033265 0.0062451926 0.022066493 0.01874854 0.0034705303 -0.0281211
-0.014989215 -0.01867039 0.005483299 -0.0010687751 0.016480058 -0.024065558 0.0020745732 0.0053924927
0.0033116578 -0.016390711 -0.016347108 0.017380549 -0.03603694 0.021631079 0.019778943 0.03209977
-0.0046131723 0.021768376 -0.00084821496 0.019879434 -0.004560346 0.003338025 -0.0056831026 -0.012599351
0.027157946 0.009137968 0.0050066067 0.015134174 -0.020492628 0.011383499 0.00396665 -0.010708055
0.014201577 -0.017357979 -0.037240658 0.012311004 -0.006875313 0.016483676 0.016740892 0.015527645
0.0018548719 -0.0140677625 -0.0038420183 0.03952758 0.015467169 0.03309113 0.020799177 -0.0031986875
0.023890557 0.012849473 -0.0030846985 0.001501904 0.013918136 -0.011543898 -0.013707427 -0.005845765
-0.025301723 0.0027260089 -0.00084848027 -0.0064684465 -0.017700765 0.025962481 0.004116248 0.009027219
-0.001487285 0.018385435 -0.0075901565 0.00876767 -0.011600411 0.006381502 -0.03715206 -0.030592022
-0.0006097581 0.018611534 0.01006907 -0.0001902141 0.0050770175 0.02105826 -0.014427146 -0.024811244
0.008501318 0.0020261896 0.041614763 0.02871102 -0.006953081 -0.02138419 0.031347644 0.012817597
0.015694506 -0.00805014 0.025667084 -0.014501618 0.015505906 -0.001988027 -0.016080406 -0.008702803
-0.028746963 -0.008358607 -0.012696061 -0.007758621 0.023545204 0.015546207 -0.00062815583 0.017329909
-0.008505863 -0.0040036156 -0.019965205 -0.016124364 0.0065862094 -0.008541746 0.0027768596 0.0052542766
-0.0020555027 0.0003244418 0.016390573 0.013045943 -0.021115093 0.007857128 0.010489213 -0.0050734044
-0.0018053764 -0.014848675 -0.02695766 -0.012419069 -0.0036401337 -0.015901288 0.043402344 -0.009897429
0.00033870965 0.007272718 0.0010494181 0.013809648 0.008548907 0.010082999 -0.009596704 -0.006523047
0.017518714 -0.022255607 -0.01255159 -0.011051752 0.00024675968 0.0026462069 0.007920978 0.029003141
0.009186336 -0.03346901 0.0068410835 -0.023602169 -0.0075779306 0.0072495616 -0.012539927 -1.6877626e-05
-0.010256598 -0.004406237 -0.005082639 -0.01994996 -0.036849257 0.0049824794 -0.006502772 -0.0007938199
0.0119920485 -0.015240276 -0.0016190078 0.0098244315 -0.022541886 -0.013514699 0.020083185 0.011799361
0.004985403 0.011266886 0.0065394114 0.004767514 -0.0016202695 0.00285176 0.018714767 0.011660543
-0.000525418 0.016796462 -0.008641488 0.0066296123 0.017383505 0.007819545 -0.010870711 0.003582399
-0.030846588 -0.009621963 -0.012707782 -0.009799403 -0.018901909 -0.034125965 -0.0021135567 -0.022811394
0.009962333 0.0018513583 0.018220639 0.017518956 -0.004537033 -0.0033280053 0.028270843 -0.0065455376
-0.003178075 -0.0011608154 0.00046349192 -0.0050238846 -0.017103035 0.004281026 -0.0062829307 0.012841412
-0.005568917 0.019361602 -0.020319218 0.03392797 -0.007827409 -0.005165814 0.021165624 -0.022970099

action_model._discrete_distribution.branches.2.bias f4 [15]
00000000: 019d 7ebc 0d29 443b af51 bfbc a5da b1bc
00000010: c1b7 263c f07b 2a3c 4c5c a83c 1f00 3438
00000020: f5ab 5a3c fa22 673c 9149 bdbb 8874 d83b
00000030: 7911 753b 65b4 48bc 6eeb aebb
-0.015540362 0.0029931695 -0.02335438 -0.021710703 0.010175646 0.010405526 0.020551823 4.2915457e-05
0.013346662 0.01410746 -0.005776592 0.0066056885 0.0037394448 -0.012250041 -0.005338124
