results/AgentRankingsAndAcceptedRankingsNameOnlyChecked/AgentBehavior.onnx (onnx, 333671 bytes, 11 tensors)

discrete_act_size_vector f4 [1, 3]
00000000: 0000 8040 0000 7041 0000 7041
4.0 15.0 15.0

network_body._body_endoder.seq_layers.0.weight f4 [256, 30]
00000000: 39b8 423e b5d2 98be ec92 62bc 347c 993d
00000010: b7f2 873d b9f7 bc3d 3645 9d3e a0b6 c1bd
00000020: 9b68 0cbd 06c7 6b3e 05d2 e43d 603e 58bd
00000030: bee1 993e 13c3 e33d 3691 223e 4b11 a33e
00000040: f1eb f4bc 45f0 3dbc dcbb 303e fd95 96bd
00000050: 45ea 893e 0933 dabd 571e 5e3e 91ef 103d
00000060: 4241 5e3e 05a1 13be 9b43 0dbd 61b8 0ebe
00000070: 64b3 833e e050 21be b7b3 99bd 0181 05bd
00000080: 302b 4f3e 51cb 30be 538e 5d3e 78f4 a83c
00000090: 0072 a83d b4c4 2abe e515 74bd ba03 b03d
000000a0: 7777 88be 1e92 d3bd ec93 8d3d 1d11 653e
000000b0: c4a5 3dbe fc50 a33d 018c 09bd a20f b73e
000000c0: 353d 423d b46a 3e3e 2eb6 a7be 971b 943e
000000d0: 138b 74be 09b1 413e f558 47be 07a4 6dbe
000000e0: 7f81 333e e6ea 86be d5ae ecbd bdec 8b3d
000000f0: af11 c5bd 51a2 e6bd 805a 84be 0d9f b6be
00000100: f75f 933d 0e22 2b3b e741 093e 820c d53e
00000110: f893 17bd c1b9 8bbc 79d8 a13e f1fc 7a3c
00000120: d6f1 b3bd 0330 f23c 3238 02bf 4346 003d
00000130: f106 0a3e dea8 18be 2abc 623e 83d4 1d3e
00000140: 343c c03d eb8f 1ebe 7b79 15be e50c 9c3c
00000150: ab7b ae3e 7ace 9b3d 6280 253d 2bac b4bd
00000160: 99d9 5d3d 82b0 92be 2f4d febd 4ab9 363e
00000170: 594e 3e3e 363c fdbc 16de b8bc d8c0 063d
00000180: af3a 4fbe 6274 41be e56a 243e 24d5 013d
00000190: d53d 2cbe 8cec 533e 5b23 58be f39b 15be
000001a0: 919a 823e e888 433d f842 6a3c 02a1 d73e
000001b0: ff4b 803e 4fcb 883e c298 cf3d 7f49 a2be
000001c0: 8d50 583d a7bb 15bd 8045 893d 68c6 3d3e
000001d0: 70da a8be 80e4 c1bd 8f13 00bc fa21 823e
000001e0: 2380 cfbd cbba 4d3d bafa 053e 470c aa3e
000001f0: eb1f c03b b0a9 883e 285c 5dbc 6f13 563e
00000200: ba02 ff3d 81b6 17bd 8ff1 babd 21e0 763d
00000210: 4edf 9cbe 35b2 34bd 87fd a9bd 6ad7 be3d
00000220: a5a3 1ebe 9e13 f13e 4ca9 afbd 273c 03be
00000230: 56e4 913c 4950 b3be 3747 173c 034c 793e
00000240: 6bde d83c 2f20 ae3c 28f1 e73d 89b7 bdbe
00000250: 580e ecbd d3b5 9bbd cc05 373e 7ceb 1ebd
00000260: 63ae 303e 778c 52be d40b 0a3d 5873 d6bd
00000270: 1431 33be 2980 0bbe 45ac 233d 7ef1 5cbe
00000280: 292e b7bc f461 26bd b08b 313d dacd a6be
00000290: 546c e3bd 6650 c93d b927 c3bd 208a 3d3e
000002a0: 390e 11be 8fcc 113e 629f e0bd 1039 1f3d
000002b0: 4141 bfbe 05bc 843d 0ab4 ec3c 55ed 5abc
000002c0: 61b8 a43e 37b4 543e d8c5 0ebd 62e5 91be
000002d0: d543 d13d dc8f eb3d 348f 19be c67f 0abe
000002e0: 1ddd 77be 7d96 91be d750 7e3e 9c5c a13d
000002f0: 49a3 5f3d 015b b0be b485 16be b64b 7abd
00000300: cbb0 08be 006c d8bd c81e b5bd 56c3 083e
00000310: 5fb1 babd ad66 e33d b3b5 4c3e 6c21 cfbd
00000320: 85f8 bbbd cdfc 543e 4db0 9d3c daeb e4bd
00000330: 57aa 193f 9482 e53d a696 573e 765d 2d3e
00000340: 8564 8a3e 2b9d 25be afb8 c43d 2c39 45bd
00000350: f89b 863d c323 0c3e f677 18be e4ec 903d
00000360: c4d5 ffbd f70d 453c c475 c13d b69f a83d
00000370: 730f 213e 3094 c3bd 20ea 87be 72f8 2cbd
00000380: a231 de3e 7466 8b3e 7eb3 c6bd fbc8 8fbd
00000390: ce61 44bc 18b3 efbd 986f 933d 86ce d6bb
000003a0: 3a4d b63d faf5 be3d 2ff4 12bd 3aba 163f
000003b0: edda b9be 9aed 1f3d 1168 ea3d 8bae 4abd
000003c0: e5ba 9b3e f1c3 4e3e 9026 303c a7c5 843e
000003d0: f302 523e 95a0 1cbd d688 8a3e 81ad 9a3c
000003e0: 83a8 7cbe c419 3ebd 7c71 c8bd 958f 883e
000003f0: f9ca 183e 1ec6 783e e4d1 35bd 0f06 c93d
0.19015588 -0.29848257 -0.013828974 0.07494393 0.06638091 0.09226937 0.30716866 -0.09458661
-0.034279447 0.2302514 0.111728705 -0.05279386 0.3005504 0.11121192 0.15875706 0.3184913
-0.029897662 -0.011592929 0.17259163 -0.07352827 0.26936546 -0.106542654 0.21691261 0.03538472
0.21704581 -0.14416893 -0.0344883 -0.13937522 0.25722802 -0.15753508 -0.07504981 -0.03259373
0.20231318 -0.17265059 0.21636324 0.020624384 0.08224869 -0.16676599 -0.059591193 0.08594461
-0.26653644 -0.10330604 0.069129795 0.2236981 -0.18520266 0.07974431 -0.033580784 0.35754114
0.047421653 0.18595392 -0.3275618 0.289273 -0.23881178 0.1891519 -0.19467528 -0.23207103
0.17529868 -0.26351088 -0.11556784 0.068322636 -0.096225135 -0.11261428 -0.25850296 -0.3566822
0.07196038 0.0026112827 0.13404046 0.41611105 -0.03700635 -0.017056348 0.31610468 0.015319095
-0.08786361 0.02956391 -0.50867 0.031317007 0.1347921 -0.14908168 0.22142091 0.15413098
0.09386483 -0.15484588 -0.14597122 0.019049117 0.34078726 0.07607742 0.04040564 -0.08821901
0.054162595 -0.2865029 -0.12417065 0.1784412 0.18584575 -0.0309125 -0.022566836 0.032898754
-0.2023723 -0.18892053 0.16056402 0.031697407 -0.16820462 0.20695704 -0.21107237 -0.14610271
0.2550855 0.047737986 0.014298193 0.42115027 0.2505798 0.26717612 0.10136558 -0.31696698
0.052811194 -0.036555912 0.06702709 0.18532717 -0.32979155 -0.09467411 -0.007817163 0.25416547
-0.10131862 0.050226968 0.13083926 0.33212492 0.00586318 0.2669196 -0.013510741 0.20905851
0.12451692 -0.037039284 -0.09128105 0.06027234 -0.30639118 -0.044115264 -0.0830031 0.09318431
-0.15492113 0.4708528 -0.08577213 -0.12815915 0.017809074 -0.3502219 0.009233288 0.24345402
0.026473245 0.02125558 0.11325294 -0.3705409 -0.11526173 -0.076030396 0.17873305 -0.038798794
0.17254023 -0.20561396 0.033702686 -0.10471219 -0.1749919 -0.13623108 0.03995921 -0.21576497
-0.022360878 -0.04062076 0.043346107 -0.32578927 -0.11104646 0.09829788 -0.09529061 0.18509722
-0.14165582 0.14238189 -0.109679 0.03887278 -0.37354472 0.064811744 0.028894443 -0.013362248
0.3217192 0.20771872 -0.034856647 -0.28495318 0.10218016 0.115020484 -0.14996034 -0.13525304
-0.24205442 -0.28435126 0.24835525 0.07878992 0.05459908 -0.3444443 -0.14699441 -0.06110736
-0.13348691 -0.10567474 -0.08843762 0.13355765 -0.09115862 0.11103568 0.19991188 -0.101137966
-0.09178261 0.20799561 0.019249106 -0.111777976 0.6002554 0.112065464 0.21053562 0.16930184
0.27029815 -0.16173236 0.09605538 -0.048150226 0.065727174 0.13685517 -0.14889511 0.07076433
-0.124919444 0.012027255 0.0944629 0.082335874 0.1572855 -0.09549749 -0.2654581 -0.042229123
0.43397242 0.27226603 -0.09702204 -0.07020756 -0.011986209 -0.11704081 0.07199019 -0.006555381
0.089014485 0.0932426 -0.035877403 0.5887791 -0.3629984 0.039044954 0.1144563 -0.049482863
0.30416027 0.20191933 0.0107513815 0.25932047 0.20508938 -0.03823908 0.27057523 0.018881561
-0.24673657 -0.04641129 -0.097872704 0.26672044 0.14921178 0.24294326 -0.04438962 0.09815609

network_body._body_endoder.seq_layers.0.bias f4 [256]
00000000: 08d0 c63d 77da 1b3e 7a36 23bd bf64 3a3d
00000010: ff89 613e 4b94 42be fdeb 49bd 3b87 c0bc
00000020: b387 093d bd15 cdbd 8e72 c0bd da5a 22bd
00000030: 1b54 4fbd 17a6 0fbd 07a1 123e 6a1e 92be
00000040: 3f8a 163e e0fb 4e3d 835f b0bd ee79 ebbd
00000050: 971c 413d e7fb fbbb e0ab 003e 2468 093e
00000060: ad02 4f3e 4843 563e ff36 393e 0af2 b9bd
00000070: 4a2d a63d a3d3 cb3d fa57 233d e293 113e
00000080: 439d 4b3e c4f5 cfbd 196d 9d3d 0afc 7dbc
00000090: cecf 7ebd ca1c a03d 23ab a1bd 739d a63d
000000a0: 00b1 43be 0987 593e b730 d9bd 0a02 73be
000000b0: b6c8 84bc e927 023e dbcd 293e 3656 3a3d
000000c0: 4bf4 ef3c 2c34 2bbd bd1f 413e 18ca 053e
000000d0: e88e 8dbd 34c6 48be 0065 19be 7200 233b
000000e0: beee b0bd 4427 203e 348f 503e 873b 003d
000000f0: b62e d83d 0a7a 8cbc 6c30 fe3c db32 e93d
00000100: 5f66 c73d 50f6 9e3d 92b3 313d 5810 4e3e
00000110: 92f0 e03c 54c0 b83c 1495 c73d 11d2 2cbe
00000120: ba9e 263c b6a4 eabc f0cc cebd 4aea abbd
00000130: 76e5 c0bd 8d63 ce3a 9778 123e ed09 5b3b
00000140: 7c97 7e3e fa3b 52bd 636f 30bd 843b d13c
00000150: 43a9 4a3e b6ee 60bd 4f9d 433e 2724 a8bc
00000160: 7038 a03d 358a 6b3d 1a82 093d 577f 0cbd
00000170: 8595 c13d ad42 3c3e 03ee 113d 1dc1 9bbc
00000180: b992 07bc 421b 4cbe c6d4 ad3c 48d3 3f3d
00000190: 08ae 193c 4117 a23d 23cd 1ebe 99cc a23d
000001a0: e899 413d c5a5 613a 6321 333e 0ef4 5f3e
000001b0: acd6 dd3d 5fea ef3b 3920 333e 1bc1 883d
000001c0: bf31 a73c 4c87 253c d1f5 253e 0d20 3ebd
000001d0: b67a efbc d3e5 1e3d a134 cbbc 6ae3 283e
000001e0: 0b26 113e cb8d 1ebd dde3 e33d 0e24 1c3e
000001f0: 0fba c83d 13b2 133d 112e 83bd 37f4 203e
00000200: 0ac1 913c b605 053e 03ad 073e e6e7 ea3c
00000210: 59c1 193d 04b9 553e 99fa 103e 7c60 23be
00000220: d647 e73d 38cf e73b fef0 8d3d 8295 b6bc
00000230: 0333 dc3d c4d0 053d 5be7 b43d c992 89bd
00000240: 4af8 523e 98a9 223e e5c7 913c 2d22 cf3d
00000250: f600 193e 52aa ea3c d837 043e 108c 3c3e
00000260: 6ce3 343e f477 aa3d 6c6a 793c 6aac 80bd
00000270: 6cae b53d bfa0 633e 93ee 403e 1146 75bc
00000280: ce75 bcbd 2933 2f3d 2d04 5e3e 05fa b03d
00000290: ce0a b33d 8969 ab3d adf6 8a3d 2efd 563e
000002a0: 5784 6c3e 6379 f03b 6c87 423d d228 3d3e
000002b0: 8087 b13d 8a6b 523d fdea 25bc 8d01 d93c
000002c0: 3e16 f33d c0c7 a33d c8d0 bdbd 2598 333d
000002d0: 2bb2 1dbd cb2f 243d 9cad 383d 16ff 89bd
000002e0: 9c11 d53d e24d be3d 43a0 3fbd b175 b83d
000002f0: 2e3c 11bb 2a6b 9f3d 4f42 8a3e 374d cb3d
00000300: e9c9 243d 7da7 f6bc 9a3a 21be ce8d 843b
00000310: c136 873d c265 023e 9532 f13b 2f40 61be
00000320: 3dfe 99bd 6b27 e53d f76b d23d 7cdd 143d
00000330: bff3 753d 1b0e 1c3e 0228 dc3d f551 9d3d
00000340: adee d6bd da30 d93c 8017 6e3e 2a74 c53d
00000350: 57bb b13d 9c96 163e 653a 64bd df73 47be
00000360: 2668 2e3e 2563 19be a5a3 313e b0ad 793d
00000370: 8961 a1bc 970c a03d f415 aabd 092f 87bc
00000380: 24f6 a43d 5c0e 0d3e ca29 2d3e c00d bdbb
00000390: 9320 5ebc 5387 5b3e 21bd 2cbe 1a76 e8bd
000003a0: 18ef 873d ef50 fa3c 8ea8 183d bc09 073d
000003b0: 77de a0bd c797 efbd b4bb 5d3e a324 58be
000003c0: faf9 d9bd cb82 3d3e 297f 853c 4210 d0bc
000003d0: 7865 d93d c973 0f3e 412b e53d 2425 443c
000003e0: 3bfb 93bd 1de7 8dbd 3483 d53d c06f e7bd
000003f0: ac58 e93c 325e 25be 13d9 55be 78fa 4b3e
0.097076476 0.15220056 -0.039846875 0.045506235 0.22025298 -0.19001882 -0.04929732 -0.023501983
0.03357668 -0.10013912 -0.093968496 -0.039637424 -0.05061732 -0.035070505 0.1431924 -0.2853883
0.14701174 0.050533175 -0.086119674 -0.114978656 0.047146406 -0.007689941 0.12565565 0.13418633
0.20215864 0.20924103 0.18087386 -0.090793684 0.08114107 0.09952476 0.039878823 0.14216569
0.1988421 -0.10154298 0.07686824 -0.015501985 -0.062209897 0.07817991 -0.0789397 0.081355
-0.19110489 0.21242918 -0.10604995 -0.23731247 -0.016208988 0.12710537 0.16582434 0.045492373
0.029291293 -0.0417978 0.18859763 0.13065374 -0.06912023 -0.19606858 -0.14979935 0.0024872092
-0.086392865 0.15639979 0.20367128 0.03130677 0.105557844 -0.017148037 0.031028949 0.11386653
0.097363226 0.07761824 0.043384142 0.20123422 0.027458463 0.022552647 0.09745231 -0.16877009
0.010169679 -0.028642993 -0.100976825 -0.083942965 -0.09418766 0.0015746221 0.14303814 0.0033422664
0.24862474 -0.05132673 -0.043074977 0.025541075 0.1979113 -0.054915152 0.19102977 -0.020525051
0.078232646 0.05750485 0.03357134 -0.03430113 0.09452347 0.1838481 0.035627376 -0.019012982
-0.0082747275 -0.19932273 0.021219622 0.046832353 0.009379871 0.079145916 -0.15507941 0.0794918
0.047265917 0.00086077704 0.17493205 0.21870443 0.10831961 0.0073216404 0.1749276 0.06677457
0.020409463 0.010103058 0.16207053 -0.046417285 -0.029233318 0.038793396 -0.024805369 0.16493002
0.14174668 -0.038709443 0.11127446 0.15248129 0.09801113 0.036058497 -0.06405271 0.1571816
0.017792244 0.1299046 0.13249592 0.02867503 0.037537906 0.20871359 0.14158095 -0.15954775
0.112929985 0.007074263 0.06930731 -0.022288088 0.10751917 0.032669798 0.0883319 -0.0671745
0.20602527 0.15885007 0.017795512 0.101139404 0.14941773 0.028645668 0.12911928 0.18412805
0.1766488 0.083236605 0.015223127 -0.062828854 0.08871159 0.22229289 0.18841009 -0.014970318
-0.09202157 0.0427734 0.2168128 0.086414374 0.08742295 0.083697386 0.06785331 0.20995018
0.23097359 0.007338689 0.04749243 0.18472603 0.08668423 0.05137209 -0.010126826 0.026489997
0.11869477 0.07997084 -0.092683375 0.04384627 -0.038499992 0.04008464 0.04508744 -0.06738107
0.10403749 0.09292199 -0.046783697 0.09006823 -0.0022161114 0.07784112 0.27003714 0.09926837
0.04023162 -0.030109162 -0.15745011 0.0040452247 0.0660224 0.1273413 0.007360766 -0.2199714
-0.07519195 0.11189159 0.10274499 0.036344036 0.060046908 0.15239756 0.107498184 0.07681648
-0.104947425 0.026512552 0.23251152 0.09641297 0.0867831 0.1470589 -0.055719752 -0.19477795
0.17031917 -0.14979227 0.17347582 0.060956657 -0.019699829 0.07814901 -0.083049685 -0.01650192
0.0805476 0.13775009 0.16910473 -0.0057694614 -0.013557571 0.21438341 -0.16869022 -0.11350651
0.066374004 0.03055617 0.03727012 0.032968268 -0.07854932 -0.11698871 0.21653634 -0.21107726
-0.10643382 0.18506925 0.016295986 -0.025398377 0.10615057 0.14009012 0.11189891 0.011971746
-0.07225653 -0.06928847 0.10425416 -0.113006115 0.028484665 -0.16149214 -0.20883588 0.19919765

network_body._body_endoder.seq_layers.2.weight f4 [256, 256]
00000000: 6d7e 4dbe 5f55 0e3d 1123 7439 dfcf 173d
00000010: 729a d8bb 94ad 653c 4020 5ebd cb13 893d
00000020: 48b9 1f3d 3685 bb3b bbc8 43bd f30e e03c
00000030: 61c2 213d fe91 1f3d 573d bc3d 9000 b43d
00000040: bce2 6f3d f37a 3fbd bac1 58bc f766 d03d
00000050: d825 5c3d 333c 853d 7f4a eb3d 4585 2b3d
00000060: b34f 0abe e861 edbd a8ac 98bd d805 343e
00000070: 6749 b5bd d288 3d3c b9d4 9d3b dbce e83d
00000080: 368b 7ebd a33f 92bd 41e1 a2bd 319e 713d
00000090: 4c4c 36bd 20b1 153c 4df4 e73c 7069 943d
000000a0: 7fa7 c8bd 9b06 debc b83b 30bc f2c0 2d3c
000000b0: 22aa 343d 28e4 02bb abe5 f3bd e4cc a2bd
000000c0: 3f3b 93bd 18ff 823d 85b8 03be 41b0 c53c
000000d0: 9e91 713d 604d c23d abae 82bc b6e4 0abe
000000e0: 9889 2f3e 22a5 8bbd 5151 f6bc 90fa 8cbd
000000f0: b8e8 0bbe dc33 6b3d 0a6e c73c aa50 af3b
00000100: 57d2 153e 3db9 edbd 553f c6bd b281 2bbd
00000110: 66fe f63d ab58 0cbe 457c 8abd 9935 81bd
00000120: cd9d 163d 7965 073d 3d99 95bd 7229 163e
00000130: 7792 b0bd 6a21 b2bc 24d5 68bd 87f5 1fbd
00000140: 1abb 8ebd 0562 d93d 1a63 543e 225d 833c
00000150: 862e 963d 0a8e 123a 7a41 52bd 9a59 093e
00000160: af18 2dbd a4dd d93c 02bc 3b3d 959f d3bd
00000170: e23b 113d d5a7 4f3c 2a5c a73d 8162 573d
00000180: d52d 593d 7c7e e0bd 356c 33bd 7dc1 0f3e
00000190: b86f c63d 5d4d fcbd f670 2e3e 4d89 463d
000001a0: 3e60 49bd 7d97 abbc 914a e93c 3c26 5ebe
000001b0: 1ab3 1fbc 0e52 07be a8eb 07be f985 1e3d
000001c0: 6bbf 413d 7183 f6bd 2749 0cbe 0dde d4bd
000001d0: 8579 07be 9743 573c 3e73 3e3d 0792 bbbd
000001e0: 8ed5 b6bd 22c3 c63d c335 a0bd 97fd 0ebe
000001f0: 841a 1f3e 7a1b 033e e2e2 4cbd 2467 5b3d
00000200: 276d 66bc e35c a7bd 4103 e1bd f03c 8b3d
00000210: e1ab 01bd 727f c4bd 26f6 1fbd f507 aebc
00000220: 8493 0b3d 1bbd 0e3e 0cc5 4ebd 0df1 5d3d
00000230: 2832 64bd 3dfc 9d3d 8693 1fbe e14b 643d
00000240: dc99 8ebd f114 a5bc 1027 d5bd 457c 0db9
00000250: c889 343e 8e3b f6b9 5f8c afbc 14bb af3d
00000260: 5f75 95bd 6204 fcbd d422 1fbc 4b3c b8bd
00000270: 6d04 03be 8258 4abe b878 93bd 2f43 153e
00000280: e20e 4bbb c189 61bd c948 d8bd e026 99bd
00000290: 134e 0abe 9e24 c7bd 9aed e43c 756b 13be
000002a0: 122c 55be ae45 96bd 7dd8 b8bd a6ed 80bd
000002b0: f6d3 6cbb 73fe 07be 299f 093e 588c dcbd
000002c0: 4c08 a8bd e3bc 8b3d 10e4 90bc 2202 1ebd
000002d0: a150 373c d78a 153e 2c0e be3b d9e6 573d
000002e0: e937 20bd 7d2d fbbd b8ee 91bd effc bd3d
000002f0: 23f5 7b3c 7424 92bd 2a48 2abe 31c6 71bc
00000300: 58f6 083d dac1 21bd 96fb 4bbd e14b 91bd
00000310: ca2f 233e 2f7f 0abd b817 25bc 1d95 203d
00000320: 0cba eb3d 88e8 66bd 9719 863d b476 24bd
00000330: 6d0f e93b b21c 97bd 82b5 28bd 77b5 a93d
00000340: 36ea 1c3e 3569 103d bbdc c7bd b390 b7bc
00000350: 6c39 1ebd f8bc 62bc 8675 963d 7752 21bd
00000360: 5d34 f8bd 5cdd 28bc ded7 5f3d 346d a03c
00000370: de92 533c a3ab 1ebd 7676 913d cd94 bfbc
00000380: 3af4 243e 7fe6 b9bd 2255 cbbd 20ae 59bb
00000390: b855 9a3b 592c 83bd 8d03 c93c ff7d 0b3d
000003a0: 57ec 993d 9c60 1c3d c9de 063c 9edf 6e3c
000003b0: 069d 4b3d e2e6 853c e2ed e4ba 46b5 cb3d
000003c0: eb03 423b 801a edbd 5c0f 5bbd 23b5 db3d
000003d0: 9013 c1bd 871e 1a3d a651 203d 8c90 0abe
000003e0: a9f1 893d 8af8 aebd b350 b93d db68 033d
000003f0: 5b74 593d c3e8 88bb b807 9a3d b02c b639
-0.20067759 0.034749385 0.00023282717 0.037063476 -0.006610208 0.014018435 -0.054229975 0.06693228
0.038995057 0.005722667 -0.047798853 0.027350878 0.039492015 0.03895759 0.09191387 0.0878917
0.05856584 -0.046748113 -0.013229782 0.10175889 0.053747028 0.06505623 0.114888184 0.041875143
-0.13506965 -0.1159094 -0.074548066 0.17580354 -0.08851891 0.011568265 0.0048166183 0.113675795
-0.06214448 -0.07141044 -0.0795312 0.058988754 -0.044506356 0.009136468 0.028314734 0.07246673
-0.09797572 -0.02710276 -0.010756426 0.010605084 0.044107564 -0.0019972418 -0.1190904 -0.07949236
-0.07189035 0.063963115 -0.12863357 0.024131896 0.058976762 0.09487414 -0.015952429 -0.13563809
0.17142332 -0.06818606 -0.030068072 -0.068837285 -0.13662994 0.057422504 0.024344463 0.005350192
0.1463102 -0.11607597 -0.096800484 -0.041871734 0.120602414 -0.13705699 -0.06761984 -0.06309051
0.036771584 0.033055756 -0.073046185 0.14664248 -0.08621686 -0.021744449 -0.05684389 -0.039052512
-0.069692805 0.10614399 0.20740929 0.01603562 0.073330924 0.00055906235 -0.051331975 0.13413087
-0.04225987 0.026594944 0.045833595 -0.10333172 0.0354575 0.012674292 0.08171876 0.052584175
0.053022224 -0.10961625 -0.043804366 0.14038654 0.096892774 -0.123194434 0.17035279 0.048470784
-0.04916405 -0.020946259 0.028477939 -0.21694273 -0.009747291 -0.13214895 -0.1327349 0.038701985
0.04730169 -0.12036789 -0.1369978 -0.10393915 -0.1322995 0.013138673 0.046496622 -0.09158712
-0.08927451 0.097051874 -0.07822754 -0.13963924 0.15537459 0.1280345 -0.05002106 0.05356516
-0.01406411 -0.081720136 -0.10986949 0.06798732 -0.031658057 -0.09594621 -0.039053105 -0.021244029
0.03407623 0.13939326 -0.050480887 0.054184962 -0.055711895 0.07714126 -0.1558362 0.055736426
-0.0696294 -0.020151587 -0.10407841 -0.00013493102 0.17630684 -0.00046965148 -0.021429239 0.08580604
-0.072977774 -0.123055235 -0.0097128935 -0.08995875 -0.12794657 -0.19760326 -0.0720076 0.1457641
-0.0030984213 -0.055063013 -0.10560758 -0.07478118 -0.13506345 -0.09723781 0.027945329 -0.1439646
-0.20817593 -0.07337509 -0.09025667 -0.06295328 -0.003613708 -0.13280658 0.13439621 -0.10768956
-0.082047075 0.06823137 -0.017686874 -0.038576253 0.011188657 0.14603744 0.0058000293 0.052710388
-0.03911582 -0.122645356 -0.0712561 0.09276759 0.015378269 -0.07135859 -0.16629091 -0.014756725
0.033438057 -0.039491512 -0.049800478 -0.07094551 0.15936199 -0.033812698 -0.010076456 0.039204706
0.11510095 -0.056374103 0.065478496 -0.040152267 0.0071124346 -0.0737852 -0.041188724 0.08286565
0.1532372 0.035256583 -0.09758898 -0.022407865 -0.03862898 -0.013838999 0.073466346 -0.039385285
-0.121193625 -0.010306682 0.054649226 0.019583322 0.012913434 -0.038737904 0.07102673 -0.023386383
0.1610879 -0.09077167 -0.09928347 -0.003321536 0.0047099255 -0.06404943 0.024537826 0.034055706
0.075157814 0.03817807 0.008231827 0.014579682 0.049710296 0.016345445 -0.0017465914 0.099466845
0.0029604386 -0.1157732 -0.053481445 0.107279085 -0.094275594 0.03762677 0.039140366 -0.13531703
0.06735546 -0.08543499 0.09048595 0.03208242 0.05308948 -0.004178138 0.075210035 0.0003474704

network_body._body_endoder.seq_layers.2.bias f4 [256]
00000000: 24a9 00be e261 833d a69a 8bbd 2335 3c3c
00000010: b6b1 9d3a 6a0c b33b 3ebb 6ebb f033 12be
00000020: bf54 52bd 5614 4dbd ad3e 3ebd 5366 0e3e
00000030: 73be 913d f0d1 dd3d 8e60 10be 75bf 133e
00000040: 851f 1fbe 2a8c cbbd 6b28 783d 2de0 c03b
00000050: 9e2f a4bd bde5 69bd 7c96 8c3c 6d7d 1cbd
00000060: b4bf 3e3d e2c2 863d 3961 3c3d 628c 2dbe
00000070: 548d bc3d acd3 003d 40ee a73c 73df 333c
00000080: 0f13 ea3d 6f2b 91bd 86b0 13bd 5759 d9bd
00000090: 392e 183e ac95 8a3d 3be3 2abd de05 a9bd
000000a0: b155 793d c252 1fbe 4534 1c3e 0640 40bd
000000b0: c6cc 4d3d 5680 4cbd 9eb3 dc3d 58a2 023d
000000c0: 481f 77bd 8500 efbc e19f acbd 11ab 7fbd
000000d0: bc49 ae3d b0bd 3e3d 73ec 823d ef4c d8bd
000000e0: 4741 5e3d ddc6 973b 8998 0ebd 561a 853d
000000f0: fe92 27be 7d3b 0bbd 2696 b73d e1d0 a8bd
00000100: e79f a83d 6437 803d d3c3 e3bd 7c04 c4bd
00000110: f5dd 953d b997 203d 8478 1dbe 51f7 1abe
00000120: 541c 63bd 504d c83c 1777 0f3e ad11 10be
00000130: acb9 793d 4880 7b3b ee0c 95bc 629a 9ebd
00000140: 152f a83d 1bc9 c93c 0b75 c1bd d884 323d
00000150: f44f 263d bcf7 413c bb72 413d 3756 c13d
00000160: 76e3 943c 2fce 073e 583f 393c 5f53 27be
00000170: 5c7e 4fbc 4ffe 9fbd de9d 25be 8255 8f3d
00000180: 86b0 f3bd 4858 233d feda 1abd d96a 33be
00000190: f95e d4bd 11d3 62bd f147 06be 0f1a 3b3d
000001a0: 05aa 28be 206d d4bd be78 97bd 5d53 f4bc
000001b0: 0680 afbd ae3a 973d 4587 86bd cba0 a2bc
000001c0: 4953 1dbe 23b7 34bd f1e7 e13d df2e ed3c
000001d0: cbdf ae3d d375 863d f30b d3bd 4311 ec3d
000001e0: e631 493d cce1 6c3c d595 9cbd b586 643d
000001f0: f3ad 003d 09bd d53d 7a4e 093e 2b91 41bd
00000200: 5826 b33d c743 cc3d 66d6 1ebe d1fa b2bd
00000210: b005 30bc f973 1dbe 886b b43d c157 17be
00000220: ebae 2ebd 4589 31be 0ab0 963d e723 d33d
00000230: 9c78 78bd 9fb9 033e 9904 d9bc 7152 8b3c
00000240: f82d a7bc 78ea d9bb 1fc6 2fbe b8f8 f3bd
00000250: d84a 28be f50e 163e 3f31 afbd 8225 06be
00000260: 6775 fdbd 9d86 d93d 0c85 9c3b 639e d63d
00000270: 75eb ed3b 057a 18be bbf5 473d 3474 24be
00000280: 9f39 bf3d 0f59 f73b 6e46 1e3d ffd6 f3bd
00000290: 85c7 743d 0f8b 86bd 76a5 0a3d 64c4 b53c
000002a0: fb38 f23d f250 1bbe 76e3 16be ebff baba
000002b0: a287 27be 3212 863d 5171 243d 0e74 64bd
000002c0: 085d 25bd 18c1 353d 34e4 9dbc 76d7 203d
000002d0: 9d81 05bc 892d c93d 4110 84bc 2871 b23d
000002e0: c8a9 12be be76 5f3d f755 a2bc d03d 9f3d
000002f0: f7c2 213e cfc4 13bc 7bb3 1ebe bdba b23b
00000300: dff8 3a3d 3181 0c3e c5f7 1abe 7a99 0fbe
00000310: ed27 d83d 0969 433d 67af 0abe 9d4b f5bd
00000320: cb44 07be d397 35bb 0e7d 873d 3120 893d
00000330: 571d 95bd 0945 283d 2efa 1dbe 10aa 72bd
00000340: 1a83 d73d 2779 e6bb 9a80 29be 0fb3 223d
00000350: 15cb 22be 3de4 3fbd 5707 163e d634 43bd
00000360: f605 31bd 6a1b 08be c740 1a3e b8e2 c73c
00000370: 4d84 6b3d ebb6 e83d b7c5 81bc 42e6 403d
00000380: 0afb 06be dd20 b13d bf05 3ebd eb22 1fbe
00000390: c891 d73d 2d94 b63d c49b 13be 563a 953d
000003a0: c77d 1dbe 1eb6 703d 0e20 7c3d e678 74bd
000003b0: 4194 ba3c 8c4b febd 9db7 983c d860 963d
000003c0: 2bf3 dfb8 863f 833d 2010 18be 9caf c63c
000003d0: 1765 10bd 6a6d 573c c1a2 913d 0018 dbbb
000003e0: ee8b 8ebd 2a4b 4ebd 5de2 333c 8764 1cbd
000003f0: a725 333d 98f4 a4bb 2b9b 1dbe 4abe a3bd
-0.12564522 0.06415154 -0.06816606 0.011487278 0.0012031111 0.0054641264 -0.0036427523 -0.14277625
-0.05135035 -0.050068222 -0.04644649 0.13906221 0.071164034 0.10831058 -0.14099333 0.14428504
-0.15539367 -0.099388435 0.06058542 0.005886099 -0.08016895 -0.05710386 0.0171616 -0.038205553
0.04656954 0.0658014 0.045991156 -0.16948083 0.09206644 0.031451866 0.020499349 0.010978567
0.114294164 -0.070883624 -0.036057018 -0.10612743 0.14861383 0.06766829 -0.04172061 -0.08253072
0.060872737 -0.15558913 0.15254314 -0.046936058 0.050244115 -0.04992708 0.10776447 0.031893104
-0.060332566 -0.029175052 -0.08428932 -0.062419 0.085101575 0.04656762 0.06392755 -0.10561549
0.054261472 0.0046318606 -0.034813438 0.06499164 -0.16364667 -0.03399228 0.089641854 -0.082429655
0.08233624 0.06260565 -0.11121335 -0.09571168 0.073177256 0.039207194 -0.15378004 -0.15133406
-0.055446938 0.024450928 0.14010273 -0.14069243 0.060968086 0.0038376022 -0.018194642 -0.0774429
0.08212105 0.024632027 -0.09446152 0.04358372 0.040603593 0.01183885 0.047228556 0.09440272
0.018174868 0.13262247 0.011306606 -0.16340397 -0.012664404 -0.078121774 -0.16173503 0.06998731
-0.118989035 0.039879113 -0.037806503 -0.17521228 -0.10369677 -0.05537707 -0.13113381 0.04567915
-0.16471107 -0.103723764 -0.073960766 -0.029824907 -0.085693404 0.07384239 -0.06568769 -0.019852063
-0.15363802 -0.044119965 0.110305674 0.028953014 0.08538779 0.06565442 -0.103050135 0.1152673
0.049119852 0.014458131 -0.07645766 0.05579253 0.03141589 0.10436446 0.13408843 -0.047257584
0.08747548 0.09973865 -0.15511474 -0.08739246 -0.0107435435 -0.15376271 0.088095725 -0.14779569
-0.042647284 -0.1733752 0.073577955 0.10309582 -0.060661897 0.12863778 -0.02649145 0.017007085
-0.020407662 -0.0066502653 -0.17165421 -0.11912674 -0.164348 0.14654143 -0.08554315 -0.13100246
-0.12375908 0.106213786 0.0047766026 0.104794286 0.0072607347 -0.14890297 0.04881833 -0.16059953
0.09337162 0.0075484584 0.038641386 -0.119062416 0.05976059 -0.06569492 0.033849202 0.022188373
0.118272744 -0.15167597 -0.14735207 -0.0014266943 -0.16360334 0.06546439 0.04014713 -0.05577474
-0.040371925 0.0443736 -0.019273855 0.03926798 -0.008148578 0.09823138 -0.016121032 0.08712989
-0.14322579 0.0545566 -0.019816382 0.07775462 0.1579703 -0.009019091 -0.15498154 0.00545439
0.0456475 0.13721158 -0.15133579 -0.1402339 0.1055449 0.04770759 -0.13543473 -0.11977313
-0.13209836 -0.0027708902 0.06615649 0.06695593 -0.07280987 0.041081462 -0.15427467 -0.059244215
0.105230525 -0.0070334855 -0.16552964 0.039721545 -0.15897782 -0.046848524 0.14651237 -0.04765781
-0.043218575 -0.13291708 0.15063773 0.0244001 0.05749922 0.11363014 -0.015841348 0.04709459
-0.13181701 0.08648846 -0.0463922 -0.15540664 0.105258524 0.08914981 -0.14414889 0.07286517
-0.15380011 0.05876743 0.061554007 -0.05968561 0.022775771 -0.12416753 0.018642241 0.0734269
-0.00010678762 0.064086005 -0.14849901 0.024253659 -0.035252657 0.013148645 0.07111121 -0.0066862106
-0.06960283 -0.05036465 0.010979262 -0.038181808 0.04373708 -0.0050340407 -0.15391223 -0.07995279

action_model._discrete_distribution.branches.0.weight f4 [4, 256]
00000000: 9cf9 7fbc da23 96bc 9983 013d 75fd b43c
00000010: 199c a43c 9014 713c 9827 e3bb 222f 013d
00000020: 2988 9bbb 1b7e 483c fdfa e93c a89a 65bd
00000030: 1eb8 6f3c f70f 79bc 1bb9 2e3d 36fb 2bbd
00000040: 8ca8 253d b2f8 75bb f87a a5bc 7a83 6ebb
00000050: bc0b 05bb d122 393c 41d7 a0bb a461 253c
00000060: bc84 46ba 7a00 c5bc 69ca a4ba ebe8 6b3d
00000070: 4c40 a1bc b85c fbbb f715 4d3a 44cf 333a
00000080: b682 14bd 7e79 2c3b 4b3f f3bb b4fa 043d
00000090: 0e9f 60bd cd8e 29bd ba1a ee3b db70 acba
000000a0: 3f8d 77bc 9fdd 323d 5b6c 1bbd 7c81 9b3c
000000b0: be58 ffbc c1c8 0f3c ec24 9abc 51f4 773b
000000c0: 260e dfbb 8dfd 9abb 5794 a33c 6870 793c
000000d0: e1d8 4ebc d5f7 a5bc e77e 03bd 1872 1b3b
000000e0: fa2b 25bc 3afa 20bc 69e6 073c 893f a2bc
000000f0: fa6f 643d 75b1 ddbc 5ba2 f4bc d3d6 ab3c
00000100: fa5b 34bc 9dfa 02bb 91e0 0cbc a49c b93c
00000110: a756 0b3c 4097 e4bc e1b4 163d 4f46 543d
00000120: fdef a83c 8457 88bb 676e 49bd e383 613d
00000130: 1eb3 adbc 3b8a 73bb c7d7 bc3b 602a 623b
00000140: e5ee dcb9 ee36 6ebb d57c d03c e353 b9bc
00000150: 7473 2abc c29f c7ba 9a6c f4bb f500 26bd
00000160: cc46 093d 24f8 bbbd 9299 473c 2d4f ac3d
00000170: 8ba5 e0bc 3500 133d 5092 5f3d 49bc 35bc
00000180: 1d1d 44bc 16e2 553c ed02 513b 4ba3 4a3d
00000190: 4e1b e83c d3d2 0c3c 8211 22ba b51e f1bb
000001a0: 9ecf 223d bb29 a73c 57c5 fc3c cc27 a9b9
000001b0: 98bd 87bb 8115 62bc 42a1 663c 94d0 54bc
000001c0: 42d2 603d 5cb4 d83b 1ec9 053c 85e8 483b
000001d0: fd85 ccbc 0c0f e9bc 5503 a43c 17bf 45bc
000001e0: 4e97 813c be6d 223b 3345 8f3c 13cb 39bc
000001f0: 5d37 90bb ca7e 23bd 5407 07bd 2cf2 1f3c
00000200: adef 4bbc 3473 14bd 95dd 5a3d b26c a9bb
00000210: 4bef 6d3b 5d3c ac3c 8520 91bb 32ca 7d3d
00000220: 7ed6 293c 5e67 243d d10d b03c 4b91 a2bb
00000230: eedc f33c 2862 bfbc 8716 2f3c d9ca 0ebb
00000240: 6adb 043d f7e9 f5bb 1e33 833d f2b3 f43c
00000250: 7190 243d 4451 16bd 9b8c fa3c 72cc 303d
00000260: cfcb 103d 7661 67bc faf1 b1bb d63b 043c
00000270: 8cde 37bc 597b 533d c63a 95bc 2c57 763d
00000280: 06e4 5fbc a6d9 76ba 7150 9bba c089 113b
00000290: 7aee d6bc 742f 063c f8c7 713c d053 1a3d
000002a0: 1c13 b9bc 69bd 643d b350 133d 00fb f3bb
000002b0: 6653 583d bfa8 513c 8c47 f3bc 56b8 25bc
000002c0: 0108 d23a e96c 973b 6c7d 253c 4d27 3dbc
000002d0: 1027 9bbc a85b 3bbd 340e 68bb 4ddf 8fbc
000002e0: 4c0d 303d 257b 3bbd b9b0 8d3b b1a8 bdbc
000002f0: 319b 24bd 2e58 27bb b412 313d fafb 38bc
00000300: 45c5 3f3c f159 f2bc 4f60 763d e4f5 783d
00000310: 9955 64bd 8f8f 56bc 698d 713d fc19 923b
00000320: ada3 fdba bc7a e83b c95d 1dbb c0f1 63bc
00000330: 3a68 09bc 75a8 b7bb ff74 2a3d 5875 893c
00000340: b5e4 f6bc 34c2 283c f276 7e3d 02cd e9bb
00000350: 1089 623d 706f e9bb 9a56 5bbd e197 3d3b
00000360: 9024 62bc 2668 8d3b 8ece 4cbd 2b99 10bc
00000370: c898 e83a 5710 46bd 3c35 e9bc e33c cebb
00000380: 080f b73b 894c 8fbb 5a13 ba3b 60ef 603d
00000390: a205 53bd 697f 9bbb 7ec2 72bb f7c3 acbc
000003a0: 2c9b 013d cdc9 ccba fb7c 1cbc e7cf 8a3c
000003b0: bd4d 823c 5478 4b3d 4aaa b1bb df25 71bc
000003c0: 2a4b 053b fd0f 343b c1f4 253d eb4c 153d
000003d0: 4749 9a3b ff97 8cbb f6bd 02bc 6a0b 043c
000003e0: 4a46 56bc 241b 223b 8644 203c 514a 0ebc
000003f0: 748e 99bb 8d88 84bc f6d0 003d 6760 f13c
-0.015623476 -0.018327642 0.031619642 0.022093514 0.020093964 0.014714375 -0.00693221 0.03153909
-0.004746456 0.012237097 0.028562063 -0.056055695 0.014631299 -0.01520156 0.042657 -0.04198762
0.040443942 -0.0037532267 -0.020200238 -0.0036394284 -0.0020301184 0.011299805 -0.0049084728 0.01009408
-0.00075728795 -0.024048079 -0.001257253 0.057595175 -0.01968398 -0.007670965 0.00078234024 0.0006859193
-0.03625747 0.0026317532 -0.0074233166 0.03246565 -0.054839186 -0.04139595 0.0072663696 -0.0013156192
-0.015109359 0.043668386 -0.037945133 0.018982641 -0.031170245 0.008775891 -0.018816434 0.0037834833
-0.0068071065 -0.0047299326 0.019968195 0.015224554 -0.01262495 -0.020259777 -0.032103445 0.0023719128
-0.010081286 -0.009825284 0.00829468 -0.019805687 0.05577085 -0.027062157 -0.029862573 0.02097646
-0.011008257 -0.0019985803 -0.008598463 0.0226577 0.008504546 -0.027904153 0.036793593 0.051824864
0.020622248 -0.0041608233 -0.049177554 0.055057418 -0.021203574 -0.003716125 0.0057630274 0.003451012
-0.0004213966 -0.0036348659 0.02545015 -0.022623008 -0.010403503 -0.0015230107 -0.0074592354 -0.040528256
0.033514783 -0.091781884 0.01218261 0.08413539 -0.027422687 0.03588887 0.054582894 -0.011092254
-0.011969832 0.013054391 0.0031892613 0.049472135 0.028333332 0.008595186 -0.00061824184 -0.007358397
0.03974878 0.02040564 0.030855818 -0.00032263843 -0.0041424744 -0.013799072 0.014076533 -0.012989182
0.054888017 0.0066132974 0.008165626 0.003065617 -0.024966234 -0.028449558 0.02002112 -0.012069485
0.015819218 0.002478465 0.017489051 -0.011339921 -0.004401131 -0.039915837 -0.032965973 0.009762328
-0.01244728 -0.03624268 0.053433973 -0.005170428 0.003630596 0.021024877 -0.0044289255 0.061960407
0.01036608 0.04013764 0.021490963 -0.004961168 0.029768433 -0.023362234 0.010686523 -0.0021788387
0.032435812 -0.0075046974 0.06406234 0.02987096 0.040176813 -0.036698595 0.030584624 0.043163724
0.035350617 -0.014122358 -0.005430457 0.008070907 -0.011222493 0.051631305 -0.018216502 0.060141727
-0.013665205 -0.00094165874 -0.0011849535 0.002220735 -0.026236761 0.008190025 0.014757149 0.037677586
-0.02259212 0.055844698 0.035965633 -0.007445693 0.05281391 0.01279658 -0.029697202 -0.01011475
0.0016024114 0.0046211374 0.010100704 -0.011545015 -0.018939525 -0.045741707 -0.0035408856 -0.017562533
0.04298143 -0.045771737 0.0043240455 -0.023151727 -0.040187065 -0.0025534737 0.043230727 -0.011290545
0.011704748 -0.029583903 0.06015044 0.060781375 -0.055745695 -0.0130957505 0.05897275 0.004458664
-0.0019351147 0.007094709 -0.00240122 -0.013912618 -0.008386666 -0.0056047984 0.041615482 0.016779587
-0.030138353 0.010300208 0.062125154 -0.0071350345 0.055306494 -0.00712388 -0.053549387 0.0028929638
-0.0138026625 0.004315394 -0.050001673 -0.008825581 0.0017745728 -0.048355427 -0.028467767 -0.0062938794
0.0055865087 -0.0043731374 0.0056785764 0.054915786 -0.051519044 -0.004745413 -0.0037042196 -0.021089537
0.031642124 -0.0015624106 -0.009551282 0.016944839 0.01590621 0.0496753 -0.0054219114 -0.014718502
0.002033899 0.002747535 0.04051662 0.036450308 0.0047084424 -0.0042905803 -0.0079798605 0.008059362
-0.013078282 0.0024735415 0.009781962 -0.008684711 -0.004686171 -0.016178394 0.03144928 0.029464914

action_model._discrete_distribution.branches.0.bias f4 [4]
00000000: 6be0 5fbd 67dc 1a3e cbef 78bd cd1d c9bd
-0.05465738 0.1512314 -0.06077556 -0.09820137

action_model._discrete_distribution.branches.1.weight f4 [15, 256]
00000000: f2b9 5fbd 7311 993c 7327 773c b83e d23c
00000010: 5806 c6bd c855 95bd 86e7 993c ee9a 33bc
00000020: c439 1bbd 9854 e93c b633 b43d a8d4 173b
00000030: 8b2e b4bd a77f c13c 6feb e4bc 519d 36bd
00000040: a675 e4bc c0ac 033d 2378 75ba 84b3 47bd
00000050: 009b 4cbd 6238 18bd cd58 d63c 5301 43bd
00000060: 8a3f cdbc 8fc5 5fbc 1bb7 1d3c 26ad f3bc
00000070: c8b3 21bd 2285 30bd 56ed 35bd 8ef9 7fbd
00000080: 3a27 e13c 843b 163d b0a0 b93c 0960 cbbd
00000090: bb56 9c3c 7289 68bc f623 b1bc 87dd 99bd
000000a0: 88d9 53bc 6031 5bbc 5ee9 94bd 3985 6e3d
000000b0: 66cb bebc 01e3 7a3d fc5f bf3b 2ad1 0b3d
000000c0: ecab 123c 084f 813c 6a76 8bbd 9299 8dbd
000000d0: 411e 3bbd 2b3f 1d3c eb27 293d 6069 533c
000000e0: 8f60 27bc 9597 68bd ac54 b43c bc9d 113c
000000f0: 8c30 34bd d1b3 2e3b f85a 70bd 7992 443b
00000100: 8219 863d b799 983c bf1c a33b e8c6 3ebc
00000110: 0f4f 16be c202 293c 2459 1bbd 1ae3 b8bc
00000120: 23a1 e73b 1735 643d e2c7 9f3c 256c 66bc
00000130: 05ff c23b 3bca 63bb fa76 5dbb 9e28 4c3b
00000140: 9381 ca3c cb3a 2bbd 7a4b 8a3d 7730 233d
00000150: b0d6 533c c89b 1dbd d2a0 1d3c 695a 92bd
00000160: 1076 ac3c 9cf0 0d3c 436c 4abd 19ff 893b
00000170: 08b0 44bc 9cf2 5c3c 8e39 9cbc ef68 383d
00000180: f3f0 663d ddd8 23bc 3032 6dbd 803f 01bd
00000190: d1b1 94bd 9442 bd3d f903 443d b001 e4bb
000001a0: 9686 acbc 5913 9f3d 416e 73bd f369 2d3d
000001b0: d25b 94bc d845 ce3d c21d 23bd 906f 363c
000001c0: 10c0 16bd 7c84 eebb b1df ff3d 95f1 7b3d
000001d0: e81c 893a d87a a6bc b1d0 ce3b eb9b a23c
000001e0: 0808 80bd 9215 493d f73a 253c 15b0 60bd
000001f0: ff49 8d3c d000 2abd ee11 7c3d 3d81 4c3d
00000200: 3ec4 2a3d 6dd9 70bd 85bd f1bc 4bd1 15bb
00000210: 18df 1bbd 7886 0bb9 f5b6 1abc cedd 70bc
00000220: 487f 44bc 086c 11bd c7b7 ae3c 9ad1 0ebd
00000230: 241f 523d e68c 403d 9726 5cbc 7c63 3ebc
00000240: 07ab e9bd a80f d83d 1e69 d9bc 961a 30bc
00000250: 756c 8bbc 1b22 b23c 6772 f23d f22c 99bb
00000260: e2e5 6c3d 75dc 933b 1766 e4bc ad8c f63b
00000270: bc94 913d ed2c 12bd c3c1 a9bd a2f4 f1bc
00000280: 9fac 65bd beb4 2c3d 3f14 85bc 631a 66bc
00000290: 42e2 94bc 75eb bdbd 299c 6c3d 378d eb3d
000002a0: bbd3 90bc 01d0 11bd 1cff 1fbd 5df7 21bc
000002b0: 7e71 2bbd 28af 093d 1e40 8ebd 2aa7 663d
000002c0: 93b6 0abd d21f 1f3c 7e83 973c 7304 a43c
000002d0: 48d3 49bc a2c0 733d 960d 2d3d 46b8 b03d
000002e0: c367 f2bc 8e9f d2bb 1855 383c 4972 a4bc
000002f0: ef49 11bd d660 cebc 1204 cbbc 7697 f93d
00000300: 01d6 cd3a 050c 25bd 75c7 66ba 3dd7 26bd
00000310: 298e 083d 1287 d13c f5c7 b5bd 3d90 13bd
00000320: 9383 243d 4a1b 92bc 995a ee3c 5e62 4d3c
00000330: 88c8 5b3c fd03 06bd 1bb9 1ebb 6d2d 8f3c
00000340: d587 863d c604 a1bc be47 aabc 86eb 143d
00000350: 4fb9 4fbc e532 7abd 3ae3 b6bc 7002 34bd
00000360: 3351 54bd be22 f0bc 97c1 d4bc fbd9 09bc
00000370: 1313 4bbb fe4f ae3c 061f d1bd e082 f53c
00000380: d4ba eebc 37b2 4bbc 2317 703c 0c2e afbc
00000390: 91e3 d7bd 2e57 813b 7a9d c0bd f4f0 413d
000003a0: 2584 90bc ac20 8d3d 6459 8e3d 2698 6c3d
000003b0: e996 1b3d 810d ffbc 5126 fc3a dadc d8bb
000003c0: fbae a3bc 6470 013d 451d ea3a f03d 2a3d
000003d0: f924 96bc 4f67 e33c d6fe cc3c 663c 8b3c
000003e0: 4c2c 70bd 20f3 32bd 1456 51bc 25a0 24bd
000003f0: b7ee 0fbd 068e 283b 491c 87bc 68fb 843c
-0.05462069 0.018685078 0.015085089 0.025664672 -0.09669179 -0.07291752 0.018787157 -0.010962231
-0.037896886 0.02848272 0.087989256 0.0023167524 -0.0879794 0.02362044 -0.027944295 -0.044583622
-0.02788813 0.03214717 -0.000936391 -0.048755184 -0.049952507 -0.037163146 0.02616539 -0.047608685
-0.025054712 -0.0136579415 0.009626175 -0.02974565 -0.039478093 -0.043095715 -0.044415794 -0.062493853
0.027484525 0.036677852 0.02265963 -0.099304266 0.019084325 -0.014192926 -0.021623593 -0.07512956
-0.012930281 -0.013378471 -0.07271074 0.05823252 -0.023290347 0.061251644 0.0058402997 0.03413502
0.008952122 0.015784755 -0.06809695 -0.06914057 -0.04568315 0.00959758 0.041297834 0.012903541
-0.010215892 -0.056785185 0.022013031 0.008887704 -0.04399161 0.0026657472 -0.058680505 0.002999453
0.06547834 0.018627984 0.004977792 -0.011644103 -0.14678596 0.010315599 -0.037926808 -0.022569228
0.0070687695 0.055714693 0.019504491 -0.01406387 0.005950811 -0.003475799 -0.003379284 0.003115214
0.024719989 -0.041804116 0.06752677 0.03984114 0.012929603 -0.038478643 0.009620862 -0.071461506
0.02105239 0.008663323 -0.049419653 0.004211318 -0.01200486 0.013485577 -0.019070413 0.045021947
0.05638213 -0.010000435 -0.05790919 -0.0315547 -0.07260478 0.092412144 0.04785535 -0.006958209
-0.02106027 0.07767362 -0.05943132 0.04233737 -0.01811019 0.100719154 -0.0398233 0.011134997
-0.03680426 -0.007278977 0.124938376 0.061509687 0.0010460885 -0.020322248 0.006311499 0.019849738
-0.06251532 0.049092837 0.010084859 -0.054855425 0.017247198 -0.04150468 0.061540537 0.04992794
0.041691057 -0.058801103 -0.029509315 -0.0022860344 -0.038054556 -0.00013306167 -0.009443034 -0.01470132
-0.011993237 -0.035503417 0.021327866 -0.03486786 0.05129923 0.04700937 -0.013436935 -0.011620399
-0.11409574 0.10549861 -0.026539382 -0.010748526 -0.01701949 0.021744778 0.11838227 -0.0046745474
0.05783642 0.0045123645 -0.027880711 0.007524094 0.07108447 -0.035687376 -0.0828891 -0.029535595
-0.056072827 0.042164557 -0.016245006 -0.014044377 -0.018174294 -0.092734255 0.057766113 0.11501544
-0.017679086 -0.03559876 -0.03906165 -0.009885636 -0.04185628 0.033614308 -0.06945823 0.056311764
-0.033865523 0.009712176 0.018495318 0.020021653 -0.01231844 0.05950988 0.042249285 0.08628897
-0.029590493 -0.006427712 0.011250757 -0.020074027 -0.0354709 -0.02519266 -0.024782214 0.12187092
0.0015704037 -0.040294666 -0.0008803525 -0.04073261 0.0333387 0.025577102 -0.088760294 -0.03602623
0.04016454 -0.017835278 0.029095935 0.01253566 0.01341451 -0.032718647 -0.0024219218 0.017477715
0.06568877 -0.019655596 -0.020786162 0.036357425 -0.012678458 -0.061083693 -0.022325147 -0.043947637
-0.05183525 -0.029313441 -0.025971217 -0.008413787 -0.003098671 0.021278378 -0.102109954 0.029969633
-0.029141821 -0.012432626 0.014653954 -0.021384262 -0.10541452 0.00394716 -0.09405036 0.04734893
-0.017641136 0.06890997 0.06950644 0.057762288 0.037985716 -0.031134369 0.0019237493 -0.0066181244
-0.019980898 0.031601325 0.0017861506 0.041562974 -0.018328177 0.027759222 0.025023859 0.016996574
-0.058635995 -0.043688893 -0.01277687 -0.04019179 -0.035139766 0.0025719418 -0.01649298 0.016233161

action_model._discrete_distribution.branches.1.bias f4 [15]
00000000: 76d1 9c3c ef1d d7bb 673c d1bb f689 353c
00000010: 1c6b a23b d6eb 2e3c feed 06bc 7659 223c
00000020: e7b9 763c ea97 803b 4aea bbba ccfb a1bc
00000030: 8104 aabc 9637 833b d9e9 14bc
0.019142848 -0.0065648477 -0.0063853743 0.011080256 0.004956616 0.010676345 -0.008235453 0.009909024
0.015058971 0.0039243596 -0.0014336791 -0.019773386 -0.0207541 0.004004429 -0.009088957

action_model._discrete_distribution.branches.2.weight f4 [15, 256]
00000000: eeee 203d 382a f4bc 217c f5bc f53e 3abc
00000010: f054 00bb 1452 f4bb 1e0d 8bbc 6e46 64bb
00000020: 28a5 e8bc 970e 34bd d991 a23c 3d8e 003d
00000030: 9c1b aa3a b6e1 243c 9166 3a3b 26f6 5a3c
00000040: 72c0 72b9 4fb1 093d 369d b33c 5f3b 38bd
00000050: 6b87 2dbd 6064 223d b002 bfbc 3588 d4bc
00000060: ae39 abbb f32a 2f3c 59a2 73bb 3880 3ebc
00000070: 1835 e33c d086 f3bb f6ac 27bd 19a2 9abc
00000080: fbba b23b 5163 8fbc 3cfa 27bd 7b47 263c
00000090: 2639 bf3b c84c 1abd 1067 c7bc 2f39 76bc
000000a0: b219 57bd 7b1a ba3a 1aec ebbc e75c 7e3c
000000b0: 7c26 34bd 09d5 efbc 5348 cbbb 31fe 023c
000000c0: 0357 093c cd04 68bd b5b8 2dbd 833c 7a3c
000000d0: fea4 883c 5dd3 8bbc 6707 46bd 5ec1 9fbd
000000e0: 75d0 12bd 3a48 fa3c 9dbf 1cbc f05c 95bb
000000f0: 0f16 a8bc 6d6c c6bc 0366 be39 ad7f 5ebd
00000100: 5e70 b3bc f048 bebc 2295 ea3c b801 063d
00000110: f675 a63c 6a09 2dba 3cfe a33b 279d 90bc
00000120: 0264 09bd dc8e b3bc e4dd d739 c169 19bc
00000130: b78a cfbc 372f 1bbb de3a a6bc fa10 ebbc
00000140: 5cd3 7dbc 2176 5dbc 57a7 3e3c a77b 773c
00000150: 1d8f cabc 68db de3c 5fe7 60bd f9c4 cdbc
00000160: efab 96bc 6a82 843b c316 b83a 44da 3dbc
00000170: 0462 443c 1105 a43b 94b7 95bc a6e6 2dbd
00000180: f6eb b43c 476a 02bd 6490 28bd 316e ffbb
00000190: ddee a73c 0d4b bb3c 0eb7 fa3c 11a3 4abc
000001a0: 07d1 07bc 79c3 463d 2602 58bb dcf2 0fbc
000001b0: 4f24 eb3c 1492 a6bc 9e95 b9bb aa41 71bd
000001c0: e64d 88bc 60a0 47bd 60b6 503b f919 023d
000001d0: efa7 b83b 812d 04bd 053b 403c 29d0 9aba
000001e0: 4bf2 8b3c 07ff 12bd a1da ed3c 47cd 983c
000001f0: e2d5 9bbc af40 c6bc b1ba b7bc b780 99bd
00000200: 8f10 fbbc c48c bbbb b1d8 18bc 612b c9ba
00000210: 62c7 9d3c ec6f 583b e727 8a3c 291e a2bb
00000220: d312 b4bc 1db2 97bc 24c9 d13c fdf8 3abc
00000230: e6f2 283c 4d35 20bc d2b8 3cbd 383b 12bd
00000240: da45 ccbb 358f 45bd a66a 5cbb c0a7 623c
00000250: 77ee f2bb 72a5 843b f27f c93c 8852 ce3c
00000260: 45dc 993c 49d4 7e3c a00f 0cbd 06f9 eb3c
00000270: e2fb b6bc c91b b1bc 8743 13bc 8047 ebbc
00000280: 58c7 663b 17e6 373c 068a 293c 72f6 65bc
00000290: bf9b 273d ebbd 0bbd 1eab 1dbc e56f 153d
000002a0: 3826 9bbc 8e82 a4bc b90b a9bb 775b 11bc
000002b0: fec4 39bc 3a90 fb3b 9a23 223d 2da7 6cbd
000002c0: c92e e3bb e665 e6bc aeb3 9cbc 0ae6 dbbc
000002d0: d154 8f3b 2060 5dbd 0217 54bc f2f4 22bd
000002e0: 5ae4 50bc 7496 6cbd 66b2 a13b 2553 00bd
000002f0: fb4f 993c fc0d fe3a 4b3f ca3a 5e51 2d3c
00000300: 2907 8ebc fe96 b7bc 435c 1dbd 9797 1abc
00000310: 6e9e a0bb 010b 1f3b 23c8 eaba 7def 913b
00000320: 7ef6 743d 4fb2 8abc a351 72bc 8777 10bd
00000330: f632 8bbc 1fab b0ba ee1f e2bc 9ad1 d5bc
00000340: af57 2bbd 81d2 6bbc 1aa4 bbbc b506 5cbd
00000350: cbe5 b8bc 7a44 cfbc 3d86 adbc 5d34 d8ba
00000360: 50af 11bd 7fab 3a3d d705 03bd 0309 92bc
00000370: b8dd 2ebb 992b 44bb 725e 36bc 52b9 16bd
00000380: 03a1 153c d887 cd3c 4686 b13b bdb5 93bc
00000390: cbe5 8c3c c664 18bc 7557 0cbd 0d20 fabc
000003a0: b0a5 28bc cb39 883b 6ec1 ff3c 041c 1ebd
000003b0: aaa9 f2bc ff97 37bd 80fd 92bb 16f7 e33c
000003c0: b2a1 c3bc fd0c f6bc 3740 aa3b cebe da3c
000003d0: 5c23 08bd a96b 81bc d119 af3b 4aff 9c3a
000003e0: 0497 143c 0f76 11bd 8c5d 283d c3e9 d2bc
000003f0: 3e18 62bb f046 87bb e340 a2ba d309 743c
0.03929036 -0.029805288 -0.029966416 -0.011367549 -0.0019581877 -0.0074560735 -0.016974028 -0.0034832018
-0.028399065 -0.043959226 0.019844936 0.03138565 0.0012978199 0.010063579 0.0028442482 0.01336435
-0.0002315061 0.03361636 0.02192555 -0.044978496 -0.042365473 0.039646506 -0.023316711 -0.025943855
-0.005225382 0.010691392 -0.0037175624 -0.011627249 0.027735278 -0.0074318424 -0.040936433 -0.018876122
0.0054544187 -0.017503412 -0.041010126 0.010148878 0.00583567 -0.03767088 -0.024341136 -0.015028282
-0.05251474 0.0014198566 -0.028799105 0.015525079 -0.043982014 -0.029276388 -0.00620369 0.007995174
0.008382562 -0.056645203 -0.04241248 0.015273216 0.016680237 -0.01706856 -0.048346903 -0.07800554
-0.03584333 0.030552018 -0.009567169 -0.004558198 -0.02051833 -0.024221623 0.0003631563 -0.05432098
-0.021904167 -0.023228139 0.028635565 0.032716483 0.02031992 -0.0006600829 0.0050046723 -0.017653061
-0.03354264 -0.021918707 0.00041173317 -0.009363593 -0.0253347 -0.0023679265 -0.020291742 -0.028694618
-0.0154922865 -0.013516934 0.011636577 0.015105165 -0.024726445 0.02720423 -0.054908153 -0.025118338
-0.018392531 0.004043867 0.001404487 -0.011587683 0.011986259 0.005005487 -0.018276013 -0.04245629
0.022085171 -0.031839635 -0.041153327 -0.0077951183 0.020499641 0.022862935 0.030604865 -0.01236798
-0.008289582 0.04852626 -0.0032960265 -0.0087859295 0.028703837 -0.020333327 -0.0056635877 -0.058900513
-0.016638707 -0.04873693 0.0031846985 0.03176305 0.0056352536 -0.03226996 0.011732821 -0.0011811304
0.017083308 -0.035887744 0.029034914 0.018652571 -0.019022886 -0.024200765 -0.022427889 -0.074952535
-0.030647544 -0.0057235677 -0.009329007 -0.0015348011 0.019260112 0.0033025695 0.01686473 -0.004947443
-0.021981632 -0.018517548 0.025608607 -0.0114119025 0.010311818 -0.009778333 -0.046074696 -0.035701007
-0.006233913 -0.048232276 -0.0033632903 0.01383394 -0.007413681 0.004048043 0.024597142 0.025185838
0.01878179 0.015553542 -0.03419459 0.028805267 -0.022336904 -0.021619694 -0.008988268 -0.028720617
0.0035214033 0.011224291 0.010347849 -0.014035808 0.040920015 -0.034116667 -0.009623317 0.036483664
-0.018939123 -0.020081785 -0.005158868 -0.008871905 -0.0113384705 0.0076771053 0.039584734 -0.05777662
-0.0069330675 -0.02812476 -0.019128647 -0.02684309 0.0043741246 -0.05404675 -0.012944939 -0.03978438
-0.012749756 -0.05776067 0.004934597 -0.031329293 0.018714895 0.001938283 0.001543024 0.0105784815
-0.017337399 -0.022410866 -0.038418066 -0.009435556 -0.004901699 0.0024268033 -0.0017912429 0.004453598
0.059805386 -0.016930727 -0.0147899715 -0.03527024 -0.016992074 -0.0013478732 -0.027603116 -0.026100922
-0.04183167 -0.01439345 -0.022905398 -0.053717334 -0.022570511 -0.025301207 -0.021182174 -0.0016495098
-0.03556758 0.045573708 -0.03198799 -0.017826563 -0.0026682448 -0.0029933213 -0.011130916 -0.03679783
0.0091326265 0.02508919 0.005417618 -0.018030996 0.017199418 -0.00930137 -0.034263093 -0.030532861
-0.010293409 0.00415728 0.031220164 -0.038600937 -0.029621918 -0.04482269 -0.004485786 0.02782778
-0.023880813 -0.03003549 0.0051956433 0.02670231 -0.033236846 -0.015798407 0.0053436537 0.0011977938
0.009069208 -0.03551298 0.04110484 -0.025746232 -0.0034499313 -0.0041283295 -0.0012378957 0.01489492

action_model._discrete_distribution.branches.2.bias f4 [15]
00000000: 28ad 33bb 432d 643c f3d0 b3ba 558b 013a
00000010: 6fd1 0c3c 372b 22bc 0fb8 923a 817d 8a3c
00000020: 1520 973c 4b55 e5ba bdaf ebbb a319 2f3b
00000030: 5e9c 7cbc b593 a93b 0c97 6b3b
-0.0027416442 0.013926807 -0.0013718888 0.00049417216 0.008594855 -0.0098979985 0.001119377 0.016905548
0.018447915 -0.0017496733 -0.0071925805 0.0026718162 -0.01541814 0.0051750788 0.0035948185
