results/ParticipantRankingsAndProposedRankingNameOnlyChecked/AgentBehavior/AgentBehavior-1999982.onnx (onnx, 317426 bytes, 9 tensors)

discrete_act_size_vector f4 [1, 2]
000000 00 00 80 40 00 00 70 41
       4.0 15.0

network_body._body_endoder.seq_layers.0.weight f4 [256, 30]
000000 db 69 bd be bf f2 41 3e e3 06 82 be 51 2a 55 be
       -0.36994824 0.18940257 -0.2539588 -0.20816924
000010 64 e5 0e be 1f 57 94 3c 65 f2 df 3d 23 40 44 3e
       -0.13954693 0.018107949 0.10934905 0.19165091
000020 bd 46 73 be 74 12 b8 bd 3f 25 57 3e 57 b4 71 3c
       -0.23757453 -0.08987895 0.21010302 0.014752469
000030 ac db b2 bd 1b 5f 35 3e fd b6 ac 3c cc 25 3e 3e
       -0.08733305 0.17712061 0.02108335 0.18569106
000040 32 2f 43 3e 60 3b 11 bc b5 16 40 be c4 a1 98 3e
       0.19060972 -0.008864254 -0.18758662 0.29810917
000050 2b 95 71 be 6e 77 34 3d 14 e8 09 3e 33 61 c4 be
       -0.2359206 0.04405921 0.13467437 -0.38355407
000060 f4 a3 e0 3c 46 9c 76 3d 30 d1 9b 3e 01 14 2e 3e
       0.027421929 0.060207628 0.30433035 0.16999818
000070 a6 56 3a 3e aa 1d 80 3d b2 88 58 3e c7 00 9b 3e
       0.18197116 0.06255658 0.21145895 0.3027403
000080 33 78 37 3d 47 ec 9f bd 48 3b 8e be f5 b5 05 bd
       0.044792365 -0.07808738 -0.27779603 -0.03264423
000090 f3 1e a3 bd 87 7a cd be 7a 68 cb be 85 66 5c 3e
       -0.079648875 -0.40132543 -0.39728147 0.21523483
0000a0 de 67 e3 bd d8 75 93 be 30 7c 89 bd a1 a8 9a bd
       -0.111037955 -0.28800845 -0.0671314 -0.07551695
0000b0 44 03 f3 bd 07 02 df bd c9 44 f9 3c c5 7b b8 3d
       -0.11865857 -0.108890586 0.030428307 0.09007982
0000c0 b3 16 96 bd 1c dd 6c bc 91 16 e6 3e 21 df ba 3d
       -0.07328548 -0.014457013 0.44939092 0.0912459
0000d0 4e b6 07 bd a5 e3 19 bd 90 fb 91 3e 1d 2f 88 3a
       -0.033132844 -0.037570614 0.2851224 0.0010390017
0000e0 41 26 04 3e 79 45 c5 bb c2 12 34 3c 73 2a c4 3e
       0.12905218 -0.0060202447 0.0109908 0.38313636
0000f0 76 b5 02 3f b5 4f 53 3d 19 52 65 bd 01 1f e6 3e
       0.5105814 0.051589686 -0.055986498 0.4494553
000100 3c c7 3d be 17 f9 cb 3d 6b 5e db 3d 8c 4a 93 3b
       -0.18533033 0.099596195 0.10711368 0.0044949707
000110 0f e4 28 3d 7f ef 84 3e 0a dd 14 3e ee 20 4a be
       0.04123312 0.2596397 0.14537445 -0.19739124
000120 94 d8 07 3d ad 59 b2 be c9 5a 88 3e 51 3e aa 3d
       0.03316553 -0.34834042 0.26631764 0.08312667
000130 d1 7b c4 3c 8b d8 84 3e 4e b8 b1 bb eb 77 41 3d
       0.023984822 0.2594646 -0.005423582 0.047233503
000140 15 c9 4f bd b3 3c 7d 3d 47 83 bb 3d a2 57 6f 3e
       -0.050728876 0.061825465 0.091558985 0.23373273
000150 71 e4 b9 3d 4a 0f c2 bc 1e 25 f1 be 7f c6 44 be
       0.09076775 -0.023688931 -0.4709863 -0.19216345
000160 18 2f 8a 3c 90 d5 47 be 1c f5 49 be 12 f5 8d b7
       0.01686816 -0.19515061 -0.19722408 -1.692263e-05
000170 71 8d 96 be 9a 80 2f bc 10 f7 28 3e 73 ad 3a bd
       -0.29404786 -0.010711813 0.16500497 -0.04557557
000180 db 48 1b be 31 88 9a 3e 51 e0 17 3e c2 3a ed 3e
       -0.15164511 0.3018203 0.14831664 0.4633389
000190 1b 66 b4 bc 9e d7 1a 3e 1e 4b 56 be bd 19 35 3c
       -0.022021344 0.15121314 -0.20927092 0.0110535
0001a0 ac ef 90 3d cf 5a c4 bd 61 a3 82 bd e9 23 1a be
       0.07076964 -0.09587633 -0.06378818 -0.15052761
0001b0 bd 26 da bd d7 ef 97 3d ab e1 a8 3c 12 b3 4f bc
       -0.1065192 0.07418793 0.02061542 -0.012676971
0001c0 93 b1 9f 3e b4 31 8e be ec f0 6a 3e 0d f3 06 be
       0.31190166 -0.27772295 0.22943467 -0.13178654
0001d0 ce 23 a3 3d 98 b3 af 3d 62 9d df bc 99 2c 35 be
       0.079658136 0.08579177 -0.027296726 -0.17692794
0001e0 de fc f1 be 5e 12 c5 3d 83 0e 57 3e 8f 2f cb bd
       -0.47263235 0.09622644 0.2100163 -0.099211805
0001f0 c0 0e 07 be e9 ed 0a be 05 7a bc 3d 59 bd f8 bd
       -0.1318922 -0.13567318 0.09202961 -0.1214549
000200 47 2f b3 3e 29 95 46 3e 20 c4 0c 3e ff c1 4e bd
       0.34997007 0.19392838 0.13746691 -0.050477978
000210 07 27 ac be 30 44 22 3e fd a8 28 bd 33 98 51 be
       -0.33623526 0.15846324 -0.041176785 -0.20468216
000220 12 cd ea be 9b 8a 50 bc 61 02 ac bd d4 f1 b9 bd
       -0.4585958 -0.012728359 -0.08398891 -0.09079328
000230 4d 1b 8f be d2 20 78 bc 88 14 49 3d 07 28 63 be
       -0.27950516 -0.015144544 0.049091846 -0.22183238
000240 b8 26 cb be 7f a9 d4 be b9 7c 2a 3d 85 fb cc bd
       -0.39677978 -0.41535565 0.04162285 -0.10008911
000250 b1 ea f0 bd 52 ea 41 be b5 5a 9b 3c c6 bc 92 be
       -0.11763514 -0.18937042 0.01896415 -0.28659648
000260 81 f9 10 bd 95 79 36 be 65 15 c8 be c3 a6 35 3e
       -0.035394195 -0.17819817 -0.39078823 0.17739396
000270 2f eb ec 3c b1 d3 a4 3d 1c e0 00 be d1 e4 36 3e
       0.028920738 0.080481894 -0.12585491 0.17860724
000280 c6 79 31 3e 9c b3 e9 3c f1 2a c2 bd fa 7d c7 bc
       0.17331609 0.028528027 -0.09480847 -0.024352062
000290 47 ff 4b 3e f2 12 92 bd 40 46 ca bd 2f 9e 9c 3d
       0.199216 -0.0713252 -0.098766804 0.076473586
0002a0 4c 2c 0b bf a1 d4 96 3c c4 a7 db bd 2a fa 9c 3d
       -0.54364467 0.018411936 -0.10725358 0.076649025
0002b0 4c cb 2f bd de 74 fe bd 76 18 1b 3e b0 8c 6c 3e
       -0.04291849 -0.124246344 0.1514605 0.23100543
0002c0 49 57 44 bd e9 0c 23 be 7b c7 69 3c 1c ac 91 3e
       -0.047934804 -0.15922894 0.014268751 0.28451622
0002d0 81 b8 85 3e 25 75 1c be c7 87 a2 be 8b 9e b7 bd
       0.26117328 -0.15279062 -0.31744215 -0.089657865
0002e0 82 0a 79 3c 53 dc 56 3e b8 1e 30 3e 1d 37 fe 3d
       0.015200259 0.20982485 0.17199218 0.12412856
0002f0 94 fa 0c 3e 8a 58 f9 3c 3c f6 6f 3e 7b 47 e9 3c
       0.13767463 0.030437727 0.23433775 0.028476467
000300 3a 3f ad 3e bd d8 8d 3d 12 0f d0 3e 23 04 94 bd
       0.338373 0.06926105 0.40636498 -0.072273515
000310 60 92 a0 3e 47 72 4e 3e ee da 03 be 94 ca b4 bd
       0.31361675 0.20160781 -0.12876484 -0.08827701
000320 bc cd 3d 3e 0e 09 a6 3d f5 ed b7 3e 5c d9 1e 3e
       0.18535513 0.08107196 0.35923734 0.15512604
000330 b7 8a 2f be a9 90 06 3e 4b a0 62 be dc 62 62 bd
       -0.1714276 0.13141121 -0.2213146 -0.05527006
000340 f4 4e 9d 3d 73 ba 53 be 3c d6 8a 3e 78 9a 28 bd
       0.07681075 -0.20676593 0.27116573 -0.041162938
000350 02 7f ae bd 4f 63 8f 3e 63 1d 8b 3e ce ab cc 3d
       -0.085203186 0.28005454 0.27170858 0.09993707
000360 ab 2b b7 3e c0 df 3d 3e 42 22 9a bd d2 57 c1 3d
       0.35775504 0.18542385 -0.075260654 0.094405785
000370 aa 48 b4 3e eb 3f ea 3d 8f 1d 89 3e f5 7f 15 3e
       0.35211688 0.11437973 0.26780364 0.14599593
000380 4e 6d 0c be b5 ce f5 bd ba 06 59 3e a7 db d4 3e
       -0.13713571 -0.12002317 0.21193972 0.4157383
000390 4e 56 7e 3e 6e 08 04 bd 81 3b 0e 3e f5 98 eb bd
       0.2483761 -0.0322346 0.13889886 -0.115037836
0003a0 53 43 d8 3d 06 e5 37 bd cb f4 98 3d c6 a3 01 be
       0.10559716 -0.04489615 0.074685656 -0.12660131
0003b0 7a 1d 42 3e cd d7 03 be 64 85 c6 3e 6e e3 d2 bc
       0.18956557 -0.1287529 0.38773644 -0.025743213
0003c0 da aa 29 3e de 54 b0 3d 04 d9 8f 3e 96 89 3d be
       0.16569081 0.08609937 0.28095257 -0.18509516
0003d0 b4 1f af bd 55 85 7f bd 0e d6 1b be 35 ff 8c 3d
       -0.08550969 -0.062383015 -0.15218374 0.068846144
0003e0 cb 94 64 3d 22 2f 16 3d 59 bd fc 3d f5 76 86 bc
       0.055805963 0.036666043 0.12340803 -0.016414145
0003f0 bf 4b 58 3d 7a dd 3e 3e 7b be 6d 3d b0 bf 76 bc
       0.052806612 0.18639174 0.058042984 -0.01506035

network_body._body_endoder.seq_layers.0.bias f4 [256]
000000 95 05 ff 3d 96 d8 00 bd 39 98 e2 3d 71 8e 37 3e
       0.124522366 -0.031456552 0.110641904 0.17925431
000010 cb 59 1e be de fa 64 3e 5e ca c0 3d c6 68 69 3d
       -0.15463941 0.22361323 0.094135985 0.056984685
000020 fe fb 2e 3e 46 a7 7c 3e 3a 4a 77 3d c3 b8 51 be
       0.17088315 0.24673185 0.060373522 -0.20480637
000030 86 43 69 be 43 23 11 3e 07 1f a1 3d 2b 28 07 3e
       -0.22779664 0.14173608 0.07867246 0.13198917
000040 4f de 54 3e 77 57 a7 3d fa d0 1c be e8 74 37 3e
       0.20787929 0.081709795 -0.15314093 0.1791569
000050 31 31 06 3e c3 69 d7 3d 28 63 12 bd 9c 95 82 3c
       0.13104703 0.10518219 -0.035739094 0.01594048
000060 ee c3 4c 3d 83 a2 ef 3c 97 c3 61 be 04 b2 ee bc
       0.04999154 0.029252296 -0.22047268 -0.029137619
000070 08 40 26 3d 37 19 2c be 5d 2d 6c be b8 ff a1 bd
       0.04058841 -0.16806494 -0.2306418 -0.079101026
000080 58 8f 9c 3b 17 e6 00 3e 72 6a 19 3d c2 c0 d9 3d
       0.00477783 0.12587772 0.03745503 0.10632469
000090 58 81 98 be 16 da 59 be 4c 29 db 3d a7 c6 d8 3d
       -0.2978618 -0.212746 0.10701236 0.10584765
0000a0 94 e0 fd 3c 2d b8 c1 bc e7 67 79 3d e4 82 8f be
       0.030990876 -0.023647392 0.060890105 -0.2802955
0000b0 a1 99 ea 3d 8e 33 1c 3e 1c 1f ac 3d 62 d2 82 bd
       0.11455084 0.15254042 0.08404371 -0.063877836
0000c0 1b c4 c5 3d 2f bb 16 3e 07 db 5d 3e ce 9a 25 3a
       0.09656545 0.14719842 0.21665584 0.0006317318
0000d0 0f 98 97 bd 2d be b5 3c 18 4f 80 be a9 3a fd bc
       -0.0740205 0.02218541 -0.25060344 -0.03091176
0000e0 7d d2 6c 3d 17 8b b1 3d 29 3f 9d 3d f5 87 d1 bc
       0.057817925 0.086691074 0.076780625 -0.025577525
0000f0 e0 26 92 be a5 e6 bf bc 31 bf de bc 1f 90 06 bd
       -0.28545284 -0.02342541 -0.027190777 -0.03285229
000100 f1 9e 29 3e c6 3f 3c 3c 40 33 a3 bd 01 e5 40 3e
       0.16564538 0.011489814 -0.079687595 0.18837358
000110 d2 5f b4 bd b6 8f 64 3c 6c 1e bf bd d4 dd de 3d
       -0.08807339 0.013950279 -0.093319744 0.10882154
000120 ed dd 0b 3d b6 4a 36 3d fb 86 39 3e 62 fa 87 bd
       0.03414719 0.044504844 0.18117897 -0.066395536
000130 eb 32 e1 3c 64 f1 3d 3d d1 5b 8f 3d 03 44 12 bc
       0.0274901 0.046372786 0.069999345 -0.008927348
000140 b5 75 3d 3c a8 54 f3 3d 62 ba 2c be 46 27 2e 3d
       0.011563708 0.11881381 -0.16867974 0.042517923
000150 2f cb eb bd 8f af f9 3d a0 d3 e1 bd e2 d1 44 bc
       -0.115133636 0.12191688 -0.110266924 -0.012012931
000160 d6 04 15 bb 04 7a 0f be 0f f1 7b 3d 8d 9d 51 3d
       -0.0022738478 -0.14011389 0.06150919 0.051175643
000170 0d 00 02 3e 6e f0 33 3d 1d be 46 3d 69 cd 34 3e
       0.12695332 0.043930463 0.04852115 0.17656483
000180 6d 4e 75 3c 3f f6 88 bd d6 0e 2e be 0d 6b 0f 3e
       0.014972311 -0.06687593 -0.16997847 0.1400568
000190 2b c3 a5 3d ed 94 fd bd 16 9e 50 3e 91 48 08 3e
       0.08093866 -0.12381921 0.20372805 0.13308932
0001a0 a0 4a 4c 3c c4 c8 6c bd b8 77 0b 3d 8b a7 fd 3d
       0.012468964 -0.057808653 0.03404972 0.12385472
0001b0 db 25 3f bc ac ce a3 bd 4d 5f 92 3c d1 82 59 3d
       -0.01166674 -0.07998404 0.017867709 0.053103272
0001c0 49 e2 30 3e b0 7f db bc b8 b1 0c 3e 43 24 3f 3d
       0.17273821 -0.026794285 0.1373967 0.04666544
0001d0 df 00 80 3d 26 1f b0 3d 99 03 19 3e 00 11 89 be
       0.06250166 0.08599691 0.14942779 -0.26770782
0001e0 59 34 6b bd 3b ff 37 3e 83 f1 b3 3d 3f 1d 0f be
       -0.05742297 0.17968456 0.08786299 -0.13976
0001f0 bc 84 ac bd 7c c5 74 be c5 c6 02 3e 61 78 28 3e
       -0.084237546 -0.2390346 0.12771137 0.16452171
000200 29 6a 69 bd 29 e2 c8 bd 1d da 38 3d 59 80 c6 bd
       -0.056986008 -0.098087616 0.045129884 -0.09692449
000210 b6 b0 be 3d fe c9 e4 3d b6 de ae b9 69 1c 8f 3d
       0.09311049 0.111713395 -0.000333538 0.06987841
000220 02 ed 0a 3e e6 3a 9a 3d 65 43 b7 3d a6 a6 42 3e
       0.13566974 0.07530765 0.08948401 0.19008884
000230 32 78 77 bd 5b ef ce bb 70 ed e0 3c 5b a5 9e 3d
       -0.06041736 -0.0063151545 0.027456969 0.07746383
000240 1f 72 00 3e 87 a3 9e bd 33 ee b3 3d d4 c9 a1 3d
       0.12543534 -0.07746034 0.08785667 0.07899824
000250 ee 7b 9c bd f4 91 ef ba 40 4a 8d 3d 17 91 72 3d
       -0.07640825 -0.001827775 0.06898928 0.0592204
000260 54 de 7f 3e fa ba df 3d 0e e7 ef 3d 60 6b 0e 3e
       0.24987155 0.10924335 0.11713992 0.13908148
000270 08 bd 2e 3e 11 3a ca bb ee 00 c7 3d 5b e8 1e 3d
       0.17064297 -0.006171473 0.09716974 0.03879581
000280 c0 32 9d be b7 67 08 3d 2c 4f 16 be be 73 b9 bd
       -0.30702782 0.033302035 -0.14678639 -0.09055279
000290 22 41 d9 bd 34 a0 4f be e4 43 31 3e 30 13 7b 3e
       -0.10608126 -0.20275956 0.17311054 0.24519038
0002a0 54 4b 8e 3d 06 09 ed bd 2c 76 fe 3d b6 39 7b 3d
       0.069479614 -0.11573987 0.12424883 0.061334334
0002b0 27 5f 0b bd 4e 3f eb bd 96 30 8a be 02 66 2c 3e
       -0.03402629 -0.11486684 -0.26990193 0.16835788
0002c0 b3 25 38 3e 2d 4a 12 3e 83 54 85 3d 3f 47 96 bd
       0.17983131 0.14286108 0.0651026 -0.07337808
0002d0 bf e8 fb 3d 93 fa 07 3e cf 56 5e 3e 2f fe 3d 3e
       0.12300252 0.1327918 0.21712802 0.18553995
0002e0 5c 09 8e 3d 3d 54 91 bd 65 9e c5 bd 0f 75 de 3d
       0.06935379 -0.07096145 -0.09649352 0.10862171
0002f0 af c8 e6 3d 73 c7 e1 3d cf 04 2f bb 50 ec 2b 3d
       0.11268746 0.1102437 -0.0026705747 0.041973412
000300 a7 57 0a 3e ee 6c 46 3e c8 17 3f bd 71 d3 7f 3d
       0.13509999 0.19377491 -0.04665354 0.062457506
000310 e2 34 b0 bc 46 d3 3a be d8 20 81 ba d3 e6 df 3d
       -0.021509591 -0.18244657 -0.0009851707 0.10932698
000320 89 ef 24 be 93 aa 98 3d 2f ae cb bd 4a 67 f5 3c
       -0.16107 0.074544095 -0.09945332 0.029956479
000330 b1 82 de bb 78 af 0d 3e af ff 35 3e d3 12 0c bc
       -0.006790482 0.13836467 0.17773317 -0.00854941
000340 9f 75 db 3d f1 29 b7 3d 27 4e c4 bd be d1 ce 3d
       0.10715794 0.089435466 -0.09585219 0.10098599
000350 9a b5 7a 3d ef 72 74 3d f8 69 ad bd 4f 39 b9 3d
       0.061208345 0.05967992 -0.084674776 0.09044134
000360 f3 d1 23 3e 5a ec 8b 3d 42 be 29 3d c9 bb 7d bd
       0.15998058 0.0683219 0.04144121 -0.061946664
000370 47 49 29 be fe c7 ce bd f2 99 b2 bd b6 0d 4e 3e
       -0.1653186 -0.10096739 -0.08720769 0.20122418
000380 28 5f d8 3b 8a ee 9c bc ea 22 04 3e b7 c5 66 3d
       0.0066031404 -0.019156713 0.12903944 0.0563409
000390 9d f3 af 3d 5e 2a d2 3c 13 e5 92 bd a2 04 9d bc
       0.085913874 0.025654968 -0.07172599 -0.019167248
0003a0 cc c4 32 3d 01 98 4a 3e e2 71 6c bc 14 f4 8f 3d
       0.04364471 0.19784547 -0.014431449 0.07028976
0003b0 cb 0f c3 3d 79 5e 11 3e 6b 4a b1 3d 65 c8 ce bd
       0.09524497 0.14196195 0.08656772 -0.10096816
0003c0 61 1e e7 bb 40 00 cb 3d 04 fb 06 3e 39 43 3f bd
       -0.007053182 0.09912157 0.13181692 -0.046694968
0003d0 99 fc 69 be 5a f3 33 3d fb 9d 8c bd dd 46 e8 3d
       -0.22850265 0.04393325 -0.0686607 0.11341641
0003e0 b2 f7 44 3e 6b e4 a4 3c 4a 6c 30 bd a3 49 30 be
       0.19235113 0.02012845 -0.043072022 -0.1721559
0003f0 0f 4a 45 3d f6 16 21 3e 2e fd 1a 3e a5 01 31 bd
       0.04816633 0.15731415 0.15135643 -0.04321446

network_body._body_endoder.seq_layers.2.weight f4 [256, 256]
000000 db 8a 88 bc 55 d2 97 bd 46 e2 2e be e5 42 5c 3d
       -0.016667774 -0.074131645 -0.17078504 0.053774733
000010 28 fa 9c bd a1 5c 83 be 9d 9f c6 bd 06 94 03 3d
       -0.07664901 -0.25656608 -0.096984126 0.032123588
000020 b2 fa 8e 3b 07 c4 4f 3c 97 be 91 bd 1f ad 08 3e
       0.0043633813 0.012681014 -0.0711643 0.1334729
000030 78 90 a3 3b bc 2f c4 3d 6a b4 06 3e 58 e4 2a be
       0.0049915873 0.09579417 0.1315476 -0.16688669
000040 3a 4a b5 bd 6b 02 4b 3d 49 46 a6 bd b7 7d ee bc
       -0.08852048 0.049562853 -0.081188746 -0.02911268
000050 31 12 09 3c 05 44 a7 3c a9 5d 56 bd 2e 03 c6 bb
       0.008366154 0.020418176 -0.052335415 -0.0060428595
000060 3f 00 52 3e 50 14 43 3e f6 3c d3 bd 27 07 2a be
       0.20507906 0.19050717 -0.10314362 -0.16604291
000070 9d 1e 11 3e 92 f3 6b bd 78 a3 c0 bc 5c 46 68 bd
       0.14171834 -0.057605334 -0.023515448 -0.056707725
000080 00 74 54 bc c6 19 36 3e 57 d9 48 3e 6a 5f d7 bc
       -0.01296711 0.1778327 0.19614159 -0.026290614
000090 ca 77 a1 3d 27 a1 5a 3d 93 b1 e2 3d d7 0f 8c bd
       0.07884176 0.053376343 0.11069026 -0.06838959
0000a0 ad 41 3a 3d 33 05 80 bd 6c 98 d5 3c 4e 0b 0f 3e
       0.04547279 -0.06250992 0.026073657 0.13969156
0000b0 a8 b3 2c 3d 6c 1f 38 be 97 be 6b 3c 6f 74 a3 ba
       0.04216352 -0.17980736 0.014388702 -0.0012470613
0000c0 ab 77 53 bd 54 13 dd bc 5c fc fa bd 6d 62 96 bd
       -0.051627796 -0.026986755 -0.12255165 -0.07342992
0000d0 be 60 f3 bd 9b a3 8c 3d 3c 7f eb 3c 69 2a db 3d
       -0.118836865 0.06867143 0.028747194 0.107014485
0000e0 e4 ae 12 3e ba 64 05 3d 86 34 1a 3d af 70 75 3d
       0.14324528 0.032566763 0.037647747 0.059921917
0000f0 1f 07 16 3d bb 9f 62 3d 3b 87 9b bd 4a 00 0c be
       0.036627885 0.055328112 -0.075941525 -0.13671985
000100 a4 cd 43 be 9b 9b d7 3c 6f c6 39 3b 03 bf eb bd
       -0.19121414 0.026319316 0.0028347035 -0.11511042
000110 81 aa d2 bd a3 b9 4c 3d c3 f9 a0 ba fc e3 87 bd
       -0.10286427 0.049981724 -0.0012281466 -0.066352814
000120 90 44 02 3e ed ab 25 bc 55 aa aa bc d0 45 d1 bd
       0.12721467 -0.010111791 -0.020833174 -0.10218394
000130 0d 80 d7 3b dc 4b 00 3c 64 68 42 3e 72 5b 51 3e
       0.006576544 0.007830586 0.18985134 0.2044504
000140 27 32 df bc bf 3d 83 3d 98 1c eb bb 32 86 b4 3b
       -0.027245594 0.064082615 -0.0071750395 0.0055091614
000150 18 53 07 be 6d 4f f6 bc b1 3d e4 bd 60 d4 c1 bd
       -0.13215292 -0.03006717 -0.11144579 -0.094643354
000160 3b 75 8e 3d 21 6e e0 bd ee 1d 28 3e 4b 7f 38 bb
       0.06955954 -0.109585054 0.16417667 -0.0028152044
000170 28 50 6e bd a4 60 91 bd 65 f3 61 3d 2d e9 6e 3d
       -0.05818191 -0.07098511 0.05516376 0.058327843
000180 2f b6 ee 3c 09 9a 0e bd af 1c 1a 3d cc df 84 be
       0.029139606 -0.034814868 0.03762501 -0.25951993
000190 94 58 0a bd 17 67 f5 bd 71 23 5d 3d 71 7d 16 3d
       -0.03377588 -0.119825535 0.053988878 0.036740724
0001a0 b2 0a 5f bd 72 49 ad bd 3f cd 6e bc 1c d0 00 3e
       -0.05445356 -0.08461274 -0.014575302 0.12579387
0001b0 83 87 87 3d eb 0f a6 3c 4e 52 16 3c ef b6 ed bc
       0.06617644 0.020271262 0.009174896 -0.029017894
0001c0 f1 7e 3c bd b0 e2 7b bc 99 42 2b 3d 84 75 c0 3a
       -0.0460195 -0.015373871 0.04181156 0.001468346
0001d0 e1 da 36 3e ac e4 83 3c f9 83 8d 3d 5c 8f e2 bc
       0.17856933 0.01610025 0.069099374 -0.02765625
0001e0 50 ec 52 bd 84 1b 8d 3d 9e 1d a6 3d 7c e1 88 3d
       -0.051494896 0.06890014 0.08111118 0.06683633
0001f0 71 1e a4 bd a4 03 27 bd df 55 ca bc 39 c2 c2 bc
       -0.08013619 -0.040774956 -0.02469915 -0.023774253
000200 a4 2d 06 3e 39 d6 f8 bc ad c6 4a 3e 61 48 38 3e
       0.13103348 -0.030375587 0.19802351 0.1799636
000210 6f 7c 4c 3e 08 9c e6 bc 52 50 1a 3e 05 a3 34 3e
       0.19969343 -0.028150573 0.15069702 0.17640312
000220 41 a3 24 3d 22 1a 58 bd 2a 80 40 bd 8f 84 38 3d
       0.040194754 -0.052759297 -0.046997227 0.045048293
000230 7a 56 a7 bd 6b 8f 2f bc b5 40 f6 bd 5c f1 87 3d
       -0.08170791 -0.010715346 -0.12024061 0.066378325
000240 d3 93 63 bd 9d a8 b2 bc b2 5d 45 bd 86 32 77 3d
       -0.055560898 -0.021808917 -0.048185058 0.060350917
000250 9d e0 f0 bd b3 3c 49 bc a4 f5 6b bd e7 2a d5 bc
       -0.117615916 -0.012282538 -0.057607308 -0.026021434
000260 ec 04 2c 3e aa 06 18 bd 75 6d c7 3d 8b 92 c6 3d
       0.16798753 -0.03711573 0.09737674 0.096959196
000270 b7 9b 72 bc 44 45 13 bc 8b 32 6b bc cb cf f4 bb
       -0.014807633 -0.008988682 -0.014355312 -0.00747106
000280 68 7a 25 bd 9c 78 e6 3d ac 14 2a be 15 5a 49 3d
       -0.04039994 0.11253473 -0.16609448 0.049158175
000290 e3 74 a3 3d d0 68 5b bd 3f 48 44 3d a9 cf 36 3e
       0.07981279 -0.053566754 0.04792046 0.17852654
0002a0 26 4e 04 bd 1b 21 f0 bd fd 43 55 be a6 e7 ec 3d
       -0.03230109 -0.11725064 -0.20826717 0.11567621
0002b0 73 01 6d 3d 1d d2 89 3d 1f a2 a1 bd b0 4b 08 bd
       0.05786271 0.06729529 -0.0789225 -0.033275306
0002c0 21 63 41 bd 8a 0b c7 3c 62 7e 99 bd 60 77 a1 3d
       -0.047213677 0.024297494 -0.07494809 0.07884097
0002d0 d6 62 c3 bd bc 2a e7 3d 02 69 17 bd 41 02 d0 3b
       -0.09540336 0.11287448 -0.036965378 0.006347925
0002e0 e5 64 c3 3d a0 1a 02 bd 29 c5 1b 3d 93 67 1b bd
       0.095407285 -0.031763673 0.038029823 -0.037940573
0002f0 e3 e0 9b bc 4b de eb bd 71 7f 7a 3c 24 be 4a 3d
       -0.019028133 -0.115170084 0.015289173 0.04949774
000300 44 f4 34 bd e4 7c 14 3e 92 6c 0f bc 6c 3c 48 3d
       -0.044178262 0.14500767 -0.0087539125 0.048885748
000310 0b cc 40 bd 3d c6 30 bd b7 0b 4d 3c c8 f4 a6 3d
       -0.04706959 -0.043157805 0.012515 0.08152157
000320 a8 32 0b ba b8 52 3e 3d 06 47 1e bd 71 83 56 bd
       -0.00053099776 0.046465605 -0.038641952 -0.052371446
000330 1f e0 dd 3c 04 fe d3 bc 04 81 1c bc 8d 16 c8 3d
       0.027084408 -0.02587796 -0.009552244 0.09769926
000340 df e3 42 bd 60 7f 05 bb 46 f6 0c bb a4 3e d3 bc
       -0.047580596 -0.002037011 -0.0021509095 -0.025786705
000350 64 1f a6 bd fe 99 ad 3d 01 a9 c7 bd d8 35 f8 bd
       -0.08111456 0.08476637 -0.09749032 -0.12119645
000360 6a b0 c5 bd be 62 b0 bd 99 4c 3d bd c0 ed fe 3d
       -0.09652789 -0.086125836 -0.046215627 0.12447691
000370 83 26 6f bd 0d 3b 21 3e f5 68 fe 3d 42 a0 fe 3d
       -0.058386337 0.15745182 0.12422363 0.124329105
000380 d9 b5 ee 3d a1 5c bb 3c df 7b 29 be 2e 45 81 bd
       0.116557784 0.022871317 -0.1655116 -0.06312023
000390 1c 13 48 3d 37 8b b7 bc 82 34 bb 3d f1 42 5a bd
       0.04884635 -0.02240525 0.091408744 -0.053286497
0003a0 24 ba 0e 3d 1a ee 64 bd e2 d2 d8 bd c5 9c 62 bd
       0.034845486 -0.055891134 -0.10587098 -0.05532529
0003b0 b9 b1 45 bd da 1c ee bd 28 fb e7 bd 22 4f a0 3d
       -0.048265193 -0.11626597 -0.11327201 0.078275934
0003c0 99 3a 97 3d 90 a9 e1 ba 6a ae e0 bd 47 f1 2c 3e
       0.073842235 -0.0017216671 -0.10970767 0.16888915
0003d0 7b d5 ca bd 25 37 34 3d f3 83 ed 3c d4 86 16 be
       -0.099039994 0.043997902 0.028993582 -0.1469987
0003e0 45 43 92 bd 71 86 bb 3c f1 e7 ed 3d 73 a0 58 3b
       -0.07141737 0.022891255 0.11616505 0.003305462
0003f0 a0 1a 2d 3d 9f 9b 62 bd 6c 03 62 bb d2 59 c2 bd
       0.04226172 -0.055324193 -0.0034486903 -0.09489788

network_body._body_endoder.seq_layers.2.bias f4 [256]
000000 34 04 80 bb e4 46 3c 3d 18 74 0f be 58 e1 e3 bd
       -0.003906751 0.045966044 -0.1400913 -0.11126965
000010 d2 8f 28 be 27 cb 17 be ca 7a 25 3d ca b5 0e be
       -0.16461113 -0.1482359 0.040400304 -0.13936535
000020 f9 c4 b3 bd fe c7 71 3d c2 ef 0d be 37 54 2e bc
       -0.08777804 0.059028618 -0.13860992 -0.010640196
000030 dd d0 8c bd 37 a7 a3 3d 2d 35 83 bd 5c 79 46 bb
       -0.06875775 0.07990878 -0.06406627 -0.0030284738
000040 82 aa 18 3d 1f b8 83 3d 82 be 5e 3d 3a a3 0e be
       0.037271984 0.06431603 0.0543809 -0.13929453
000050 31 cc cc 3c 7b dd 16 be 05 5b a9 3d 8f 6d 12 be
       0.02499971 -0.14732926 0.08269314 -0.14299606
000060 3e 5c 82 3d 75 29 aa 3c 54 06 19 be bf 0f da 3d
       0.0636525 0.020771721 -0.1494382 0.106475346
000070 9e 97 f2 bd e9 41 26 bc 8b 0d ec bb 8a b1 ac 3d
       -0.11845325 -0.01014755 -0.007203763 0.084323004
000080 46 5f 1d be 49 15 d3 3d 5a 94 8b 3d 9c cd 6e 3d
       -0.15368375 0.10306794 0.06815405 0.058301553
000090 07 69 12 be 97 fd 9c bd 28 fe 39 3d b2 e9 02 bd
       -0.14297877 -0.07665556 0.045408398 -0.03196115
0000a0 84 ee bb bd 5f da f1 bd 14 30 cf 3c 0f 1a d3 bb
       -0.091763526 -0.11809229 0.02529148 -0.0064423154
0000b0 ee 10 4b bd 2b fc 7b 3d 99 45 d4 ba 4c ce fe bd
       -0.049576692 0.061519783 -0.0016195058 -0.12441692
0000c0 5f 73 1a be 0f 75 bf bc cd c3 21 3d ba b3 6f 3d
       -0.15083073 -0.023371248 0.03949337 0.05852101
0000d0 bf 8a 01 3e 28 82 09 be d7 56 bd 3d 8f 59 85 bd
       0.12650584 -0.13428557 0.09245079 -0.065112226
0000e0 5b c5 22 be b9 1e 1d be f5 14 20 3d a7 44 26 3d
       -0.15895598 -0.15343751 0.039082486 0.040592816
0000f0 63 40 bc bc 3e 84 b2 3d c6 ea 86 bd 60 74 13 3e
       -0.02297992 0.087166294 -0.06587748 0.14399862
000100 43 bf ba 3c 41 19 41 3d fb bc bc 3d c0 c4 0b be
       0.022796279 0.047143225 0.09215733 -0.13649273
000110 f9 19 14 be e2 ee a7 3d 60 3e 68 bb 94 cd 44 3d
       -0.14463033 0.0819986 -0.003543757 0.048047617
000120 03 74 9f bd 3b 41 12 be e2 54 34 3d 98 47 68 3c
       -0.07785799 -0.14282696 0.044026263 0.0141772255
000130 66 2e d5 3c f7 8b 18 be cc 04 48 bc ec 71 40 3d
       0.026023101 -0.14897142 -0.012208175 0.046983644
000140 a1 f1 7d 3d 7d 23 b3 bb bb 58 b9 3d 44 9c 20 be
       0.061998013 -0.005466877 0.09050127 -0.1568461
000150 f3 9d ca bd 96 c2 c0 3d d8 5d af 3d 5f af b5 bd
       -0.09893408 0.09412114 0.08562821 -0.0887134
000160 5b 6b a6 bd 63 0f d0 3d 97 db ad bd 51 67 93 3d
       -0.08125945 0.10159185 -0.08489149 0.071974404
000170 dc f0 09 3e 99 b9 a4 3d c9 9c 6d 3d b2 17 e6 bc
       0.13470787 0.080432124 0.05801085 -0.02808747
000180 b4 5d 3b bc 57 45 fc bd 48 c4 9f 3d 4f 12 08 be
       -0.011435915 -0.12317913 0.078011096 -0.13288234
000190 2f 7b bb 3c 05 eb 09 bc 21 1a 12 3d e7 1b 9e bd
       0.022885887 -0.008417849 0.03566945 -0.07720166
0001a0 ba e4 cf bd 61 53 c1 3d a9 31 4d 3d 1d 72 89 3d
       -0.10151048 0.094397314 0.050096188 0.067112185
0001b0 31 85 08 3e 14 4e 23 3d 08 b6 97 bd b8 36 0b be
       0.13332058 0.039869383 -0.074077666 -0.13595092
0001c0 32 c4 a8 3d 74 04 9c bc af f4 10 bd 41 2b 9a 3d
       0.08240546 -0.019045092 -0.0353896 0.07527781
0001d0 c0 8b 61 bd 73 ea d1 bc ae db 70 bc 49 97 08 be
       -0.055064917 -0.02562449 -0.014700813 -0.1333896
0001e0 97 40 13 bd 9a 83 17 3d d2 5e d0 3d 3e 4f 83 bc
       -0.03595027 0.03699074 0.101743355 -0.016028997
0001f0 cf fb 14 3d a6 ce 02 be f8 88 72 bd e2 b3 55 3d
       0.036372956 -0.12774143 -0.059212655 0.052173503
000200 ad 2f cf 3d 7b 2a 1c be bf 2a 36 bd 2c f3 0c be
       0.10116515 -0.1525058 -0.04447436 -0.13764638
000210 87 ac 92 bc 64 fe ea bd 86 a7 cf bd a1 bd a1 3d
       -0.017904533 -0.114743024 -0.101393744 0.07897497
000220 78 02 1c be a1 d2 05 3d e9 35 21 be b5 a4 56 3d
       -0.15235317 0.032671575 -0.15743221 0.05240317
000230 a5 b7 06 3e de 63 a9 3d 94 8c 17 be 8e a3 80 3d
       0.13155992 0.08271001 -0.1479972 0.062811956
000240 2f 9c 0f be f5 84 12 be 00 0e 99 bc ab c6 ab 3d
       -0.14024423 -0.14308532 -0.018683434 0.08387502
000250 78 88 1d be 65 81 06 be 54 ba f1 bd ae 83 21 be
       -0.1538409 -0.13135298 -0.118031174 -0.15772888
000260 49 6b 78 3c 5e 7c 06 bc c4 8b 14 3a da 84 09 be
       0.0151622975 -0.008208362 0.00056665787 -0.13429585
000270 48 ba 41 bd c9 51 fe 3d bc a3 1c be 36 e6 ab bc
       -0.047296792 0.12417943 -0.15296835 -0.020983797
000280 db 09 bb bc 44 71 17 be 7f 9d 3e 3d 5b 62 51 3d
       -0.022831848 -0.14789301 0.04653692 0.05111919
000290 c5 db eb bd 9c 1d 08 be de 06 8a 3c 41 25 c5 3d
       -0.11516527 -0.13292545 0.016848978 0.09626246
0002a0 8a 8c 04 3e 7f fd 1c bd 3e b9 f5 bd eb c8 18 3e
       0.12944236 -0.03832769 -0.11998223 0.14920394
0002b0 86 1a 6e 3c f8 3a d4 3d b2 d5 af 3d f6 cc 73 3d
       0.014532691 0.1036281 0.08585681 0.059521638
0002c0 b8 cd 03 3e 8d 71 9d 3d bf 2e 33 bd 2b 7d cd 3d
       0.12871444 0.07687674 -0.043745752 0.100336395
0002d0 53 97 6d bd cb f1 fe 3c fc db 34 bd 2a 82 c4 bd
       -0.058005642 0.031121155 -0.044155106 -0.09595139
0002e0 67 b4 63 3d a3 16 a1 3d 38 5d 44 3d b9 33 86 3d
       0.055591967 0.07865646 0.047940463 0.06552834
0002f0 21 2b 7b bd f7 92 bc bc a6 4d ae bd 21 51 1b be
       -0.061320428 -0.023019297 -0.08510904 -0.15167667
000300 3d fc fb bd 08 52 a2 bd 50 ea 95 bc c3 43 a4 bb
       -0.1230397 -0.079258025 -0.018300205 -0.0050129606
000310 bb 99 9c bd c1 f6 11 bd 2f 6c 15 bd 95 ea dc bd
       -0.07646509 -0.035635713 -0.036480125 -0.107869305
000320 c0 cb 74 ba f5 ba 9b 3d 39 39 cc 3d 71 1d d0 bd
       -0.00093382224 0.076040186 0.09971852 -0.101618655
000330 67 3d f9 3a 19 bc 99 3c dd 9d 51 3d 63 49 0f be
       0.0019015492 0.01876645 0.05117594 -0.13992839
000340 d2 31 83 bd 76 a2 f8 bd c4 f6 14 be ac 84 fc bd
       -0.06405987 -0.12140362 -0.14547259 -0.12329993
000350 58 a0 4c 3c 59 7d 1a be df 4d 9d 3d eb 36 00 3e
       0.012489401 -0.15086879 0.07680868 0.1252095
000360 ed 89 6f bd 8d e1 03 3e 9b 6e 6c 3d d3 28 d7 bb
       -0.058481146 0.1287901 0.05772267 -0.006566146
000370 de 05 0b be 1a d1 6e bc d2 df df 3d 5c 87 42 3d
       -0.13576457 -0.014576221 0.10931362 0.04749237
000380 29 22 ec 3d 02 0b b6 3d 9f 09 dc bd e6 a1 67 bd
       0.11529953 0.08888818 -0.107440226 -0.056550883
000390 97 a9 85 bd 84 1b f8 bb 40 93 21 be a6 13 71 bd
       -0.06526487 -0.0075716395 -0.15778828 -0.05885663
0003a0 29 42 21 be f0 74 8f 3d ae 16 51 3d c0 47 12 be
       -0.15747894 0.07004726 0.05104702 -0.14285183
0003b0 22 ba 12 be b4 ff 02 3e 28 92 b8 bd 3a de cb 3d
       -0.14328817 0.12792856 -0.09012252 0.09954496
0003c0 23 e4 97 3c 4e 5c 18 be 4c 03 af bd d7 1e 07 3d
       0.018541401 -0.14878961 -0.08545551 0.032988396
0003d0 bf 5e b9 bd ca 75 11 be aa 09 00 be 24 25 4b 3d
       -0.090512745 -0.14205089 -0.12503687 0.049595967
0003e0 6b 27 05 bd eb 6f 30 3d 21 32 5d bd 07 4a ec bb
       -0.032508295 0.043075483 -0.054002885 -0.007210973
0003f0 96 a2 a3 bd fd f4 6b bc ec 85 c2 bd 5d 89 a6 3c
       -0.07989995 -0.0144016715 -0.094982 0.020329172

action_model._discrete_distribution.branches.0.weight f4 [4, 256]
000000 5d ea e1 ba d7 e5 4d bd 02 70 94 3d 7c ab 13 3c
       -0.0017235983 -0.05026802 0.07247926 0.009013053
000010 3f 92 b8 3d 52 f6 ad 3d d1 0d 0d bc 63 fc 83 3d
       0.09012269 0.084942475 -0.008609251 0.06444623
000020 76 18 1f 3a 95 ba 28 bd ff 9c 9a 3d 39 4b e4 bb
       0.00060690136 -0.041193563 0.07549476 -0.006966975
000030 e9 86 ee 3c 5d 25 cb bc aa e8 28 3c d4 4a 66 bb
       0.029117065 -0.02479809 0.010309378 -0.0035139816
000040 39 17 e4 bc 65 c1 03 bc 8a d7 bb 3c e0 9a 98 3d
       -0.027843105 -0.008041714 0.022929925 0.07451415
000050 cd c7 07 bd 8e 89 97 3d ac 64 55 bd 56 56 8f 3d
       -0.03314953 0.07399283 -0.05209796 0.06998889
000060 f5 55 93 bc 18 a0 22 bd e4 56 aa 3d 4d 27 1c bd
       -0.017985323 -0.03970346 0.08317354 -0.038123418
000070 95 71 98 3d a3 e5 78 bb 10 2b 13 bc 86 17 42 bd
       0.07443539 -0.003797867 -0.008982435 -0.047385715
000080 0e 88 ad 3d 89 3c 1b bd c5 09 54 bc 02 c6 d7 bc
       0.08473216 -0.037899528 -0.012941782 -0.026339535
000090 cf 4d 9e 3d eb f1 36 3c 50 fc 56 3b 89 74 9f 3b
       0.077296846 0.011166076 0.0032804199 0.004866187
0000a0 85 89 84 bc ba 64 90 3d 07 91 9d bc 8a db 15 3c
       -0.016178856 0.07050462 -0.019234193 0.0091465805
0000b0 26 cf d3 3c 49 69 28 bd fd f7 0e bd ef 6c 92 3d
       0.025855612 -0.041116033 -0.03490447 0.07149684
0000c0 07 e2 a7 3d c2 b3 c9 3a a5 24 01 3c 17 79 b1 bc
       0.08197408 0.0015388655 0.007882272 -0.021664185
0000d0 d2 97 63 bd af 69 8c 3d 08 11 c4 3c b9 17 9d 3c
       -0.05556471 0.06856095 0.023933902 0.01917635
0000e0 f8 80 ac 3d 2f dd a7 3d fd 1b 62 bc 3a c0 e1 bc
       0.08423036 0.08196484 -0.013800618 -0.027557481
0000f0 27 09 e3 3b 3c d2 d6 bc 9a ee 59 3d 96 39 13 bd
       0.0069285813 -0.026223294 0.053206064 -0.03594359
000100 2b f7 e2 bc 7a 26 7f bc ef 07 44 bd c1 e8 ac 3d
       -0.02770575 -0.015573138 -0.04785913 0.08442832
000110 54 cf 9b 3d 7c 62 82 bd d5 b0 cc 3c a7 1f 89 3c
       0.07607904 -0.06366441 0.024986664 0.016738726
000120 96 7d 60 3d 9b 30 c4 3d af 82 42 bc 1c 2a 63 b9
       0.054807268 0.09579583 -0.011871978 -0.00021664094
000130 61 0e c1 bc 67 a1 b5 3d 18 44 80 bc 78 f3 80 bc
       -0.023566427 0.08868676 -0.01565747 -0.015741095
000140 85 49 15 bd 49 6e 1b 3c f5 67 1b bd 98 fa b8 3d
       -0.036447067 0.009486743 -0.037940938 0.09032172
000150 13 59 e6 3c d4 95 58 bd e5 41 6c bd 0e 65 6c 3c
       0.028118646 -0.052877262 -0.05768003 0.01442839
000160 72 f9 0c 3d 16 ab be bb 4c 37 2f 3d e8 a0 6c bc
       0.034417577 -0.005818735 0.042777345 -0.01444266
000170 75 93 4e bd 42 23 27 bd 57 56 01 bd ee a9 4d bb
       -0.050433595 -0.04080511 -0.03157648 -0.0031381804
000180 80 ce 13 bc c1 66 a1 3d 89 e1 dc bc 40 6f 8a 3d
       -0.009021401 0.07880927 -0.026963012 0.067595005
000190 81 3f c7 bb 7e 3e c2 bc e1 63 26 bc b6 ff 03 3c
       -0.0060805683 -0.02371144 -0.010155649 0.008056572
0001a0 50 be 2e 3c 4f 8d 78 bc b5 ce 4a 3b 18 e5 dc bc
       0.010665491 -0.015170409 0.003094596 -0.02696471
0001b0 97 07 60 bd 5d 40 b9 bb b2 93 9d 3b 8f 1b cd 3d
       -0.05469474 -0.0056534247 0.0048088664 0.10015022
0001c0 ed 92 fb bc 48 d0 a6 bc ff 71 c4 3c e7 b3 83 bb
       -0.030709708 -0.020362988 0.023980139 -0.0040192488
0001d0 97 64 bf bc 0f b1 2d bc 36 0c 0c 3d 1d b3 a2 3d
       -0.023363395 -0.010601296 0.034191333 0.079443194
0001e0 e3 40 6d bb 22 de 08 bb 06 29 57 bd 1c 51 3d bb
       -0.0036202006 -0.0020884355 -0.052529357 -0.0028887456
0001f0 61 fc 93 bc ff 9d 8e 3c 75 2d c4 bb 49 50 97 bc
       -0.01806468 0.017409323 -0.005986864 -0.0184709
000200 a0 23 1f bc e2 59 a5 3d 06 de c2 3b f4 0a c6 3d
       -0.0097130835 0.080737844 0.0059468774 0.09670058
000210 a2 00 39 3b 6c 3e 32 3c 25 88 a9 3c 89 47 73 bd
       0.0028229137 0.01087914 0.020694802 -0.059394393
000220 ea 01 70 3d 20 20 0d bc 33 ae 8c 3d 74 6f 44 bd
       0.058595575 -0.008613616 0.06869163 -0.047957852
000230 51 db 57 bd 55 c9 f6 bc 2c ee 9c 3d b0 2c 89 bc
       -0.05269939 -0.0301253 0.07662615 -0.016744941
000240 b2 37 a6 3d 9a c4 9d 3d 01 f3 c7 bc b1 26 00 bd
       0.08116092 0.077035144 -0.024407865 -0.0312869
000250 7d e3 a4 3d 07 ef 86 3d 59 bc e4 3c 2f 21 b9 3d
       0.080512024 0.065885596 0.027921842 0.090395324
000260 b1 72 9c bc 25 94 ab bb 10 4a 24 3b 5e 40 97 3d
       -0.019097658 -0.005236166 0.0025068559 0.07385324
000270 e4 30 e0 3b d1 67 37 bd f1 03 ad 3d 32 09 71 bb
       0.0068417657 -0.04477674 0.084480174 -0.0036779162
000280 2e 25 5a 3c 45 49 b8 3d a8 cd fc bb 2e fe 03 bc
       0.013314528 0.0899835 -0.007714946 -0.008056207
000290 49 53 8f bb ce 8f 9c 3d 16 d8 3f bc b4 21 e5 bc
       -0.004373942 0.07644616 -0.011709234 -0.027970172
0002a0 67 9e 8f bd 13 a4 8f bb 12 ee 64 3d bb 28 8a bd
       -0.07012635 -0.004383573 0.055891104 -0.0674605
0002b0 d6 c6 7d bc 25 1a 5d bd 9d 01 39 bd 50 e2 b3 3b
       -0.015489301 -0.05398001 -0.045167554 0.005489625
0002c0 e7 ba d3 bc 16 6c e7 bc b6 88 4f bb 28 68 87 bc
       -0.025845958 -0.028249782 -0.003166718 -0.016529158
0002d0 2b 9a 8c 3c 8a 11 53 bc de 59 fa 3c 2b c0 48 3c
       0.017163357 -0.0128826 0.03056043 0.012252848
0002e0 a3 1b e1 bb 1f 5e ca bc 48 b9 8d bb 1a 35 dc bc
       -0.0068697496 -0.024703084 -0.0043250658 -0.02688079
0002f0 d7 36 52 3b 7f 88 d3 bc 2f 20 38 3d af 89 98 3d
       0.0032076144 -0.025821922 0.044952568 0.07448136
000300 46 90 a3 3d 69 21 2c 3d 18 49 c5 3b 7f 7e 13 3c
       0.07986502 0.04202405 0.0060206763 0.009002327
000310 a7 27 2d 3d 39 51 57 bb 80 21 1a 3a 00 cc 7b 3d
       0.042274144 -0.003285481 0.00058796257 0.061473846
000320 6f 1f 55 3b af 80 1c bd 61 87 a1 bc 7c 81 b1 3c
       0.0032519957 -0.03820866 -0.019717874 0.021668188
000330 cb 65 e4 3a 73 cf 96 bc 2d 12 29 bd 14 81 c5 3d
       0.0017425356 -0.018409466 -0.0412771 0.0964376
000340 fb 70 24 bc 6e ab a3 3d a1 96 bf 3d 52 cf 32 3d
       -0.010036702 0.07991682 0.09354902 0.043654747
000350 7f 14 aa 3a 8e 00 91 3d d7 ba e1 bc 43 6c 58 bd
       0.0012976079 0.07080184 -0.027554912 -0.05283762
000360 22 8e 94 3c a0 fb 5e bd c5 03 b2 bc 1f d0 b0 3b
       0.01813418 -0.054439187 -0.021730313 0.0053959037
000370 6d 16 a1 3d 61 fa 13 bc 5a de 89 bd fd 66 31 bc
       0.078656055 -0.009031863 -0.06731863 -0.010827777
000380 9f b0 31 bd 06 53 db bc bd 3e e9 3c 2c 93 fb b9
       -0.04338133 -0.026772987 0.028472299 -0.00047984102
000390 f2 e1 d2 3b 88 92 1a 3a 13 6c 84 3d 95 33 45 bc
       0.006435626 0.00058964686 0.06465926 -0.012036224
0003a0 ba 70 98 3d ca 99 57 bc 0c cb 3f bd 1c cd 83 3d
       0.07443376 -0.013159225 -0.0468245 0.06435606
0003b0 93 e0 bc 3d 3b b1 8a bd 7f 63 4e 3d 31 12 db bc
       0.09222522 -0.06772085 0.050387856 -0.026742073
0003c0 07 fb 03 bd 3a ff 7b 3d d1 82 e5 3c e0 ab 8f bc
       -0.03222182 0.0615227 0.02801648 -0.017538011
0003d0 62 81 be 3b f5 b3 8d 3d 11 9e 92 3d a0 d8 c3 3b
       0.0058137635 0.0691909 0.07159055 0.0059767514
0003e0 86 95 08 bc 09 21 95 bc bf 4f 84 3c ae fa 79 bc
       -0.00833643 -0.018204229 0.016151307 -0.015257521
0003f0 1d 99 49 3d 05 86 9b bc 82 67 97 3d ca cd 4c bc
       0.049218286 -0.018984804 0.073927894 -0.012500236

action_model._discrete_distribution.branches.0.bias f4 [4]
000000 09 08 94 bd 9b 3a 09 3e 36 a0 4c bd 73 80 96 bd
       -0.07228095 0.13401262 -0.049957477 -0.073487185

action_model._discrete_distribution.branches.1.weight f4 [15, 256]
000000 ab 96 d1 bc 15 46 85 bc 04 46 74 3b db b5 ad bd
       -0.02558454 -0.01626877 0.0037273178 -0.08481952
000010 bc 82 2a b8 12 b4 89 bc 52 61 28 bd 32 e7 ab ba
       -4.0652914e-05 -0.016809497 -0.041108437 -0.0013115166
000020 87 89 41 3d 9c 1e 86 3d a8 ab fb 3b e4 d0 e5 3c
       0.047250297 0.06548807 0.007680375 0.028053708
000030 8e 15 b5 bc ef 9b a0 3d c9 e6 c6 bd ed 4f 31 3d
       -0.022105005 0.07842242 -0.097119875 0.043289114
000040 d2 04 9c bb 05 6e dc bc a9 dd 81 bd 7c bf 36 bc
       -0.004761317 -0.02690793 -0.063411064 -0.011154052
000050 9e 93 5e 3b f3 bd f0 3b 4d 47 96 3b 75 69 42 3c
       0.0033962498 0.0073468625 0.0045861364 0.011865963
000060 d1 38 a5 bd bf 92 d9 3c 7b 3e 2a bc 62 e8 52 3d
       -0.080674775 0.026559232 -0.010390873 0.05149115
000070 4e 98 19 3c 71 37 33 bc 11 59 0b bd 24 ae 3c 3d
       0.009374691 -0.010938511 -0.034020487 0.04606451
000080 49 8d f2 3a 5e dc f4 bc 1c dd c2 3d 79 e4 1d 3d
       0.0018505241 -0.029890236 0.095148295 0.038547967
000090 59 2a 27 3c 1a d9 87 bd 97 0b e6 3c 47 5f a7 bc
       0.010202968 -0.06633206 0.028081698 -0.020431174
0000a0 4d 9b 8c 3c d7 ac 73 b9 c3 52 c6 3c 92 43 d3 bb
       0.017163897 -0.00023238674 0.024209386 -0.006447264
0000b0 a7 0c 18 bc df d6 c9 bc ea c6 a6 bd 29 cb 6a bc
       -0.00928036 -0.024638591 -0.081434086 -0.014330664
0000c0 99 8e 71 bc b3 fd 12 3d cf 11 b2 bc 75 7f f2 bc
       -0.014743471 0.035886478 -0.021737007 -0.029601792
0000d0 55 4b ab bc 73 43 c1 bb be eb 09 3c 5f 86 22 bd
       -0.020909945 -0.005897933 0.008418022 -0.039678928
0000e0 9d a1 55 3c 06 9a dc 3b fc b8 db bc 4f c4 9c 3d
       0.01303902 0.006732228 -0.026821606 0.076546304
0000f0 1f 36 a7 bd ba 4b 7e bb 76 07 da bc 99 84 ad 3c
       -0.0816462 -0.003880246 -0.026614886 0.021181392
000100 e1 1a 60 bc a4 18 dc 39 16 25 05 bd 03 e8 95 bb
       -0.013678283 0.0004198003 -0.03250607 -0.004574777
000110 9a 09 3a bc 98 28 e0 3c 2e ca 2e bd 43 70 26 3d
       -0.011354828 0.027363107 -0.042673282 0.040634405
000120 c9 d0 02 3d 2e ea 9a bc 43 c2 0f 3d ee a3 7b 3d
       0.031937394 -0.018910494 0.03509737 0.061435632
000130 69 72 39 3d 0a ad f3 bb 89 84 3d 3a 0d ec d0 3a
       0.045275126 -0.0074363993 0.0007229527 0.0015939489
000140 00 2e 19 bc 84 b6 96 bc 09 66 81 bc 1c 63 90 bb
       -0.009349346 -0.018397577 -0.015795724 -0.004406346
000150 fd e3 44 bc cd a9 ca bd 5d b6 5a 3d ae cb 16 bd
       -0.012017247 -0.09895668 0.05339657 -0.036815338
000160 ce 7c fc 3c f2 35 cd 3d 47 e3 d2 3c a1 5a 59 3d
       0.03082123 0.10020055 0.02574314 0.053064946
000170 cd b8 27 bd 2e a9 98 3b 27 47 95 bd 2c ec 4a bd
       -0.040947724 0.0046588397 -0.07288962 -0.049541637
000180 b6 d2 88 3d 5b e4 3f bc dd 3d e6 bc 7d 98 61 bc
       0.06680815 -0.011712159 -0.02810567 -0.013769266
000190 8b 29 65 bc a7 69 a9 3c c2 40 86 bc 1e 4e c5 3d
       -0.013986955 0.020680262 -0.0163883 0.0963404
0001a0 93 93 bc 3c e4 a6 a8 3d c6 59 22 3d d5 3a 90 3c
       0.023019588 0.08234957 0.039636396 0.017606178
0001b0 8e 86 00 3c 58 1e 26 3d 85 84 f3 3b d3 71 89 3b
       0.00784458 0.04055628 0.007431569 0.004194477
0001c0 58 73 05 bd e9 1c a3 bc 85 b5 c2 bc 99 fe 00 bc
       -0.032580703 -0.019911246 -0.023768196 -0.007873201
0001d0 54 3a 9a bc ef f5 13 bd 5b 7d 89 3c 58 2d 5e 3c
       -0.018826641 -0.036123212 0.016783407 0.0135606155
0001e0 3f a9 27 3d 14 ff 39 bd 12 87 a1 bb 1e bf 01 bc
       0.04093289 -0.045409277 -0.0049294317 -0.007919101
0001f0 ee ab a5 3c 24 5c a4 39 83 66 e8 3c ba 62 ed 3d
       0.020223584 0.00031349168 0.028369194 0.11591096
000200 e5 2d 29 bd 48 76 8e bc cd 19 c3 3b a1 a8 40 bc
       -0.041303534 -0.017390385 0.0059540034 -0.011758954
000210 65 12 51 3d 08 f6 63 bd ca 50 de bd c6 e2 5f 3d
       0.051042933 -0.055654556 -0.10855253 0.054659627
000220 46 2f 0f bc 82 08 c4 3d 8f b8 0c b8 2d 99 39 3c
       -0.008739298 0.09571935 -3.3550485e-05 0.011328024
000230 6f 2f d9 3c bc 62 b1 b9 08 b3 ad 3c 0a c7 85 3d
       0.026511876 -0.00033833634 0.021203533 0.06532104
000240 ec 3f 1c bb 55 9b 87 bc ee 6c 3c 3a 36 77 06 be
       -0.0023841811 -0.01655356 0.00071878626 -0.13131413
000250 49 6f ab 3c 5f 23 99 3c 37 8b 3e 3c 77 61 81 3b
       0.020927088 0.018693624 0.011629871 0.0039483863
000260 ef 31 0e 3b 2a 20 21 be 53 33 ad bb 58 55 d5 bc
       0.0021697243 -0.15734926 -0.0052856593 -0.026041672
000270 98 b2 87 bc f1 f9 77 3c 59 a7 8d 3a 1a 7b eb bc
       -0.016564652 0.015135274 0.001080732 -0.028745223
000280 01 9e 39 3d ca a7 cd 3b 48 21 8b bd 3a c6 65 bb
       0.0453167 0.0062761055 -0.06793457 -0.003506078
000290 81 ab d0 3d 9f 31 db 3b 89 37 5a bc 75 a9 a0 3c
       0.10188962 0.006689265 -0.013318905 0.019612053
0002a0 30 5f 03 bc 08 02 db 3d 8d cb 2e 3b ac 54 89 3c
       -0.0080183 0.10693747 0.0026671619 0.016764008
0002b0 87 bb 49 bc af 8b 04 bd bd 92 7f bd be 89 6b 3d
       -0.012312776 -0.032359775 -0.0623958 0.057504408
0002c0 ea 28 27 bd 69 e9 41 bb 82 6c 4c bc 3d b0 42 bd
       -0.040810503 -0.0029588586 -0.012477042 -0.047531355
0002d0 75 f6 39 bd 4a 4a 9b 3d 1d 24 d1 3c 8b 5c 19 3c
       -0.045401055 0.07582529 0.025529915 0.009360443
0002e0 e0 c8 ea bc 72 45 a6 bd d2 b1 f1 3c 36 2c 7e bc
       -0.028660238 -0.081187144 0.029503737 -0.01551347
0002f0 11 df 45 3d f3 38 87 3d 59 18 01 be f4 03 aa bb
       0.048308436 0.06602659 -0.12606944 -0.0051884595
000300 43 89 f6 bb b0 6c b7 bc 61 8c 36 bd 53 67 a6 3d
       -0.007523687 -0.022390693 -0.04456747 0.08125176
000310 50 d9 9d 3d 5d d2 96 3d e7 bf 83 bc 9f 79 72 3c
       0.07707465 0.07364342 -0.016082717 0.014799505
000320 26 e7 1a 3d c9 5e 7c bc 91 fd 45 3d f8 4c 2d 3d
       0.037818097 -0.015403458 0.048337523 0.04230973
000330 e4 e4 12 3d 16 24 f9 3c 61 f4 58 3d e1 fa 96 bb
       0.03586282 0.030412715 0.052967433 -0.004607544
000340 41 ba ee 3b a3 63 4f 3c b3 0c cf bb 30 15 27 bd
       0.007285387 0.012658033 -0.0063186525 -0.04079169
000350 86 af 0c bc 42 e1 f7 3b a3 e3 8f 3c a8 b7 97 bd
       -0.00858677 0.0075646946 0.0175646 -0.074080765
000360 69 86 c3 3b 7b 80 6d 3a e2 88 b9 bd 03 6b 6a 3c
       0.0059669507 0.00090599776 -0.090593114 0.01430774
000370 11 00 79 3c 82 7e f4 3d 18 4a 8a bb b0 a8 ea 3c
       0.01519777 0.11938192 -0.0042202584 0.02864489
000380 dd 73 25 bd 37 d0 35 bb 6c eb 9a 3c 81 7b 8c bc
       -0.0403937 -0.0027742514 0.018911086 -0.017148735
000390 fd 2a 60 bd e8 b8 7f 3d 73 66 4b 3b fd fc 04 bd
       -0.054728497 0.0624322 0.0031036406 -0.03246783
0003a0 a1 72 29 bc 83 4e 18 bd 4c ce 23 bd 5d 16 04 bc
       -0.010342271 -0.03718425 -0.039991662 -0.008061972
0003b0 14 1c 2e ba a0 6f 8a 3c 3a d4 ce ba df 0c 7c 3d
       -0.0006641757 0.01689893 -0.0015779801 0.061535712
0003c0 8b 9a 48 bd af 92 0f bc 24 5b 5b 3d 82 7e 80 bd
       -0.04897551 -0.008762999 0.053553715 -0.062741295
0003d0 cb a9 df 3d ef cb 45 bc ae 86 a7 bc ec 96 72 3d
       0.10921057 -0.012072547 -0.020449962 0.05922596
0003e0 8e a6 1b 3d 79 24 e1 bc f3 59 85 bc bb 83 6a 3d
       0.038000636 -0.027483212 -0.016278243 0.057254534
0003f0 70 95 05 bc 57 ce ca 3c 4f ef 95 bd 58 62 dd bc
       -0.008153304 0.024756594 -0.07321035 -0.027024433

action_model._discrete_distribution.branches.1.bias f4 [15]
000000 1f 8b 10 ba 89 df f0 3b 06 80 ea bb ee e8 00 3c
       -0.0005513895 0.007350866 -0.007156375 0.007868035
000010 68 5e 18 bc 96 48 0e bb 3e 9d da 3c b2 75 12 bc
       -0.009299852 -0.0021710745 0.026686307 -0.008939194
000020 22 ae 47 bc d9 a2 69 3c 06 25 10 bb 1a 64 fc 39
       -0.012187513 0.014260017 -0.0021994724 0.00048139767
000030 fb 12 50 bc 26 15 72 3b c7 87 bf ba
       -0.012699838 0.0036938875 -0.0014612608
