results/ParticipantRankingsAndProposedRankingNameOnlyChecked/AgentBehavior/AgentBehavior-999993.onnx (onnx, 317426 bytes, 9 tensors)

discrete_act_size_vector f4 [1, 2]
00000000: 0000 8040 0000 7041
4.0 15.0

network_body._body_endoder.seq_layers.0.weight f4 [256, 30]
00000000: 2b8d bbbe 7d64 183e 9c67 81be aba5 3abe
00000010: 5252 26be 2d04 2c3d 977b 153e 1c60 753e
00000020: f726 5ebe 547f e8bd 337a 623e f430 1c3d
00000030: 99db a1bd 87af 2b3e afda 97ba 4cc1 283e
00000040: 9b45 523e be88 7cbc fed0 3cbe c86b 9e3e
00000050: 7012 5dbe 2e48 763d d76e fb3d 2046 b0be
00000060: 1966 313d 1730 9d3d 48a3 923e e979 473e
00000070: a675 3d3e 7eaf a63d f185 743e e5f3 a33e
00000080: 90fb 623d ab16 5abd 9424 99be 4453 8ebd
00000090: e544 76bd 1000 dabe d682 d2be d125 623e
000000a0: d441 cebd 1c7c 9fbe 8528 8bbd 5221 3cbd
000000b0: 3b72 f7bd ca81 abbd 38d8 0e3d aabf b63d
000000c0: 06c6 88bd 8d30 06bc e5ad e03e 6336 db3d
000000d0: 605b cabc fae7 e5bc d7fe 903e 539e b7ba
000000e0: a0a2 fd3d 6991 963b 2496 f33c 5628 cc3e
000000f0: 363b 093f 0655 953d 6f08 4cbd 5667 de3e
00000100: 86c2 46be ac1d ca3d 3556 953d dc5e ccbc
00000110: 712a af3c 63b5 8d3e 80f0 213e 3330 1cbe
00000120: 6293 183d a41c acbe 361f 8f3e 38a9 9f3d
00000130: c366 033d 7055 843e 9ca1 b33a 27de 4c3d
00000140: 7f7a 14bd fdca 413d 93fa d93d 05a9 6d3e
00000150: 07d3 823d b16f 01bd 77f3 e7be 7bf2 39be
00000160: 0e20 483c 3fcc 4cbe 0b33 3abe c596 373b
00000170: 13be 9abe 4ec0 393b 223e f73d cb81 43bd
00000180: 0cac 07be d830 a03e 9741 2f3e 8f25 e33e
00000190: bc32 03bb fb11 003e f452 2abe 455f 163d
000001a0: 9070 5c3d 584c c0bd 3b63 84bd e5a0 2dbe
000001b0: eb14 e9bd 95dd b13d 4a24 883c 1282 883c
000001c0: 8307 963e fabf 86be e002 593e b2ee ffbd
000001d0: b34c b33d c1cd af3d 4c77 18bd e40b 12be
000001e0: d4fa debe 0840 fa3d 37f5 273e 1ac5 bfbd
000001f0: 173f 5cbd 5d30 0bbe 2bf7 a63d 5757 dcbd
00000200: 898a 9b3e 2e55 5a3e ab99 e93d e68a c4bc
00000210: b0cd 9ebe e20f 213e 78cc 17bd a11d 25be
00000220: eff6 e0be c8c4 2f39 7476 55bc 99f3 9ebd
00000230: 6af9 8cbe 157b 30ba f1b2 a83d df31 64be
00000240: 19db c1be 21d2 c2be c43f 6e3d eeda bcbd
00000250: e2a8 e9bd fcb0 0fbe c9bb 0a3c 96fb 94be
00000260: 20f1 07bd 2b94 2cbe 8439 bbbe aa2c 473e
00000270: eb7b ff3c c0ee aa3d cf54 dcbd 6366 413e
00000280: 071c 0b3e c9e3 c63c 55a9 97bd 907d 7dbc
00000290: 9234 0d3e b0d7 84bd 2cb3 c4bd d0be ad3d
000002a0: 4e09 0dbf 4ff4 1a3c c790 eebd 1a03 5c3d
000002b0: 21b8 49bd a95a eebd d293 143e 911c 593e
000002c0: 7c1f 77bd 0591 1ebe fc83 18bc 572e 8d3e
000002d0: bea8 923e b9aa 1ebe ef0a a6be 73e8 afbd
000002e0: 3924 483c 5b58 4e3e 40f4 1b3e bb08 f43d
000002f0: b8fc 163e 17f0 1d3d 74cf 6b3e 8a14 663d
00000300: 21db a73e b1a3 953d 741e d23e 7198 b4bd
00000310: 1e88 a03e 5c20 4a3e baf3 fabd 5750 b1bd
00000320: a7d6 3b3e 62a3 993d 73be b33e 105e 153e
00000330: e7c3 42be a72a e43d 2d8e 5dbe 2d5a 63bd
00000340: ac25 9f3d 9d80 59be df89 913e 7b78 3cbd
00000350: 7f48 c5bd 97a5 913e 88d1 873e e600 a43d
00000360: 85d7 ba3e 4563 343e 312c 8abd 05cf ba3d
00000370: 0764 c43e eccb d63d ec02 813e 8db2 0a3e
00000380: 1069 03be 7afb e6bd 5297 5e3e 8381 cd3e
00000390: 1db5 7a3e 3d36 e5bc 26cb 113e aed1 e1bd
000003a0: 4eac e03d 450a 42bd 0657 853d 2955 07be
000003b0: d2aa 463e c9f1 ddbd a860 c63e b14a 96bc
000003c0: 2b8e 1a3e 6b17 a73d d165 8f3e 1c61 5fbe
000003d0: 9910 89bd f0a9 8ebd aea2 1bbe d995 b03d
000003e0: 4083 913d 7068 ba3c 1554 073e e79d 9eb9
000003f0: 6050 503d cbcb 383e 393c 8d3d 11ea 82bc
-0.3663114 0.14882083 -0.2527436 -0.1822726 -0.1624234 0.04199617 0.14597927 0.23962444
-0.21694551 -0.11352411 0.22116928 0.038132623 -0.07903213 0.16766177 -0.0011585559 0.16479987
0.20534365 -0.015413461 -0.18439099 0.30941606 -0.21589065 0.06012743 0.122770004 -0.344285
0.04331026 0.07675188 0.286402 0.19480099 0.1850191 0.08138941 0.2387922 0.32022014
0.05541569 -0.053244274 -0.2991072 -0.069494754 -0.060124297 -0.42578173 -0.41115445 0.22084738
-0.100711495 -0.31149375 -0.06794838 -0.045930214 -0.120823346 -0.08374365 0.03487417 0.08923276
-0.06678395 -0.008190286 0.4388267 0.10703733 -0.024701774 -0.028064717 0.28319427 -0.0014008976
0.12384534 0.004594971 0.029734679 0.39874524 0.53605974 0.072916076 -0.04981273 0.43438214
-0.19410142 0.09868941 0.07291833 -0.024947576 0.021382542 0.2767745 0.158144 -0.15252762
0.03724993 -0.336156 0.279535 0.07795948 0.032080423 0.25846434 0.001370478 0.05001655
-0.036249634 0.047312725 0.10643496 0.23209007 0.063879065 -0.031600658 -0.45302936 -0.18158905
0.012214674 -0.19999789 -0.18183534 0.002801345 -0.3022314 0.0028343382 0.12072398 -0.047731202
-0.13249224 0.31287265 0.17114864 0.44364592 -0.0020019254 0.12506859 -0.16633207 0.03671195
0.053818285 -0.093895614 -0.06464239 -0.16955908 -0.11380943 0.086848415 0.016618866 0.016663585
0.29302606 -0.26318341 0.21192503 -0.124966994 0.087548636 0.08584166 -0.037223145 -0.14262348
-0.43550742 0.12219244 0.16402136 -0.09363766 -0.053771105 -0.13592668 0.08152612 -0.10758846
0.3037913 0.21321556 0.11406263 -0.023992013 -0.31016302 0.15728715 -0.03706023 -0.16124584
-0.43938395 0.00016762607 -0.01302873 -0.07761306 -0.27534038 -0.0006732208 0.08237255 -0.2228465
-0.3786247 -0.3805094 0.05816628 -0.09221445 -0.11409165 -0.14032358 0.008467623 -0.29098195
-0.03318894 -0.16853397 -0.36567318 0.19450632 0.031187018 0.08346319 -0.107583635 0.18886714
0.1358491 0.024278538 -0.074053444 -0.015471831 0.13789585 -0.064864516 -0.09604487 0.0848366
-0.5509232 0.009457662 -0.11648708 0.053713895 -0.049247865 -0.11638386 0.14509514 0.21202303
-0.06033276 -0.15485008 -0.009308811 0.27574417 0.28644365 -0.15494813 -0.32430217 -0.08589258
0.012215667 0.20150892 0.15229893 0.11915728 0.14744842 0.038559046 0.23028356 0.05617193
0.3278437 0.07306612 0.4103886 -0.088181384 0.3135385 0.19738907 -0.122535184 -0.08657902
0.18343602 0.07501866 0.3510624 0.14586663 -0.19020043 0.11140948 -0.21636267 -0.05550592
0.07770857 -0.21240468 0.284255 -0.046013337 -0.09632968 0.28446648 0.26527047 0.08007984
0.36492553 0.17615993 -0.0674671 0.09121517 0.38357565 0.10488114 0.25197542 0.13544674
-0.12833047 -0.11278434 0.21737412 0.40137872 0.24483152 -0.027979964 0.14237651 -0.11026321
0.109703645 -0.047373075 0.06510739 -0.1321608 0.194011 -0.108371325 0.38745618 -0.018346163
0.15093295 0.081587635 0.28007367 -0.21814388 -0.06692619 -0.06966007 -0.15198776 0.08622331
0.07105112 0.022754878 0.13215668 -0.00030253755 0.0508579 0.18046491 0.06896252 -0.015980752

network_body._body_endoder.seq_layers.0.bias f4 [256]
00000000: 329f 063e e941 c0bc 6058 e63d 1f50 233e
00000010: 1fd9 0cbe e9f5 4e3e 0c43 c93d 3739 8c3d
00000020: c054 2c3e 5856 673e 3d2c 803d dbef 5abe
00000030: 1e41 5fbe 4aff 0c3e 8955 b83d 99ee 033e
00000040: b58e 2b3e c9a8 993d 6645 25be 674a 333e
00000050: 9471 093e cc16 cd3d 4f82 e8bc 6149 0e3d
00000060: d689 673d 7aff 1b3d 1310 65be cb61 e2bc
00000070: ae94 443d 31dd 31be b539 4bbe d1e8 a6bd
00000080: 8157 653c f507 f33d 5f38 2f3d 920c d93d
00000090: bae7 81be 0a60 4bbe 7b87 e13d ad2f e83d
000000a0: 2cf0 043d 5416 70bc c712 7b3d d581 70be
000000b0: f294 ee3d aeec 0b3e 1a53 bc3d 8a7e 8abd
000000c0: 5e2c d93d d194 ee3d 83aa 403e 2125 ed3a
000000d0: dc0e 9abd 81cb dc3c e809 6dbe 6c0c fbbc
000000e0: c571 763d fc1b bf3d 126f ad3d 6c26 8bbc
000000f0: 1bc0 7cbe 3387 2dbc d8cb dfbc 36e9 e7bc
00000100: c024 023e b9a5 a93c fc74 8bbd bbc5 373e
00000110: 3bcd a5bd 12d2 a73b 2eaa 0fbe 0d56 cb3d
00000120: 745d 8b3c 77ee 463d 618c 383e d31a 6ebd
00000130: e401 f53c 2dff 6a3d 7e29 9a3d 104d c8ba
00000140: 759a 543c 63d6 ec3d b938 32be 8714 473d
00000150: 9d10 fdbd 068e e33d 451f e2bd 3005 20bc
00000160: 593c 113c a722 18be f829 803d 494d 723d
00000170: b7c4 ff3d a3f0 4e3d fe8e 083d a469 1c3e
00000180: 8a99 a03c 3877 a2bd 80ee 25be cf23 f63d
00000190: d9ab a33d c8e2 f3bd 7b6c 3a3e d3b0 f63d
000001a0: 0a10 ff3b 64f2 adbd bf35 223d 7ec5 053e
000001b0: 37f1 85bb d648 9cbd 4635 913c 8b0b 4c3d
000001c0: c280 203e 3221 9cbc cc44 ee3d 3d95 613d
000001d0: dc77 823d cbd0 ad3d 1742 083e 7acf 77be
000001e0: 9a37 9cbd 6acd 233e 6855 c03d b0af 2abe
000001f0: e283 9cbd 99fe 6bbe e75f df3d bc2b 253e
00000200: b725 63bd 67ce c0bd e416 473d 91e9 abbd
00000210: e538 b93d 0d0b ee3d a526 8e3b 3cd1 943d
00000220: acf9 073e 0b84 a73d eb90 b33d 39f7 413e
00000230: a819 55bd d1e5 ba3a 2a35 1a3d 7d61 ac3d
00000240: b71a df3d 2553 a6bd 1e10 ab3d edf4 aa3d
00000250: 6354 94bd ad27 fd3b a40d 923d fbfd 283d
00000260: d473 5e3e 084f dc3d fe22 023e baeb e23d
00000270: 1eba 183e 66cb a1ba 80aa c83d 8444 3f3d
00000280: 29e7 89be 4082 e43c 6dc5 18be 62e9 aebd
00000290: b209 e8bd 6cbf 64be a311 2b3e 07bf 5d3e
000002a0: feb2 a03d 625c dcbd ccc9 083e dc52 5f3d
000002b0: 1585 03bd e994 f0bd 3adc 6ebe b1b5 1e3e
000002c0: fdcd 343e 29b9 153e 80c9 993d 2969 77bd
000002d0: 84bb 043e 796f ff3d 04af 583e 8b95 373e
000002e0: a7a4 943d 2f23 9abd 3154 c5bd 8bd1 d43d
000002f0: 36a0 ca3d 2826 e13d 05e5 dcbb 7145 1b3d
00000300: cebb 063e 896e 3e3e 2d55 57bd de3a 883d
00000310: d87b 91bc a6b1 3dbe a62b cb3c 74f6 f03d
00000320: 8941 28be 4e7a a43d 36e6 e6bd 6e79 e33c
00000330: 6b33 f33a c872 033e 79b1 1e3e 74a0 98bc
00000340: 19c7 d43d 4311 993d 8fd1 ccbd 7d1c e43d
00000350: 660e 923d 9fb8 883d a533 c4bd 584d c03d
00000360: ac4b 183e 2e0a 903d e02f d93c 3152 60bd
00000370: f76e 2dbe 6a52 c9bd 5f10 cdbd 226e 453e
00000380: df87 7e3c 1e60 c3bc a953 073e 4433 333d
00000390: cadb af3d 914a ed3c 90f2 9dbd 7036 d0bc
000003a0: 62ea 7b3d 4f8d 483e c312 a9bc 50c8 883d
000003b0: da17 cc3d 2e4b 033e cffe d23d 3ab0 ebbd
000003c0: 6615 1dbc 5a40 d23d f0e1 053e 769e 2abd
000003d0: a0d0 61be f2a4 103d 595a cfbd 74bd de3d
000003e0: 1bcc 373e cfe4 e33c 8e0a 3ebd ab7d 2cbe
000003f0: 9fd6 6f3d df1d 0b3e 9729 163e 1da0 1cbd
0.13146666 -0.023468928 0.11247325 0.15948533 -0.137547 0.20210995 0.09827241 0.0684685
0.16829205 0.22591531 0.06258438 -0.2138056 -0.21802184 0.1376926 0.090006895 0.12883987
0.16753657 0.07502896 -0.16139755 0.17508851 0.13422233 0.10014114 -0.028382448 0.03473795
0.056527935 0.03808544 -0.22369413 -0.027634522 0.047993354 -0.17369534 -0.19846232 -0.08149875
0.013997913 0.11866752 0.04277837 0.10598101 -0.25372106 -0.19860855 0.11012169 0.113372184
0.03245561 -0.014653761 0.061297204 -0.23487027 0.11649503 0.13664505 0.09195538 -0.06762417
0.106041655 0.11649478 0.18815045 0.001809273 -0.075223655 0.026952507 -0.2314831 -0.030645572
0.060167093 0.093315095 0.084684506 -0.016986094 -0.24682657 -0.010591316 -0.02731888 -0.028309446
0.12709332 0.020708906 -0.068094224 0.17946522 -0.08095785 0.005121478 -0.14029762 0.09928522
0.017012335 0.04856726 0.180223 -0.05813105 0.029908128 0.05737226 0.07527445 -0.0015281755
0.012976279 0.115643285 -0.1740445 0.04860356 -0.12356684 0.11111073 -0.110411204 -0.009766862
0.008864486 -0.14856969 0.06258005 0.059155736 0.12488692 0.050522458 0.033339493 0.15274674
0.019604463 -0.079328954 -0.16204262 0.12018549 0.07991762 -0.119084895 0.18205445 0.12045445
0.0077838944 -0.08493498 0.039602038 0.13063619 -0.004087593 -0.0763108 0.017725598 0.049815696
0.15674117 -0.019058798 0.11634216 0.055073965 0.063705176 0.0848709 0.13306461 -0.2420024
-0.07627793 0.15996328 0.0939129 -0.16668582 -0.07642342 -0.2304634 0.10906964 0.16129965
-0.05545589 -0.09414368 0.048605815 -0.08394159 0.09044055 0.116232015 0.004338103 0.07266471
0.13278836 0.08179482 0.08767875 0.18941964 -0.05202642 0.0014259164 0.037648357 0.08417032
0.10893767 -0.08121327 0.083526835 0.08347497 -0.07242658 0.007725677 0.07131508 0.04125784
0.21723872 0.107572615 0.12708661 0.110801175 0.14914748 -0.0012343943 0.09798145 0.0466962
-0.26934174 0.02789414 -0.14919062 -0.08540608 -0.11329974 -0.22338647 0.16705947 0.21654902
0.0784664 -0.10759808 0.1335823 0.05452238 -0.03210934 -0.11747152 -0.23326197 0.15498997
0.17656703 0.14621414 0.07509136 -0.060403023 0.12962157 0.124724336 0.21160513 0.1792814
0.072579674 -0.07526242 -0.09635199 0.1039153 0.09893839 0.10993606 -0.0067411684 0.03790802
0.1315758 0.18596853 -0.052571464 0.06651853 -0.017759249 -0.18524799 0.024801087 0.11765757
-0.1643125 0.0803114 -0.11274378 0.027767863 0.0018554752 0.12836754 0.15497388 -0.018631198
0.10389537 0.074739955 -0.10000908 0.11138246 0.071316525 0.06675839 -0.09580163 0.09389752
0.14872617 0.070331916 0.026512086 -0.054765884 -0.16936861 -0.09830172 -0.10012888 0.19280294
0.015535324 -0.023849543 0.13215508 0.043750063 0.08586843 0.02896622 -0.07712281 -0.025416583
0.06150282 0.19585155 -0.02063883 0.066788316 0.09965487 0.12821648 0.10302507 -0.11508222
-0.009587621 0.1026618 0.1307447 -0.041655026 -0.2205224 0.035313554 -0.10124654 0.10875979
0.17948954 0.027819065 -0.046396784 -0.16844814 0.058554288 0.13585614 0.14664303 -0.038238633

network_body._body_endoder.seq_layers.2.weight f4 [256, 256]
00000000: 8b8a 9ebc d8b3 a0bd 22ee 16be 7977 d13c
00000010: d423 9fbd a455 4abe dd1f a4bd 733a cb3c
00000020: 92ff 8ebb 2733 033c 9b91 88bd 48c5 d03d
00000030: 4006 a6bb c1cc c43d 9085 063e 1c8d 1ebe
00000040: b32e 93bd 3396 f23c 446d 84bd 44fc 88bc
00000050: 6cb1 8f3c f8c0 903b 02f3 40bd 1233 1bbc
00000060: 5b96 4f3e 1152 413e 52ff b8bd 83ea 23be
00000070: d60a 053e 66cb 43bd 0643 60bc bf9f 30bd
00000080: e00e 83bc 501e 243e a9ba 413e 253d 0dbd
00000090: ac1b 923d 7cac 403d 1d4d b63d cb0a 72bd
000000a0: 2f10 a63c a4c6 5cbd 5e77 2b3d ba99 093e
000000b0: b95b 6c3d 49e2 47be c21a 653c cbec 973c
000000c0: 530e 45bd fab7 d03c 5436 e0bd d402 55bd
000000d0: a8e5 e4bd e4ed 703d 1551 9f3c b67c b43d
000000e0: 9deb 0a3e e91b 053d b525 123d abb0 8b3d
000000f0: ac6f ed3c 0ee3 373d 0bb9 3cbd a162 fabd
00000100: 1d56 00be 5bcd 003d 09cf 7d3c 07d6 c5bd
00000110: 67cd d5bd dcdf 393d 05b9 803c 9834 a4bd
00000120: d396 cb3d bb89 f0bc 7084 b43b 74b3 bfbd
00000130: 3d7b f83b 740b 893c ad9f 3d3e 232e 433e
00000140: b1fc aebc 9b0f c33c 160d 04bd 5501 913c
00000150: cad8 e6bd 872b bcbc 4d3e f7bd 1a1a a3bd
00000160: 9d94 973d 33b9 d9bd 0c20 1d3e f417 58bb
00000170: 6b3b 40bd c27d 69bd 6fc3 fa3c 3848 533d
00000180: 4d7b 4f3d ed04 3fbd ea1b 3a3d bf7f 7dbe
00000190: c41c 3ebd 8622 f7bd 5c76 943d c08d ba3c
000001a0: 1013 8dbd 3dcb d6bd 8aba af3b 8b85 0d3e
000001b0: 47b0 883d 7279 de3b 077b b03b 4576 1fbd
000001c0: 6920 19bd 49e7 8abc 5447 ba3c 2864 b33b
000001d0: 6f0b 363e 6c33 8d3c 6430 5a3d a1de 1ebd
000001e0: 6a29 2ebd 5a78 6d3d ce78 913d 145c 983d
000001f0: a0c1 89bd b322 0fbd 2c84 b93c c637 c5bc
00000200: 7745 0a3e 900f 29bd 6706 4a3e 3233 373e
00000210: dce4 4d3e 7d65 94bc 69d4 033e 21da 273e
00000220: f777 843d c338 0dbd 3a28 72bd 63a6 513d
00000230: 6fa5 a1bd 5329 5dbc 9811 ecbd 8cc9 793d
00000240: 9ca1 8abd 10d7 3bbd 2069 7bbd ab2a 813d
00000250: e1ad f1bd cd0b acbc 0ae8 53bd 205e 5ebd
00000260: 17c8 0c3e 9a63 18bd ed75 be3d 145e 913d
00000270: 49af aabb 4f0f 043c edef debc bfa5 d9b9
00000280: 6198 32bd a2b8 b23d 9115 34be da1b 173d
00000290: e8ef 413d 5bdd 21bd 997f 4f3d 7d3a 0e3e
000002a0: 8a07 a9bc 6ecd bebd 9119 54be c0c0 023e
000002b0: e297 2d3d 24da 5f3d 234c a1bd 187a 05bd
000002c0: bad9 f2bc 248a 373d 5066 bbbd 8be2 843d
000002d0: 2792 bcbd bdef ff3d 434d 56bd 7718 a23c
000002e0: 0a51 c73d c6c1 26bd 75d7 143d e29e 68bc
000002f0: 4a93 74bc 4a53 e2bd 9f8c 0c3d 9982 663d
00000300: 5bf0 3dbc 4e48 073e 51f6 82bc 778b 513d
00000310: 2cc1 f5bc 3116 60bd d5ae 0e3c 6d07 cd3d
00000320: 5961 3e3b aaa7 1f3d 7481 fcbc c58f 08bd
00000330: 2f4c 073d 422c 57bd 809c c83b 79da ea3d
00000340: a58b f7bc 8b54 433c 58b3 1e3c f0d6 44bc
00000350: cbe3 99bd 909b bd3d 796e cbbd 8bfc fdbd
00000360: 7418 bebd ba7d 90bd a377 5bbb 7099 dd3d
00000370: c42b 5bbd 1c6b 0d3e 78cb d13d db02 213e
00000380: e800 da3d 79cc 1e3c 7010 2bbe 53ec 8cbd
00000390: 7fd8 573d 794f d0bc 79ac b53d 808e 8dbd
000003a0: 4ffc 0a3d d794 08bd 26cf b5bd a9ef 90bd
000003b0: 1568 56bd f592 fcbd c4bf dabd cc85 973d
000003c0: 71b0 923d 0144 343c f306 e1bd d9bf 263e
000003d0: c022 d9bd 0c32 363d e206 403d aaf3 0bbe
000003e0: 30cb 62bd 7dd4 013d b65c cf3d fe42 3c3c
000003f0: 6a18 2e3d 1979 80bd 1940 ab3b ce5b d5bd
-0.019353172 -0.078468025 -0.14739278 0.025569664 -0.077705055 -0.19759232 -0.0801389 0.024808144
-0.0043639624 0.008007801 -0.06668397 0.101938784 -0.005066663 0.09609366 0.13136888 -0.15483516
-0.071866415 0.029612636 -0.06466153 -0.016721852 0.017540656 0.004417535 -0.04710675 -0.009472625
0.202722 0.18878962 -0.090330735 -0.16007428 0.12992415 -0.047801398 -0.013687855 -0.043121096
-0.015998304 0.16027188 0.18918861 -0.03448214 0.07134184 0.047039494 0.08901427 -0.059092324
0.020271389 -0.053900376 0.041861884 0.13437548 0.05770466 -0.19519915 0.01398343 0.018545529
-0.048109364 0.025478352 -0.10947862 -0.05200465 -0.11176616 0.05882062 0.019447843 0.08812849
0.13566442 0.03249732 0.03568049 0.06820806 0.028983913 0.04489427 -0.04607491 -0.12225843
-0.1253285 0.031445842 0.015491256 -0.09659963 -0.10439568 0.045379505 0.015713224 -0.08017844
0.09940877 -0.02936255 0.005508952 -0.093604 0.0075830505 0.016729094 0.18517943 0.19060569
-0.021360727 0.023811152 -0.032239042 0.01770083 -0.11271818 -0.022969974 -0.1207243 -0.07963963
0.074013926 -0.10631027 0.15344256 -0.0032973262 -0.046931665 -0.057004698 0.030610768 0.051582545
0.0506547 -0.046635557 0.045436777 -0.24755763 -0.04641415 -0.12067132 0.07249138 0.02277267
-0.068884015 -0.104879834 0.0053628134 0.13820474 0.06674247 0.0067893798 0.0053857598 -0.03893115
-0.037384424 -0.016955988 0.02273909 0.005474586 0.17777799 0.017236434 0.053268805 -0.038786534
-0.042519964 0.057976104 0.0710312 0.074394375 -0.06726384 -0.0349452 0.022646032 -0.024074446
0.13503061 -0.041274607 0.19729005 0.17890623 0.20106834 -0.0181148 0.12873997 0.16391803
0.06468194 -0.03447796 -0.059120394 0.05118407 -0.07892882 -0.013498622 -0.11526793 0.060983226
-0.06769106 -0.045859396 -0.061379552 0.063069664 -0.11800743 -0.02100172 -0.05173496 -0.054288983
0.13748203 -0.037204362 0.09299836 0.07098022 -0.005208884 0.0080602905 -0.027214015 -0.00041512956
-0.04360235 0.08726622 -0.17586352 0.036891796 0.047347933 -0.03951774 0.050658796 0.13889499
-0.020633478 -0.09316526 -0.20712878 0.12768841 0.042381175 0.054651394 -0.0787585 -0.03258714
-0.029644836 0.044809476 -0.09150374 0.06488522 -0.09207564 0.12496898 -0.052319776 0.019787056
0.09732254 -0.04071214 0.03633829 -0.014198037 -0.014927695 -0.110510424 0.034313794 0.05627689
-0.01159295 0.13211176 -0.015986593 0.051158395 -0.029999338 -0.054708663 0.008708675 0.10011182
0.0029049723 0.038978256 -0.030823447 -0.033340234 0.03303164 -0.052532442 0.006122172 0.114674516
-0.030217955 0.011922012 0.009686314 -0.012014136 -0.07514151 0.09258187 -0.0993318 -0.124016844
-0.09282008 -0.070552304 -0.0033488057 0.108202815 -0.053508535 0.1381039 0.10243887 0.15723746
0.10644704 0.009692305 -0.16705489 -0.06881013 0.0526967 -0.02542852 0.08870787 -0.06911945
0.033932026 -0.03334507 -0.08877401 -0.070769615 -0.052345354 -0.12332717 -0.10681108 0.073985666
0.0716256 0.0110025415 -0.109876536 0.16284122 -0.10602331 0.044481322 0.046881564 -0.13667169
-0.055369556 0.031696785 0.10125105 0.011490582 0.04250375 -0.062730975 0.005226147 -0.10417901

network_body._body_endoder.seq_layers.2.bias f4 [256]
00000000: 8bcf ffba 6932 3a3d 2387 12be 7f3e d9bd
00000010: b333 2abe 260c 1abe a298 463d 056e 0fbe
00000020: 0c01 a6bd 37b5 673d 3de4 0cbe 09a7 8bba
00000030: 4c10 4dbd aaf0 a63d 95ee 6abd cac0 353b
00000040: 8511 0f3d ef9b 803d 374f 573d ae77 08be
00000050: defb f13c 621a 17be 37db ab3d a681 0fbe
00000060: 1b9d 963d 3bf1 ae3c 1999 1abe 4cc3 c53d
00000070: acd3 f4bd 398d f8bb 281f 0bbc 9f8a 9e3d
00000080: 4fe0 1fbe 86d1 cc3d e0de 893d 35f9 7a3d
00000090: ed12 12be 6dd6 93bd a1dc 593d 28df c4bc
000000a0: bed5 9ebd 2c0f f3bd 63a8 da3c f5a6 26bc
000000b0: cbb7 42bd 995b 763d 2895 673b 122f ffbd
000000c0: 8cdf 1bbe f933 adbc 4435 4e3d 740a 6f3d
000000d0: ce9f ee3d f352 09be e746 b23d a2eb 71bd
000000e0: 6073 24be da93 1abe 0f07 2b3d 742b 2a3d
000000f0: edbd 6ebc c4d2 a43d 4189 87bd d71b 073e
00000100: 2429 f13c 3d80 5f3d e163 b23d d06f 0dbe
00000110: 22a3 14be 4632 b33d faa6 503a 7cbd 263d
00000120: b1b2 8fbd bc51 11be e59c 553d 5514 7b3c
00000130: 7756 ec3c c468 1cbe b0a9 bdbb 0464 3f3d
00000140: 96d9 7c3d 8e41 9dba 23b0 ae3d 13fc 20be
00000150: e967 b2bd b50f c13d de57 9d3d 58e6 9dbd
00000160: 1d5b a7bd fbbb c13d dc99 97bd c877 953d
00000170: 5a7c 023e d64f a13d d4c1 7a3d 6b13 b0bc
00000180: 0934 88bc 0ef9 02be 25cc ad3d 4dc2 02be
00000190: 59f1 f73c da87 a5bb d0b3 313d 4227 a3bd
000001a0: 0e41 c8bd 820a b13d c58c e73c 20ad 8c3d
000001b0: 1f31 f53d 16d2 0a3d f773 8ebd f8bd 0bbe
000001c0: 6540 a93d ea38 43bc 9bf6 0bbd ca4a 913d
000001d0: 3a0c 3bbd 8c79 98bc cc3c 93bc b5ef 08be
000001e0: 98c6 9dbc 711c 393d 25d0 cc3d 5f50 4fbc
000001f0: 5010 003d edae e5bd 97e8 66bd e7b3 443d
00000200: 05b5 b33d 6eb4 1abe bf3f 04bd 50e8 0fbe
00000210: 0d6f 7cbc 0f84 debd 327c bcbd 8331 983d
00000220: 7abe 16be fb06 063d 299b 21be afe1 523d
00000230: c577 013e b534 9e3d 95e4 18be 2f0a 6d3d
00000240: 8069 0ebe 965f 10be 93d1 8fbc 8e8b a73d
00000250: f76b 1abe 946a 05be c51a d5bd 1b60 20be
00000260: 8eb4 7d3c 1706 45bc 2880 003b 75b5 0abe
00000270: 00f5 3dbd 9988 003e 9cb6 21be e1ed 6ebc
00000280: 2c1c c5bc 0ee6 15be 3027 393d 73a9 473d
00000290: a63b f1bd bcf9 08be 5db5 dd3c a19a b23d
000002a0: c9b9 f13d cc98 44bd 62c4 f1bd a481 0e3e
000002b0: 6f53 a13c 2bb2 bd3d 3c12 b63d 8cb0 793d
000002c0: 8b5b fd3d 768b a93d 4c8f 39bd 2d68 d23d
000002d0: 0b3b 47bd a52b 123d 3e85 3dbd ba7f b3bd
000002e0: eb1e 673d a1e7 a23d 6f92 513d 77f0 6f3d
000002f0: 690d 5dbd 9eae 87bc f952 9abd f329 1dbe
00000300: c2a6 efbd 2a56 92bd 65f7 1ebc bbd1 92ba
00000310: 1906 97bd b68d 94bc aac1 05bd 2e52 c7bd
00000320: 1c80 373b a380 9c3d 5079 ca3d e084 b9bd
00000330: 618d 8fbb 1c7f 703c e154 3f3d a2cd 13be
00000340: 24fd 7dbd ba96 fdbd 1ede 16be a0c7 ecbd
00000350: 1e05 c43c fed7 19be d409 a63d 273c ee3d
00000360: bcc7 69bd 8580 fe3d 4148 5f3d 3333 d73a
00000370: 4472 0bbe 3da4 a0bc 8bba d33d 7c63 3a3d
00000380: 02c8 e83d 77ad 973d 7cd4 d2bd 3e16 5abd
00000390: 5eb1 64bd 584f dd39 2419 22be bcbf 41bd
000003a0: 0e86 20be 6d4f 883d 3663 6a3d 7539 10be
000003b0: 912f 16be c10e f23d 75df babd b584 c73d
000003c0: 7b8e be3c 6603 15be 0bd6 a5bd 5cdc 033d
000003d0: abe4 acbd 5d83 12be e18e 00be 70e2 353d
000003e0: f918 cabc 5372 4e3d 67a1 3bbd 676d dbb9
000003f0: 2bee 90bd 14bb 33bc ebe0 bdbd 64b2 e13c
-0.0019516809 0.04545823 -0.14309363 -0.10607623 -0.16621284 -0.15043697 0.048485406 -0.14006813
-0.081056684 0.056569304 -0.13758941 -0.0010654639 -0.05006437 0.08151372 -0.057356436 0.002773332
0.034928817 0.06279742 0.05256578 -0.13326904 0.029539045 -0.14756158 0.08391421 -0.140143
0.07354184 0.021355262 -0.15097465 0.096563905 -0.11954436 -0.0075851944 -0.008491315 0.077412836
-0.1561291 0.10000901 0.06731963 0.06127282 -0.14265032 -0.07218633 0.053188924 -0.02403219
-0.07755612 -0.11868128 0.026691621 -0.010171642 -0.04753856 0.060145948 0.0035336707 -0.1246015
-0.15221995 -0.021142947 0.050343767 0.05835958 0.11651574 -0.13410549 0.0870493 -0.059062608
-0.16059637 -0.15095463 0.04175478 0.041545346 -0.014571649 0.08048013 -0.06617976 0.13194214
0.029438563 0.054565657 0.08710457 -0.13812184 -0.14515355 0.08749823 0.0007959452 0.04070805
-0.070165046 -0.14191335 0.05215158 0.015324672 0.028849823 -0.1527434 -0.0057880506 0.04672624
0.061730944 -0.0011997686 0.08529689 -0.15721159 -0.087112255 0.09426824 0.07682775 -0.0770995
-0.08171675 0.094596826 -0.07402393 0.07298237 0.12742749 0.078765556 0.061220005 -0.021493634
-0.016626375 -0.1279032 0.08486203 -0.12769432 0.03026645 -0.005051595 0.043384373 -0.07966472
-0.09778033 0.08644582 0.028265366 0.068689585 0.1197226 0.03389176 -0.06955712 -0.13646686
0.082642354 -0.011915425 -0.03417073 0.07094343 -0.045665957 -0.018612646 -0.017973326 -0.13372691
-0.019259736 0.04519314 0.10000638 -0.012653439 0.031265557 -0.11215005 -0.05637416 0.04802313
0.08774761 -0.15107891 -0.032287356 -0.14053464 -0.015407336 -0.10865032 -0.09203376 0.074313186
-0.14721099 0.0327215 -0.15781845 0.05148476 0.12643345 0.07724897 -0.14930947 0.05787104
-0.13907433 -0.14098963 -0.017555987 0.08180915 -0.15080248 -0.13028938 -0.104054965 -0.15661661
0.015484942 -0.012025378 0.0019607637 -0.13545783 -0.04637623 0.12552108 -0.15792316 -0.014583082
-0.024061285 -0.1463854 0.045203388 0.048745584 -0.11778955 -0.13376516 0.02706402 0.087208994
0.11803014 -0.04799728 -0.11805035 0.13916641 0.019693105 0.092624985 0.08890197 0.060959384
0.12370976 0.08278553 -0.045302674 0.10273776 -0.048640292 0.035686154 -0.046269648 -0.08764596
0.05642597 0.07954336 0.05116504 0.058578935 -0.053967867 -0.016562756 -0.07535357 -0.15348034
-0.117017284 -0.07145341 -0.009702538 -0.001120142 -0.0737421 -0.01813398 -0.032655396 -0.097324714
0.0027999943 0.07641723 0.0988642 -0.09058547 -0.0043808674 0.014678743 0.046711806 -0.14433911
-0.06200899 -0.123822644 -0.14733168 -0.11561513 0.023928221 -0.150238 0.08107343 0.11632567
-0.057075247 0.12426857 0.054512266 0.0016418457 -0.13617808 -0.019609565 0.103383146 0.045505032
0.113662735 0.07406133 -0.102944344 -0.053243868 -0.055833213 0.0004221152 -0.15829903 -0.047301993
-0.15676138 0.06655774 0.05722352 -0.14084418 -0.14666583 0.1181922 -0.09124652 0.09742109
0.0232613 -0.14552078 -0.08097466 0.032192573 -0.084420525 -0.14307924 -0.12554504 0.0444054
-0.024670111 0.050401997 -0.045808222 -0.00041852446 -0.07076677 -0.010969896 -0.09271415 0.027550884

action_model._discrete_distribution.branches.0.weight f4 [4, 256]
00000000: f68f 9abb d391 26bd 49de 213d 4540 dd3c
00000010: b64e 673d f35e 593d 9b4a 5ebc 470f 243d
00000020: 69d1 3e3c e670 55bc b2a8 423d 30e3 87bc
00000030: 046f 123d 7ba7 0fbd 8fc7 833b d010 643c
00000040: e433 84bc b85e cabc 183f 85bc c7f8 533d
00000050: db30 ecbc 02da 493d aaec 35bd d316 2a3d
00000060: b23a 7abc 9ed7 febc a2f9 423d 7ebe 96bc
00000070: add7 443d d1b4 18bc c856 16bc 2fc6 b8bc
00000080: c07d 6a3d 1fed 15bd 4c39 33bc c5fe 09bd
00000090: debe 4e3d c1b5 e83a ecba edbb 5145 9d3b
000000a0: dc05 bf39 2bb0 463d 6d71 ffbb b1a9 3e3c
000000b0: 03bc a03c 6a83 83bc 52e8 abbc e2ec c43c
000000c0: efcc 603d 14c4 dc3b ab66 02ba e930 8dbc
000000d0: 6897 31bd 93c5 333d 8578 d6bc 4115 a43b
000000e0: 6777 603d 1bc3 6c3d e45a a5bc e7bc 78bc
000000f0: f41e 223b bc02 07bd 0792 063d e02e 74bd
00000100: fd1a 0ebd 8b34 60bc 987b c1bc cc3a 5b3d
00000110: 1e89 2f3d 1ddb 60bd 86d5 89ba 5760 493a
00000120: 7c0f da3c d0b0 8b3d 616d 38bc ede4 bb3c
00000130: b5e4 85bc 1af7 5c3d 6203 88bc 66c0 9cbc
00000140: d7d9 e4bc f588 52bc 3b95 0abd ee52 873d
00000150: 6521 e03c 4b19 26bd 3efa 05bd 8459 113d
00000160: adca d03c c840 d3bc df87 143d b6c6 24bc
00000170: a805 70bd 4c33 20bd 015c 8bbb 1433 13bc
00000180: d422 203b 7eea 623d 7a38 1cbd 1153 283d
00000190: 9bf2 24bc fcb3 b7bc 238f b1bc f513 103c
000001a0: 9166 043c 56de 27bc 95b4 143a 0ee9 3cbc
000001b0: a7f1 50bd c640 2cbc 7860 0b3c 2148 7e3d
000001c0: b0c4 88bc 144c 2bbc f868 8a3c 5fd9 2fbc
000001d0: a96c e8b6 a9aa febc 1f40 9c3c 1fcb 513d
000001e0: d894 893c 6fac ab3b 5fb8 b7bc a8f6 f839
000001f0: 832f 4cbc e331 fa3c f721 533c db8d bdba
00000200: aea8 d5bc e6e2 643d bc8f 293c 4975 813d
00000210: 0a4f ab3b 2853 a6bb bad5 d43c a64a 12bd
00000220: 2d13 413d a56e 25bc 4c2e 253d 9714 debc
00000230: b83c cdbc f0c6 63bc a904 5b3d 0e66 ccbb
00000240: 94d6 633d bb5b 493d 49ea ecbc 1c67 0cbd
00000250: 456b 493d 2c8d 3b3d e4c8 1a3d 1f89 7f3d
00000260: 8849 94bc 4959 d0bb d68f 89bb fbee 453d
00000270: 048b 42bc e5e8 60bd f0e6 5f3d a87d 94bc
00000280: 69b5 1a3b 5160 833d 38d4 e0bb 0a9e aabc
00000290: 3a8b 1a3c 972d 3d3d e1d5 163c 23ae 56bc
000002a0: 8ae1 59bd da6b 233c af5d 043d 886d 61bd
000002b0: c575 d0bc 5aac 06bd 3070 09bd 8628 13bc
000002c0: 7abe ffbc 4740 d1bc 289b df3b 03ee a0bc
000002d0: 6689 0c3b 00f6 0bbc 65e7 913c e462 c83c
000002e0: c8e5 c6bc bd7f 17bc 19c9 23bc 4980 acbc
000002f0: c022 7c3c b766 5ebc e376 c63c 6cbd 2a3d
00000300: 8ef2 563d 4a02 c83c 9162 b5bb 55a7 cd3c
00000310: c5f1 d13c e3ac 873b 4aa1 6a3c 3d17 3d3d
00000320: 945a c4b9 cbdc 17bd 5071 b5bc c326 303d
00000330: be74 4d3b 5e39 9fbc 0211 97bc 4479 813d
00000340: 8067 833c 60f4 3f3d f740 763d dbc8 fe3c
00000350: cc32 a2bb f714 3a3d cb5b 12bd ef9f 3ebd
00000360: 7b44 883b 327e 1bbd b9c9 9cbc 305f 4dbc
00000370: 9052 4e3d 474b 6d3b c4b4 80bd 9ffa 0f3c
00000380: 3ea0 4dbd a5a7 e0bb 96e3 a63c 6bd5 9d3c
00000390: 25cc da3c 95c2 b639 9cf9 223d 3b48 5ebc
000003a0: 504e 3e3d 7bfc 2abc b6f1 17bd 5dd2 133d
000003b0: b20d 803d 89ea 43bd a83a c93c 4b4d 82bc
000003c0: 46ad 9abc 08f8 223d 380b 6f3c 167f 83bc
000003d0: df15 a53c eadf 333d 79c9 253d 4afa fd3a
000003e0: 3fb2 7bbb dfdb b0bc 7348 b83c 5f16 95bc
000003f0: e847 953c 5431 b6bb 2a68 ea3c f7df babb
-0.0047168685 -0.040666413 0.03951863 0.027008185 0.05647155 0.053069066 -0.013567592 0.040053632
0.011646607 -0.013027405 0.04752416 -0.016587824 0.035750404 -0.03507183 0.004021592 0.013920024
-0.016138025 -0.024703369 -0.016265437 0.051750924 -0.02883189 0.049280174 -0.044415154 0.041525673
-0.015272783 -0.031108674 0.04760135 -0.01840138 0.048057247 -0.009320454 -0.009175964 -0.022555439
0.05724883 -0.03660309 -0.010938954 -0.033690233 0.050474994 0.0017754362 -0.007254949 0.004799523
0.00036434724 0.04850785 -0.007795504 0.011637137 0.019620901 -0.016053874 -0.020984802 0.024038736
0.05488294 0.0067372415 -0.0004974405 -0.017235236 -0.043357283 0.043889593 -0.026180515 0.0050074165
0.05480137 0.057803255 -0.020184942 -0.015181757 0.0024737688 -0.032961592 0.032854106 -0.059615016
-0.034693707 -0.013684402 -0.023618504 0.05352287 0.042855375 -0.054896463 -0.0010515905 0.0007681897
0.026618712 0.06820834 -0.011256547 0.022936309 -0.016344408 0.053946592 -0.016603176 -0.019134711
-0.027935905 -0.012850036 -0.033833724 0.066076145 0.027359674 -0.040551465 -0.032709353 0.03548576
0.025487268 -0.025787726 0.03626239 -0.010057142 -0.058599144 -0.03911142 -0.004252911 -0.008984346
0.0024434822 0.05539941 -0.038139798 0.041094843 -0.010067607 -0.02242469 -0.021674698 0.008793821
0.008081094 -0.01024588 0.0005672661 -0.011530174 -0.051011708 -0.01051349 0.008506887 0.062080506
-0.01669535 -0.01045515 0.016895756 -0.010732978 -6.9267885e-06 -0.031087236 0.019073544 0.051219102
0.016794607 0.0052390615 -0.022426782 0.0004748602 -0.0124625 0.030541366 0.012886516 -0.0014461832
-0.02608141 0.05588045 0.01034921 0.063211985 0.005227928 -0.005075831 0.025980819 -0.03571572
0.047137428 -0.0100971805 0.040327355 -0.027109427 -0.025053367 -0.013902411 0.05347124 -0.006237752
0.05562456 0.049159747 -0.02892031 -0.03427802 0.049174566 0.04578893 0.03778924 0.06238663
-0.018101469 -0.0063583 -0.004198055 0.048323613 -0.011873964 -0.054909606 0.0546636 -0.018126324
0.0023606664 0.06414855 -0.006861236 -0.020827312 0.009432608 0.046186056 0.009206266 -0.013103041
-0.053193606 0.009974444 0.032315906 -0.055036098 -0.025446782 -0.03287921 -0.033554256 -0.0089818295
-0.031218756 -0.025543345 0.006823916 -0.019644743 0.00214442 -0.008542538 0.017810533 0.024461217
-0.02427949 -0.009246764 -0.009996676 -0.021057265 0.015389144 -0.013574294 0.024226611 0.041684553
0.052477412 0.024415154 -0.0055354317 0.025104204 0.02562798 0.0041404827 0.014320681 0.04616474
-0.0003745152 -0.0370758 -0.022148758 0.043005716 0.0031350101 -0.019436534 -0.018440727 0.06321958
0.016040564 0.046863914 0.06012055 0.031101635 -0.004949903 0.04543015 -0.03573207 -0.046539243
0.004158554 -0.037962146 -0.019139158 -0.0125349015 0.050371706 0.00362082 -0.06284478 0.00878778
-0.050201647 -0.0068559223 0.020372193 0.019266805 0.026708672 0.0003485872 0.039788827 -0.013567026
0.046461403 -0.010436173 -0.037095748 0.03608929 0.06252612 -0.047831092 0.024564102 -0.015905997
-0.018881451 0.039787322 0.014590077 -0.01605181 0.02015203 0.043914713 0.040475342 0.001937696
-0.0038405803 -0.021589218 0.022495484 -0.018199144 0.018222764 -0.0055600796 0.028614122 -0.005702968

action_model._discrete_distribution.branches.0.bias f4 [4]
00000000: 0b50 64bd d589 fa3d 9b0a 3abd 1ad7 76bd
-0.055740397 0.122333206 -0.04542027 -0.06026373

action_model._discrete_distribution.branches.1.weight f4 [15, 256]
00000000: dea6 a3bc 98f7 27bc 2e38 f03b 81a0 4bbd
00000010: 844c 593c f93d 36bb c070 8dbc 8a04 443c
00000020: bb6b 2b3d 873d 723d 983d 813c 2f8a e83c
00000030: b751 7bbc 55b5 863d 4d5b 9cbd 9a7e ee3c
00000040: 0ff4 06bc d2f1 d9bc ca4f 3ebd 4b51 823a
00000050: 8744 9e3b d69e 653c 5cb6 1f3b 8af6 963c
00000060: 8cc7 5cbd 8bf3 c13c 6a50 203b 912b 1b3d
00000070: 8447 913c 943e 6fbc a32e d3bc 8505 b33c
00000080: 095b 503c 83db b9bc 3195 b13d 17c7 e73c
00000090: be6c 9c3c 1f7f 36bd 26bb fa3c 95a7 5bbc
000000a0: 09bb e83c d7f3 cb3b c623 9d3c 6ade a5bc
000000b0: 1093 85bc 533f 58bc 4841 82bd f0d9 20bc
000000c0: 29e6 263b 77e5 053d 64e1 0bbc 0e48 a1bc
000000d0: 4c98 a9bc 49e2 c73b 2ba2 703c cc3b ebbc
000000e0: dfb5 9f3c 4a4c 5b3c 9a73 7dbc 5496 613d
000000f0: 5fa7 96bd cd02 3fbc d5d9 66bc 00b9 243c
00000100: a4d5 d9bb 8ea6 bab9 9eec b5bc 34e4 0e3c
00000110: 41c1 0239 4e5b bb3c f597 9dbc ae55 ed3c
00000120: 5da5 db3c 73c7 74bb 746c 063d d619 113d
00000130: 5366 1e3d c670 cb3b 7c54 b73b e934 ea3b
00000140: 941a 4abc bcad 703b da9c 39bc dce5 093c
00000150: d14b 583b a8a9 b1bd 512c 2b3d 2c0a 2fbd
00000160: 658c 453c d28a 8b3d 5c19 9fbb 3d15 383d
00000170: e72e c2bc 5640 e7bb 07bf 64bd 1efe bdbc
00000180: 458e 163d dd69 69bb 4123 16bc 1e7c 25bc
00000190: 499b 3fbc 739b 973c 3562 91bb e232 af3d
000001a0: 60aa 6e3c 463d 893d bbd7 cd3c 83e6 90ba
000001b0: d8ac b33b 4d31 eb3c 1618 173c 580e 5d3c
000001c0: 1720 9ebc 50be 8ebc a5f8 afbc aaa3 48bc
000001d0: a7ac 5abc b8c9 dbbc 3434 fd3b ce9a 9f3c
000001e0: 9d10 f33c 3fde 37bd 8865 7bbb b635 c9bb
000001f0: 0c48 813c db53 1cbc 0252 083d a571 ad3d
00000200: cebd 10bd 18f8 b7ba 458c 1a3c 9406 0b3c
00000210: 6c09 0d3d 0de4 ddbc 5606 a2bd 583a 2b3d
00000220: 0d34 ba3a 106b 9c3d 42a0 123c c6d0 403c
00000230: 72eb b83c 9bc4 0ebc 0f5e d93c 6799 473d
00000240: 2382 863c 9a8d 9cba 4974 553b bda9 cabd
00000250: bb3f e33c 8c5a e43c 00da 093d eea8 993c
00000260: 132b 233b e1ea e6bd 0be2 82bc 75f5 11bc
00000270: e0f7 7fbb 2257 663c 18e8 2a3c 1293 ffbc
00000280: bf41 083d bdad 9a3c 66ea 43bd c336 d7ba
00000290: c7fb be3d b4ac 683c c351 c7bc 2873 c33b
000002a0: 5615 1ebc d17a b33d ce10 d53b 4720 303c
000002b0: bb59 8239 c574 08bd fdb0 1ebd b2b1 3a3d
000002c0: 5892 e4bc 4f08 b6bb ac40 833a efb4 04bd
000002d0: 9b35 d9bc ad9f 6f3d 2dea a53c 588b cd3b
000002e0: d20a b3bc 2e54 30bd 49cd 8e3c 4709 abbc
000002f0: 7396 133d fb0f 593d 4b66 9fbd 1f50 023c
00000300: 943d 293b 0226 3ebc bf3b e6bc 760b 693d
00000310: c7e3 803d c9cf 4f3d 4b2d b6bc 0cff c53c
00000320: fba3 133d 693d 83bc 7eba e93c 84f0 153d
00000330: 7df1 283c d82c fb3c c51a 083d 17ff 303c
00000340: ca1f 3e3c 1514 c23c 37f2 ee3b a5d2 02bd
00000350: 4312 f7bb d0b8 993c 99e8 8c3c 20be 80bd
00000360: b054 493b f65f 87bb bf61 84bd 2a5c 303c
00000370: 8caa c43c 163b b43d 74f9 acba e949 583c
00000380: a264 f7bb 2464 9fbc ef57 bb3c 031b ccbc
00000390: 6df8 3abd 0ecb 533d 16bd 3e3c 962d 9abc
000003a0: 463c 603b 2420 1ebd 6ffc c3bc 3a51 083c
000003b0: cc1d 413c 15c5 d63b 99d5 bf3b 68cc e83c
000003c0: 0393 27bd 5ede d73b 6e88 2f3d aa41 72bd
000003d0: 92f5 ad3d e09c 39bb 135e 04bc 38bd 6d3d
000003e0: 9f47 0d3d 23c3 ccbc 88e3 71bc fc31 373d
000003f0: 65f6 e73b 22bc 8c3c 01a4 6bbd a34a 7dbc
-0.01997703 -0.010251902 0.007330916 -0.049713615 0.013262872 -0.0027807935 -0.017265677 0.011963973
0.041850787 0.05914071 0.01577644 0.028386204 -0.015339307 0.06577555 -0.07634602 0.029113103
-0.008236899 -0.026604567 -0.04646281 0.000994244 0.0048299464 0.01401492 0.002437017 0.018428106
-0.05390124 0.0236757 0.0024461993 0.037883345 0.017734297 -0.014602322 -0.025779074 0.021853218
0.012717017 -0.02268768 0.08671034 0.028293176 0.019094821 -0.044554826 0.030606817 -0.013406654
0.028409498 0.0062241363 0.019182097 -0.020247657 -0.016305476 -0.013198691 -0.06360108 -0.009817585
0.0025466776 0.032689538 -0.008537624 -0.019687679 -0.020702504 0.0060999733 0.014687101 -0.028715037
0.019495903 0.013384888 -0.015469456 0.055075005 -0.07356142 -0.011658383 -0.014090021 0.010053873
-0.0066477824 -0.00035600777 -0.022207554 0.0087214 0.00012469759 0.022870686 -0.019237498 0.02897152
0.02681225 -0.0037350326 0.032818273 0.03542503 0.038671803 0.006208512 0.005594788 0.0071474207
-0.012335438 0.0036724648 -0.0113289 0.008416619 0.0033004174 -0.086749375 0.04179031 -0.04273431
0.012057398 0.06813587 -0.004855318 0.04494213 -0.023704005 -0.00705723 -0.05584624 -0.023192462
0.036756773 -0.0035616078 -0.009163679 -0.010100393 -0.011694738 0.018506741 -0.004436756 0.08554627
0.014566988 0.0670114 0.025127282 -0.0011055026 0.005483251 0.028710032 0.009222051 0.013492189
-0.019302411 -0.017424732 -0.021480868 -0.012246052 -0.013346828 -0.026829585 0.0077271704 0.019482996
0.029671008 -0.044889685 -0.0038360078 -0.006140436 0.015781425 -0.009541477 0.033281334 0.084689416
-0.03533726 -0.001403573 0.009432857 0.008485455 0.034432814 -0.027086282 -0.07911365 0.041803688
0.0014206186 0.07637608 0.008949341 0.0117685255 0.022573207 -0.008713867 0.026534108 0.04873028
0.016419476 -0.0011944056 0.0032570532 -0.09895656 0.02774035 0.027875207 0.033655167 0.01875731
0.00248975 -0.11275268 -0.015976926 -0.008908619 -0.0039057657 0.01405886 0.010431312 -0.031198058
0.033265825 0.018881673 -0.04783096 -0.0016419519 0.093253665 0.014201332 -0.02433098 0.0059646554
-0.009648642 0.0876366 0.0065022474 0.010749883 0.00024862387 -0.033314485 -0.038743008 0.04557962
-0.027901813 -0.0055551897 0.001001378 -0.032399114 -0.026514819 0.058501888 0.020253265 0.0062727146
-0.021855745 -0.04304903 0.017431872 -0.020878447 0.03603215 0.052993756 -0.07783183 0.007953673
0.0025824057 -0.011605741 -0.028104661 0.056895696 0.06293445 0.05073527 -0.022238394 0.024169467
0.036045056 -0.016020494 0.02853131 0.036606327 0.010311482 0.030661032 0.033228654 0.010803006
0.011604259 0.023691216 0.007292058 -0.031939168 -0.0075400188 0.018764883 0.017200755 -0.062862635
0.0030720644 -0.0041313125 -0.06463956 0.010764161 0.024007104 0.08800332 -0.0013196901 0.013201215
-0.007549838 -0.01945693 0.022869078 -0.024915224 -0.045647074 0.05170732 0.011641761 -0.018820565
0.0034215613 -0.03860487 -0.02392408 0.008320147 0.011786889 0.0065542557 0.0058543202 0.028417781
-0.040911686 0.0065877875 0.04285472 -0.059144653 0.084941044 -0.0028322265 -0.00807907 0.05804178
0.03449213 -0.024995392 -0.01476372 0.044725403 0.007078933 0.017179552 -0.057529453 -0.015459689

action_model._discrete_distribution.branches.1.bias f4 [15]
00000000: 48a0 c9bb 705b 90b9 6df9 4abc f83d 223c
00000010: a2c3 b2bb 49a1 0bbb f59c b43c 6ef8 70bb
00000020: fe48 9fbb ceb0 893c 7439 a439 5cef 0c3b
00000030: a69d 0abc f69b 9e3b e123 22bc
-0.00615314 -0.00027533947 -0.012388569 0.00990247 -0.00545545 -0.002130585 0.0220475 -0.003676917
-0.0048609963 0.01680794 0.00031323323 0.0021504974 -0.008460438 0.0048403693 -0.0098962495
