results/ParticipantRankingsAndProposedRankingNameOnlyChecked/AgentBehavior/AgentBehavior-499974.onnx (onnx, 317426 bytes, 9 tensors)

discrete_act_size_vector f4 [1, 2]
00000000: 0000 8040 0000 7041
4.0 15.0

network_body._body_endoder.seq_layers.0.weight f4 [256, 30]
00000000: 8f49 b2be 8a86 1f3e 35ac 5fbe bb99 26be
00000010: d7a0 0fbe 733e 1c3d d706 0d3e e773 853e
00000020: 35b4 4ebe 6818 e0bd f2bb 483e 8f2d 003c
00000030: 82b0 bdbd f54a 3a3e 39be d43c 6d1a 1e3e
00000040: ef32 5b3e 813d cbbc 1b5a 34be dbb5 903e
00000050: 5b1e 62be 06ed 893d cf8a e23d 1b7c a5be
00000060: ee06 3e3d 2162 cb3d 5bd0 923e 0c77 4a3e
00000070: c2f6 3e3e c455 a53d 175b 613e 5303 b03e
00000080: be97 893d 86e8 99bd 1aa5 97be 1de2 97bc
00000090: b464 b2bd b422 d5be 8d26 cebe 5447 643e
000000a0: 25c4 d6bd 2611 9ebe 95ca 80bd 6b43 a6bd
000000b0: 1393 25be 8952 5fbd c514 f83c 0c1e ca3d
000000c0: 4fd7 39bd e7c0 16bc aab7 d23e 2dc3 da3d
000000d0: b49a e4bc 58e7 b1bc 7092 8f3e 902d 423c
000000e0: 2091 cf3d 32eb 873c 5357 573d b6dc cb3e
000000f0: a682 093f 39a1 af3d 54ed 89bd 549a e23e
00000100: bafd 53be 48c2 ca3d 1442 823d 8dae dabc
00000110: 7ce2 583c 0c9c 833e a19f 073e 1132 0abe
00000120: 0818 453d fa37 b3be 135f 8b3e 4e38 7a3d
00000130: fc60 d63b 56cb 663e e2c8 04bd 238a df3c
00000140: ee38 33bd 3bdd 8f3c 6c92 ca3d c87e 4f3e
00000150: c4ab 343d 5d0e 49bd 247d e4be 1630 3abe
00000160: e38f 30bc ff3c 3ebe c6c7 37be 345e 523d
00000170: 9969 97be 1f23 c03c 024e 0a3e 7d5d 5abd
00000180: eddf 0cbe 8b56 a33e 00f9 5a3e c36e df3e
00000190: f842 08bc 7c69 dc3d 08d5 20be eb50 203d
000001a0: 37d8 943d a118 bebd ed47 7dbd 0923 28be
000001b0: 3722 dbbd a3a3 883d cfdd ac3b 1b98 663c
000001c0: 1fd3 8a3e 89ca 83be d89b 4b3e 7ea5 ddbd
000001d0: ba8f b53d 9784 ba3d 49f1 23bd bbcd 1ebe
000001e0: 2fe0 e3be b056 c03d 31b5 e53d 8d9a 9bbd
000001f0: f8eb 3abd 40d7 14be be0b df3d bf6e dabd
00000200: 9e3f 6e3e 7612 483e de3c b93d e880 24bd
00000210: a60f b2be 8371 013e 857b 86bd be64 2dbe
00000220: a070 eabe 736a b43c 4ed9 98bc 070d a5bd
00000230: 20fe 81be ba69 0bbd 85d3 de3d 115e 57be
00000240: a777 c2be ab4a c6be 0b38 6e3d 0102 b0bd
00000250: e204 f3bd 3947 05be 90fe 493c 30c7 8bbe
00000260: 6b2e 1ebd d890 14be 25fe c6be 9c72 2d3e
00000270: 9bdb 413c 41dd c03d 9f42 a1bd 1bbd 393e
00000280: b9b5 ec3d 4ed0 463b bb5c 9abd d0f9 c8bc
00000290: 1da5 093e cc0a a8bd 64dd e6bd 35b9 983d
000002a0: 3ed3 09bf 9e00 d83a dc09 09be 022b 283d
000002b0: 63f5 81bd bd8c 01be 0737 083e f754 4a3e
000002c0: 2b45 84bd c663 2ebe c85b 9bbc f1de 7b3e
000002d0: 5e91 8e3e 1552 1dbe 9a98 9bbe b0be afbd
000002e0: 7bf9 993c 355f 533e dd53 1c3e 8304 b63d
000002f0: 8d6f 1c3e 6297 803d 7be4 563e f99c 753d
00000300: 47ee b33e 89a5 ad3d 7a0d d43e a704 a6bd
00000310: 6e99 943e 41d2 3f3e 7187 05be 15f6 c3bd
00000320: 01e2 2c3e efc7 543d 95a7 ac3e c799 0b3e
00000330: 84e8 33be a493 b83d 1123 66be a7d4 a3bd
00000340: 5e68 6f3d 81c0 52be b2ca 963e 954f 92bd
00000350: 21e8 b7bd b316 983e 6f8e 923e 0a60 bc3d
00000360: 5923 b73e 0846 113e 7037 aabd d8a6 d03d
00000370: 111e b33e a0b7 da3d 3ba7 7c3e 56b0 023e
00000380: e235 f5bd c18e bdbd 4278 603e 57c0 c73e
00000390: 7fb1 5f3e 876f 2abd 9049 113e c3ad e2bd
000003a0: 4f0f 073e c9d8 1bbd a621 963d a497 0dbe
000003b0: 5387 383e 8ecb c7bd 6501 c53e a748 abbc
000003c0: dc51 203e 63dc 313d 024f 973e d9d6 55be
000003d0: cc08 26bd cf1b 32bd 50e7 21be 9436 d73d
000003e0: 3cc7 a33d 4b92 1e3d f105 e93d 1f08 093c
000003f0: b337 553d 2389 533e 93fd a13d e651 b5bc
-0.34821746 0.15578666 -0.21843036 -0.16269581 -0.140262 0.038145494 0.1377214 0.2606499
-0.20185931 -0.10942155 0.19602945 0.007823362 -0.09262182 0.18192656 0.025969611 0.15439768
0.21406148 -0.0248096 -0.17612498 0.28263745 -0.22081892 0.06734662 0.11061632 -0.32321247
0.046393327 0.09930826 0.28674588 0.19771975 0.18648818 0.08072999 0.22007404 0.34377536
0.06718396 -0.075150535 -0.2961815 -0.018540436 -0.08710614 -0.4162804 -0.40263787 0.22292835
-0.1048663 -0.30872458 -0.062886395 -0.08118328 -0.16169386 -0.05452207 0.030283341 0.09869012
-0.04537135 -0.009201265 0.4115575 0.10681758 -0.0279058 -0.021716759 0.2804141 0.011851683
0.10135102 0.016591642 0.052573513 0.39816827 0.5371498 0.08575673 -0.0673472 0.44258368
-0.20702258 0.099003375 0.0636026 -0.02669456 0.013237592 0.25704992 0.13244487 -0.13495661
0.04811862 -0.35003644 0.27220973 0.061088853 0.006542323 0.22538504 -0.03241814 0.027287548
-0.043755464 0.017561546 0.09891209 0.20263207 0.04410912 -0.049085964 -0.44626725 -0.18182406
-0.010776493 -0.18577956 -0.17947301 0.05135937 -0.29572752 0.023454247 0.1350632 -0.053311814
-0.13757296 0.31901965 0.21384048 0.43639192 -0.008316748 0.10762307 -0.15706265 0.03913967
0.07267802 -0.09282041 -0.061836172 -0.16419615 -0.10699885 0.06671836 0.005275465 0.014074351
0.27114198 -0.2574046 0.19883668 -0.10822581 0.08865304 0.09107321 -0.04002503 -0.15508167
-0.44506976 0.09391534 0.112162 -0.075978376 -0.045635194 -0.14535236 0.108909115 -0.106656544
0.23266456 0.19538292 0.090448126 -0.040161997 -0.34777564 0.12640958 -0.06566528 -0.16932961
-0.4578905 0.022023415 -0.018658306 -0.080591254 -0.25389194 -0.034036376 0.10880188 -0.21031977
-0.37981912 -0.38728842 0.058158915 -0.08594132 -0.11866166 -0.1301545 0.012328759 -0.27300406
-0.038618486 -0.14508379 -0.38865772 0.16938251 0.011832143 0.09417201 -0.07874035 0.18138544
0.11558098 0.0030336562 -0.07537218 -0.024533182 0.13441892 -0.08205184 -0.11272696 0.074572004
-0.53837955 0.0016479676 -0.13382667 0.04105664 -0.06345632 -0.12651344 0.13302241 0.19758974
-0.06458505 -0.17030248 -0.018964663 0.24596764 0.2784528 -0.15363343 -0.30389863 -0.08581293
0.01879572 0.20641787 0.15266366 0.08887579 0.15276928 0.06278874 0.20985596 0.059964154
0.3514273 0.08478839 0.41416532 -0.08106356 0.29023308 0.18732549 -0.13039948 -0.09568421
0.16883089 0.051948484 0.33721605 0.1363288 -0.17569166 0.09012535 -0.22474314 -0.079995446
0.05844914 -0.20581247 0.2945152 -0.07144085 -0.08979822 0.29704818 0.28624293 0.091980055
0.35769156 0.14186871 -0.08311355 0.10188073 0.34983876 0.10679555 0.24673168 0.1276258
-0.11973168 -0.09255744 0.21920875 0.3901393 0.21845053 -0.041610267 0.14188218 -0.11068299
0.13189434 -0.03804854 0.07330637 -0.13827378 0.18020372 -0.09755622 0.38477626 -0.020908667
0.15656227 0.043423068 0.29552466 -0.20882739 -0.040535733 -0.04348355 -0.15810895 0.10508457
0.07996985 0.038713735 0.11378086 0.008363753 0.052055072 0.20657782 0.079096936 -0.022133779

network_body._body_endoder.seq_layers.0.bias f4 [256]
00000000: c5db f03d 7a88 52bc bef8 cc3d 9f4a 0e3e
00000010: bc74 07be 2ae2 1f3e 4092 c63d 4ae8 9f3d
00000020: 4838 183e d214 3c3e 2fba 813d a87e 3abe
00000030: a263 31be b40a fa3d 3374 bd3d 8f44 ce3d
00000040: f4e3 013e 2c37 843d 21fb 1fbe cbfc 0c3e
00000050: 2733 ff3d 452e aa3d 2ab5 cebc fee6 0b3d
00000060: b742 783d 1da2 133d bfe8 2bbe 0c52 41bd
00000070: d6d3 553d 5ff0 1fbe 4b3a 2fbe 07fa b8bd
00000080: a14a 8e3c fcdd c83d afcb 0f3d 11bb d33d
00000090: dcf8 4bbe 0fc7 24be 44ae d63d 8f9f ca3d
000000a0: f80d 3f3c f729 0cbc e928 693d ec24 39be
000000b0: c5c3 da3d 6a1d e53d d93f b13d c087 95bd
000000c0: f965 aa3d d6f7 993d 807e 1c3e b9ba 07bc
000000d0: dda6 b4bd 5014 ea3c 48d8 3cbe 62d6 cbbc
000000e0: 7ea7 763d 50eb bb3d a00e b03d 84b7 ecbb
000000f0: 742a 51be c667 193b 044d 74bd 20f0 3bbd
00000100: 5ade ba3d 6e71 913c 7987 80bd 3e39 1a3e
00000110: 0b48 a8bd d27e dd39 d2cc f4bd bc0e 8c3d
00000120: 08cf 763c 77c3 233d f35d 1a3e 9671 a0bd
00000130: c2cb 1f3c 0e4a 753d b84c 983d 7b85 183c
00000140: c898 533c 8657 c73d 989b 2cbe 2484 233d
00000150: c7d9 eebd 1127 ae3d f18a ccbd 294d 0ebc
00000160: c1a3 703c a3f0 18be c7f2 593d d9f2 593d
00000170: 72ba f53d b19c 5d3d b80a 293c 4cfd f93d
00000180: 0d21 a03c f7c9 c6bd f0fb 22be 2f87 c13d
00000190: aa6b 4f3d 0df3 f5bd ce18 203e e117 d93d
000001a0: 27ad 0fbc 8e6c d4bd 6497 eb3c 9fe3 fa3d
000001b0: e0d0 e13b 3bee adbd 981d b43c 627d 553d
000001c0: 22c8 f13d c7b0 67bc 16a8 b03d 6e78 6d3d
000001d0: b6b6 743d 7195 883d 394f e33d b10b 42be
000001e0: b072 a1bd a9a7 0c3e 0420 bd3d 798d 1dbe
000001f0: bcd3 91bd ada2 42be 87a1 ca3d 0083 163e
00000200: b3dc 67bd 03ad c6bd ce91 d83c fa4c b2bd
00000210: 78b3 a53d bf7d cb3d 0178 3a3c bb18 9a3d
00000220: ffdd df3d 5093 963d b820 983d 255c 283e
00000230: 6595 44bd 6309 033c e78f 2f3d 0ad1 a83d
00000240: 1ceb ce3d 152c 8bbd 4699 a23d 75b0 983d
00000250: 1c79 96bd e48f 823c 3935 973d 1cd1 9cbb
00000260: 81b4 393e 3133 cd3d af9b fe3d e14d a13d
00000270: 8e4b fd3d ca81 8539 28f0 a93d 70b2 633d
00000280: 9caf 5bbe da22 743c 2f7f 09be d6c4 b1bd
00000290: e2bc 08be 7dff 3ebe 965a 053e aef0 363e
000002a0: b807 9e3d c9ab cfbd 4a82 dd3d b253 2a3d
000002b0: 084c 1ebd f482 e1bd 4226 42be 6d81 083e
000002c0: b64c 153e c888 ec3d e948 a33d 09d1 6abd
000002d0: 683f e73d c0cc e23d 1e3b 383e 8005 173e
000002e0: 068d 863d c726 8bbd d806 c9bd 9768 c13d
000002f0: 6a56 9d3d e837 d93d 2502 e4bb 4669 283d
00000300: 95c3 dd3d f2a0 133e d545 97bd 283b 913d
00000310: b8f9 43bc ff7c 2bbe 72da 0e3d 60f4 e03d
00000320: e2ce 08be 5a09 a53d f498 d8bd e024 7f3c
00000330: c897 fc3b 8b10 ec3d dc5a 023e ef30 2ebd
00000340: 3205 c73d 39b4 6b3d 90ce c0bd 72a1 d73d
00000350: 0602 993d ff7e 703d 17d2 bfbd cff4 b23d
00000360: 91d4 063e 5a04 903d 3b76 5c3c 1797 42bd
00000370: 28b9 23be f596 c2bd 55c3 e5bd a10d 253e
00000380: aa65 b43c 84ad cebc 358d f83d 70ec 7a3c
00000390: df9a b73d 5570 ed3c ad42 9bbd 3a57 fcbc
000003a0: f5c3 873d b121 2d3e da2f 0abd c63c 313d
000003b0: f7ce c03d c919 c73d c67a ca3d 7369 00be
000003c0: 6169 84bc 3d1f a83d 9f34 f43d 6091 29bd
000003d0: 9e09 3dbe 432a e03c f4a1 e8bd c03c d23d
000003e0: 8031 1d3e e319 013d 6d59 53bd 9476 28be
000003f0: cc38 7f3d d167 e23d c9ad 083e 202e 2fbd
0.11760668 -0.012849921 0.10008381 0.13895653 -0.13228124 0.15613618 0.09695864 0.078079775
0.1486522 0.18367317 0.0633434 -0.18212378 -0.17323163 0.12209073 0.09250679 0.1007167
0.12684613 0.06455836 -0.15623142 0.13768308 0.124609284 0.083096065 -0.02523287 0.03415584
0.0606105 0.036043275 -0.16788004 -0.047197387 0.052203976 -0.15619038 -0.17112081 -0.09032064
0.01736957 0.09807965 0.035106357 0.103384145 -0.19919151 -0.1609156 0.10482457 0.09893715
0.011661045 -0.008554927 0.05692378 -0.18080491 0.10681871 0.11187251 0.08654756 -0.07301283
0.08320231 0.07517974 0.15282631 -0.008284264 -0.08820889 0.028574139 -0.1844188 -0.0248825
0.060218327 0.09175742 0.085965395 -0.007224025 -0.20426351 0.00234078 -0.05964376 -0.045883298
0.091244414 0.017754283 -0.06275839 0.15060899 -0.08216866 0.00042246893 -0.11953129 0.06838748
0.0150640085 0.03998133 0.15074901 -0.07834165 0.0097531695 0.059885077 0.07436508 0.009309168
0.012914844 0.09733491 -0.1685623 0.03992094 -0.116626315 0.08503545 -0.099874385 -0.008685389
0.0146874795 -0.14935546 0.053210046 0.053210113 0.11998452 0.05410451 0.010317497 0.12206516
0.01954701 -0.097064905 -0.15916419 0.09449612 0.050639786 -0.12009249 0.15634462 0.10600258
-0.00876931 -0.10372268 0.028758712 0.122504465 0.006891355 -0.084927045 0.021986768 0.052121527
0.118057504 -0.014141268 0.0862581 0.05797618 0.05974456 0.06669129 0.11099095 -0.18949772
-0.07883203 0.13735832 0.09234622 -0.15385999 -0.07120463 -0.19007368 0.0989409 0.1469841
-0.05660696 -0.09700968 0.026436713 -0.08706088 0.080908716 0.099360935 0.01138115 0.07524248
0.10931014 0.073523164 0.074281156 0.164414 -0.047994036 0.007997843 0.042861845 0.08242996
0.10103437 -0.06795517 0.07939391 0.074555315 -0.073473185 0.015937753 0.07383198 -0.00478567
0.18135263 0.100195296 0.12432038 0.07876182 0.123679265 0.00025464437 0.08297759 0.055590093
-0.21453708 0.014900887 -0.13427423 -0.086801216 -0.13353303 -0.18652149 0.13022837 0.1786525
0.07716316 -0.10140187 0.10815866 0.041583724 -0.038646728 -0.110113055 -0.18959907 0.13330622
0.14580044 0.115495265 0.07972891 -0.057328258 0.11291391 0.11074209 0.17991301 0.14748192
0.06569867 -0.067945056 -0.098157585 0.09443777 0.07682498 0.106063664 -0.0069582635 0.04111602
0.1082832 0.14416865 -0.07386366 0.07091361 -0.011961393 -0.16746901 0.034876294 0.10984111
-0.1336017 0.08058424 -0.105760485 0.0155727565 0.0077085234 0.11526593 0.12729973 -0.042527135
0.09717788 0.05754492 -0.09414399 0.1052884 0.07471089 0.058714863 -0.09366243 0.087381
0.13167025 0.0703208 0.013455923 -0.04750737 -0.159886 -0.09501449 -0.11218897 0.1611848
0.022021133 -0.025229223 0.12136308 0.01531516 0.08965086 0.028984228 -0.07581077 -0.030803312
0.06629173 0.16907384 -0.03373704 0.04327085 0.094144754 0.09721715 0.098866984 -0.12540226
-0.01616353 0.08209083 0.11924099 -0.041398406 -0.184607 0.027363902 -0.11359015 0.102654934
0.15350914 0.031518828 -0.051598955 -0.16451484 0.062310025 0.11054958 0.13347544 -0.042768598

network_body._body_endoder.seq_layers.2.weight f4 [256, 256]
00000000: 57d8 7fbc 8de4 9abd 842c 12be ba2a 9d3b
00000010: 6c64 a7bd c3aa 2abe ad54 82bd aa71 3d3c
00000020: 1265 83bc 7b0a 703b a244 33bd 97fe bd3d
00000030: d3de 64bc b1e0 b13d 0976 f83d 74df 20be
00000040: c61f b1bd 2648 8c3c ca84 bcbc 4e52 1ebd
00000050: a581 663c 9251 513b 0656 36bd 454b b4bb
00000060: 18e0 483e a6ea 373e 05b8 bebd 03bb fbbd
00000070: 5dd6 eb3d 8adb 09bd 2379 8dbc d22e 9bbc
00000080: f4cd 9abc 14ed 0a3e b883 2e3e 20c7 6abd
00000090: 2c16 903d 9d77 363d 1bfe ab3d a638 94bd
000000a0: 0538 723c 92b1 4dbd fc6b 363d 2112 083e
000000b0: 0de0 6e3d 8e10 26be fbee 8339 1379 943c
000000c0: 9246 2fbd 64c4 083d 478d dfbd af5f 94bc
000000d0: 6e8e c7bd 562f 7a3d 1aa6 b83c fb5d a63d
000000e0: 9bdf 063e 9de5 273d c354 2e3d 8fa6 593d
000000f0: 4435 ec3c 7a7d 403d bb15 abbc 5f45 a5bd
00000100: ac51 d9bd f76b 7a3d a8ac d23c dcd1 e2bd
00000110: a014 e6bd 4ba0 4d3d 3581 813c 673e 3dbd
00000120: c243 e43d c10e e2bc d171 79bc 6710 abbd
00000130: 9848 923c 6222 b53c cdb5 2d3e 0f38 393e
00000140: 8d31 a1bb ffc9 f03c 2964 39bd 9478 223d
00000150: 26de b4bd ea2c 6c3a 8f4f d0bd 8ce5 59bd
00000160: ecca 963d 8417 c3bd 9120 193e e894 9aba
00000170: 74f3 58bd 0f53 7cbd d7cb 243c 75fc 2b3d
00000180: cfbc 553d 7de4 17bd bbf8 fb3c d3fb 74be
00000190: e947 97bd 9ee7 d0bd faef 3d3d dbf3 e03a
000001a0: 0951 62bd 11e2 d0bd f912 48bb ee93 f33d
000001b0: 07fc 643d c80e e93b 3376 5d3c 5127 2bbd
000001c0: cbae 64bc 7806 8fbc 1e31 303b 1c1d 593b
000001d0: 7c04 263e 9b8e 9e3b 772e 493d 0a60 23bd
000001e0: c4fa 84bd 78d5 163d 4b9b 563d 42b5 763d
000001f0: b5d1 32bd 5a00 dfbc 4bf7 563c ce95 08bd
00000200: 3b62 eb3d a586 42bd 8178 2d3e 3935 223e
00000210: ea9c 343e 8f66 383c fed9 033e e4aa 093e
00000220: 91e6 5e3d b4b7 91bc 08fd 6abd 06bc 183d
00000230: e4f5 88bd d36b 38bc b2a1 dbbd b32c 733d
00000240: 9195 0bbd dacb 4bbd a1e4 90bd b914 703d
00000250: 7f66 fabd ccca 2fbc a058 24bd fc00 53bd
00000260: ca40 c43d 4536 28bd dfda a63d 2c3c ee3c
00000270: 0b86 883c 6538 bb3c 6533 1bbd dd14 473c
00000280: cf18 37bd c863 9c3d 03ce 32be cde2 763d
00000290: b083 713d 6d80 1bbd 38bc 143c b66e ed3d
000002a0: 8fd8 04bd b569 a7bd 29b8 38be 8f3b 033e
000002b0: 81c7 ed3c a0d2 913d fcad 9fbd be4e 95bd
000002c0: cb7c 40bd 0b81 c13c 36be c8bd 9bc0 813d
000002d0: 094e abbd 5e6d ea3d 7494 83bd c171 843c
000002e0: 2b66 ac3d 8b28 3abd d003 2f3d b929 69bb
000002f0: bd37 ccbc abc1 f3bd 3466 353d 4522 453d
00000300: 1c05 d33b 2a4a f23d ddc7 3cbb 819c 4d3d
00000310: eae4 03bc 5550 2fbd df94 073a c1a1 dd3d
00000320: b567 b13c 64c6 aa3c fd72 c2bc 9577 fbbb
00000330: 6602 363d 3f89 34bd c3e6 eebb 5e9c c53d
00000340: e635 5fbd 0c09 393c 5232 493d aa17 c6bb
00000350: 2a9c 98bd e86e 983d 63eb 9fbd 9423 eabd
00000360: 2421 eabd 4335 85bd c0fb 4b3c 5d43 ce3d
00000370: 4799 4cbd c0e4 1c3e d37a d13d 5e3b 1b3e
00000380: 7816 d13d 5899 013c be65 2abe d623 7abd
00000390: 3df2 313d fc61 8bbc 76c1 8a3d 7c1e a5bd
000003a0: cf71 c63c 2765 05bd c4bb 15bd 7cac 84bd
000003b0: 5697 64bd 9f6f 07be 6935 efbd 84d5 503d
000003c0: 9510 863d 267e de3c 29fa 11be c52b 053e
000003d0: 8d40 d3bd 3696 fd3c 9e40 373d 671c e8bd
000003e0: 7fd6 75bd 3c21 103d 7cad 9e3d 7519 c63c
000003f0: 39d1 103d a62d 1fbd 7f17 be3c 19fc a0bd
-0.015615544 -0.07563124 -0.14274794 0.004796353 -0.08173451 -0.16666703 -0.06363807 0.011562744
-0.016039405 0.003662734 -0.043766625 0.09277075 -0.013969141 0.086854346 0.121318884 -0.1571024
-0.086486384 0.017124247 -0.023012538 -0.03865271 0.014068996 0.0031939489 -0.044515632 -0.005502137
0.19616735 0.17960605 -0.09312443 -0.12291529 0.11515496 -0.033656634 -0.017269677 -0.018943224
-0.018897034 0.13567 0.17042434 -0.057318807 0.07035479 0.044547666 0.08398076 -0.07237367
0.014783864 -0.050218172 0.044536576 0.13288166 0.05831914 -0.16217253 0.0002516432 0.018124139
-0.04279191 0.033390418 -0.109156184 -0.018112032 -0.09743963 0.0610803 0.02254014 0.08123394
0.13171236 0.04099046 0.042561304 0.05313736 0.028833993 0.046994664 -0.020884385 -0.08069872
-0.10611281 0.06113812 0.025717095 -0.11075184 -0.11234403 0.050201695 0.015808681 -0.04620209
0.11145736 -0.027594926 -0.01522489 -0.08352738 0.017856881 0.022111122 0.16963883 0.18087791
-0.004919237 0.029393194 -0.045261536 0.039665774 -0.08831434 0.0009009378 -0.101714246 -0.05319743
0.07362923 -0.095259696 0.1495383 -0.0011793645 -0.05296655 -0.06160265 0.010058365 0.04198881
0.052182015 -0.037083138 0.030758252 -0.23924188 -0.07386763 -0.102004275 0.046371438 0.0017162518
-0.055253062 -0.10199369 -0.0030528887 0.1189345 0.055904415 0.0071123578 0.01351695 -0.041785542
-0.0139576895 -0.01745914 0.0026884745 0.0033128923 0.16212648 0.0048387772 0.049116578 -0.03988651
-0.06493142 0.036824673 0.052394193 0.060231455 -0.043657023 -0.027221847 0.013120483 -0.03334599
0.11493345 -0.04749169 0.169405 0.15840615 0.17637983 0.011254921 0.12876126 0.13444096
0.054419104 -0.017787792 -0.057370216 0.037288688 -0.06687525 -0.011256176 -0.107242 0.0593688
-0.034078185 -0.049754955 -0.070748575 0.058613513 -0.12226581 -0.010729503 -0.040123582 -0.05151461
0.0958267 -0.04106738 0.08147215 0.029081427 0.01666548 0.02285404 -0.03789081 0.01215097
-0.044701394 0.07636219 -0.174614 0.060274888 0.058963478 -0.037964273 0.009078078 0.11593382
-0.03243309 -0.08174459 -0.18039002 0.12815689 0.029025795 0.07120252 -0.07796857 -0.072904095
-0.04699401 0.023621103 -0.09801905 0.06335565 -0.083644934 0.114466414 -0.064247996 0.016167523
0.084179245 -0.04544882 0.042728245 -0.0035577847 -0.024928922 -0.119021736 0.04428692 0.048128385
0.006439818 0.11830552 -0.0028805651 0.050198082 -0.008050183 -0.04280122 0.0005172025 0.10821868
0.021655897 0.020846553 -0.023736471 -0.0076741674 0.04443588 -0.0440762 -0.0072906925 0.09648965
-0.05449476 0.011293661 0.049120255 -0.0060453014 -0.07451661 0.07443029 -0.07808568 -0.11432567
-0.11432102 -0.065042995 0.012450159 0.10071442 -0.049950864 0.15321636 0.10228505 0.15159366
0.10209364 0.007910095 -0.16640374 -0.061069332 0.043443907 -0.017014496 0.06775181 -0.08062455
0.02422419 -0.03256717 -0.03655602 -0.06478211 -0.055808388 -0.13226174 -0.11680109 0.050984874
0.065461315 0.027159762 -0.14255585 0.13004978 -0.103150465 0.030955415 0.044739358 -0.11333542
-0.060019013 0.035187945 0.07747933 0.02418206 0.03535578 -0.038861893 0.023204563 -0.07860584

network_body._body_endoder.seq_layers.2.bias f4 [256]
00000000: e0b6 5e3a dbe4 343d 0186 f7bd a91a bfbd
00000010: e701 1ebe 23a0 0fbe fdf1 593d e00c 02be
00000020: 52c8 86bd 5cae 533d 363b 00be 8e0a df3b
00000030: a1f1 3ebd 8c3f 943d fd61 3dbd f84d 233c
00000040: 76a8 253d dc4a 233d 04bc 373d 11bb e0bd
00000050: 0a19 fc3c 2d6e 0dbe b1d8 b23d 26bf edbd
00000060: 58b0 8e3d 58a3 883c 2f19 0fbe 3c4f a23d
00000070: 8cf6 cbbd 9a4d 50b9 70d8 18bb e759 a43d
00000080: 22a5 11be 6490 bc3d a4b5 863d 855a 6f3d
00000090: cc6b 06be 942b 82bd fa0b 623d 2b4e 8bbc
000000a0: 3851 8abd 66ef cdbd 699a f63c 0782 b5bb
000000b0: d99f 01bd c5bd 713d f14d cc3b f972 e9bd
000000c0: 1777 11be 1836 b0bc 63df 3e3d c70f 3b3d
000000d0: abec c53d 0043 f4bd c36b 7b3d af7d 4bbd
000000e0: 0587 1cbe 1fc6 0bbe ebd5 3c3d 6349 413d
000000f0: dd91 e2bb 71e5 913d a806 96bd 54c2 dc3d
00000100: 191a 043d ca32 6a3d bece a33d d7f0 ffbd
00000110: cfab 06be cb37 ac3d b704 8d3b 2f08 093d
00000120: 0b5e 70bd 32b2 03be 23e5 503d 9a01 833c
00000130: f992 f03c f3a3 11be 9362 7d3b 0723 133d
00000140: 2e5d 7d3d 4b1d e73a b8a8 9f3d 5d9f 19be
00000150: 1950 a8bd 8583 953d d08e 953d 34a0 8ebd
00000160: 6d22 85bd 29c8 993d 9ebe 80bd 536d 803d
00000170: a9a9 da3d 91c7 9f3d d4de 7a3d 8825 6ebc
00000180: 6c3e debc 31cb e6bd de69 983d 17cd f3bd
00000190: 094c 093d 382d 80ba 2499 233d e119 81bd
000001a0: 02b7 acbd 93e3 a63d 76f3 a03c 6daa 933d
000001b0: 9ac7 cd3d d606 ed3c a81e 88bd 02e8 00be
000001c0: a585 9e3d 88c8 0e3b 0130 23bd cbf7 813d
000001d0: 4674 12bd 5ae2 31bc 8fb3 45bc 84ad eebd
000001e0: 4ae6 56bc e48d 563d 7681 c03d 5b6c 81bb
000001f0: 3411 b13c 40f9 cabd cb2d 44bd 6b88 383d
00000200: 8d9c 903d e958 12be 9df6 bfbc d8f2 02be
00000210: 3169 91bc badf d2bd ec1e bbbd f652 873d
00000220: 6fa7 efbd b14b 103d 7078 14be 49ab 663d
00000230: 0e1b c93d 0b05 8e3d 64e5 11be ca70 883d
00000240: a01c f9bd 2991 03be 42dd 23bc 771b 823d
00000250: d765 0ebe 7cf5 e7bd e2d8 babd e201 18be
00000260: 2bda 543c bfaf bbbc 0e2c 373c 4ec4 fabd
00000270: 11ac 1fbd fa1f d33d 5f7f 19be 0d76 c9bb
00000280: 061c 91bc 3f75 0fbe 23cc 063d 2b1a 4c3d
00000290: 6c0f d2bd d020 e3bd caa2 163d 7d87 ad3d
000002a0: c628 e53d 1891 2fbd cd07 bdbd 8dd4 f83d
000002b0: 2df0 c43c 6da4 a53d 1d70 b33d 664f 843d
000002c0: f211 d23d 96cd a03d 95db 43bd 6765 ac3d
000002d0: c135 21bd 4a06 113d 1be8 0fbd 1696 b1bd
000002e0: 5378 5b3d 6c44 903d 7d7b 573d d713 483d
000002f0: 989a 45bd 55ac 85bc 368e 8cbd cb29 10be
00000300: 9684 a7bd c88d 89bd e40a ceba d4d8 6e3b
00000310: 7978 83bd b47c 8dbb 7a0b a1bc d94b 97bd
00000320: 8c5b 893a e929 983d f06d b03d a2fb a4bd
00000330: f0c1 fabb b91f 673c 4585 3c3d 4a0f 0abe
00000340: d218 77bd e19c d9bd b957 0ebe 007f debd
00000350: c1f7 0e3d 6730 0ebe eaee 913d 926d d83d
00000360: 0aaf 4bbd 5767 e13d be5e 473d 4be7 ec3b
00000370: 2fa8 01be 1a45 bcbc 4e89 b83d 8cd2 183d
00000380: ec91 bb3d bea7 7b3d 41fe b8bd 7b88 5cbd
00000390: 34d7 5fbd a309 4e3c b242 12be 9a0c 47bd
000003a0: e3ad 12be 91a0 753d d606 703d aa63 01be
000003b0: 156f 0dbe 067c d03d becc 8bbd d663 b63d
000003c0: 204d e73c 0fcb 09be 8025 82bd a33e 033d
000003d0: ff3c 8cbd eb07 f9bd f86c cebd 72ae 2b3d
000003e0: 95d2 9fbc c047 543d d095 12bd c9a5 213c
000003f0: 0200 59bd b519 8e3b 1189 b6bd 9881 e43c
0.00084958784 0.044163566 -0.12086106 -0.09331257 -0.15430413 -0.14025931 0.053209294 -0.12700224
-0.06581177 0.051679954 -0.12522587 0.006806678 -0.046617154 0.07238683 -0.046236027 0.00996732
0.04044386 0.039866313 0.04485704 -0.1097318 0.030773658 -0.1381156 0.08732737 -0.11608724
0.06967229 0.01667945 -0.1397445 0.07925269 -0.099591345 -0.00019865335 -0.0023322366 0.0802496
-0.1422315 0.09207228 0.06577614 0.058435936 -0.13127059 -0.06355968 0.055187203 -0.017005047
-0.067537725 -0.10055427 0.030102925 -0.005539182 -0.031646583 0.05901887 0.0062348773 -0.113988824
-0.14205585 -0.021510169 0.046599757 0.045669343 0.096642815 -0.11926842 0.061382066 -0.049680408
-0.15285881 -0.13649796 0.046102446 0.047189128 -0.006914361 0.071238406 -0.07325488 0.10779253
0.03225145 0.057177342 0.07998417 -0.124971084 -0.13151477 0.08409079 0.0043035406 0.03345507
-0.058683436 -0.12860945 0.05099977 0.015991975 0.029366957 -0.14222698 0.003866349 0.035922077
0.06185644 0.0017632631 0.077958524 -0.15002199 -0.082184024 0.07300476 0.0730263 -0.0696415
-0.06500707 0.07508881 -0.06286357 0.06270852 0.10676891 0.07801736 0.06124766 -0.014535315
-0.027129374 -0.112692244 0.074420676 -0.11904352 0.03351978 -0.0009779101 0.03994097 -0.06303764
-0.084333435 0.08148875 0.019647341 0.072102405 0.100478366 0.028933924 -0.06646472 -0.12588504
0.077403344 0.0021787006 -0.039840702 0.06346091 -0.03575542 -0.010857189 -0.012066736 -0.11654189
-0.013116429 0.05238141 0.09399693 -0.0039496846 0.021614648 -0.09910822 -0.047895234 0.045051973
0.0706111 -0.14291729 -0.023433024 -0.1278795 -0.017750354 -0.10296579 -0.09136757 0.066076204
-0.11701857 0.035228435 -0.14499068 0.056315694 0.098196134 0.069345556 -0.14247662 0.06662138
-0.12163663 -0.12848343 -0.010001482 0.06352895 -0.13906036 -0.11326119 -0.09123398 -0.14844468
0.012991468 -0.02291095 0.011179937 -0.122444734 -0.038982455 0.103088334 -0.14989994 -0.006148106
-0.017713558 -0.1400957 0.032909524 0.049829643 -0.10256848 -0.11090243 0.03677634 0.08473108
0.111894175 -0.04286298 -0.092300035 0.12149916 0.024040306 0.08088002 0.08761618 0.064604566
0.10257329 0.078517124 -0.04781683 0.084177785 -0.039357904 0.03540639 -0.035133462 -0.08671205
0.053581547 0.070443004 0.052608002 0.048847046 -0.048243135 -0.016317526 -0.06863062 -0.14078443
-0.08179586 -0.06716496 -0.0015719798 0.0036445158 -0.06419463 -0.0043178443 -0.019658793 -0.07387514
0.0010479554 0.07429869 0.08614719 -0.08055808 -0.0076525137 0.014106684 0.046025533 -0.13482395
-0.060326405 -0.106256254 -0.13900651 -0.10864067 0.034904245 -0.13885652 0.07125647 0.10567774
-0.049727477 0.11006039 0.048674338 0.0072297207 -0.12661813 -0.022982169 0.09010564 0.03731017
0.09158692 0.06143927 -0.0903287 -0.053841095 -0.054648593 0.01257554 -0.14283255 -0.048596002
-0.14324145 0.05996758 0.05860027 -0.12635675 -0.13811906 0.101799056 -0.06826161 0.08905761
0.028235018 -0.13456367 -0.06354809 0.032042157 -0.068475716 -0.12159713 -0.10079378 0.04191441
-0.019509593 0.05182624 -0.035787404 0.009866186 -0.052978523 0.0043365606 -0.08912862 0.027893826

action_model._discrete_distribution.branches.0.weight f4 [4, 256]
00000000: 439d d439 58f2 0ebd 9fd9 e43c 36c0 063d
00000010: dc59 273d 9a52 183d 8bf7 57bc 23fd d83c
00000020: e42a c03c f36b 8cbb f169 053d 60e3 92bc
00000030: a679 f53c cddc 09bd ad95 093b 3fe1 1e3c
00000040: c695 a5bc af57 91bc 5616 29bc 47b1 223d
00000050: 0292 16bd eb40 0a3d 0528 31bd 4503 ed3c
00000060: c1d9 4fbc 6093 b0bc 728d 013d 2ca3 b2bc
00000070: b670 093d 5b92 8cbb 7721 eabb e4d4 ddbc
00000080: a10a 2a3d 4d2a f8bc 35cb 67bc 4645 fdbc
00000090: 59d6 103d a404 9e3b b091 69bc a252 9eba
000000a0: 45f3 493a 1c84 0e3d 6a58 dcbb 1df5 9a3c
000000b0: 86d0 993c 8ee7 36bc bfc1 68bc c76a 8c3c
000000c0: f6be 213d d445 813c 5d42 2fbc b846 2fbc
000000d0: 39f1 16bd f37d 003d f8c5 b1bc 60fb 0c3c
000000e0: c84c 1f3d 354c 303d 0658 85bc 8901 a3bc
000000f0: bb49 d13b 85fc 0abd 0ea4 c83c 3d33 4cbd
00000100: 7ca1 fdbc aebd a5bb eba8 a6bc b09f 1e3d
00000110: cc55 f23c 6733 4dbd 68dd 2e3c f022 f4bb
00000120: 259d cf3c 1f38 633d 664b 1abc 2b4e ad3c
00000130: 89c2 41bc 325a 123d 04c4 5bbc 5313 81bc
00000140: 0b5a cabc 2c7b c2bb bf50 0bbd 4c07 4f3d
00000150: 5645 193d f261 ecbc 1273 e8bc 8a93 1f3d
00000160: 89ac 883c 1ecc ffbc 3c9c 183d 7763 1eba
00000170: 486e 18bd a555 12bd c02a 963b e279 1bbc
00000180: f206 683b 5b71 2a3d d92e febc e7d5 143d
00000190: e3a5 adba 9344 c7bc 69df 8cbc f70c 343c
000001a0: 3908 833c 4a9b 02bc 1a58 9b3b a73a 1abc
000001b0: 7265 00bd e986 3abc 8b71 5a3c 22a5 353d
000001c0: 5a59 95bc d506 18bc d77b 8d3c 242b 75bc
000001d0: ab72 97ba 465d e8bc 1cdb 703c 554c 123d
000001e0: 2fd5 d83c 82c3 ae3b eeda 7ebc a1da 9fbb
000001f0: 2ae0 463a 73c7 063d 16bb 0f3d a9d6 973b
00000200: ecab d5bc 94da 273d 3cda 5b3c b0eb 443d
00000210: e916 a83b c876 8c3c 58bd 123d 0ce8 9dbc
00000220: 1530 0e3d e1c4 3fbc 7711 d13c b6b1 d0bc
00000230: 155e 8bbc 3503 f0bb 8b32 183d dc17 50bc
00000240: 0f80 263d 90b5 163d b773 04bd 6fd0 3cbc
00000250: 502d 053d d878 023d bea5 3f3d 3aa1 443d
00000260: 8461 fdbb 51ef a8ba 8fb8 39b9 359f 083d
00000270: 06f9 bb3a 022b 36bd 4103 1f3d a961 9dbc
00000280: b64c 81bb ee87 4a3d 674f 883b 1d9f b2bc
00000290: bfbc c63c 92ec 093d cbf9 a63c 1973 83bc
000002a0: 61f4 30bd 749c e03c 058f b23c 6834 29bd
000002b0: 1699 6bbc c915 a9bc 975c ebbc 5ffe 1bbc
000002c0: 325b 8abc c976 c9bc 2535 973c 925e afb9
000002d0: cc58 de3b 6f09 98bb e9e1 0b3d b348 ed3c
000002e0: 2430 d2bc 75f1 2ebc 0cdf 6ebc bc7b 11bd
000002f0: e7da af3c afa9 85bc e578 163d d2bc cc3c
00000300: d62b 203d edfb 003d b330 1aba b4ec f23c
00000310: 75f6 e03c d142 c63b 7326 643c e24e 053d
00000320: 746e 22bc 8963 ffbc 5a63 f8bc 0230 423d
00000330: 2a7f e53b 67a5 4fbc 868f 94bc d75a 403d
00000340: 4bbc 0f3d 906b 003d 3179 3a3d 998c 113d
00000350: ebd4 50bc 31a5 f13c db79 efbc f106 03bd
00000360: 34d5 393b 5202 cabc 93c4 b4bb e709 a5bc
00000370: 72e8 163d 3322 6f3c 84fa 80bd 4e1f b23a
00000380: d0a0 04bd 3d2a 67ba c42d c33c 1b64 d33c
00000390: cea7 d23c 8f63 5fbb acfc db3c 3bc4 94bb
000003a0: f657 fc3c 96ab b9bb 5024 1fbd 7159 ba3c
000003b0: 1fd4 463d ccbe 3bbd 434f 3a3c 39b0 83bc
000003c0: e50f 33bc 04a3 d63c 50d7 663c c2f2 5ebc
000003d0: dbc5 203d 8dd2 fc3c 696a e33c b809 f13b
000003e0: ffa5 76bb 298b a1bc 672d e73c 6a06 8fbc
000003f0: 2bb9 cd3c 1705 47bc 5c83 093d 9bd4 2dbc
0.0004055296 -0.034899086 0.027935801 0.03289815 0.04085718 0.03718815 -0.013181577 0.026487892
0.023457952 -0.0042853295 0.032571737 -0.017930686 0.029965233 -0.033657838 0.0020993755 0.009697258
-0.02021302 -0.017742006 -0.010320267 0.039719846 -0.036760338 0.033753317 -0.043251056 0.028932223
-0.012686194 -0.021554649 0.031629033 -0.021806322 0.033554755 -0.004289908 -0.0071451026 -0.027079053
0.041514043 -0.030293608 -0.014147569 -0.030916821 0.035360668 0.0048223305 -0.014255926 -0.001207907
0.00077037915 0.034793958 -0.006724407 0.018915707 0.01877619 -0.011163605 -0.014206349 0.01714076
0.039488755 0.015780367 -0.010696975 -0.010698013 -0.03685114 0.031370115 -0.021700844 0.008604854
0.038891584 0.043041427 -0.016277324 -0.019898193 0.006386963 -0.033932228 0.02449229 -0.049853552
-0.03096079 -0.005058012 -0.020344218 0.03872651 0.029581927 -0.05009785 0.010672905 -0.007450454
0.025343487 0.055473443 -0.00941739 0.021155437 -0.011826166 0.03573055 -0.013413433 -0.015756285
-0.024701139 -0.0059350934 -0.034012552 0.05054407 0.03741964 -0.028855298 -0.028375182 0.038959064
0.016683834 -0.03122526 0.03725837 -0.0006042043 -0.037214547 -0.03572621 0.004582733 -0.009489508
0.003540453 0.04161201 -0.031028198 0.036336806 -0.0013248291 -0.02432469 -0.017196374 0.010989419
0.015995132 -0.007971594 0.004740727 -0.009413398 -0.031346746 -0.011384704 0.013332735 0.044346936
-0.018231083 -0.009278973 0.017270966 -0.014963899 -0.001155456 -0.028364789 0.014700677 0.035717327
0.026468841 0.005333365 -0.015555127 -0.0048783575 0.00075865036 0.032905053 0.03509053 0.004633744
-0.026082955 0.040979937 0.01341873 0.04807633 0.005129684 0.017146483 0.035825104 -0.019275688
0.034713823 -0.011704654 0.025521023 -0.025475364 -0.017012635 -0.007324601 0.037157577 -0.012701001
0.04064947 0.036794245 -0.032336917 -0.011524304 0.032513916 0.031853527 0.046788923 0.04800532
-0.007732572 -0.0012888705 -0.00017711728 0.033354957 0.0014341183 -0.04447461 0.038821463 -0.019211607
-0.0039459122 0.04944604 0.004159856 -0.021804387 0.024259923 0.033672877 0.020382782 -0.016046094
-0.043201808 0.027418353 0.021796713 -0.041309744 -0.01437976 -0.02064027 -0.028730674 -0.009521096
-0.016889188 -0.024592774 0.018457958 -0.0003344906 0.0067854878 -0.0046397964 0.03415099 0.02896533
-0.02565772 -0.010677685 -0.014579546 -0.035518393 0.021466685 -0.016316263 0.036736388 0.02499238
0.039104305 0.031490255 -0.00058818905 0.029653884 0.02746127 0.0060504456 0.013925183 0.03254593
-0.009914029 -0.031175392 -0.030320812 0.047409065 0.0070036845 -0.012673712 -0.018134844 0.04696163
0.03509168 0.03135258 0.045525733 0.035534475 -0.012746076 0.029497715 -0.02923291 -0.03198904
0.0028355839 -0.02465931 -0.0055165975 -0.020146323 0.03684277 0.014595556 -0.06297782 0.0013589652
-0.032379925 -0.00088182447 0.023825534 0.02580457 0.025714781 -0.003408644 0.026853882 -0.004539994
0.030803662 -0.0056662066 -0.03885299 0.022747727 0.04854214 -0.045836255 0.0113714365 -0.01607524
-0.0109290825 0.026200779 0.01408942 -0.013607683 0.03925119 0.030862117 0.027760701 0.007355895
-0.0037635562 -0.019719677 0.028219892 -0.017459113 0.025112709 -0.01214721 0.03357254 -0.010609771

action_model._discrete_distribution.branches.0.bias f4 [4]
00000000: 502b 36bd 2671 d53d 7927 09bd 56db 60bd
-0.0444749 0.10421972 -0.03348491 -0.054896675

action_model._discrete_distribution.branches.1.weight f4 [15, 256]
00000000: 9d05 8abc dc0c 40b9 0d57 c13b 1e84 dfbc
00000010: c1a0 213c 558d 14bb e797 97bc d47c 0f3c
00000020: e3ff 3b3d 7105 2b3d 3df3 243c 83fc 843c
00000030: aa80 4fbc 96c1 513d 5aa4 f0bc a17c a83c
00000040: 6792 d4b9 ddee 99bc 95ae 5cbc 16ba 1138
00000050: b5f0 233c 0be0 013c 0371 483b 16f4 493c
00000060: 893e 16bd 536e 853c a739 ec3a 87b4 c93c
00000070: 1c75 793c 041e 17bc 5e27 31bc b5fb 333c
00000080: 2451 273c 69e4 9cbc dcc5 323d 1b6a 963c
00000090: f286 333c 7295 bbbc f661 733c 6b2f 3ebb
000000a0: 4124 013d 02fa 723a 6d56 ad3c ba4a 31bc
000000b0: f93e 9eba 8678 d5bb c1df 11bd b393 1f3c
000000c0: 9f97 fc3a df89 c93c 1f69 60bc 5c5b 6dba
000000d0: 8d0b afbb ef5f d9ba 120f 353b 672e 3abc
000000e0: 4529 5e3c 2344 0b3c c680 41bc 4e1e 3e3d
000000f0: abc2 0dbd 6a17 12bc 04d6 38bc 20af a63a
00000100: 49ab 453b cb8f bfbb 52af 0dbc 4db7 bc3b
00000110: dfcf ffba dea1 8b3c ac14 6ebc 0af1 873c
00000120: c887 0f3d a157 70bb 9b6d 863c c983 9c3c
00000130: 4fd2 bc3c c712 ce3b 54c0 2c3c cab3 00ba
00000140: a714 b0bb 459d e7ba 3425 4b3b c745 933a
00000150: e045 ce3c f522 62bd 9a78 d83c 5d3a 69bc
00000160: 5f48 543c 81ae 233d b97b 173c 4c20 a83c
00000170: e26e b1bc cb5b ba38 c8f9 11bd 7c57 88bc
00000180: 0be0 b73c d9c8 e2bb 9f33 b8bb ca51 1bba
00000190: e0f9 43bb a595 1d3c a900 aa3b 320b 863d
000001a0: 0125 873b 5410 003d fdf1 9d3c f387 a73b
000001b0: 9838 443c ba32 693c c1e2 013c 77e7 283c
000001c0: d27d 4d3b fd02 64bc a43f 3239 cfbf 28bc
000001d0: 021a 103b 8662 c4bc f54e 743c 6fc7 5d3c
000001e0: d509 5d3c 3c74 bbbb 8db0 6aba 0d96 53bc
000001f0: 9227 563c ea99 423c 2853 aa3c cf98 523d
00000200: 1290 b5bc 0057 d5bb c33a 703b e185 173c
00000210: d279 8b3c 7b9e 30bc 712a a3bc ccf6 b83c
00000220: 0c24 353b 1579 473d 46e5 ec3b a300 553c
00000230: 55d2 b23c e16a 5cbb 5eb8 a43c cf98 0a3d
00000240: a824 613c bf93 8dbb 289c b73a 4e70 12bd
00000250: 1a01 993c 9582 c63c 4b91 ce3c 99fc 7e3c
00000260: e16e 8aba 2bf1 4fbd fcf2 0bbb 949c 00bc
00000270: fd0e 873a db58 f039 32dd 013c de5a 83bc
00000280: f9fb 373c d26d 4c3c e6f3 e5bc 47e8 773b
00000290: 39ce 173d e7c9 5d3c fd1c 40bc 8019 8b3c
000002a0: 577f 80bb 91bf 583d 4dc4 283b cc55 063c
000002b0: 946f e5b9 d2d5 d1bc 566c ecbc 6a23 033d
000002c0: 685b 41bc 543e 41bc e2b3 cd3b 0262 aebb
000002d0: 9f38 90bc 916c 093d 67aa 913c 3453 233b
000002e0: 7055 26bc 1dd5 3dbc 1bdb 4d3c 9768 5ebc
000002f0: a53f 953c bcc8 163d 8101 0abd 4af2 ab3b
00000300: 8ab7 013b 7e18 0a3c c940 103a e7a6 de3c
00000310: 6d29 3c3d 16ba 203d 8e26 a6bb 06dd a03c
00000320: 18bb 5f3c 33b0 1dbc f082 003c 84b1 d83c
00000330: 5f5e 3d3c c453 d13c c101 be3c 2f57 093c
00000340: 3f5b f33b d52c 973c ff5e b53b 3822 c0b9
00000350: 216b d9b9 d6dc 633c be7d 883b 0dc0 d9bc
00000360: 3c4c 81bb 9e54 42bc 6ad3 02bd 701a 283c
00000370: 9b45 a13c cb2f 0f3d 7efc 6dbb 73c9 813b
00000380: 9e6a 5738 b230 023b 9ced d83b 8d1f 04bc
00000390: 8266 27bc a85e 0b3d ed4f 043c 65af 5ebc
000003a0: fc26 a23a f418 21bd e5ac 28bc 0d4a d73b
000003b0: d43b f13b 28bd c83b 4d84 8b3b 9097 913c
000003c0: 2ef8 b1bc cea1 a53a 852b 5e3d f3e7 3dbd
000003d0: 0cdb 6b3d 1ff7 f1bb ed8a 8fbb e554 da3c
000003e0: a10c 1e3d ac7f 6abc adb4 863a ace8 ec3c
000003f0: 4e42 a13c 7d8c 8f3c 6abf 45bc 9041 823b
-0.01684838 -0.00018315337 0.00590027 -0.027284678 0.009864987 -0.0022667248 -0.01850505 0.008757789
0.04589833 0.041753236 0.010067758 0.016233688 -0.012664953 0.05121001 -0.029375244 0.02056724
-0.0004054487 -0.018790657 -0.013469358 3.4744e-05 0.0100061195 0.007926951 0.0030584938 0.012326261
-0.036680732 0.016287958 0.0018022553 0.024622215 0.015225675 -0.009223465 -0.0108126085 0.010985305
0.0102122165 -0.019151883 0.043645725 0.018361142 0.010957466 -0.02289841 0.014854899 -0.0029019963
0.031528715 0.00092688214 0.021159375 -0.010821039 -0.0012073211 -0.0065146117 -0.03561378 0.009739804
0.0019271261 0.024601875 -0.013696938 -0.0009054446 -0.005341953 -0.0016584377 0.002762739 -0.011363602
0.013559644 0.008500132 -0.011810487 0.04641562 -0.034609478 -0.008916715 -0.011281494 0.0012716986
0.0030161908 -0.005845999 -0.008647757 0.005759156 -0.0019516906 0.017044958 -0.014531296 0.016594429
0.0350416 -0.0036673325 0.016409686 0.019105809 0.023049502 0.0062888595 0.0105439015 -0.0004909603
-0.0053735557 -0.0017670771 0.0030997517 0.0011236005 0.025179803 -0.05520912 0.026424695 -0.014235106
0.012956708 0.03996134 0.009245806 0.020523213 -0.021659318 8.886269e-05 -0.0356386 -0.016643278
0.0224457 -0.0069209156 -0.005621388 -0.0005924968 -0.0029903576 0.009618198 0.005188067 0.06545104
0.0041242843 0.03126557 0.019280428 0.005112642 0.011976384 0.014233286 0.0079275975 0.010309092
0.0031355512 -0.013916728 0.00016999111 -0.010299637 0.0021988158 -0.02397276 0.014911403 0.013536318
0.013491114 -0.0057206433 -0.00089527 -0.012914193 0.013070958 0.011877516 0.020791605 0.05141526
-0.022163425 -0.0065106153 0.0036656118 0.009248228 0.017025862 -0.010779972 -0.019917699 0.02257862
0.0027639894 0.048699457 0.00722948 0.01300064 0.02182881 -0.003363304 0.020107444 0.033837136
0.01374165 -0.004320591 0.001400833 -0.035751633 0.018677283 0.024232188 0.025215765 0.015563154
-0.0010561609 -0.050767105 -0.0021354547 -0.007849831 0.001030415 0.0004584257 0.007926272 -0.01603454
0.011229509 0.012477355 -0.028070401 0.0037827657 0.037061904 0.013536907 -0.011725661 0.016979933
-0.00392143 0.052917067 0.002575177 0.0081991665 -0.00043761416 -0.025614653 -0.028860252 0.032016195
-0.011801578 -0.011794645 0.006277547 -0.005321742 -0.017605124 0.033550803 0.01778145 0.002492142
-0.010152206 -0.011586455 0.012564446 -0.013574741 0.018218825 0.03681253 -0.03369284 0.005247389
0.0019793236 0.008428691 0.0005502818 0.027179195 0.045937944 0.039239965 -0.005070514 0.019636642
0.0136554465 -0.009624529 0.007843718 0.026451834 0.011558144 0.025552638 0.023194196 0.008382603
0.007426649 0.018453995 0.005535006 -0.0003664659 -0.00041469283 0.013907632 0.0041653803 -0.026580835
-0.0039458554 -0.011860995 -0.0319399 0.010260209 0.01968651 0.03495769 -0.0036313827 0.003960782
5.135929e-05 0.001986545 0.006620122 -0.008064163 -0.010217311 0.034025818 0.008075696 -0.013591622
0.0012371237 -0.039330438 -0.0102951275 0.006570107 0.0073618684 0.006126065 0.004257715 0.017772466
-0.021724787 0.0012636723 0.054240722 -0.046363782 0.057581946 -0.0073841955 -0.004380575 0.026651809
0.038586263 -0.014312666 0.0010277234 0.02891954 0.019684937 0.017523045 -0.012069562 0.003975101

action_model._discrete_distribution.branches.1.bias f4 [15]
00000000: 467b 53bb 021e c83b 2b15 2ebc 454a 2a3b
00000010: e9e9 07bc cf2f 13bc a203 a43c 644a cbbb
00000020: a8bb 5e3a 1f80 fe3b cebe 93bb 581b a13b
00000030: 22b5 653a 67f8 1a3c a5da 11bc
-0.0032269522 0.006107093 -0.010625164 0.002598421 -0.008295515 -0.008983566 0.020021264 -0.0062039364
0.0008496591 0.007766738 -0.0045088297 0.0049165897 0.00087626476 0.009458638 -0.008902227
