results/ParticipantRankingsAndProposedRankingNameOnlyChecked/AgentBehavior/AgentBehavior-1499987.onnx (onnx, 317426 bytes, 9 tensors)

discrete_act_size_vector f4 [1, 2]
0	0x40800000	4.0
1	0x41700000	15.0

network_body._body_endoder.seq_layers.0.weight f4 [256, 30]
0	0xbebf8092	-0.3740278
1	0x3e440377	0.19141947
2	0xbe7e2548	-0.24818909
3	0xbe49b5ec	-0.19698304
4	0xbe0da9f0	-0.13834357
5	0x3cc15305	0.023599157
6	0x3df8ec96	0.121545
7	0x3e593ec8	0.21215355
8	0xbe65d686	-0.22445115
9	0xbdcd1d86	-0.10015397
10	0x3e706bf0	0.23478675
11	0x3d080c56	0.03321489
12	0xbda73cf3	-0.08165922
13	0x3e1cdabe	0.15317819
14	0x3ce7323c	0.028222196
15	0x3e36d2d8	0.17853868
16	0x3e48cae5	0.19608648
17	0xbb96e94e	-0.004605449
18	0xbe3b651b	-0.18300287
19	0x3e9db1e0	0.3079977
20	0xbe5f45b4	-0.21803933
21	0x3d6e2a49	0.058145795
22	0x3e0ec79f	0.13943337
23	0xbec40150	-0.3828225
24	0x3d0e8df3	0.034803342
25	0x3da4159f	0.080119364
26	0x3e9a05fe	0.30082697
27	0x3e3ad9f6	0.18247208
28	0x3e4f3391	0.20234515
29	0x3d980097	0.074219875
30	0x3e797cb0	0.24363971
31	0x3ea4a689	0.32158306
32	0x3d546a72	0.051859327
33	0xbd9d0785	-0.0766745
34	0xbe915784	-0.28387082
35	0xbd6c1e6b	-0.057646196
36	0xbda925f3	-0.08259191
37	0xbed56708	-0.4168017
38	0xbecd5b6f	-0.4010882
39	0x3e535eec	0.20641679
40	0xbdede25e	-0.11615442
41	0xbe9f2cf8	-0.31088996
42	0xbd638599	-0.05554733
43	0xbd65c2cb	-0.056093972
44	0xbde1ee17	-0.1103174
45	0xbdb9a2cb	-0.090642534
46	0x3d0c36c8	0.03423193
47	0x3dbb540a	0.091468886
48	0xbd6debaf	-0.058086094
49	0xbc173a5e	-0.009230224
50	0x3ee750f5	0.45178953
51	0x3dd7404c	0.105103105
52	0xbcded37d	-0.027200455
53	0xbcfeb4ef	-0.031092135
54	0x3e956bd9	0.29183844
55	0x3bd23070	0.0064144656
56	0x3e0bb193	0.13641958
57	0x3a4b5f34	0.0007758022
58	0x3c7ad356	0.0153091755
59	0x3ec4a73c	0.3840884
60	0x3f06a7cc	0.5259979
61	0x3d2b3e07	0.0418072
62	0xbd647a4b	-0.05578069
63	0x3ee56b29	0.4480832
64	0xbe3941af	-0.18091463
65	0x3dc7eec8	0.09762341
66	0x3dde9973	0.10869112
67	0xbc607928	-0.013700761
68	0x3cd75c1b	0.026289036
69	0x3e8cc96e	0.2749743
70	0x3e132bfd	0.14372249
71	0xbe291902	-0.16513446
72	0x3cfcb957	0.030850096
73	0xbea5de8a	-0.32396346
74	0x3e87077f	0.26372907
75	0x3d9fc437	0.07801097
76	0x3d03f2d3	0.032213997
77	0x3e873232	0.26405483
78	0x3b7c7e77	0.0038527527
79	0x3d52bc01	0.051448826
80	0xbd2db73c	-0.042411074
81	0x3d5575b0	0.05211419
82	0x3dde3507	0.10849958
83	0x3e803022	0.25036722
84	0x3dadd82b	0.084884964
85	0xbd18321b	-0.03715716
86	0xbef8676f	-0.48516414
87	0xbe40eaed	-0.18839617
88	0x3ca02759	0.019550012
89	0xbe439e08	-0.19103253
90	0xbe4f684e	-0.20254633
91	0x3c9500ae	0.0181888
92	0xbe91edea	-0.28501827
93	0xbc4978cd	-0.012296868
94	0x3e181483	0.14851575
95	0xbd5dc2c9	-0.05414084
96	0xbe270a14	-0.16312438
97	0x3e9d1299	0.3067825
98	0x3e19d122	0.15021184
99	0x3ee74333	0.45168456
100	0x3b7e54b7	0.0038807818
101	0x3e03c6be	0.12868783
102	0xbe53d91f	-0.20688294
103	0x3a31b33f	0.0006778724
104	0x3da18c1b	0.07888051
105	0xbdbaa81a	-0.09114094
106	0xbd823f99	-0.063597865
107	0xbe2d632e	-0.16932365
108	0xbde00c34	-0.109398276
109	0x3da18ae4	0.078878194
110	0x3cb158bf	0.021648763
111	0x3c123859	0.008924567
112	0x3e9cd342	0.30629927
113	0xbe8d6b5b	-0.27620968
114	0x3e626140	0.2210741
115	0xbe01e7f2	-0.12686136
116	0x3dc65634	0.09684411
117	0x3d9e7eb3	0.0773901
118	0xbca13643	-0.019679194
119	0xbe29fe35	-0.16600879
120	0xbeedfebf	-0.46483418
121	0x3dd7f6f3	0.10545149
122	0x3e32fc2f	0.17479013
123	0xbddb7e00	-0.10717392
124	0xbde152a8	-0.110020936
125	0xbe0caaea	-0.13737074
126	0x3ddb4c90	0.107079625
127	0xbde15a06	-0.11003499
128	0x3e9c73c7	0.3055708
129	0x3e4efd00	0.202137
130	0x3dff3703	0.124616645
131	0xbd3cdd8d	-0.046109725
132	0xbe9f078e	-0.3106045
133	0x3e16be38	0.14721
134	0xbd567f27	-0.052367356
135	0xbe45ce83	-0.19317059
136	0xbee5e09f	-0.44897935
137	0xbc47f481	-0.01220429
138	0xbc39e542	-0.011346163
139	0xbda0c2a4	-0.07849625
140	0xbe8ab462	-0.27090746
141	0xbc873d66	-0.01650877
142	0x3d832eff	0.06405448
143	0xbe7290d6	-0.23688063
144	0xbec1048c	-0.37698781
145	0xbecdc5ae	-0.4018988
146	0x3d37aba1	0.044841412
147	0xbdbf5ebb	-0.0934424
148	0xbdf38529	-0.11890633
149	0xbe24a260	-0.16077566
150	0x3a75ecd6	0.00093812996
151	0xbe8b4b1f	-0.2720575
152	0xbc8dba0a	-0.017300624
153	0xbe293709	-0.165249
154	0xbec14be9	-0.37753227
155	0x3e2de427	0.16981564
156	0x3ca7f2ba	0.020501483
157	0x3db5a8f7	0.08870118
158	0xbddc62fb	-0.107610665
159	0x3e3133d0	0.17304921
160	0x3e14eee6	0.14544258
161	0x3c9e262a	0.019305307
162	0xbdb5e524	-0.08881596
163	0xbd2cecc4	-0.042217985
164	0x3e371bfc	0.17881769
165	0xbd8853cc	-0.06656608
166	0xbdc5c1a8	-0.096560776
167	0x3d95617a	0.07293983
168	0xbf0f15d2	-0.5589267
169	0x3c47ce0a	0.01219512
170	0xbdd2d2f8	-0.10294145
171	0x3d75db2c	0.06002347
172	0xbd5e01f6	-0.05420109
173	0xbe0dc272	-0.13843706
174	0x3e14978b	0.14510934
175	0x3e650312	0.22364452
176	0xbd6e4be6	-0.05817785
177	0xbe2bdab0	-0.16782641
178	0x3bc03109	0.0058652204
179	0x3e8769c5	0.26447883
180	0x3e93bdca	0.28855735
181	0xbe166649	-0.14687456
182	0xbeaac35c	-0.33352172
183	0xbda7a6f7	-0.08186143
184	0x3d262a87	0.0405679
185	0x3e5127fc	0.20425409
186	0x3e312ad0	0.17301488
187	0x3e09b591	0.13448168
188	0x3e0f4629	0.13991608
189	0x3cf2b031	0.02962503
190	0x3e781d6d	0.24229975
191	0x3d3a6cf2	0.045514055
192	0x3eb524e0	0.35379696
193	0x3dae28c4	0.08503869
194	0x3ecf4fa0	0.40490437
195	0xbdb2d408	-0.08731848
196	0x3ea158eb	0.31513152
197	0x3e58374b	0.21114843
198	0xbde89f94	-0.11358562
199	0xbdc0aa8f	-0.094075315
200	0x3e3e6507	0.18593226
201	0x3da96a6f	0.08272254
202	0x3eb7ba3b	0.3588427
203	0x3e200aff	0.15629195
204	0xbe3165a4	-0.17323929
205	0x3dfec737	0.12440341
206	0xbe64a69b	-0.2232918
207	0xbd70c5ce	-0.05878239
208	0x3dafc314	0.0858213
209	0xbe608a38	-0.21927726
210	0x3e9002c3	0.28127107
211	0xbd4f91e5	-0.050676245
212	0xbddeb9b3	-0.10875263
213	0x3e8ad493	0.27115306
214	0x3e8cc13b	0.27491173
215	0x3dc458ba	0.09587236
216	0x3eb79775	0.3585774
217	0x3e3ce36f	0.18446134
218	0xbda211c1	-0.079135425
219	0x3dd135cb	0.10215338
220	0x3ec29089	0.38000897
221	0x3e008687	0.12551318
222	0x3e8cf623	0.27531537
223	0x3e285fd2	0.16442803
224	0xbe0bddc3	-0.13658814
225	0xbdf6430d	-0.12024508
226	0x3e5aa90b	0.21353547
227	0x3ed39564	0.41324914
228	0x3e851054	0.2598902
229	0xbcf1570e	-0.029460456
230	0x3e0d7d4b	0.13817327
231	0xbddf5317	-0.1090452
232	0x3dea5c1e	0.11443351
233	0xbd31b4f1	-0.04338545
234	0x3d8ed134	0.06973496
235	0xbe05df1a	-0.13073388
236	0x3e41186a	0.1885697
237	0xbdfb380e	-0.12266551
238	0x3ec85cc8	0.39133286
239	0xbce37ff8	-0.027770981
240	0x3e201388	0.1563245
241	0x3d92beae	0.071652755
242	0x3e8797d1	0.26483014
243	0xbe5e19c5	-0.21689518
244	0xbd88341a	-0.066505626
245	0xbd763327	-0.060107376
246	0xbe20e17e	-0.15711018
247	0x3d9514c3	0.072793506
248	0x3d97bc06	0.074089095
249	0x3d0a1d62	0.033719428
250	0x3e15fdad	0.14647551
251	0xbc18a701	-0.009317161
252	0x3d88da26	0.066822335
253	0x3e4c9718	0.19979513
254	0x3d5cc6b0	0.05390042
255	0xbc2ce7d3	-0.010553318

network_body._body_endoder.seq_layers.0.bias f4 [256]
0	0x3e0b87e4	0.13626057
1	0xbcc1c7bb	-0.02365481
2	0x3ded04b1	0.115731604
3	0x3e2e2736	0.17007145
4	0xbe228f1f	-0.15874909
5	0x3e5a68e7	0.2132908
6	0x3ddbe8a1	0.1073773
7	0x3d89f154	0.06735483
8	0x3e358543	0.17726617
9	0x3e724f0d	0.23662968
10	0x3d7eb6dc	0.062186107
11	0xbe6102ce	-0.21973726
12	0xbe6fb67b	-0.23409455
13	0x3e10b540	0.14131641
14	0x3da7a558	0.08185834
15	0x3e0a599b	0.13510744
16	0x3e3f22db	0.1866564
17	0x3da48f0a	0.08035095
18	0xbe27acca	-0.16374508
19	0x3e38f891	0.1806357
20	0x3e050b72	0.12992647
21	0x3dda7dfe	0.10668562
22	0xbd105496	-0.035236917
23	0x3cf33800	0.029689789
24	0x3d539e8f	0.051664885
25	0x3d1a056d	0.03760283
26	0xbe668c1b	-0.22514383
27	0xbcf571fd	-0.02996158
28	0x3d2a4c1d	0.041576494
29	0xbe3a31d1	-0.18183066
30	0xbe5e9fcc	-0.21740645
31	0xbdaded9b	-0.08492585
32	0x3c482a91	0.01221718
33	0x3e02b882	0.12765697
34	0x3d0665b5	0.03281184
35	0x3dea1897	0.114304714
36	0xbe954585	-0.29154602
37	0xbe526960	-0.2054801
38	0x3de27252	0.11056961
39	0x3dd54e2c	0.10415301
40	0x3ce558a6	0.027996372
41	0xbc902fee	-0.01760098
42	0x3d825cba	0.063653424
43	0xbe8a7e29	-0.27049378
44	0x3e007023	0.12542777
45	0x3e201a57	0.15635048
46	0x3db1d85b	0.08683845
47	0xbd97d676	-0.07413952
48	0x3ddc104e	0.10745297
49	0x3e0a763a	0.13521662
50	0x3e45394a	0.19260135
51	0x3b5c405a	0.0033607692
52	0xbd8ed1ca	-0.06973608
53	0x3cd5dc2a	0.026105959
54	0xbe7a4a1f	-0.24442337
55	0xbcf10ea8	-0.029425934
56	0x3d6aa2c5	0.057284135
57	0x3dc87f53	0.0978991
58	0x3dad426f	0.08459937
59	0xbc4477fe	-0.011991499
60	0xbe8dda52	-0.27705628
61	0xbc8823b8	-0.016618595
62	0xbc9a0e2b	-0.018805584
63	0xbcb8c435	-0.022554496
64	0x3e1f4cc9	0.15556635
65	0x3c8c424f	0.017121462
66	0xbd8d805b	-0.069092475
67	0x3e4303d0	0.19044423
68	0xbda888fc	-0.08229253
69	0x3b9ed94b	0.0048476807
70	0xbdf9fcc8	-0.12206417
71	0x3dd908bc	0.10597369
72	0x3c9a5539	0.018839465
73	0x3d5b35d7	0.053518143
74	0x3e3a0573	0.18166141
75	0xbd4efd19	-0.05053434
76	0x3d095949	0.033532415
77	0x3d641934	0.055688098
78	0x3d997940	0.0749383
79	0xbb52b3a3	-0.003215053
80	0x3c813361	0.01577157
81	0x3df41af5	0.11919204
82	0xbe304ce0	-0.17216825
83	0x3d2490de	0.04017722
84	0xbdffc34e	-0.12488423
85	0x3dfea582	0.12433912
86	0xbde29f60	-0.110655546
87	0xbbff0224	-0.0077822376
88	0x3b5f2cdd	0.003405384
89	0xbe1461c3	-0.14490418
90	0x3d81d535	0.06339494
91	0x3d6f903e	0.05848717
92	0x3e0618ac	0.13095349
93	0x3d45143a	0.048114993
94	0x3d3237a9	0.043510113
95	0x3e2c85cc	0.16847914
96	0x3ca5b593	0.020228183
97	0xbd9585e7	-0.073009305
98	0xbe2b67ff	-0.1673889
99	0x3e08ee80	0.1337223
100	0x3da934c1	0.08262015
101	0xbdf21b65	-0.11821631
102	0x3e4a925e	0.19782397
103	0x3e032c49	0.12809862
104	0x3c2400a8	0.010009922
105	0xbd7b5a1b	-0.06136523
106	0x3d009738	0.031394213
107	0x3dffaac3	0.12483742
108	0xbbafb71e	-0.0053624054
109	0xbda6372c	-0.08115992
110	0x3c997b8e	0.018735673
111	0x3d63213a	0.05545161
112	0x3e26a53e	0.16273972
113	0xbcaca98b	-0.021076938
114	0x3e05a92d	0.13052817
115	0x3d5fb359	0.0546144
116	0x3d81ac59	0.06331701
117	0x3db75163	0.0895107
118	0x3e16d43d	0.147294
119	0xbe8cbc7b	-0.2748755
120	0xbd93d684	-0.0721865
121	0x3e2f5e4e	0.17125818
122	0x3dc2f9c0	0.09520292
123	0xbe2dac50	-0.16960263
124	0xbda1acf0	-0.07894313
125	0xbe8158f7	-0.25263187
126	0x3dee6d20	0.11641908
127	0x3e274817	0.16336094
128	0xbd4dff8d	-0.05029254
129	0xbdbb5780	-0.09147549
130	0x3d1445b7	0.036199298
131	0xbdc6bebf	-0.09704351
132	0x3db81224	0.08987835
133	0x3df23f74	0.11828509
134	0x3a8b407e	0.0010624079
135	0x3d901cb6	0.07036726
136	0x3e0b8fe4	0.13629109
137	0x3da470ec	0.08029351
138	0x3db67dad	0.089106895
139	0x3e40988c	0.18808192
140	0xbd5b1e60	-0.053495765
141	0xbb8efd9e	-0.0043637296
142	0x3d131328	0.03590694
143	0x3daeb1ed	0.085300304
144	0x3e08025f	0.13282155
145	0xbda35cd2	-0.079766884
146	0x3db12695	0.08649937
147	0x3dabd21a	0.08389683
148	0xbd94aaa6	-0.07259111
149	0x3bbaa701	0.005696178
150	0x3d962fd4	0.07333341
151	0x3d2a280d	0.0415421
152	0x3e6f32c7	0.23359214
153	0x3df774c5	0.12082819
154	0x3e043076	0.12909111
155	0x3e0350f8	0.12823856
156	0x3e365c18	0.17808568
157	0xbaa18d93	-0.0012325518
158	0x3dc14d64	0.09438589
159	0x3d3780b3	0.04480047
160	0xbe9f0b5d	-0.31063357
161	0x3cfe95b1	0.031077238
162	0xbe185b9c	-0.14878696
163	0xbdada4f3	-0.08478727
164	0xbde1a856	-0.11018436
165	0xbe6dbabd	-0.23215766
166	0x3e2e478d	0.17019482
167	0x3e7073a2	0.2348161
168	0x3da2a1df	0.07941031
169	0xbddf5e70	-0.109066844
170	0x3e083dff	0.133049
171	0x3d7b5647	0.061361577
172	0xbd03d03d	-0.032181013
173	0xbdf30e82	-0.118680015
174	0xbe8c010e	-0.27344555
175	0x3e1cd99b	0.15317385
176	0x3e31c669	0.17360844
177	0x3e1231d3	0.14276819
178	0x3d958929	0.07301552
179	0xbd763981	-0.060113434
180	0x3e035730	0.12826228
181	0x3e07f81e	0.13278243
182	0x3e603d6d	0.21898432
183	0x3e42bfd8	0.19018495
184	0x3d8fcd47	0.070215754
185	0xbd95f313	-0.07321753
186	0xbdcb0c9b	-0.09914514
187	0x3de8f789	0.113753386
188	0x3dd9e70a	0.1063977
189	0x3decad0d	0.11556444
190	0x3936a160	0.0001741699
191	0x3d284738	0.041083544
192	0x3e0df0ad	0.13861342
193	0x3e436afd	0.19083782
194	0xbd36e71b	-0.044653993
195	0x3d8608df	0.06544661
196	0xbc6fd4d0	-0.014638141
197	0xbe3e3521	-0.18574955
198	0x3c7c4977	0.015398375
199	0x3ded1d66	0.11577873
200	0xbe23d044	-0.15997416
201	0x3d9cea77	0.07661908
202	0xbdee548c	-0.1163722
203	0x3cf94689	0.030429142
204	0x3bb61c04	0.005557539
205	0x3e1208a6	0.14261112
206	0x3e269a0c	0.16269702
207	0xbc0f47c0	-0.008745134
208	0x3dda0ce0	0.10646987
209	0x3db4532b	0.088049255
210	0xbdc15621	-0.09440256
211	0x3ddabc82	0.10680486
212	0x3d8989fc	0.067157716
213	0x3d6c66b5	0.057715137
214	0xbdbdac78	-0.092614114
215	0x3db97963	0.09056356
216	0x3e20b7ae	0.15695068
217	0x3d8b6f28	0.06808311
218	0x3d0ba7ae	0.03409546
219	0xbd729aa2	-0.0592295
220	0xbe31ac5c	-0.17350906
221	0xbdcbc43b	-0.09949537
222	0xbdbccb1a	-0.09218426
223	0x3e4abb8b	0.19798104
224	0x3c817f11	0.01580766
225	0xbcc4d98c	-0.024029516
226	0x3e0a6862	0.13516381
227	0x3d59bb43	0.053157102
228	0x3dc8092e	0.09767376
229	0x3ce9d62c	0.028544508
230	0xbd953a1c	-0.07286474
231	0xbcde0c18	-0.027105376
232	0x3d5ec6c3	0.054388773
233	0x3e516b9f	0.2045121
234	0xbc503d34	-0.012709904
235	0x3d8fd36d	0.07022748
236	0x3dce9f9f	0.10089039
237	0x3e1427ca	0.14468303
238	0x3dc63f86	0.09680085
239	0xbdefb82d	-0.117050506
240	0xbc29ff1a	-0.010375762
241	0x3dd33d6e	0.10314451
242	0x3e0670c0	0.13128948
243	0xbd494c26	-0.049144886
244	0xbe754500	-0.23952103
245	0x3d3941de	0.04522883
246	0xbd967f02	-0.073484436
247	0x3df36732	0.11884917
248	0x3e4618a4	0.19345337
249	0x3ce3d273	0.027810311
250	0xbd51b534	-0.0511982
251	0xbe27e720	-0.16396761
252	0x3d5bcd0d	0.05366235
253	0x3e210ed6	0.15728316
254	0x3e1ec68c	0.15505427
255	0xbd0d0282	-0.03442622

network_body._body_endoder.seq_layers.2.weight f4 [256, 256]
0	0xbc3a2bc6	-0.011362975
1	0xbd93ef2c	-0.07223353
2	0xbe3abe68	-0.18236697
3	0x3d33298b	0.04374079
4	0xbd9ac80e	-0.07557689
5	0xbe5e6935	-0.21719821
6	0xbdc51e68	-0.0962494
7	0x3ca4b3f6	0.020105343
8	0x3baa440c	0.0051961
9	0x3c665f51	0.014060811
10	0xbd9b6dc1	-0.07589293
11	0x3def9717	0.1169874
12	0x3b8d5c66	0.0043139933
13	0x3dc0773c	0.09397742
14	0x3e0bf8cd	0.13669129
15	0xbe340043	-0.17578225
16	0xbd9054fa	-0.07047458
17	0x3d17acfa	0.037030198
18	0xbd8758f1	-0.06608761
19	0xbcc3b17e	-0.023888346
20	0x3c4ccbef	0.012499793
21	0x3c4bb8b5	0.012434174
22	0xbd69bd67	-0.057065394
23	0xbb049f64	-0.0020236606
24	0x3e4eb5e6	0.20186576
25	0x3e437f27	0.19091474
26	0xbdbacbdd	-0.09120915
27	0xbe1bed6a	-0.15227285
28	0x3e0d092c	0.1377303
29	0xbd2f7dfc	-0.042844757
30	0xbc942412	-0.018083606
31	0xbd4072ac	-0.04698436
32	0xbc639002	-0.013889315
33	0x3e34b626	0.17647609
34	0x3e46fb59	0.19431819
35	0xbc59ecc8	-0.013301082
36	0x3da0061f	0.078136675
37	0x3d5bbc49	0.05364636
38	0x3db9f0d6	0.09079139
39	0xbd7524af	-0.059849437
40	0x3d26ae9d	0.040693868
41	0xbd5b9996	-0.053613268
42	0x3c9e98f7	0.019360049
43	0x3e11f366	0.14253005
44	0x3d5393f0	0.051654756
45	0xbe5d1338	-0.21589363
46	0x3c8e55b2	0.017374847
47	0x3c8147cf	0.015781311
48	0xbd5a675c	-0.053321227
49	0x3c1e410a	0.009659061
50	0xbdf89de2	-0.12139489
51	0xbd645cfa	-0.05575273
52	0xbdde431a	-0.10852642
53	0x3d70a6f7	0.05875298
54	0x3cd3540b	0.02579691
55	0x3dc1cc8b	0.094628416
56	0x3e0b19fe	0.13584134
57	0x3d271ab6	0.040796958
58	0x3d1357c8	0.035972387
59	0x3da36283	0.07977774
60	0x3d1f59dc	0.038904056
61	0x3d471e14	0.04861267
62	0xbda5c124	-0.08093479
63	0xbe0952f6	-0.13410553
64	0xbe36ddea	-0.17858091
65	0x3cf3a779	0.029742943
66	0x3c891cf2	0.016737435
67	0xbdcb3230	-0.09921682
68	0xbdd2dc4f	-0.10295927
69	0x3d661bc7	0.056178834
70	0x3bf4be8e	0.007469005
71	0xbd8e0697	-0.06934851
72	0x3de0d9c5	0.10979036
73	0xbd002a63	-0.031290423
74	0xbc5096e8	-0.012731291
75	0xbdda572d	-0.10661159
76	0x3c2d485b	0.010576333
77	0x3c76bb72	0.015059339
78	0x3e40491c	0.18777889
79	0x3e4c9385	0.19978149
80	0xbc896b79	-0.01677488
81	0x3d140ee3	0.03614701
82	0xbca2c330	-0.019868463
83	0x3c840cb3	0.016119337
84	0xbdf7452b	-0.120737396
85	0xbd09ccb9	-0.033642504
86	0xbde0b80e	-0.10972606
87	0xbdb8bb5a	-0.090201095
88	0x3d92cdce	0.071681604
89	0xbdf86f61	-0.12130619
90	0x3e235920	0.15951967
91	0x3b92e4a8	0.0044828244
92	0xbd8ac4b2	-0.06775798
93	0xbd7de35e	-0.061984412
94	0x3d5d4b0a	0.05402664
95	0x3d8f5fbd	0.070006825
96	0x3d32237c	0.04349087
97	0xbc6aa582	-0.014321687
98	0x3d1511f3	0.03639407
99	0xbe85d43e	-0.2613849
100	0xbd49cafc	-0.049265847
101	0xbdecceb0	-0.1156286
102	0x3d1fd2df	0.03901946
103	0x3c1adcab	0.009452025
104	0xbd580b60	-0.052745223
105	0xbdc2091c	-0.09474394
106	0xbb9787d0	-0.0046243444
107	0x3e08863d	0.13332458
108	0x3d968e49	0.073513575
109	0x3cc2a8a8	0.023762062
110	0x3c32fd2b	0.010924618
111	0xbcf06965	-0.029347131
112	0xbcaa1c49	-0.02076544
113	0xbc68b1bb	-0.0142025305
114	0x3d1fa1b6	0.03897258
115	0x3b0abf47	0.002117114
116	0x3e41e1ea	0.18933836
117	0x3cbaebef	0.02281758
118	0x3d5f2703	0.054480564
119	0xbcebf880	-0.028805017
120	0xbd6be33a	-0.057589747
121	0x3d81cb74	0.06337634
122	0x3da0e05e	0.07855295
123	0x3d88a80b	0.06672677
124	0xbd9ae500	-0.075632095
125	0xbd1fdbbf	-0.039027926
126	0xba177288	-0.00057772594
127	0xbd03863a	-0.03211043
128	0x3e1dc0da	0.15405598
129	0xbc8b0fb3	-0.01697526
130	0x3e48a08b	0.19592492
131	0x3e409b58	0.18809259
132	0x3e4c2f8f	0.19940017
133	0xbcd280ed	-0.025696242
134	0x3e0c1470	0.13679671
135	0x3e327586	0.17427644
136	0x3d426b8a	0.04746584
137	0xbd37dec1	-0.04489017
138	0xbd638698	-0.05554828
139	0x3d33b776	0.043876134
140	0xbdaa1205	-0.08304218
141	0x3b037f42	0.0020064865
142	0xbdf9ce09	-0.12197501
143	0x3d5ef637	0.054434028
144	0xbdada8aa	-0.08479436
145	0xbd1ede8a	-0.03878645
146	0xbd82d088	-0.063874304
147	0x3d59f703	0.053214084
148	0xbe00441e	-0.12525985
149	0xbc77def4	-0.01512884
150	0xbd6c80a2	-0.05773986
151	0xbcbb77f9	-0.022884356
152	0x3e29ab93	0.16569357
153	0xbd38c935	-0.04511376
154	0x3dc22b9c	0.09480974
155	0x3dbfe9a7	0.093707375
156	0xbc9f131e	-0.019418295
157	0xbc2f832b	-0.010712425
158	0xbc9c1ae7	-0.019055797
159	0xbc895e0d	-0.01676848
160	0xbd1b153b	-0.037862044
161	0x3dc7cb01	0.09755517
162	0xbe2ba189	-0.1676084
163	0x3d276de0	0.04087627
164	0x3d9c9a3f	0.076466076
165	0xbd2c1f18	-0.04202184
166	0x3d533b19	0.05157003
167	0x3e19925b	0.14997236
168	0xbcd5353e	-0.026026364
169	0xbdcccdc6	-0.10000186
170	0xbe60c341	-0.21949483
171	0x3e0105f2	0.12599924
172	0x3d72d015	0.059280474
173	0x3d8db42e	0.06919132
174	0xbd990392	-0.07471384
175	0xbd22f4bd	-0.039784182
176	0xbd1c03d4	-0.03808959
177	0x3d32929d	0.043596853
178	0xbda9ac8d	-0.082848646
179	0x3d981f21	0.07427812
180	0xbdb957eb	-0.09049972
181	0x3def60db	0.116883956
182	0xbd198205	-0.037477512
183	0x3c83b5cc	0.016077898
184	0x3dca14cb	0.09867247
185	0xbcd982ad	-0.026551569
186	0x3d718bf3	0.058971357
187	0xbc2d8463	-0.0105906455
188	0xbcf5beb8	-0.029998168
189	0xbde998fb	-0.11406132
190	0x3cd383b4	0.025819637
191	0x3d51a332	0.051181026
192	0xbd28ed29	-0.0412418
193	0x3e1989e0	0.14994001
194	0xbc30c321	-0.01078871
195	0x3d57d53b	0.052693587
196	0xbd1939a5	-0.03740849
197	0xbd418c51	-0.047252957
198	0x3c49cb37	0.012316517
199	0x3dc6b14a	0.09701784
200	0x3bb7c6a4	0.0056083966
201	0x3d3429a3	0.04398502
202	0xbd146162	-0.036225684
203	0xbcdb0c37	-0.026739223
204	0x3d1dde73	0.038542222
205	0xbd40b96e	-0.04705184
206	0x3bd13f81	0.006385744
207	0x3dfd7e1a	0.123775676
208	0xbd0540f5	-0.03253265
209	0x3c406399	0.011742496
210	0x3c90ba4c	0.017666958
211	0xbc64602a	-0.013938943
212	0xbdb7a95e	-0.08967851
213	0x3db3a9c9	0.08772618
214	0xbdbdb95d	-0.09263871
215	0xbdffb534	-0.12485734
216	0xbdb20974	-0.08693209
217	0xbdabcce3	-0.083886884
218	0xbcf374eb	-0.029718837
219	0x3df57438	0.119850576
220	0xbd415aaa	-0.047205605
221	0x3e18d93a	0.14926615
222	0x3df6c69d	0.12049601
223	0x3e02d3f2	0.12776163
224	0x3de9912f	0.11404645
225	0x3c81effd	0.015861506
226	0xbe304923	-0.172154
227	0xbd8deae9	-0.06929571
228	0x3d4b680f	0.049659785
229	0xbcf3d6dd	-0.02976554
230	0x3dd85036	0.10562174
231	0xbd7f945e	-0.062397353
232	0x3d1c77dd	0.038200248
233	0xbd3603bc	-0.044437155
234	0xbddd9f6c	-0.10821423
235	0xbd302f47	-0.043013837
236	0xbd36f934	-0.044671252
237	0xbdecb4a4	-0.11557892
238	0xbdd76470	-0.10517204
239	0x3db1fed6	0.08691184
240	0x3d96f630	0.07371175
241	0xbb8c1713	-0.0042752116
242	0xbdf7494c	-0.12074527
243	0x3e2ed0a9	0.17071785
244	0xbdd87c17	-0.10570543
245	0x3d7e291a	0.062050916
246	0x3cdc7c10	0.026914626
247	0xbe1b05f4	-0.1513899
248	0xbd9ae9c6	-0.0756412
249	0x3d0919b8	0.033471793
250	0x3e051474	0.12996083
251	0x3c82da7d	0.015973324
252	0x3d2995e6	0.04140272
253	0xbd714611	-0.05890471
254	0xbb91f245	-0.0044539296
255	0xbdf97d8c	-0.12182149

network_body._body_endoder.seq_layers.2.bias f4 [256]
0	0xbbfed103	-0.007776381
1	0x3d34915f	0.04408395
2	0xbe179fd2	-0.1480706
3	0xbdd21448	-0.102577746
4	0xbe2aa047	-0.16662703
5	0xbe19cdb3	-0.15019874
6	0x3d33cb0e	0.04389482
7	0xbe0f5499	-0.13997115
8	0xbdae7f88	-0.085204184
9	0x3d6edcc4	0.058316007
10	0xbe0e16b6	-0.13875851
11	0xba887f43	-0.0010413904
12	0xbd5a532a	-0.053301968
13	0x3db06056	0.086121246
14	0xbd8290fb	-0.06375309
15	0xba90b255	-0.0011039475
16	0x3d17149c	0.03688489
17	0x3d8e87c1	0.06959487
18	0x3d6c3336	0.057666026
19	0xbe109aec	-0.14121598
20	0x3cbc8fed	0.023017848
21	0xbe183ab6	-0.14866146
22	0x3db4ca1e	0.08827613
23	0xbe149564	-0.14510113
24	0x3d98a660	0.074536085
25	0x3ca13a2a	0.019681055
26	0xbe19bc8d	-0.15013333
27	0x3dcbb24b	0.09946116
28	0xbdf22f30	-0.118254066
29	0xbbd68e04	-0.0065476913
30	0xbc354d4a	-0.01106579
31	0x3daccbe7	0.08437329
32	0xbe1e6cc4	-0.15471178
33	0x3dd80963	0.105486654
34	0x3d9d063a	0.07667203
35	0x3d825289	0.063633986
36	0xbe123552	-0.14278153
37	0xbd93854b	-0.07203158
38	0x3d5fd69f	0.054648038
39	0xbce62d5a	-0.028097797
40	0xbda916bd	-0.0825629
41	0xbdf593d1	-0.11991084
42	0x3ca04802	0.019565586
43	0xbc0ebe4a	-0.008712361
44	0xbd1fddb5	-0.039029796
45	0x3d6653a1	0.0562321
46	0xb8302639	-4.1997268e-05
47	0xbdfe00cc	-0.12402496
48	0xbe1be040	-0.15222263
49	0xbcbaf040	-0.022819638
50	0x3d3bb79d	0.045829404
51	0x3d718e4a	0.058973588
52	0x3e00b994	0.12570792
53	0xbe0c59b7	-0.13706098
54	0x3dbd7cb8	0.09252304
55	0xbd802fba	-0.06259103
56	0xbe234657	-0.15944801
57	0xbe1d1cbd	-0.15342994
58	0x3d10f0c6	0.03538587
59	0x3d3b9ef1	0.045805875
60	0xbc813110	-0.015770465
61	0x3dbd83ab	0.09253629
62	0xbd7b2e64	-0.06132354
63	0x3e0cb91d	0.1374249
64	0x3cdc9263	0.026925271
65	0x3d4fd09a	0.050736047
66	0x3db0fecb	0.08642348
67	0xbe0c125f	-0.13678883
68	0xbe159e60	-0.14611197
69	0x3db0baf5	0.08629409
70	0x3b94fe28	0.0045468993
71	0x3d4e8506	0.05041983
72	0xbd9f4b0c	-0.07777986
73	0xbe10d1b3	-0.14142494
74	0x3d589fef	0.0528869
75	0x3c86a480	0.016435862
76	0x3d096a51	0.033548657
77	0xbe1c8c27	-0.15287839
78	0xbbb5c195	-0.0055467584
79	0x3d55ee93	0.052229475
80	0x3d83da4f	0.064381234
81	0xbb2c419d	-0.0026284226
82	0x3dac7a94	0.084218174
83	0xbe2116d1	-0.1573136
84	0xbdcc7063	-0.099823736
85	0x3dc80d60	0.09768176
86	0x3da8cda7	0.0824235
87	0xbda249cc	-0.07924232
88	0xbda20bfa	-0.079124406
89	0x3dd7539b	0.10513993
90	0xbdb49781	-0.088179596
91	0x3d989d37	0.07451861
92	0x3e0492bf	0.12946604
93	0x3da5ced6	0.080960914
94	0x3d7ee598	0.062230676
95	0xbcbb5a8f	-0.02287033
96	0xbbb4918d	-0.005510515
97	0xbdfe5199	-0.12417907
98	0x3db6f8b2	0.089341536
99	0xbdf9bc6b	-0.12194141
100	0x3ceaefea	0.028678853
101	0xbb22dab2	-0.002484959
102	0x3d2c7623	0.04210485
103	0xbd9fd98b	-0.07805165
104	0xbdcfbb8e	-0.10143195
105	0x3dc19ec9	0.09454114
106	0x3d355120	0.04426682
107	0x3d8a3a1f	0.06749367
108	0x3e09d042	0.1345835
109	0x3d344796	0.044013582
110	0xbd8b7474	-0.06809321
111	0xbe0c3132	-0.13690642
112	0x3dba30df	0.09091353
113	0xbc734f87	-0.014850504
114	0xbd0012b6	-0.031267844
115	0x3da0b2d6	0.0784661
116	0xbd47cdff	-0.048780438
117	0xbcc995d0	-0.024607569
118	0xbc6d3dd0	-0.014480069
119	0xbe0ae111	-0.13562419
120	0xbcc7f604	-0.024409302
121	0x3d3fac4b	0.04679517
122	0x3dc82ea1	0.09774519
123	0xbc86eea7	-0.01647122
124	0x3d0f0c07	0.03492358
125	0xbdf68a71	-0.12038124
126	0xbd70ffce	-0.058837704
127	0x3d551b22	0.05202783
128	0x3db8f7a6	0.0903161
129	0xbe1b8e33	-0.15190963
130	0xbd08ed9c	-0.033429727
131	0xbe106947	-0.1410266
132	0xbc74ddd8	-0.01494547
133	0xbdf07a8e	-0.117421255
134	0xbdcad5ff	-0.09904098
135	0x3da2808e	0.07934676
136	0xbe13707b	-0.14398377
137	0x3d0e5fe8	0.034759432
138	0xbe22ed57	-0.1591085
139	0x3d666df0	0.05625719
140	0x3e00e4e4	0.12587315
141	0x3da552e4	0.08072451
142	0xbe1a55e3	-0.15071826
143	0x3d893f0d	0.06701479
144	0xbe10446e	-0.14088604
145	0xbe11de94	-0.14245063
146	0xbc8655e1	-0.016398372
147	0x3db2527c	0.08707139
148	0xbe1f4b85	-0.15556152
149	0xbe0a897a	-0.13529006
150	0xbde6b4c5	-0.11264948
151	0xbe21d382	-0.1580334
152	0x3c8feb78	0.017568335
153	0xbc6a7eef	-0.01431249
154	0x3bf03786	0.0073308377
155	0xbe09cf19	-0.13457908
156	0xbd51bef0	-0.051207483
157	0x3e06ec83	0.1317616
158	0xbe2093bf	-0.1568136
159	0xbca9e9fa	-0.020741452
160	0xbcbdc287	-0.023164047
161	0xbe184a78	-0.14872158
162	0x3d58270a	0.052771606
163	0x3d4986b1	0.049200717
164	0xbde2a7e3	-0.11067178
165	0xbe0b5916	-0.13608202
166	0x3cd2106b	0.025642594
167	0x3db3da56	0.08781879
168	0x3e0414ec	0.12898606
169	0xbd2d764d	-0.04234915
170	0xbdf704a1	-0.1206143
171	0x3e180363	0.14845042
172	0x3c6c341b	0.01441672
173	0x3dcb2619	0.09919376
174	0x3dbf5315	0.093420185
175	0x3d8dd231	0.069248565
176	0x3e04a7b7	0.12954603
177	0x3da3e10c	0.08001909
178	0xbd38381c	-0.044975385
179	0x3dd938a0	0.106065035
180	0xbd4b9bfd	-0.04970931
181	0x3d2b2e3e	0.041792147
182	0xbd2ff4ec	-0.042958185
183	0xbdb4d9f4	-0.08830634
184	0x3d6aac94	0.05729349
185	0x3da9a95c	0.08284256
186	0x3d57ec38	0.05271551
187	0x3d841c9b	0.064507686
188	0xbd729193	-0.05922086
189	0xbc754b8e	-0.014971627
190	0xbda66d72	-0.08126344
191	0xbe1e90f2	-0.1548498
192	0xbe0027aa	-0.1251513
193	0xbd95b2e2	-0.0730951
194	0xbc833689	-0.016017215
195	0xbb5be2a3	-0.0033551834
196	0xbd91e21d	-0.07123206
197	0xbced3463	-0.028955644
198	0xbd0aec2e	-0.033916645
199	0xbde467d6	-0.11152618
200	0x3bb9975b	0.005663795
201	0x3d964094	0.07336536
202	0x3dd04d82	0.101710334
203	0xbdc4181c	-0.09574911
204	0x3b98bbd8	0.0046610646
205	0x3ca5f611	0.020258935
206	0x3d571e5c	0.052519187
207	0xbe1166ff	-0.14199446
208	0xbd82d322	-0.06387927
209	0xbdf60ee8	-0.12014562
210	0xbe14ee58	-0.14544046
211	0xbdf81532	-0.12113418
212	0x3ca3c11d	0.019989545
213	0xbe1d4d3f	-0.15361498
214	0x3db71463	0.08939435
215	0x3dffd858	0.12492436
216	0xbd77c0d5	-0.060486633
217	0x3e04d994	0.12973624
218	0x3d4a9463	0.04945792
219	0x3ae2436c	0.0017262525
220	0xbe0d46b5	-0.13796504
221	0xbc5f4335	-0.013626863
222	0x3dd9bd61	0.10631824
223	0x3d316382	0.04330779
224	0x3dedfc00	0.11620331
225	0x3da9d5c6	0.08292727
226	0xbdcea648	-0.100903094
227	0xbd5473ea	-0.051868357
228	0xbd7ae46a	-0.06125299
229	0xba8b7798	-0.00106405
230	0xbe251b65	-0.16123731
231	0xbd3e52b3	-0.046465587
232	0xbe221b12	-0.15830639
233	0x3d88bd57	0.06676739
234	0x3d7df65f	0.062002536
235	0xbe126700	-0.14297104
236	0xbe14defa	-0.14538184
237	0x3dfa6bf1	0.122276194
238	0xbdc830d5	-0.09774939
239	0x3dd92574	0.10602847
240	0x3cb13090	0.021629602
241	0xbe19d5c5	-0.15022953
242	0xbd922f87	-0.07137971
243	0x3cf32e4b	0.02968516
244	0xbdb9f6e8	-0.09080297
245	0xbe13bfb9	-0.14428605
246	0xbe0269fd	-0.12735744
247	0x3d4fac7a	0.050701596
248	0xbca56756	-0.020190876
249	0x3d42b445	0.0475352
250	0xbd3aea17	-0.0456334
251	0xbb2c7c62	-0.0026319255
252	0xbda32453	-0.07965913
253	0xbc66068a	-0.014039645
254	0xbdc7ff54	-0.09765497
255	0x3ce60147	0.028076781

action_model._discrete_distribution.branches.0.weight f4 [4, 256]
0	0xbb2b9a4b	-0.0026184495
1	0xbd0ff3ef	-0.035144743
2	0x3d5dd844	0.054161325
3	0x3c00e945	0.007868116
4	0x3d99ccf9	0.075097986
5	0x3d903c4b	0.0704275
6	0xbc615a7f	-0.013754486
7	0x3d6105d6	0.054937206
8	0x3bee8eed	0.0072802217
9	0xbcd4265f	-0.025897203
10	0x3d835293	0.06412234
11	0xbc5901da	-0.01324507
12	0x3ca01d6e	0.019545283
13	0xbcf39084	-0.029731996
14	0x3bc72fac	0.006078681
15	0x3a9bf263	0.0011897798
16	0xbcb5e9c0	-0.022206187
17	0xbc9062a8	-0.017625168
18	0xbb46e9ef	-0.0030351838
19	0x3d8698af	0.06572091
20	0xbcd63b05	-0.02615119
21	0x3d81f659	0.06345815
22	0xbd36643b	-0.04452918
23	0x3d64b706	0.055838607
24	0xbcc35f3a	-0.023849119
25	0xbd1348c8	-0.03595808
26	0x3d892e89	0.06698329
27	0xbcb170d4	-0.021660246
28	0x3d8313e4	0.06400278
29	0xbc0bf9bf	-0.008543431
30	0xbc34ca80	-0.011034608
31	0xbd1080c4	-0.03527905
32	0x3d96afe6	0.07357769
33	0xbd1bf2ec	-0.038073465
34	0xbc54c01a	-0.012985254
35	0xbcc614c6	-0.024179827
36	0x3d8921a7	0.06695872
37	0x3c0306b3	0.007997203
38	0x3b213d50	0.0024603195
39	0x3bc024ef	0.005863778
40	0xbc48109a	-0.012210989
41	0x3d78115f	0.06056344
42	0xbbb6ccbb	-0.005578605
43	0x3bef861a	0.0073096873
44	0x3c8d692a	0.01726206
45	0xbcd6cc64	-0.026220508
46	0xbce68f57	-0.028144522
47	0x3d38b102	0.045090683
48	0x3d93e88b	0.072220884
49	0x3c0b2197	0.008491895
50	0x3b5c3e55	0.0033606489
51	0xbc61d08f	-0.013782634
52	0xbd1a46aa	-0.037665047
53	0x3d67dd08	0.056607276
54	0xbc10678c	-0.00881375
55	0x3beb7aa3	0.0071862503
56	0x3d93244c	0.071846575
57	0x3d935eb4	0.071957976
58	0xbc90db2b	-0.017682632
59	0xbcaa1305	-0.020761022
60	0x3a440937	0.000747818
61	0xbcf3f0b8	-0.02977787
62	0x3d45f7b9	0.04833195
63	0xbd3d4312	-0.04620654
64	0xbccbcf7e	-0.024879213
65	0xbc54d124	-0.012989316
66	0xbd05f13b	-0.03270076
67	0x3d92fbda	0.07176943
68	0x3d7de375	0.061984498
69	0xbd570f00	-0.05250454
70	0x3c15defe	0.009147404
71	0x3b17d00e	0.0023164782
72	0x3d0933b9	0.033496592
73	0x3dac36c7	0.084088854
74	0xbb6829c9	-0.0035425297
75	0x3b929711	0.004473575
76	0xbc37bd31	-0.01121454
77	0x3d93324a	0.07187326
78	0xbc996756	-0.018726032
79	0xbc39970b	-0.011327515
80	0xbcee4166	-0.029083919
81	0xbb45c2ee	-0.0030176002
82	0xbd119309	-0.035540614
83	0x3da6b7d2	0.0814053
84	0x3ce57511	0.028009923
85	0xbd3845d1	-0.044988457
86	0xbd12f582	-0.035878666
87	0x3beb1223	0.007173793
88	0x3ce375b3	0.027766084
89	0xbcade4ae	-0.021227207
90	0x3cca8123	0.02471978
91	0xbc1e179c	-0.009649184
92	0xbd339ed3	-0.04385264
93	0xbd26cc36	-0.040722094
94	0xbcb2d5fd	-0.021830553
95	0xbb077808	-0.002067091
96	0xbb293e3e	-0.0025824453
97	0x3d8ff951	0.07029975
98	0xbcc2770a	-0.023738403
99	0x3d775a6c	0.060388967
100	0xbc32f34c	-0.010922264
101	0xbccce1a1	-0.025009932
102	0xbc6a10c0	-0.01428622
103	0x3c7f34b6	0.015576532
104	0x3c630103	0.013855222
105	0xbc259449	-0.010106155
106	0x3b31469e	0.0027050148
107	0xbc9852cf	-0.018594174
108	0xbd5d1a2d	-0.05398004
109	0xbb9e393e	-0.004828601
110	0x3b294390	0.0025827624
111	0x3da79d08	0.08184248
112	0xbcafa686	-0.02144171
113	0xbc5dfdd7	-0.01354929
114	0x3c42b846	0.0118847545
115	0xbc53ea03	-0.012934211
116	0xbc586cad	-0.013209504
117	0xbca59f07	-0.020217432
118	0x3cab5efd	0.020919317
119	0x3d8496b0	0.06474054
120	0xba6dad83	-0.0009066688
121	0xbc1ea5a2	-0.009683045
122	0xbd168a94	-0.036753252
123	0xba2b151f	-0.00065262796
124	0xbc5af933	-0.013365078
125	0x3d0d6876	0.03452345
126	0x3c04e648	0.008111544
127	0xbc4b9f38	-0.012428097
128	0xbd006f8b	-0.031356376
129	0x3d970b36	0.07375185
130	0x3c060881	0.008180738
131	0x3da8a754	0.0823504
132	0x3befe83a	0.0073213847
133	0x3af9d8ab	0.0019061764
134	0x3ccc6df6	0.024954777
135	0xbd1d4dd0	-0.038404286
136	0x3d6691b9	0.056291316
137	0xbb96c3f8	-0.004600998
138	0x3d6722e5	0.056429762
139	0xbc932992	-0.017964158
140	0xbcc93e78	-0.02456592
141	0xbc9e415d	-0.019318277
142	0x3d8a0568	0.067393124
143	0xbc5b3a8d	-0.013380659
144	0x3d91f5c1	0.07126952
145	0x3d87c1e8	0.066287816
146	0xbcce8929	-0.025211887
147	0xbd03ce30	-0.032179058
148	0x3d88d5f6	0.06681435
149	0x3d6674cc	0.05626373
150	0x3cfbb5d5	0.030726353
151	0x3da0c4fd	0.078500725
152	0xbc406316	-0.011742374
153	0xbc548a1b	-0.01297238
154	0xbb17027e	-0.0023042257
155	0x3d8167ed	0.063186504
156	0xbb3b5cb3	-0.0028589189
157	0xbd36d976	-0.04464098
158	0x3d924c6d	0.07143483
159	0xbc411bce	-0.011786414
160	0x3bbe657c	0.0058104377
161	0x3da5d548	0.08097321
162	0xbb9c0d29	-0.004762311
163	0xbcd5f207	-0.026116384
164	0x3c336cfa	0.010951275
165	0x3d790d7c	0.060803875
166	0xbbae3716	-0.0053166253
167	0xbca3c5ab	-0.019991716
168	0xbd683e78	-0.0567002
169	0x3bf5db1e	0.0075029274
170	0x3d35abff	0.04435348
171	0xbd625218	-0.055254072
172	0xbc99367e	-0.018702742
173	0xbd0a602f	-0.033783134
174	0xbd25234b	-0.04031686
175	0xbb962ff1	-0.004583352
176	0xbd08d697	-0.033407774
177	0xbcdd9644	-0.027049191
178	0xba3e79dd	-0.0007266084
179	0xbcbce49c	-0.023058228
180	0x3c1aa507	0.00943876
181	0xbc389b9c	-0.011267569
182	0x3caa29f5	0.02077196
183	0x3cb1eb69	0.021718698
184	0xbc48ee17	-0.012263796
185	0xbcbbabdf	-0.022909103
186	0xbbe1147d	-0.0068688975
187	0xbc8b480d	-0.01700213
188	0x3c3e83a8	0.011628069
189	0xbca9e76f	-0.020740239
190	0x3ce60623	0.028079098
191	0x3d70dca6	0.058804177
192	0x3d837864	0.06419447
193	0x3c9bf47f	0.019037483
194	0x3a47814a	0.0007610513
195	0x3c304a27	0.010759867
196	0x3d12f444	0.03587748
197	0xbab94628	-0.0014135288
198	0x3bb5a698	0.005543541
199	0x3d5fd4f2	0.05464644
200	0xbae657b5	-0.0017573746
201	0xbd01e81f	-0.03171551
202	0xbcb2d861	-0.021831693
203	0x3cc6da4e	0.024274018
204	0x3bece630	0.007229589
205	0xbc88b15e	-0.016686138
206	0xbcab23d5	-0.02089111
207	0x3da85526	0.08219366
208	0x3a33dff9	0.00068616826
209	0x3d85636d	0.065131046
210	0x3da13da0	0.07873082
211	0x3d16223c	0.036653742
212	0x3a8eb8a9	0.0010888773
213	0x3d73ade2	0.059492
214	0xbccaa4ed	-0.024736846
215	0xbd3de7c7	-0.04636362
216	0x3c51dbcf	0.012808754
217	0xbd3c7f27	-0.0460197
218	0xbc8fdb64	-0.017560668
219	0xbc08f26a	-0.008358577
220	0x3d8ae621	0.06782175
221	0x3b29bc42	0.0025899564
222	0xbd59f8ab	-0.053215664
223	0xbb99c7e0	-0.0046930164
224	0xbd21c3b9	-0.039493296
225	0xbcadd893	-0.021221435
226	0x3c8cfaa8	0.017209366
227	0x3c3d83b3	0.011567044
228	0x3c9158be	0.01774251
229	0x3a54df41	0.00081204256
230	0x3d5a482b	0.05329148
231	0xbc8b6ffa	-0.017021168
232	0x3d7b0917	0.061287966
233	0xbc1b01cb	-0.009460877
234	0xbd26ff3f	-0.040770765
235	0x3d58d632	0.052938648
236	0x3da28a06	0.07936482
237	0xbd4d919e	-0.0501877
238	0x3d149eb7	0.036284175
239	0xbcb9d6a3	-0.022685355
240	0xbcc66949	-0.024220126
241	0x3d5d3e34	0.0540144
242	0x3ca232bf	0.019799588
243	0xbc9e60a3	-0.01933319
244	0x3cab72c7	0.020928754
245	0x3d6bdb68	0.05758229
246	0x3d61755a	0.055043556
247	0xb9cab234	-0.00038661214
248	0xbc0557b9	-0.0081385905
249	0xbcaf7a37	-0.021420581
250	0x3c81ee0f	0.015860585
251	0xbc83f305	-0.016107092
252	0x3cc719c2	0.024304274
253	0xbc53374b	-0.012891601
254	0x3d4196ac	0.047262833
255	0xbc61b4ba	-0.013775999

action_model._discrete_distribution.branches.0.bias f4 [4]
0	0xbd84ae35	-0.0647854
1	0x3e054ec7	0.13018332
2	0xbd43e45e	-0.04782521
3	0xbd9688c5	-0.073503055

action_model._discrete_distribution.branches.1.weight f4 [15, 256]
0	0xbc833e57	-0.016020937
1	0xbc8320b4	-0.016006805
2	0x3b507c01	0.0031812193
3	0xbd952ac7	-0.0728355
4	0x3bffcaa6	0.00780614
5	0xbc2afce9	-0.010436275
6	0xbd0022ab	-0.031283062
7	0x3bc2667a	0.0059326263
8	0x3d3899df	0.045068618
9	0x3d8c917f	0.06863689
10	0x3c3843c4	0.011246625
11	0x3d16206c	0.036652014
12	0xbcd4ab7b	-0.025960675
13	0x3d8ac7d6	0.06776397
14	0xbdc22580	-0.09479809
15	0x3d23fb3a	0.04003451
16	0x3b433e41	0.0029791745
17	0xbd0be1ca	-0.034150876
18	0xbd78fbca	-0.060787
19	0xbbd252b0	-0.0064185485
20	0x3b748215	0.003730898
21	0x3c242be9	0.010020235
22	0xba1cd707	-0.00059829693
23	0x3c783e46	0.015151566
24	0xbd813bde	-0.06310247
25	0x3cbf9fce	0.02339163
26	0xbba243a1	-0.0049519097
27	0x3d5c6837	0.053810325
28	0x3c3a87ca	0.011384914
29	0xbc52f8a0	-0.01287666
30	0xbcd295ea	-0.02570625
31	0x3d2f9686	0.04286816
32	0x3be911ca	0.0071127163
33	0xbcc2a45b	-0.023760011
34	0x3dcc7440	0.099831104
35	0x3cec932a	0.028878767
36	0x3c83e77b	0.01610159
37	0xbd5f52b2	-0.054522224
38	0x3d17ec79	0.037090752
39	0xbc8c80f2	-0.01715133
40	0x3cf140c4	0.029449828
41	0xba4d2b0f	-0.00078265456
42	0x3cdfc6d9	0.027316498
43	0xbc8bfad9	-0.017087387
44	0x3a7d2dc0	0.00096580014
45	0xbcc457f3	-0.023967719
46	0xbd920563	-0.07129934
47	0xbcb93fa2	-0.02261335
48	0xbbd76871	-0.0065737297
49	0x3d0e7d64	0.03478755
50	0xbc90eb02	-0.017690185
51	0xbcd479f6	-0.025937062
52	0xbcaf65d7	-0.021410866
53	0xbac55f8e	-0.0015058385
54	0x3c0fbe75	0.008773436
55	0xbd1c60d6	-0.038178287
56	0x3c818b57	0.015813513
57	0x3c1bb62f	0.009503885
58	0xbca29f2a	-0.019851286
59	0x3d8e0ba9	0.06935818
60	0xbdb03df0	-0.08605564
61	0x3ae26f70	0.0017275643
62	0xbccb1e9d	-0.024794871
63	0x3b132094	0.0022449838
64	0xbc4162e2	-0.011803361
65	0xbba09ae1	-0.0049012755
66	0xbcb8f0ac	-0.022575699
67	0xb99fdd33	-0.0003049165
68	0xbbc770ef	-0.006086461
69	0x3cb3ea6d	0.021962369
70	0xbd212065	-0.039337534
71	0x3d320991	0.043466154
72	0x3c7b3561	0.015332551
73	0xbc7c088d	-0.015382898
74	0x3d19c612	0.03754241
75	0x3d3bf51b	0.045888048
76	0x3d459080	0.04823351
77	0xba83fe90	-0.0010070372
78	0x3b0ee4a5	0.0021803763
79	0x3c2a38c2	0.010389509
80	0xbc4dd548	-0.012563057
81	0xbb7ed86d	-0.0038886324
82	0xbcb584ad	-0.022157991
83	0x3ba5dd98	0.0050618164
84	0xbc7599c0	-0.01499027
85	0xbddca1bc	-0.10773036
86	0x3d50f5c7	0.05101564
87	0xbd487030	-0.048935115
88	0x3cf25e9a	0.029586125
89	0x3dabdfd9	0.08392305
90	0xbb101ac4	-0.002198861
91	0x3d3ecac1	0.04658008
92	0xbd13ef40	-0.03611684
93	0xbb194086	-0.0023384406
94	0xbd708c5e	-0.058727615
95	0xbce02fcb	-0.02736654
96	0x3d87b623	0.06626537
97	0xbc56f527	-0.013119972
98	0xbced2da7	-0.028952433
99	0xbc11404a	-0.008865425
100	0xbcc2964e	-0.023753311
101	0x3d02a5a2	0.03189624
102	0xbc4bbfff	-0.012435912
103	0x3dc3e95a	0.09565993
104	0x3ca36b35	0.019948581
105	0x3da4d7fd	0.08049009
106	0x3d20b112	0.039231367
107	0x3b6fb534	0.0036576511
108	0x3c5b8756	0.013398966
109	0x3d457e6b	0.048216265
110	0x3cb7fb1f	0.022458611
111	0x3bf0917c	0.007341562
112	0xbd15b1eb	-0.03654663
113	0xbc82c15f	-0.015961347
114	0xbc60d34e	-0.013722254
115	0xbbc39e5b	-0.005969805
116	0xbcc60a3f	-0.024174808
117	0xbcf45610	-0.029826194
118	0x3c7cf03d	0.015438137
119	0x3c8b4a6b	0.017003259
120	0x3ccf0106	0.025269043
121	0xbd3f6f37	-0.046736922
122	0xba6367b7	-0.00086748175
123	0x3ba8c649	0.0051505906
124	0x3c76e7fa	0.015069956
125	0xbb841d21	-0.0040317927
126	0x3d176773	0.03696389
127	0x3dc49475	0.095986284
128	0xbd0f3939	-0.03496668
129	0xbc284801	-0.010271073
130	0x3c854b1c	0.016271167
131	0xbb9fd15e	-0.0048772534
132	0x3d31e456	0.04343065
133	0xbd810180	-0.06299114
134	0xbdd41730	-0.10355985
135	0x3d42ce47	0.047560003
136	0xbbfc7021	-0.0077037965
137	0x3db76062	0.089539304
138	0x3b701f86	0.0036639883
139	0x3c6e35ae	0.014539165
140	0x3ca1ab18	0.019734904
141	0xbb5c127a	-0.0033580349
142	0x3cc1e824	0.023670264
143	0x3d90f55f	0.07078051
144	0x3bdebbca	0.0067972885
145	0xbc18b984	-0.009321574
146	0x3c299d67	0.010352469
147	0xbe0b8364	-0.1362434
148	0x3ccd176e	0.025035586
149	0x3cade1b5	0.02122579
150	0x3c8aa722	0.016925398
151	0x3c30b87f	0.010786175
152	0x3b06ed72	0.0020588306
153	0xbe04595b	-0.12924711
154	0xbc4d9d71	-0.012549744
155	0xbc9495f2	-0.018137906
156	0xbcb1dafa	-0.021710861
157	0x3c3e8b75	0.011629929
158	0x3b989cbf	0.0046573575
159	0xbd191bed	-0.037380148
160	0x3d1a05e8	0.03760329
161	0x3c61d718	0.0137841925
162	0xbd8d4f2f	-0.06899869
163	0xbbb9c3fc	-0.005669115
164	0x3dda9881	0.10673619
165	0x3c0f8feb	0.00876234
166	0xbcf165d7	-0.029467506
167	0x3c5e445a	0.013566101
168	0xbc00b89d	-0.007856515
169	0x3ddd5def	0.10808932
170	0xb9c57b8a	-0.00037666812
171	0x3c79bf21	0.015243323
172	0xbb99851e	-0.0046850583
173	0xbd075b12	-0.033045836
174	0xbd4edbe5	-0.050502677
175	0x3d639a1d	0.055566896
176	0xbd232707	-0.03983214
177	0xbb9bc171	-0.0047532846
178	0xbb9dfcd2	-0.0048213983
179	0xbd6a59c9	-0.057214532
180	0xbd12b746	-0.035819314
181	0x3d9583c7	0.07300525
182	0x3c7ab98f	0.01530303
183	0x3b936f9c	0.004499389
184	0xbcd24659	-0.02566831
185	0xbd99f6d7	-0.07517784
186	0x3c8d2e34	0.017233945
187	0x3adf2776	0.001702531
188	0x3d234250	0.039858162
189	0x3d779e63	0.060453784
190	0xbdf18124	-0.1179221
191	0x3abd4e41	0.0014442877
192	0xbbb08bdc	-0.0053877663
193	0xbca16b46	-0.019704472
194	0xbd0b1e0b	-0.033964198
195	0x3d8e1d1d	0.06939147
196	0x3d86ecd4	0.0658814
197	0x3d56757f	0.052358147
198	0xbc54d10a	-0.012989292
199	0x3c7459de	0.014914004
200	0x3d344ff1	0.04402155
201	0xbc8d2452	-0.017229233
202	0x3d4e0f1a	0.05030737
203	0x3cf31983	0.02967525
204	0x3c7aebd1	0.015315012
205	0x3d0f7c55	0.03503068
206	0x3d222511	0.03958613
207	0x3b5e27c9	0.0033898226
208	0x3caa6c4c	0.020803593
209	0x3c9c6d25	0.019095013
210	0x39ce8bc6	0.0003939552
211	0xbd2143ad	-0.03937118
212	0xba90e26a	-0.0011053805
213	0x3c4e968b	0.012609134
214	0x3c42560a	0.011861334
215	0xbd9c5de5	-0.076350965
216	0x3a6bdbb5	0.00089972775
217	0xbb8a5d6f	-0.004222564
218	0xbda04e0a	-0.07827385
219	0x3c781ecd	0.015144062
220	0x3c7ca96a	0.015421251
221	0x3de7c685	0.113171615
222	0xbbdd558c	-0.0067545827
223	0x3d00346e	0.0313
224	0xbcd313be	-0.02576625
225	0xb880ac65	-6.1356266e-05
226	0x3cd6e150	0.026230484
227	0xbcd8e9ef	-0.026478736
228	0xbd540a16	-0.05176743
229	0x3d87577a	0.06608482
230	0x3bc5374f	0.006018556
231	0xbce904cb	-0.028444668
232	0xbb9ba759	-0.004750174
233	0xbd0b3593	-0.03398664
234	0xbcece150	-0.028916031
235	0xbbce2160	-0.0062905997
236	0x3b8703a6	0.004120308
237	0x3c0e7988	0.0086959675
238	0x3ab6c8db	0.0013945358
239	0x3d40eb12	0.04709918
240	0xbd4ffdc0	-0.050779104
241	0xbadf08b4	-0.0017016144
242	0x3d4b3793	0.049613547
243	0xbd7d3828	-0.061821133
244	0x3dc54c01	0.09633637
245	0xbc37a5d5	-0.011208971
246	0xbc94cc31	-0.018163772
247	0x3d60f976	0.054925404
248	0x3d27dd0b	0.040982287
249	0xbd0e6d09	-0.034771953
250	0xbba068ac	-0.0048952904
251	0x3d659816	0.056053244
252	0xbcb98417	-0.022645993
253	0x3cfd7507	0.030939592
254	0xbd9e30fe	-0.07724188
255	0xbc147566	-0.009061193

action_model._discrete_distribution.branches.1.bias f4 [15]
0	0xba5466a8	-0.0008102455
1	0xbb99fc12	-0.0046992386
2	0xbc379c7c	-0.011206742
3	0x3c42cbff	0.011889457
4	0xbbe37076	-0.0069408966
5	0xbb81e75a	-0.003964347
6	0x3cbdfe61	0.023192586
7	0xbbd66219	-0.006542456
8	0xbbd09fcb	-0.006366705
9	0x3c9d79d9	0.01922314
10	0xbbbe9c66	-0.005816984
11	0xba5eb3fa	-0.00084954465
12	0xbb969ca8	-0.0045963116
13	0x3b761062	0.0037546386
14	0xbb668241	-0.0035172852
