results/ParticipantRankingsAndAcceptedRankings/AgentBehavior.onnx (onnx, 333671 bytes, 11 tensors)

discrete_act_size_vector f4 [1, 3]
4.0 15.0 15.0
00000000: 0000 8040 0000 7041 0000 7041

network_body._body_endoder.seq_layers.0.weight f4 [256, 30]
0.26471364 0.11068874 0.07384753 0.2547049 0.1849322 -0.10608867 0.16214892 0.1801823
-0.109726466 0.31221735 0.03315142 0.25653622 -0.029456792 -0.06426173 0.31277767 0.116125785
-0.5472454 0.06622159 0.08964873 0.031801485 -0.2075053 -0.15017188 -0.14092347 0.42204818
0.20822965 0.30004358 -0.22879745 0.09102762 -0.03872814 0.12088218 -0.027429957 -0.014735693
0.39195028 0.21220215 -0.011397094 0.11122083 -0.41837838 -0.055085916 0.36369368 0.32353592
0.045568116 0.33342606 0.14667329 0.10840946 0.15625286 -0.13080093 0.085929364 -0.04417581
-0.046551783 -0.06280644 0.01229329 0.064522676 -0.109636314 0.1198388 0.07605295 -0.0054065892
0.18692589 -0.28766185 0.12648295 -0.17498392 -0.09871781 0.09474557 -0.19847819 -0.51645404
-0.35754645 0.24136846 -0.087186754 -0.15825862 -0.21016192 0.056520518 0.045735855 0.033395555
-0.11993459 0.040545195 -0.32788107 -0.2935053 -0.40619972 -0.0011723262 0.21846877 0.03837573
0.02386819 -0.103005275 -0.26726672 -0.2157946 0.10499988 0.198873 0.07352975 0.15142095
0.45753622 -0.15169759 -0.06471335 -0.051294234 0.07865299 -0.02909542 -0.133507 -0.10273898
0.1684837 0.29938912 0.23079199 -0.4146758 -0.038795654 0.036967184 0.14579082 -0.25309238
0.13893533 -0.0080561275 -0.025516719 -0.16948304 0.18649937 0.18734805 0.023808084 0.09567093
-0.2240417 -0.28128186 -0.029727535 -0.23189244 0.3343139 -0.16335587 0.20633689 -0.29587832
-0.16871105 0.20233189 0.08024418 -0.023556674 0.3078192 0.059604652 -0.08029341 -0.035001986
-0.05522837 0.29168886 0.04952758 -0.16262397 0.026316492 0.45007414 0.2870181 0.12939724
0.16880618 0.19735426 0.06507749 -0.1964357 -0.20516281 -0.044980016 0.133691 -0.0013229881
-0.009550557 -0.1324868 0.085063 -0.06566551 -0.19601245 0.20680861 -0.16419385 0.012398538
0.31577876 0.1845196 0.54235995 -0.034480684 -0.012113394 0.2544073 0.085685655 -0.04366575
0.10021151 -0.039047867 -0.10760734 0.16712372 0.22727996 0.23193246 -0.034881193 0.14480785
-0.08663636 -0.13892542 -0.078511626 -0.23528838 0.012218095 0.035975654 -0.0049072606 -0.10644072
-0.25021827 0.1118154 0.045393497 -0.12043154 0.015528656 -0.27620375 -0.03335895 0.16524014
0.21952857 -0.038381886 0.21684675 -0.17542261 -0.09078548 0.07421014 0.007268093 0.1468844
0.36818278 0.19380707 0.30955786 0.14320432 -0.20174338 0.002827204 0.02094412 0.005994192
0.3518052 -0.107179895 -0.19857082 -0.17843221 0.119711615 -0.034161393 0.29387024 -0.15119484
0.19774805 -0.5138849 -0.17291862 -0.20305035 -0.29915798 -0.011325273 -0.12631203 -0.08323089
-0.171603 -0.2520533 0.043547705 -0.2146164 -0.29344335 0.06196899 0.24969159 -0.28278187
-0.29454756 0.15212333 -0.19869049 0.057008147 0.056092117 0.073740415 -0.083944194 -0.30220553
0.0721786 0.40590543 0.15525314 -0.22579436 -0.1600713 0.14124094 0.18428363 -0.23851512
-0.013587806 -0.028552167 0.0059379092 0.008792463 -0.22518043 0.05595971 0.20202954 0.05989061
0.33099362 0.24002667 -0.16446692 0.12761445 0.14641063 0.16403945 -0.08136235 0.048948877
00000000: 8c88 873e c7b0 e23d 603d 973d ae68 823e
00000010: de5e 3d3e 0445 d9bd 5e0a 263e b581 383e
00000020: 45b8 e0bd f4da 9f3e c9c9 073d b758 833e
00000030: 5f4f f1bc a79b 83bd 6524 a03e 5bd3 ed3d
00000040: 4618 0cbf 2f9f 873d c199 b73d 4642 023d
00000050: 457c 54be a8c6 19be 3e4e 10be b316 d83e
00000060: 273a 553e 509f 993e e149 6abe b06c ba3d
00000070: 66a1 1ebd 1491 f73d cab4 e0bc fa6d 71bc
00000080: b5ad c83e 854b 593e e0ba 3abc bfc7 e33d
00000090: b135 d6be c5a1 61bd 0f36 ba3e 80a6 a53e
000000a0: a2a5 3a3d d2b6 aa3e 8631 163e c705 de3d
000000b0: c000 203e aef0 05be bcfb af3d b2f1 34bd
000000c0: 15ad 3ebd aaa0 80bd cc69 493c 7724 843d
000000d0: 0189 e0bd 0b6e f53d a6c1 9b3d c229 b1bb
000000e0: 8069 3f3e 6a48 93be bf84 013e fc2e 33be
000000f0: 902c cabd f709 c23d de3d 4bbe 5536 04bf
00000100: 5410 b7be 4b29 773e f88e b2bd 8c0e 22be
00000110: b034 57be 0f82 673d 8555 3b3d c7c9 083d
00000120: 44a0 f5bd b812 263d 07e0 a7be 5446 96be
00000130: 69f9 cfbe bda8 99ba 47b6 5f3e df2f 1d3d
00000140: 3987 c33c 6ef4 d2bd 2fd7 88be 42f9 5cbe
00000150: 2d0a d73d 5da5 4b3e c496 963d 180e 1b3e
00000160: 3042 ea3e 9d56 1bbe 6f88 84bd e719 52bd
00000170: d214 a13d 8559 eebc 0fb6 08be d068 d2bd
00000180: fe86 2c3e 8849 993e bc54 6c3e 6350 d4be
00000190: 31e8 1ebd e76a 173d 304a 153e 5395 81be
000001a0: 1045 0e3e d9fd 03bc 7008 d1bc f68c 2dbe
000001b0: b1f9 3e3e 2bd8 3f3e 2c09 c33c 1fef c33d
000001c0: 306b 65be 2d04 90be 2987 f3bc 3675 6dbe
000001d0: 312b ab3e c346 27be fa49 533e 5d7d 97be
000001e0: 97c2 2cbe 1730 4f3e 1057 a43d edf9 c0bc
000001f0: 7a9a 9d3e 0224 743d df70 a4bd 3e5e 0fbd
00000200: 2537 62bd 3e58 953e 6fdd 4a3d e686 26be
00000210: af95 d73c 1e70 e63e 09f4 923e b680 043e
00000220: 87db 2c3e 3c17 4a3e 5947 853d 7126 49be
00000230: 3316 52be f73c 38bd 4be6 083e 1d68 adba
00000240: f079 1cbc 9faa 07be 8335 ae3d a47b 86bd
00000250: 7db7 48be a3c5 533e 6f22 28be 3d23 4b3c
00000260: c1ad a13e b5f2 3c3e 1ad8 0a3f 9e3b 0dbd
00000270: 4277 46bc ac41 823e f67b af3d dcda 32bd
00000280: b13b cd3d a8f0 1fbd 3d61 dcbd 7b22 2b3e
00000290: 14bc 683e b47f 6d3e 95df 0ebd 8248 143e
000002a0: 676e b1bd 7742 0ebe b4ca a0bd 70ef 70be
000002b0: 682e 483c 355b 133d 16cd a0bb 98fd d9bd
000002c0: 9c1c 80be 79ff e43d 88ee 393d d0a4 f6bd
000002d0: e76b 7e3c 946a 8dbe 65a3 08bd b634 293e
000002e0: 19cc 603e 5336 1dbd 130d 5e3e fca1 33be
000002f0: bded b9bd 7cfb 973d 2f29 ee3b dd68 163e
00000300: 7482 bc3e 5c75 463e 5e7e 9e3e 27a4 123e
00000310: d195 4ebe 9d48 393b 0193 ab3c ed6a c43b
00000320: d01f b43e 2281 dbbd 2656 4bbe efb6 36be
00000330: 5d2b f53d d1ec 0bbd 2976 963e d2d2 1abe
00000340: 777e 4a3e f68d 03bf 9411 31be 6eec 4fbe
00000350: 3c2b 99be a38d 39bc f157 01be f574 aabd
00000360: b2b8 2fbe 210d 81be 145f 323d 67c4 5bbe
00000370: 353e 96be 32d3 7d3d 27af 7f3e c9c8 90be
00000380: f0ce 96be 38c6 1b3e 8575 4bbe 6081 693d
00000390: d9c0 653d 3705 973d efea abbd afba 9abe
000003a0: 60d2 933d d6d2 cf3e aefa 1e3e a336 67be
000003b0: bbe9 23be 77a1 103e d9b4 3c3e 4f3d 74be
000003c0: 649f 5ebc 3ce6 e9bc cb92 c23b 430e 103c
000003d0: b395 66be 0236 653d d5e0 4e3e db4f 753d
000003e0: ff77 a93e 8dc9 753e 046a 28be 5dad 023e
000003f0: abec 153e f5f9 273e 4ea1 a6bd 9e7e 483d

network_body._body_endoder.seq_layers.0.bias f4 [256]
0.01544368 0.053042367 0.024379734 0.052825883 -0.009140542 0.057079524 0.046732266 0.026204458
0.018388107 0.01587441 -0.038205754 0.0045135724 0.040803943 -0.0352133 0.015974525 0.015039732
-0.060655814 0.031269807 -0.03612159 -0.022045307 0.023987602 0.050558712 -0.05548086 0.035203915
0.03239518 -0.08252313 -0.023363253 -0.059319537 0.018629303 0.007927739 0.013963926 0.031433515
-0.00617613 0.005338355 -0.0026593145 -0.017351396 -0.046587836 -0.02473032 0.025819391 -0.015939329
0.037233263 -0.028322471 0.010951746 0.026462847 -0.07710718 0.044759415 0.06471878 0.021122638
0.080981076 -0.07355817 0.012983832 -0.043811467 0.04485102 0.07730523 0.010078551 0.026847648
0.04182908 -0.034261525 0.043350134 0.021378202 0.033462014 -0.0006861828 -0.018178748 0.033053752
0.026073813 0.0141883865 0.034782212 -0.018218104 -0.029836332 0.019880757 -0.026108349 -0.047632337
0.017013134 0.013811257 0.025330484 -0.0320306 0.05413158 -0.032053784 0.049030382 0.007406343
-0.0198629 0.016800607 0.05330167 0.0097254915 0.057705782 -0.0374125 -0.021048263 0.04401084
-0.03448295 -0.014513894 0.078982614 -0.0065472443 0.001399321 -0.05140187 0.06251044 0.109602906
0.02817614 0.009635041 -0.023434615 -0.0020179898 0.047752317 0.039184183 -0.025517644 0.07229749
0.021030206 -0.00030434175 -0.041836478 -0.01416901 -0.01843569 -0.022947203 -0.010943342 0.016955301
0.102235414 0.00315537 0.012262499 0.023569627 -0.041619238 -0.01191623 0.028888037 0.004393183
-0.009574631 -0.0028405287 0.013933073 0.019987892 0.022808837 -0.0077555766 -0.05230113 0.025354313
-0.02921747 0.015264436 -0.035185162 0.041685108 0.016621098 -0.04174538 0.061821993 0.032646835
0.025406854 -0.039439887 0.0057611265 -0.024114946 -0.025597764 0.008373055 0.008530272 -0.014462051
-0.018190665 -0.0146615915 -0.0055873017 -0.0024049794 0.029699529 0.0056752423 -0.014955608 0.03654668
-0.028573375 -0.0011718442 -0.023406211 0.08376606 0.010257277 0.07055532 0.005140736 -0.009179907
-0.027613437 0.033244357 -0.014873327 -0.02174528 -0.047939602 0.03357098 -0.03059242 0.020381419
-0.11671198 -0.004305679 -0.016292319 -0.0040727346 0.06509169 0.005101525 0.0631633 -0.017157014
-0.028697943 -0.039655868 0.002600771 0.013805934 -0.022120781 0.0447872 0.08552138 0.065485016
-6.171501e-05 0.06673705 -0.008887458 0.051848084 0.035623476 0.031556338 -0.005422027 0.0058921175
-0.018656053 0.093182206 0.0064095343 0.017366506 0.04018699 -0.09718802 -0.0014711622 -0.015536551
-0.03389047 0.06810611 0.010193401 0.049138244 0.05053483 0.053163283 -0.019284112 -0.01606704
0.040278375 0.008441989 0.055518534 0.07934335 0.031673767 -0.022709409 -0.0013892673 0.019733284
0.05394905 0.035603322 0.0025313825 0.015719634 0.03781753 -0.045689926 -0.008962319 0.027675336
0.04011382 0.08568785 0.043697845 -0.027684906 -0.0089657055 -0.051665653 -0.031841867 0.012207009
0.08114403 0.03398011 0.011858929 0.012423425 0.03196905 0.011503321 -0.018949777 0.009572863
0.08644619 -0.01090516 -0.04366324 -0.050263364 0.08553048 -0.017508741 0.01057697 -0.07182893
0.040049434 0.07772739 0.06652971 -0.023002665 -0.0014077266 0.029837914 0.021090794 0.03515978
00000000: 7d07 7d3c f442 593d 02b8 c73c f45f 583d
00000010: 36c2 15bc 38cc 693d 556a 3f3d bbaa d63c
00000020: a8a2 963c 0d0b 823c a37d 1cbd 97e6 933b
00000030: 0922 273d d23b 10bd 02dd 823c 3569 763c
00000040: 3b72 78bd c514 003d 3bf4 13bd 5c98 b4bc
00000050: a681 c43c a716 4f3d e63f 63bd fb31 103d
00000060: cfb0 043d e301 a9bd 4b64 bfbc 0bf9 72bd
00000070: 7b9c 983c 59e3 013c f3c8 643c 6ec0 003d
00000080: 2261 cabb 5eed ae3b e547 2ebb 8424 8ebc
00000090: e3d2 3ebd 3d97 cabc 3083 d33c 3293 82bc
000000a0: e881 183d 8704 e8bc f46e 333c 9dc8 d83c
000000b0: 5fea 9dbd a655 373d 488b 843d 6209 ad3c
000000c0: 68d9 a53d aaa5 96bd 23ba 543c a773 33bd
000000d0: b4b5 373d 3452 9e3d 8220 253c 99ef db3c
000000e0: f854 2b3d d055 0cbd e98f 313d 5721 af3c
000000f0: 770f 093d f3e0 33ba 99eb 94bc 5f63 073d
00000100: c098 d53c 6876 683c cb77 0e3d 223e 95bc
00000110: 536b f4bc f8dc a23c 2de1 d5bc 201a 43bd
00000120: 215f 8b3c 9c48 623c e081 cf3c 8532 03bd
00000130: 13b9 5d3d d44a 03bd 15d4 483d e8b0 f23b
00000140: 85b7 a2bc 6da1 893c da52 5a3d ab57 1f3c
00000150: e65c 6c3d d93d 19bd 686d acbc b644 343d
00000160: fe3d 0dbd afcb 6dbc a3c1 a13d 448a d6bb
00000170: 6c69 b73a c48a 52bd 7905 803d 7d77 e03d
00000180: a6d1 e63c 4adc 1d3c f3f9 bfbc 4040 04bb
00000190: ef97 433d 987f 203d 610a d1bc b510 943d
000001a0: 8a47 ac3c 0f90 9fb9 ba5c 2bbd 2325 68bc
000001b0: 7206 97bc c6fb bbbc b44b 33bc d8e5 8a3c
000001c0: cd60 d13d 53ca 4e3b a6e8 483c 1715 c13c
000001d0: ef78 2abd 4b3c 43bc 9ba6 ec3c b1f4 8f3b
000001e0: eade 1cbc 2a28 3abb 8b47 643c a6bd a33c
000001f0: 99d9 ba3c 7e22 febb b639 56bd d9b3 cf3c
00000200: 7a59 efbc af17 7a3c 511e 10bd 01be 2a3d
00000210: f828 883c 34fd 2abd 0f39 7d3d b0b8 053d
00000220: 0922 d03c b88b 21bd d5c7 bc3b b58c c5bc
00000230: 67b2 d1bc 232f 093c 8ec2 0b3c 3df2 6cbc
00000240: 9704 95bc 2c37 70bc af15 b7bb dc9c 1dbb
00000250: 6d4c f33c 62f7 b93b 5e08 75bc f9b1 153d
00000260: b612 eabc 9198 99ba 62be bfbc 8a8d ab3d
00000270: 230e 283c 4f7f 903d 9e73 a83b 5267 16bc
00000280: 9335 e2bc 3c2b 083d 41af 73bc 2823 b2bc
00000290: 515c 44bd b981 093d f49c fabc eff6 a63c
000002a0: b106 efbd a716 8dbb 7877 85bc 9374 85bb
000002b0: cb4e 853d b22a a73b c35b 813d de8c 8cbc
000002c0: f317 ebbc 316e 22bd b271 2a3b 4932 623c
000002d0: a436 b5bc c872 373d d525 af3d 021d 863d
000002e0: fe6c 81b8 6fad 883d b39c 11bc a85e 543d
000002f0: ece9 113d 3841 013d 42ab b1bb aa12 c13b
00000300: 94d4 98bc 50d6 be3d 1207 d23b 3444 8e3c
00000310: 1d9b 243d 830a c7bd 03d4 c0ba 058d 7ebc
00000320: bcd0 0abd 377b 8b3d 3902 273c 2f45 493d
00000330: 9cfd 4e3d bec1 593d b7f9 9dbc 069f 83bc
00000340: f0fa 243d 4550 0a3c 6767 633d c47e a23d
00000350: 5abc 013d 1509 babc 1318 b6ba b2a7 a13c
00000360: aef9 5c3d cad4 113d 8de5 253b 76c6 803c
00000370: 8ee6 1a3d 5c25 3bbd b1d6 12bc 63b7 e23c
00000380: 644e 243d 1d7d af3d 83fc 323d 75cb e2bc
00000390: e5e4 12bc 5d9f 53bd 9e6c 02bd e8ff 473c
000003a0: d72e a63d ba2e 0b3d f44b 423c 9f8b 4b3c
000003b0: fbf1 023d 6d78 3c3c 903c 9bbc 7fd7 1c3c
000003c0: b30a b13d 8eab 32bc 3ad8 32bd f5e0 4dbd
000003d0: 9b2a af3d 7e6e 8fbc 074b 2d3c 0c1b 93bd
000003e0: e00a 243d 8a2f 9f3d bb40 883d 1670 bcbc
000003f0: 7783 b8ba a46e f43c 9ac6 ac3c b403 103d

network_body._body_endoder.seq_layers.2.weight f4 [256, 256]
0.04568851 0.08279644 -0.09455858 -0.10483374 -0.027773712 0.07070494 0.09641838 -0.0629725
-0.040062763 0.1771369 0.051737186 -0.038472086 -0.07153442 0.009966824 0.0062478557 -0.0804271
-0.05764917 -0.075692356 -0.014673045 -0.05117146 0.098276764 -0.050064728 -0.0751986 0.051646937
0.047091633 -0.080282696 0.07131349 -0.0039742505 0.08877903 -0.008021909 -0.013143383 0.050155777
-0.08086477 -0.036637265 0.10515797 -0.008563725 -0.009578466 0.00230809 -0.011948358 0.035986822
0.0067205997 -0.06838666 0.046209678 0.05245717 0.049260207 0.041111007 0.027125785 0.016975092
-0.0042872513 0.0630087 -0.1451521 0.15182596 -0.07981448 -0.0019638746 0.1166166 0.042591907
0.11249407 -0.051975835 0.030308563 0.049581505 -0.0053748605 0.0061648698 0.010529491 -0.07055317
-0.04689842 -0.0491057 0.06236121 0.02557635 -0.013390422 -0.02273742 -0.085907616 -0.050495405
0.033406716 0.13218899 0.045625288 0.148319 -0.18109709 -0.10920432 0.06582213 -0.040741477
0.044971075 0.058929577 0.041479006 -0.072401814 -0.0027335032 -0.07018859 -0.17097726 -0.016406018
0.066827156 -0.078795984 -0.025792316 0.06422096 0.08347927 0.06272893 0.11540568 0.08525487
-0.07291087 -0.054089103 -0.039517384 0.04205729 0.017636787 0.16042297 -0.006472098 0.060360223
-0.06629967 0.100068375 0.040608432 0.010437741 -0.04347063 0.07874078 -0.042439625 0.1363991
0.013214695 0.08422517 -0.123434916 -0.038562443 -0.1639956 0.04836721 0.07090274 0.03242384
0.08569332 -0.073688895 0.032633536 -0.09660387 0.031776227 -0.011422298 -0.048435036 -0.094163604
0.059608113 -0.028944127 0.07002565 0.02470338 0.0035203611 -0.023207793 0.0353757 -0.007096936
-0.061180323 -0.020484226 0.0521623 -0.068884045 -0.036880184 0.0030749608 0.01811269 -0.1022625
-0.030223593 -0.03396242 0.07392224 0.09583299 0.073538564 0.019702008 -0.0178007 -0.056696836
-0.057161417 0.08147446 0.010328106 0.042820882 -0.053997178 0.035714254 0.014251058 0.13231395
0.04716721 -0.009228267 0.061388046 -0.039952014 -0.052885514 0.0066216835 -0.07392513 -0.012426577
-0.005459905 -0.03590119 -0.034240432 -0.054381203 0.068104215 0.052291203 0.06377124 0.15723069
0.018953707 -0.059943184 0.02291962 0.04568088 0.003929629 -0.030230472 0.09142204 0.063662186
0.00715353 0.07724262 -0.004542413 -0.06832838 0.091024175 0.059288684 -0.03028094 0.08866084
-0.03388551 -0.056550805 0.16191572 0.04672867 -0.07098651 -0.016200272 0.07757025 -0.062183984
0.026617615 0.02118731 -0.11294394 0.021427978 -0.03353893 -0.046337083 0.028650135 -0.08281377
0.000719484 0.030580088 -0.03128365 0.057287462 -0.058508888 0.02025679 -0.032001898 0.011177243
0.08400591 -0.045382623 0.18309456 -0.07439465 0.17375426 -0.025905143 0.064420596 0.045047764
0.007828811 0.13627476 0.028672108 -0.023168473 -0.0070414897 -0.03941251 -0.001320747 -0.11566447
0.09120214 -0.005696747 -0.05275045 0.010723978 0.048118483 -0.088674664 -0.029404853 -0.06385943
0.20495424 -0.02870392 0.07461243 -0.06353183 0.00020871546 -0.0024045776 0.07256593 -0.008217409
0.027080214 -0.03792678 -0.028923137 0.07153898 0.07083319 -0.06855028 0.057008404 0.017799437
00000000: e023 3b3d 2e91 a93d eea7 c1bd 12b3 d6bd
00000010: b285 e3bc c0cd 903d 0077 c53d baf7 80bd
00000020: da18 24bd 6063 353e 5fea 533d e894 1dbd
00000030: a380 92bd e44b 233c d0ba cc3b f7b6 a4bd
00000040: 8921 6cbd 9804 9bbd 3667 70bc 2a99 51bd
00000050: 5445 c93d ac10 4dbd b901 9abd bd8b 533d
00000060: 28e3 403d 416b a4bd cf0c 923d 6e3a 82bb
00000070: c8d1 b53d 536e 03bc 5857 57bc 2570 4d3d
00000080: 6e9c a5bd f510 16bd 105d d73d de4e 0cbc
00000090: 00ef 1cbc 5343 173b 0cc3 43bc eb66 133d
000000a0: 7a38 dc3b 4e0e 8cbd 5c46 3d3d 54dd 563d
000000b0: 12c5 493d 0464 283d e536 de3c 590f 8b3c
000000c0: 127c 8cbb b50a 813d c1a2 14be 4478 1b3e
000000d0: c675 a3bd 59b4 00bb afd4 ee3d da74 2e3d
000000e0: 4a63 e63d 9de4 54bd aa49 f83c fa15 4b3d
000000f0: 991f b0bb ad02 ca3b e383 2c3c 2e7e 90bd
00000100: 8f18 40bd 0f23 49bd 786e 7f3d 7e85 d13c
00000110: 8063 5bbc d343 babc 55f0 afbd 45d4 4ebd
00000120: 7bd5 083d 8d5c 073e 95e1 3a3d f0e0 173e
00000130: 8471 39be 84a6 dfbd c1cd 863d 89e0 26bd
00000140: 9733 383d 2460 713d e4e5 293d 6747 94bd
00000150: 9324 33bb 09bf 8fbd aa14 2fbe ea65 86bc
00000160: addc 883d ca5f a1bd 684a d3bc 4786 833d
00000170: 2ef7 aa3d 0678 803d d059 ec3d 1b9a ae3d
00000180: 4b52 95bd 898c 5dbd fbdc 21bd 4444 2c3d
00000190: 067b 903c eb45 243e e513 d4bb 483c 773d
000001a0: 1fc8 87bd a6f0 cc3d 0755 263d 0f03 2b3c
000001b0: 420e 32bd d942 a13d 2cd5 2dbd 35ac 0b3e
000001c0: 7382 583c 3f7e ac3d 72cb fcbd a7f3 1dbd
000001d0: 76ee 27be b21c 463d 7535 913d dcce 043d
000001e0: fb7f af3d 34ea 96bd beaa 053d 40d8 c5bd
000001f0: ca27 023d 9724 3bbc d163 46bd d9d8 c0bd
00000200: a327 743d 3c1c edbc 9c69 8f3d be5e ca3c
00000210: dcb5 663b 451e bebc 1ce6 103d 6a8d e8bb
00000220: 3898 7abd 89ce a7bc 23a8 553d 1413 8dbd
00000230: ad0f 17bd 4885 493b 1061 943c 006f d1bd
00000240: 7897 f7bc 2e1c 0bbd 8b64 973d 1644 c43d
00000250: 639b 963d 1b66 a13c c6d2 91bc f13a 68bd
00000260: 1722 6abd 15dc a63d 3737 293c f364 2f3d
00000270: 252c 5dbd 1c49 123d 457d 693c 4f7d 073e
00000280: 6832 413d 2832 17bc 0872 7b3d b9a4 23bd
00000290: 7b9e 58bd b5fa d83b 0f66 97bd d798 4bbc
000002a0: 01e9 b2bb 200d 13bd b23f 0cbd d3be 5ebd
000002b0: 397a 8b3d 4d2f 563d 7f9a 823d 1501 213e
000002c0: ce44 9b3c fc86 75bd edc1 bb3c e01b 3b3d
000002d0: 1ec4 803b e5a5 f7bc 7a3b bb3d 5261 823d
000002e0: 2968 ea3b 6131 9e3d 86d8 94bb c0ef 8bbd
000002f0: e26a ba3d b1d8 723d bc0f f8bc d193 b53d
00000300: 88cb 0abd d1a1 67bd 3ccd 253e 9066 3f3d
00000310: 6061 91bd 6fb6 84bc 27dd 9e3d a2b4 7ebd
00000320: 2f0d da3c 0291 ad3c 274f e7bd ba89 af3c
00000330: 1e60 09bd f4cb 3dbd b0b3 ea3c 449a a9bd
00000340: c19b 3c3a 1883 fa3c 4923 00bd 42a6 6a3d
00000350: 04a7 6fbd 91f1 a53c 6c14 03bd c120 373c
00000360: 4a0b ac3d 21e3 39bd 247d 3b3e 395c 98bd
00000370: a3ec 313e 0637 d4bc f2ee 833d 0184 383d
00000380: 6a44 003c 9c8b 0b3e c5e1 ea3c cfcb bdbc
00000390: 4cbc e6bb 036f 21bd ea1c adba 7ee1 ecbd
000003a0: 30c8 ba3d c7ab babb db10 58bd a0b3 2f3c
000003b0: e317 453d 109b b5bd 72e2 f0bc bcc8 82bd
000003c0: 86df 513e 7c24 ebbc 67ce 983d fa1c 82bd
000003d0: a1da 5a39 1e96 1dbb 729d 943d 50a2 06bc
000003e0: 53d7 dd3c 1c59 1bbd 37f0 ecbc 0783 923d
000003f0: fe10 913d 1764 8cbd a581 693d 20d0 913c

network_body._body_endoder.seq_layers.2.bias f4 [256]
0.026273698 -0.027943222 0.012245255 -0.0056419554 -0.015216105 0.0268968 -0.022540532 0.019347657
-0.0005485377 0.03187318 -0.0047182064 0.017282613 -0.011061787 0.002260764 0.017694175 0.040877935
0.0445506 -0.013485974 0.0070857583 0.016513485 -0.0013357102 -0.021302773 -0.014435637 -0.037035078
0.0034195888 0.03777712 -0.004939523 -0.030120727 0.025115103 -0.025527595 0.021320373 -0.0061844955
0.018860113 -0.041612737 0.032596447 0.02347355 0.021899108 -0.0031080472 -0.03801419 0.021333769
0.0007898671 0.018062226 -0.049709726 -0.022776248 0.03192458 -0.011782146 0.032086913 -0.027254717
-0.028952355 0.02684294 -0.03659444 -0.02431322 -0.0030038327 -0.040503792 0.034729403 -0.00017785277
-0.0054433635 0.0332085 -0.040884655 -0.02150485 -0.019015225 -0.026330065 0.028761169 -0.008597356
0.030692818 0.044038296 0.0011482969 -0.0066382787 -0.012189515 -0.0237816 0.0011647437 -0.012111188
-0.0034796877 -0.028051224 0.0008307833 0.038170617 0.009007801 0.004606897 0.04654837 0.01663306
-0.03630185 0.022637093 -0.005015979 -0.04282519 -0.016428404 0.060318157 -0.022058256 0.029987242
0.045882914 -0.008870555 -0.03167644 0.01097605 0.011079734 -0.034035303 -0.010290374 0.0494846
0.024363814 -0.021754747 0.012245334 0.033962317 0.032786805 0.030429775 0.018448157 -0.029804198
0.027868366 0.025805049 0.0022230614 0.01756838 -0.00062336377 -0.008081618 0.011943184 -0.007871779
-0.022482734 0.036382355 -0.02676922 -0.03486071 0.007764043 0.022947123 -0.010241248 -0.0015385246
0.0144823445 -0.0040017087 -0.012699314 0.019383151 0.053601716 0.03835473 0.021065265 0.015715092
0.04053408 0.016325973 0.016360782 -0.018491535 0.030189209 -0.006908641 -0.0035609498 -0.025336249
0.013411278 -0.010485766 -0.026110156 -0.035377294 0.042157445 0.017226271 0.026288606 0.017038457
0.024530254 -0.018884685 0.0089280335 -0.0023700912 0.027055526 -0.017180145 -0.027822316 -0.010910449
-0.018530823 0.02797533 0.001628436 -0.024014592 0.0053285733 -0.03489416 0.019657072 -0.0052624797
-0.005012955 -0.036108978 -0.009510178 0.01865691 0.0015263754 -0.035097368 -0.033059247 -0.019490061
-0.0017430617 0.05430965 0.020705404 0.021467865 0.041993894 0.013580291 -0.035213046 -0.00060451013
-0.01758545 0.020957617 0.018590732 0.024081567 -0.01715609 0.036535785 0.021156522 0.019998217
0.04081151 0.029336937 0.03056695 0.016404621 -0.037036613 -0.0395694 -0.020030703 -0.008138656
0.0023812042 0.007928159 0.00548485 0.027468234 0.011841744 0.038161993 0.008873934 -0.028440028
0.03892044 0.02466053 -0.042616062 0.052671183 0.028130583 -0.004227676 -0.0008167193 -0.0027484517
0.009760363 0.01674081 0.02245165 -0.002420858 -0.031659532 -0.01049955 0.00033526367 0.025501251
0.01611851 0.027083447 -0.025974074 -0.020835629 -0.01678331 -0.011072947 -0.015421613 0.024836298
0.006645715 0.03548835 -0.031335145 0.04019719 0.006846204 -0.006235085 0.010924696 -0.023280116
0.029702842 -0.029063094 0.005380282 0.01592154 0.016220238 0.0007467058 0.03703558 -0.028025512
-0.03174165 0.0059357416 0.030233243 -9.825686e-05 -0.015590785 0.02895397 -0.017934328 -0.03039459
0.037491433 -0.002991521 0.005048648 -0.021310098 0.011761333 0.030719517 0.03731008 -0.0007703952
00000000: f03b d73c 2fe9 e4bc 52a0 483c 27e0 b8bb
00000010: f84c 79bc ae56 dc3c eca6 b8bc fa7e 9e3c
00000020: becb 0fba 748d 023d 2f9b 9abb 4494 8d3c
00000030: 7f3c 35bc 5329 143b 60f3 903c 9f6f 273d
00000040: b17a 363d 46f4 5cbc a62f e83b 4a47 873c
00000050: ff12 afba 2783 aebc 7383 6cbc 18b2 17bd
00000060: 2e1b 603b 2ebc 1a3d b9db a1bb bebf f6bc
00000070: 30be cd3c 3f1f d1bc 10a8 ae3c 4fa7 cabb
00000080: 8680 9a3c 1e72 2abd da83 053d 9a4b c03c
00000090: c265 b33c 61b0 4bbb c4b4 1bbd 28c4 ae3c
000000a0: 150f 4f3a 3cf7 933c 6d9c 4bbd 4195 babc
000000b0: 59c3 023d e709 41bc 916d 033d 4945 dfbc
000000c0: 7d2d edbc bae5 db3c 0de4 15bd 852c c7bc
000000d0: f3db 44bb 4ee7 25bd 6b40 0e3d fd7d 3ab9
000000e0: 3e5e b2bb a305 083d ab76 27bd f02a b0bc
000000f0: d1c5 9bbc 26b2 d7bc 8b9c eb3c eddb 0cbc
00000100: 816f fb3c 8061 343d 7382 963a eb85 d9bb
00000110: 88b6 47bc a1d1 c2bc 50aa 983a 016e 46bc
00000120: 790b 64bb aecb e5bc ecc8 593a cb58 1c3d
00000130: 7595 133c 74f5 963b 81a9 3e3d 0e42 883c
00000140: 40b1 14bd 6d71 b93c 155d a4bb 7769 2fbd
00000150: dc94 86bc 2c10 773d 84b3 b4bc cea7 f53c
00000160: b9ef 3b3d ce55 11bc 28bf 01bd e4d4 333c
00000170: c687 353c 9a68 0bbd f598 28bc 5db0 4a3d
00000180: 9f96 c73c 0337 b2bc a7a0 483c 121c 0b3d
00000190: 754b 063d dd47 f93c 9720 973c ef27 f4bc
000001a0: 334c e43c 1c65 d33c c8b0 113b 90eb 8f3c
000001b0: 3c69 23ba c368 04bc 58ad 433c a2f8 00bc
000001c0: b62d b8bc aa05 153d 204b dbbc 1bca 0ebd
000001d0: 8369 fe3b 9bfb bb3c e8ca 27bc 52a8 c9ba
000001e0: 5b47 6d3c c420 83bb c910 50bc 6ac9 9e3c
000001f0: 798d 5b3d d919 1d3d 1091 ac3c f0bc 803c
00000200: 1007 263d 0cbe 853c 0c07 863c 8f7b 97bc
00000210: 5c4f f73c e261 e2bb d35e 69bb f78d cfbc
00000220: faba 5b3c 7ecc 2bbc f7e4 d5bc c8e7 10bd
00000230: 49ad 2c3d 1c1e 8d3c 345b d73c 3c94 8b3c
00000240: acf3 c83c 0eb4 9abc e346 123c 8853 1bbb
00000250: 8da3 dd3c 60bd 8cbc a0eb e3bc bdc1 32bc
00000260: f4cd 97bc 852c e53c 3f71 d53a 40ba c4bc
00000270: 509b ae3b 2eed 0ebd de07 a13c e170 acbb
00000280: b743 a4bb 02e7 13bd 94d0 1bbc 60d6 983c
00000290: a910 c83a 42c2 0fbd 2269 07bd 9fa9 9fbc
000002a0: 7277 e4ba cc73 5e3d 619e a93c 60dd af3c
000002b0: ca01 2c3d de7f 5e3c 8e3b 10bd fd77 1eba
000002c0: 5d0f 90bc 4faf ab3c 974b 983c b546 c53c
000002d0: ee8a 8cbc 8ca6 153d 7150 ad3c 4dd3 a33c
000002e0: f829 273d 0454 f03c 8a67 fa3c fc62 863c
000002f0: b4b3 17bd 8613 22bd 6e17 a4bc ff57 05bc
00000300: fa0d 1c3b 1ce5 013c 42ba b33b 1005 e13c
00000310: e003 423c c04f 1c3d fa63 113c 10fb e8bc
00000320: 0a6b 1f3d e104 ca3c 2e8e 2ebd bdbd 573d
00000330: 1c72 e63c 5188 8abb 1b19 56ba 5e1f 34bb
00000340: eee9 1f3c 0624 893c 86ec b73c 42a7 1ebb
00000350: 6dad 01bd 4e06 2cbc 54c6 af39 00e8 d03c
00000360: f70a 843c 1bde dd3c 95c7 d4bc 7baf aabc
00000370: 277d 89bc 4e6b 35bc efaa 7cbc 7e75 cb3c
00000380: 4cc4 d93b 3b5c 113d 4859 00bd cfa5 243d
00000390: 1f56 e03b af4f ccbb 7ffd 323c f1b5 bebc
000003a0: 6053 f33c ba15 eebc 144d b03b e46d 823c
000003b0: 4ee0 843c 94be 433a 9fb2 173d c295 e5bc
000003c0: 8803 02bd 9c80 c23b b5ab f73c 400f ceb8
000003d0: 7e70 7fbc e030 ed3c 03eb 92bc 13fe f8bc
000003e0: 9e90 193d 650d 44bb 216f a53b 8492 aebc
000003f0: 9bb2 403c 7fa7 fb3c 74d2 183d 59f4 49ba

action_model._discrete_distribution.branches.0.weight f4 [4, 256]
-0.010722353 0.014395512 -0.004718002 -0.028593352 0.03385303 -0.03346233 0.037553165 -0.024929846
0.02042037 -0.013425122 0.009274788 0.035396844 -0.015180938 0.009330284 -0.014492538 -0.05714249
-0.044437263 0.0007858927 0.035757747 -0.027533196 0.0027830268 0.04213907 -0.008875854 0.008750212
-0.01745095 -0.025678951 0.0024991366 0.05074898 -0.038862843 0.019016001 0.0019805224 0.021440016
-0.001502004 0.030092204 -0.029589292 -0.026509373 -0.03695505 -0.0074447547 0.03638865 -0.004797053
0.006656988 -0.029435867 0.016905377 0.0030948785 -0.014530876 0.028373085 -0.023012776 -0.0054897764
0.021581942 0.0051704394 0.022272212 0.024734376 0.03976046 0.027983382 -0.02637299 -0.03892182
0.007729879 -0.033955548 0.032988045 -0.010328895 -0.0023642024 0.03829448 0.008160983 -0.005698713
-0.023885563 -0.06411303 0.0037226875 -0.012150104 0.017647184 -0.006898306 -0.02375867 0.0484583
0.0033491482 0.0019665635 0.05809753 -0.039466668 0.003599473 -0.03498529 -0.036256686 -0.010977074
-0.0099666035 -0.007401105 -0.01680676 0.038307033 0.006685888 -0.036343087 0.013980442 -0.002435287
-0.037013605 0.03583332 0.025681373 -0.021123093 -0.052752763 0.04254493 0.0046833004 -0.031434707
-0.013799132 0.012569218 -0.008302848 -0.022611618 -0.043708984 -0.032613844 -0.0032100242 0.017707368
-0.0142108 -0.009582611 -0.00512429 0.0049741426 0.034154058 -0.018816896 0.005719294 0.023996096
-0.00016236579 -0.03252849 -0.0192706 0.038483974 0.010546634 -0.019588346 -0.0024792203 -0.0036093623
-0.017380014 -0.025743097 0.022742264 0.016574915 -0.02939784 -0.026621431 0.0024761497 0.008446895
-0.020178882 -0.03134188 0.013825216 0.015291559 -0.007906738 -0.00033052271 0.023849942 0.0014005933
0.014221661 0.00016726243 0.0060988986 0.0036909885 -0.009727278 -0.005830299 -0.031558044 0.005322262
0.015414387 0.029569566 0.0194692 -0.039838698 -0.03294724 -0.0071608946 -0.0028484564 0.00073000824
-0.00027101324 -0.004397313 0.0077350102 0.0041407743 -0.012739238 0.02797697 -0.016404964 -0.013680133
0.006850803 0.03158188 0.014825998 -0.0022961842 0.004665594 0.027435634 0.005645837 0.009744431
-0.012362957 -0.032833967 -0.029555589 -0.02952675 -0.011144042 -0.027757743 0.026431607 0.014226409
-0.007074469 -0.021945607 -0.00926808 -0.03402628 0.009694006 0.0066673304 -0.0076899854 -0.028264632
-0.013283955 -0.038256947 -0.053254854 0.0022445556 0.017358126 0.02296338 -0.01449415 -0.014887093
-0.007357722 -0.023659332 -0.016932318 0.0014476539 -0.014910986 -0.04059456 0.011362499 0.018167043
-0.014811811 -0.020080714 0.05919596 -0.03038347 -0.016455542 -0.023896009 -0.01611199 -0.014295901
0.00072795554 -0.036171425 -0.021422632 -0.017695252 0.03396277 0.0065815006 -0.037463233 -0.054064948
0.0007235901 -0.04234497 0.01919075 0.032892525 0.019460585 0.019140676 -0.018495005 -0.035324696
0.022500588 -0.010265064 0.010535932 -0.056403164 0.0029762073 0.015188395 -0.025222125 0.033805925
-0.0014577004 0.005096058 -0.023527475 -0.050987195 -0.011218696 0.019592606 -0.05423121 0.032108575
0.04198843 -0.019804956 -0.017788563 -0.0056957165 0.010628415 -0.022026595 -0.023938632 0.020959586
-0.038961817 -0.006948266 -0.02194701 -0.0145160435 -0.00492714 -0.026794048 -0.05401465 0.013045345
00000000: cfac 2fbc 27db 6b3c 7899 9abb 9b3c eabc
00000010: 7aa9 0a3d cc0f 09bd 59d1 193d ad39 ccbc
00000020: 9f48 a73c 0bf5 5bbc 48f5 173c 48fc 103d
00000030: 78b9 78bc 0cde 183c 1c72 6dbc 3e0e 6abd
00000040: d903 36bd 5e04 4e3a b776 123d 4c8d e1bc
00000050: 7163 363b 049a 2c3d 086c 11bc 0d5d 0f3c
00000060: 4bf5 8ebc aa5c d2bc 8ec8 233b 2ade 4f3d
00000070: a52e 1fbd 72c7 9b3c a7cb 013b f9a2 af3c
00000080: e4de c4ba ed83 f63c 3e65 f2bc 2f2a d9bc
00000090: 2e5e 17bd 21f3 f3bb 440c 153d 9930 9dbb
000000a0: dd22 da3b 7d23 f1bc 257d 8a3c 72d3 4a3b
000000b0: e912 6ebc ac6e e83c 4a85 bcbc 95e3 b3bb
000000c0: 9dcc b03c ca6c a93b 3774 b63c bf9f ca3c
000000d0: dddb 223d 683d e53c 2b0c d8bc 7d6c 1fbd
000000e0: ed4a fd3b f914 0bbd 791e 073d 873a 29bc
000000f0: bcf0 1abb acda 1c3d a5b5 053c 45bc babb
00000100: a8ab c3bc b14d 83bd 55f8 733b 3b11 47bc
00000110: d490 903c 2f0b e2bb 8ba1 c2bc 367c 463d
00000120: 627d 5b3b 76e1 003b adf7 6d3d cda7 21bd
00000130: 23e5 6b3b bc4c 0fbd e481 14bd 2fd9 33bc
00000140: f74a 23bc f884 f2bb 55ae 89bc d6e7 1c3d
00000150: 4b15 db3b 7ddc 14bd 390e 653c 5699 1fbb
00000160: 949b 17bd f6c5 123d be61 d23c 560a adbc
00000170: 4813 58bd 9843 2e3d 5f76 993b aec1 00bd
00000180: c115 62bc 1fef 4d3c ab08 08bc 003c b9bc
00000190: 3108 33bd 1896 05bd 455f 52bb 0b0f 913c
000001a0: 6ad4 68bc 6200 1dbc a9e9 a7bb 22fe a23b
000001b0: 20e5 0b3d e425 9abc ea68 bb3b 7693 c43c
000001c0: bc40 2ab9 983c 05bd 61dd 9dbc 5fa1 1d3d
000001d0: cacb 2c3c bd77 a0bc 6a7a 22bb 0d8b 6cbb
000001e0: 8860 8ebc 30e3 d2bc fc4d ba3c 1ec8 873c
000001f0: bdd3 f0bc 3015 dabc e646 223b d864 0a3c
00000200: 2f4e a5bc 5860 00bd 2983 623c 7289 7a3c
00000210: 438b 01bc 024a adb9 f460 c33c 1d94 b73a
00000220: f801 693c 2b63 2f39 45d9 c73b 83e4 713b
00000230: 295f 1fbc 180c bfbb 0243 01bd 5f66 ae3b
00000240: a08c 7c3c e03b f23c df7d 9f3c e72d 23bd
00000250: aff3 06bd f0a5 eabb 2bad 3abb 065e 3f3a
00000260: c816 8eb9 5617 90bb f875 fd3b 55af 873b
00000270: 3db8 50bc f52f e53c b463 86bc a322 60bc
00000280: b37c e03b 005c 013d bee8 723c 947b 16bb
00000290: d7e1 983b b2c0 e03c b700 b93b 1ba7 1f3c
000002a0: 008e 4abc e97c 06bd 901e f2bc 15e2 f1bc
000002b0: 8095 36bc 3564 e3bc 1987 d83c e215 693c
000002c0: f2d0 e7bb 46c7 b3bc 25d9 17bc 245f 0bbd
000002d0: 9cd3 1e3c 9f79 da3b 46fc fbbb 3b8b e7bc
000002e0: f2a4 59bc 51b3 1cbd c321 5abd 6519 133b
000002f0: a132 8e3c b31d bc3c df78 6dbc fee8 73bc
00000300: 0c19 f1bb 37d1 c1bc a5b5 8abc 34bf bd3a
00000310: 354d 74bc 7b46 26bd c629 3a3c 0dd3 943c
00000320: 3dad 72bc 4f80 a4bc 7777 723d c1e6 f8bc
00000330: c6cd 86bc 90c1 c3bc 4bfd 83bc 5b39 6abc
00000340: 45d4 3e3a 7d28 14bd 847e afbc a2f5 90bc
00000350: 8c1c 0b3d a1a9 d73b 0c73 19bd 3573 5dbd
00000360: 4faf 3d3a eb71 2dbd eb35 9d3c 50ba 063d
00000370: ce6b 9f3c e8cc 9c3c d682 97bc a1b0 10bd
00000380: 2753 b83c cd2e 28bc e79e 2c3c 0107 67bd
00000390: 790c 433b bfd8 783c a19e cebc 1578 0a3d
000003a0: 4f10 bfba d5fc a63b b1bc c0bc f3d7 50bd
000003b0: 9fce 37bc ac80 a03c 8c21 5ebd 4884 033d
000003c0: 0ffc 2b3d 013e a2bc 52b9 91bc 22a3 babb
000003d0: ce22 2e3c 1e71 b4bc f31a c4bc 70b3 ab3c
000003e0: 6d96 1fbd 48ae e3bb 37ca b3bc b3d4 6dbc
000003f0: d973 a1bb 317f dbbc 773e 5dbd 25bc 553c

action_model._discrete_distribution.branches.0.bias f4 [4]
-0.021116816 0.052548777 0.020547962 -0.058035705
00000000: 2cfd acbc 633d 573d 3354 a83c d9b6 6dbd

action_model._discrete_distribution.branches.1.weight f4 [15, 256]
0.026874632 0.0009247511 0.0515286 -0.0041937474 -0.0022443093 0.015801383 -0.0008556179 -0.01884115
-0.039355744 0.05808684 -0.018189924 0.026129292 -0.018452559 -0.0060390825 -0.030642709 0.009046711
0.025780926 0.0019799909 0.0056545115 0.03393795 -0.008587179 -0.004103954 -0.021839611 0.0098224245
-0.014614647 0.020483274 -0.003407778 -0.0048326054 -0.0053728693 0.004106501 0.01077401 0.004493905
-0.01348984 -0.049250275 -0.008496249 0.012391908 0.026951807 0.015394028 0.02217401 0.05586918
0.031149594 -0.014665193 -0.02660718 0.016564023 0.04402294 -0.01629603 0.015898887 0.0060572405
-0.028743345 0.03372352 0.0064981193 -0.010948025 -0.013460468 -0.014134201 -0.009275633 0.0138448095
-0.018082831 2.1679749e-05 0.010004944 -0.032973714 -0.014680093 -0.002344936 0.013323229 0.019963833
-0.012105389 0.0065643364 0.028801441 -0.016482437 -0.007414644 -0.036579624 -0.03936958 0.016383594
-0.028976763 -0.02501105 0.008256905 0.008563571 0.03612335 -0.0037989202 0.011165922 -0.031504113
-0.014092702 0.04043769 0.0053892517 0.013010564 0.005838415 0.026730018 0.00478422 0.044977047
0.03471485 0.03618081 -0.021402681 -0.0039573717 0.007043557 0.007999949 0.025257168 0.014506928
0.0099016465 -0.021864716 0.0489886 0.030257579 0.04618384 0.021126848 0.03672996 -0.019519309
0.019625492 0.0035235006 -0.0021349909 -0.004808723 0.0067704692 0.01864034 0.065538526 -0.034633
-0.042553004 -0.00030207576 0.008990708 -0.021822399 -0.023042746 0.0066638803 0.02793406 0.017509542
-0.023436598 -0.011598314 -0.014045648 -0.016175603 0.043408748 0.0051803435 0.040202927 0.007994899
0.017653802 -0.005860622 0.020286944 0.018305028 0.011382583 0.019487988 0.0220198 -0.013667209
0.016667726 -0.02560507 -0.009170186 0.0043662568 0.004868584 0.027542016 0.016250838 0.05815706
0.008893272 -0.030263292 -0.030293366 -0.001671509 -0.008097716 -0.018509686 0.010519568 0.0037758185
-0.009856175 0.026772663 0.015584524 -0.024677357 0.02550258 -0.013285325 -0.0013288837 0.0046028905
-0.02399264 0.027700935 -0.016643004 0.06110423 -0.02027351 0.005040997 0.0045690117 -0.0027917137
-0.0052056857 0.025892172 -0.02666442 0.016259639 0.031800948 0.0062743854 -0.010266109 -0.040754247
-0.015450118 0.0215656 0.018559482 -0.01586336 -0.0185252 0.016312556 0.008384341 0.0038186505
0.02830714 -0.021473318 0.009871813 -0.04738576 -0.031414207 -0.012244455 0.028337684 -0.011933467
0.016897017 -0.008273865 -0.008982207 0.013528177 -0.028959999 0.007289317 -0.012382408 -0.007875981
-0.0018440573 0.03850657 -0.00997615 0.037651476 0.044781387 -0.019797174 -0.008321779 0.007165636
0.0073707816 -0.022135809 0.019380167 0.026207954 0.011083439 -0.029345712 0.0036552208 0.028204922
-0.0145665025 0.041565146 -0.024044078 -0.018567324 -0.0054215775 0.021147942 -0.035371408 -0.0017020389
0.0132551305 0.023030985 -0.0016604273 -0.035454262 0.026447453 -0.011387803 0.019667951 -0.0115978485
0.026637819 -0.026200445 0.016447278 -0.009279271 -0.0049831504 -0.038312115 0.019487549 0.0065837703
-0.0056730225 0.03831355 -0.026721945 0.0025161107 0.008843542 0.026526542 -0.06454492 -0.007323573
-0.030316921 0.015277498 -0.013755847 0.03336356 -0.012439283 0.005683582 -0.0031478116 0.03838798
00000000: 3028 dc3c ff6a 723a a70f 533d b46b 89bb
00000010: 4315 13bb e771 813c 8c4b 60ba c158 9abc
00000020: 7d33 21bd 77ec 6d3d 0903 95bc 190d d63c
00000030: d229 97bc 7fe3 c5bb 6b06 fbbc a838 143c
00000040: 8532 d33c bcc2 013b 7b49 b93b 8502 0b3d
00000050: 3db1 0cbc 767a 86bb fce8 b2bc 3cee 203c
00000060: 4672 6fbc 8acc a73c 0755 5fbb d55a 9ebb
00000070: e50e b0bb d48f 863b 7985 303c 9c41 933b
00000080: 7d04 5dbc a8ba 49bd da33 0bbc 6e07 4b3c
00000090: 09ca dc3c 3c37 7c3c 45a6 b53c 15d7 643d
000000a0: 6f2d ff3c 4746 70bc 4df7 d9bc 46b1 873c
000000b0: 6651 343d 407f 85bc 623e 823c d17b c63b
000000c0: 2a77 ebbc ac21 0a3d 2dee d43b 585f 33bc
000000d0: 4b89 5cbc 2393 67bc d3f8 17bc 57d5 623c
000000e0: 7222 94bc e8dc b537 c7eb 233c 720f 07bd
000000f0: c684 70bc 7fad 19bb ac49 5a3c 318b a33c
00000100: ae55 46bc a519 d73b 00f1 eb3c 2d06 87bc
00000110: 8bf6 f2bb 84d4 15bd ff41 21bd e336 863c
00000120: ad60 edbc f9e3 ccbc f847 073c 384e 0c3c
00000130: 14f6 133d 4ef7 78bb 45f1 363c 750a 01bd
00000140: 14e5 66bc fea1 253d 5298 b03b 432a 553c
00000150: 2d50 bf3b e9f8 da3c f2c4 9c3b da39 383d
00000160: 2931 0e3d 5432 143d ad54 afbc d7ac 81bb
00000170: a3cd e63b 3812 033c 1fe8 ce3c 77ae 6d3c
00000180: 843a 223c a21d b3bc 45a8 483d bede f73c
00000190: 442b 3d3d 3612 ad3c 2872 163d f5e6 9fbc
000001a0: a4c5 a03c 88ea 663b 34eb 0bbb 7e92 9dbb
000001b0: d0da dd3b a0b3 983c 1039 863d 55db 0dbd
000001c0: 0f4c 2ebd ec5f 9eb9 c34d 133c e3c4 b2bc
000001d0: 24c4 bcbc ae5c da3b f8d5 e43c 2c70 8f3c
000001e0: 1cfe bfbc db06 3ebc b81f 66bc b382 84bc
000001f0: 5fcd 313d dfbf a93b d3ab 243d 09fd 023c
00000200: b59e 903c 760a c0bb ce30 a63c 6df4 953c
00000210: 037e 3a3c 46a5 9f3c de62 b43c 6eec 5fbc
00000220: c18a 883c b9c1 d1bc 8c3e 16bc d112 8f3b
00000230: a588 9f3b cb9f e13c 7a20 853c 1936 6e3d
00000240: 16b5 113c b9ea f7bc cb29 f8bc 8916 dbba
00000250: 48ac 04bc a0a1 97bc 445a 2c3c b973 773b
00000260: cb7b 21bc 5852 db3c 3b56 7f3c 2b28 cabc
00000270: c9ea d03c b1aa 59bc f02d aeba d8d3 963b
00000280: 378c c4bc 12ed e23c e956 88bc 6e48 7a3d
00000290: a214 a6bc f32e a53b a6b7 953b 2ff5 36bb
000002a0: 7594 aabb d21b d43c 576f dabc ef32 853c
000002b0: b641 023d 5c99 cd3b 2f33 28bc eded 26bd
000002c0: 7e22 7dbc 57aa b03c 0e0a 983c e1f3 81bc
000002d0: 29c2 97bc e9a1 853c 7a5e 093c 5342 7a3b
000002e0: 60e4 e73c d0e8 afbc 62bd 213c 9217 42bd
000002f0: 2fac 00bd f79c 48bc 6e24 e83c 9784 43bc
00000300: 9d6b 8a3c 1b8f 07bc 1b2a 13bc 49a5 5d3c
00000310: 853d edbc 39db ee3b 95df 4abc 420a 01bc
00000320: 4cb4 f1ba 11b9 1d3d 0173 23bc 6f38 1a3d
00000330: b06c 373d af2d a2bc 1258 08bc b6cd ea3b
00000340: 9986 f13b 2856 b5bc 28c3 9e3c 10b2 d63c
00000350: 5097 353c 6b66 f0bc 6e8c 6f3b 020e e73c
00000360: 57a8 6ebc 3740 2a3d 16f8 c4bc 801a 98bc
00000370: 7da7 b1bb 733e ad3c 9ce1 10bd f316 dfba
00000380: 0c2c 593c 7aab bc3c b2a2 d9ba 7d38 11bd
00000390: 54a8 d83c e893 3abc af1e a13c e704 3ebc
000003a0: 8e37 da3c 51a2 d6bc 71bc 863c 1508 18bc
000003b0: b249 a3bb 2aed 1cbd 5aa4 9f3c abbc d73b
000003c0: c3e4 b9bb abee 1c3d fbe7 dabc 55e5 243b
000003d0: 81e4 103c 314e d93c 2130 84bd 95fa efbb
000003e0: 315b f8bc 794e 7a3c 3460 61bc 3aa8 083d
000003f0: 22ce 4bbc 573d ba3b 844b 4ebb b73c 1d3d

action_model._discrete_distribution.branches.1.bias f4 [15]
0.03115907 0.012740085 -0.04128516 0.013596708 -0.033199895 0.011206728 0.01646101 0.016665839
-0.004476404 0.021344494 0.008440471 -0.00953073 -0.028728567 -0.013129816 0.0016385557
00000000: 4e41 ff3c cabb 503c a11a 29bd bac4 5e3c
00000010: 9dfc 07bd 6d9c 373c 3dd9 863c cc86 883c
00000020: ccae 92bb a6da ae3c e749 0a3c c726 1cbc
00000030: 2c58 ebbc 711e 57bc cec4 d63a

action_model._discrete_distribution.branches.2.weight f4 [15, 256]
-0.04900747 0.017779928 0.044141065 -0.0064184656 0.036415476 -0.030541651 0.007603864 -0.013763946
-0.027227454 -0.040659867 -0.020352827 0.014143528 0.037349876 0.034258448 0.015759997 0.010945594
0.01631595 -0.03317833 0.023025963 -0.028245114 0.01800204 0.018589068 -0.033308733 0.02825633
0.03456769 0.017920917 -0.034249492 -0.021509994 -0.03705305 0.03394913 -0.004047777 0.03167945
-0.056808833 -0.016608914 0.025708126 -0.02000443 0.017405197 0.01803996 0.0066174692 0.004935381
0.003180211 -0.045496847 0.0050713336 -0.032265954 0.00886821 -0.01072278 0.0019715605 0.01863711
0.013323706 -0.0410576 0.007231016 -0.0004674867 -0.055508655 0.051463053 -0.022993457 -0.011074165
0.005786979 0.00054714584 0.02340588 0.038878076 -0.03332412 0.004120055 -0.026954353 -0.0672604
0.018931322 0.014337055 0.022743952 0.006728235 0.0062527806 0.024307255 0.035967335 0.008921046
0.027939528 0.0021192532 -0.048147015 -0.009946648 -0.017891424 -0.017285708 0.011490331 0.005552048
0.0028862744 -0.017882613 -0.054872014 0.04249012 0.008246942 0.0062196436 0.031024652 0.00913173
0.018020093 -0.023089396 0.011186505 0.03945245 -0.019341215 0.012737901 -0.022760926 -0.016365457
-0.004276405 0.034306645 0.0076312497 -0.0355006 -0.025665 0.0013356508 -0.002061593 -0.0017960828
0.022475574 0.016795078 -0.0209406 0.051182587 -0.02628194 0.02747019 -0.042456537 -0.057059836
-0.019099217 0.002766433 0.03153669 0.006788981 -0.020313097 0.02344364 -0.03781984 -0.015003766
0.0073938863 -0.009359271 0.0447277 0.026500778 -0.025141722 -0.029505746 0.019529097 0.012296338
0.005948817 -0.0014871458 0.015719837 0.010362795 0.019639915 -0.023605017 -0.010237228 -0.011714947
-0.030762129 -0.025797598 -0.016273618 -0.0037455924 0.033712238 0.013205478 -0.03589087 -0.008453986
-0.015158373 0.004588733 -0.039674174 -0.040113673 -0.025391297 -0.026606053 0.013765355 -0.00157701
-0.016425954 -0.016652364 0.041505575 0.020941604 -0.049913157 0.013214058 0.042930435 -0.023403898
-0.009614364 -0.006258472 -0.04819161 -0.0054859477 -0.0492787 -0.009069305 0.043627623 -0.0082860505
-0.03364976 0.007367072 -0.01960783 -0.0047786837 -0.01419374 0.024343375 0.0009998445 0.045897443
-0.014437533 -0.043430474 -0.02844272 -0.033741098 0.0047953543 -0.0075981393 -0.026612788 0.006793119
-0.011442111 -0.08154028 -0.02508765 -0.003942009 0.0087615475 -0.006356662 0.0056138104 -0.006544091
-0.017251119 -0.02302636 0.00023691486 -0.034082435 -0.039825276 0.009745307 -0.03361871 -0.00039309327
-0.006620836 -0.0034216316 0.0034331207 -0.02087825 -0.050862726 -0.020985935 -0.00036565578 0.013951487
0.0034733352 -0.01194611 0.017422805 0.0023142863 -0.0035779441 0.0045768903 0.0090657305 -0.020761468
-0.018633988 0.014642597 0.015949955 0.00503228 0.029350203 0.013100548 -0.030481964 -0.031182824
-0.033477042 -0.030550212 0.0005233187 -0.008449228 -0.051132545 -0.044434488 -0.0010712203 -0.017104484
0.016831344 0.025340863 -0.007396499 0.0015815854 0.00557237 0.017857868 0.0031061133 -0.008139753
-0.0032505218 0.0028155306 -0.033212587 -0.013219958 -0.0012618616 0.007990641 0.01207704 0.031678602
-0.018973947 0.01536544 -0.034232397 0.009660014 -0.0084030675 -0.0004935229 -0.012978088 -0.024569806
00000000: 0fbc 48bd 36a7 913c 43cd 343d fe51 d2bb
00000010: 6528 153d 7c32 fabc d629 f93b 2c82 61bc
00000020: 1c0c dfbc f68a 26bd f9ba a6bc 42ba 673c
00000030: 2ffc 183d 9652 0c3d 1c1b 813c 2655 333c
00000040: 07a9 853c 00e6 07bd f2a0 bc3c 4c62 e7bc
00000050: 0479 933c 1a48 983c bd6e 08bd d279 e73c
00000060: da96 0d3d e3ce 923c 3249 0cbd ba35 b0bc
00000070: f0c4 17bd 3e0e 0b3d 37a3 84bb 50c2 013d
00000080: 61b0 68bd 6b0f 88bc d999 d23c 55e0 a3bc
00000090: 5895 8e3c 8ac8 933c 5bd7 d83b fab8 a13b
000000a0: 166b 503b e75a 3abd 6e2d a63b 4e29 04bd
000000b0: f84b 113c 99ae 2fbc 4c35 013b daac 983c
000000c0: ac4b 5a3c 042c 28bd 29f2 ec3b 0119 f5b9
000000d0: 0b5d 63bd ecca 523d c65c bcbc 6a70 35bc
000000e0: b3a0 bd3b 566e 0f3a b0bd bf3c 9e3e 1f3d
000000f0: df7e 08bd 8701 873b 60cf dcbc d2bf 89bd
00000100: dc15 9b3c f8e5 6a3c 8651 ba3c 8778 dc3b
00000110: 20e4 cc3b 0220 c73c 7c52 133d 9429 123c
00000120: 70e1 e43c 2be3 0a3b ce35 45bd 44f7 22bc
00000130: 0991 92bc c29a 8dbc f141 3c3c f4ed b53b
00000140: a627 3d3b 8f7e 92bc 7ac1 60bd 1f0a 2e3d
00000150: 2f1e 073c 27ce cb3b 6927 fe3c 409d 153c
00000160: e09e 933c f925 bdbc 9a47 373c e498 213d
00000170: 7871 9ebc a1b2 503c 1f75 babc da10 86bc
00000180: 1621 8cbb 2085 0c3d 900f fa3b 1469 11bd
00000190: 683f d2bc 0111 af3a cb1b 07bb 8a6a ebba
000001a0: b21e b83c d595 893c 9f8b abbc d5a4 513d
000001b0: 394d d7bc 2a09 e13c e8e6 2dbd 93b7 69bd
000001c0: f675 9cbc 0b4d 353b 9e2c 013d 1a76 de3b
000001d0: a767 a6bc e00c c03c fae8 1abd 5bd2 75bc
000001e0: 6a48 f23b a157 19bc 6534 373d 2918 d93c
000001f0: 03f6 cdbc 09b6 f1bc 7cfb 9f3c 9476 493c
00000200: 4bee c23b 55ec c2ba e3c6 803c b6c8 293c
00000210: e3e3 a03c 4f5f c1bc 0cba 27bc 0df0 3fbc
00000220: dc00 fcbc 7c55 d3bc 4050 85bc 9d78 75bb
00000230: d815 0a3d ca5b 583c 4e02 13bd 9682 0abc
00000240: d35a 78bc 155d 963b 6381 22bd 3c4e 24bd
00000250: 6901 d0bc f0f4 d9bc 1588 613c adb3 ceba
00000260: b98f 86bc 8a6a 88bc c001 2a3d ba8d ab3c
00000270: bd71 4cbd c77f 583c d3d7 2f3d 88b9 bfbc
00000280: 9185 1dbc de13 cdbb 9164 45bd 77c3 b3bb
00000290: 76d8 49bd 6c97 14bc e1b2 323d 37c2 07bc
000002a0: 55d4 09bd 7b67 f13b 9aa0 a0bc 8196 9cbb
000002b0: dc8c 68bc c26b c73c 370d 833a f5fe 3b3d
000002c0: 678b 6cbc 27e4 31bd b500 e9bc 1b34 0abd
000002d0: 5922 9d3b d0f9 f8bb 1003 dabc d098 de3b
000002e0: b177 3bbc 97fe a6bd 9e84 cdbc f82b 81bb
000002f0: 988c 0f3c 8c4b d0bb 0ef4 b73b d06f d6bb
00000300: 3852 8dbc c7a1 bcbc 596c 7839 069a 0bbd
00000310: d41f 23bd c8aa 1f3c c6b3 09bd 1618 ceb9
00000320: 99f3 d8bb 743d 60bb 35fe 603b dd08 abbc
00000330: 6f55 50bd b2ea abbc 7db5 bfb9 c794 643c
00000340: e5a0 633b 9eb9 43bc 45ba 8e3c 48ab 173b
00000350: f17b 6abb bdf9 953b 6e88 143c f413 aabc
00000360: 4ea6 98bc 81e7 6f3c 7ba9 823c d3e5 a43b
00000370: d66f f03c aea3 563c 50b5 f9bc 1f73 ffbc
00000380: 391f 09bd 7044 fabc 532f 093a a16e 0abc
00000390: 5c70 51bd f000 36bd 3068 8cba b41e 8cbc
000003a0: e3e1 893c a497 cf3c 555e f2bb 334d cf3a
000003b0: 6d98 b63b aa4a 923c ef8f 4b3b 995c 05bc
000003c0: b506 55bb c484 383b ec09 08bd 8698 58bc
000003d0: 0d65 a5ba 2deb 023c c7de 453c 6cc1 013d
000003e0: 406f 9bbc 54bf 7b3c 4537 0cbd 0945 1e3c
000003f0: 05ad 09bc c35f 01ba 0ca2 54bc 9e46 c9bc

action_model._discrete_distribution.branches.2.bias f4 [15]
-0.0044477046 -0.010645839 -0.031582393 -0.016948927 0.022624057 0.0057343324 0.02832699 0.0003810718
0.051559694 0.03319083 -0.026238544 -0.03632657 -0.0075767203 -0.018724395 0.01165037
00000000: 0dbe 91bb e36b 2ebc 8a5c 01bd 7ad8 8abc
00000010: 1656 b93c 11e7 bb3b 010e e83c 97ca c739
00000020: 4230 533d 1cf3 073d 37f2 d6bc 2bcb 14bd
00000030: 2346 f8bb e763 99bc 32e1 3e3c
