results/ParticipantRankingsAndProposedRanking/AgentBehavior.onnx (onnx, 333671 bytes, 11 tensors)

discrete_act_size_vector f4 [1, 3]
00000000: 0000 8040 0000 7041 0000 7041
4.0 15.0 15.0

network_body._body_endoder.seq_layers.0.weight f4 [256, 30]
00000000: ae32 bdbd 5129 b43e 575b a03d 9c7e 973d
00000010: aa5f 45bd b69f 52bd 825e 22be 8972 ed3d
00000020: 8df3 30be af9c 2cbe 9a50 ca3e 6a00 073e
00000030: a961 92bd 30df 71be 86de ff3b ae0c 5fbe
00000040: 9192 e7bd 2f1f 88be 71d2 533e 5a38 2dbe
00000050: 715d 5bbd 18ba 4f3d d547 a53e 2502 873e
00000060: 5b57 9bbd a86f 933d 2548 abbd 8bbb 26bd
00000070: c678 18be 084f a93e b211 933e 9216 4bbe
00000080: 222b ac3d affd cd3e 870e 32be 98ac 143e
00000090: f2c5 8dbd 6910 0e3e 4dbf b7bd 8e07 c4be
000000a0: 488f 03be 0bfb 59be 6b4b 613c 898e 0e3d
000000b0: b334 86be a522 be3d c272 27bc 8d21 3c3e
000000c0: 96ca 11ba 499b 02bd 7b82 2ebd bbca 00be
000000d0: 4028 2dbe 86b1 d63e f59c 1cbd 6ffb 35be
000000e0: 8af1 e6bc 1012 29be 2509 163e d55b 1abe
000000f0: a1c7 ea3e de23 543d 689f 613d 67a2 bf3e
00000100: 03ac 4f3c 35ec 22bc 0833 75be 4b24 63be
00000110: d632 2e3e b1bf 28be c619 e43d c2dd 84be
00000120: 83e7 463e 79e3 82bd bc90 213d 4f70 1fbe
00000130: 93f9 f73d f440 8ebe 12f4 733d 2b4b 7fbe
00000140: 80ab babb 7a7a ee3d 0aa2 c23d 778f 41bd
00000150: b8a1 20bd cd8a 663e 8843 953e 3f31 18bd
00000160: 878d e73e e503 aabe 4888 5cbd 8b4f 8b3e
00000170: 0d79 543e 5a2f 993e db47 bb3e 29ae 043d
00000180: 770d b23e ff68 24be ebe8 643c 75a9 4ebe
00000190: 59ff bdbd 56f4 0cbc e9c5 5a3e b7f7 e03b
000001a0: 8bb2 033e c3a7 353e f4fa a13e 2e45 26bd
000001b0: a6a4 393e 6a85 48be 980e 9d3e da9c 05be
000001c0: 30be 9cbe ed8a 6c3e 2653 cbbd 08b4 11bc
000001d0: 7405 74bd 6c85 bbbb 7c2b 39be e7fa da3c
000001e0: c0e7 86bb ea7d bbbe 14af 89be 8b79 5cbd
000001f0: e9ef 96be 2168 0c3e 9efc 7e3e b59e 7b3e
00000200: 9d69 84bd 08dd cd3d 8659 0abe f496 013e
00000210: fbff 623d bd08 96bd 64aa fd3d 2133 cfbc
00000220: 4a6c c5bd 3d6b d13d b0ed 32be 039a b9bd
00000230: 4e3b 81bd 47d5 2fbd d102 d73d 101a fa3d
00000240: b77a 46be 1a5e f8bc 46c3 5f3e ccd1 5fbe
00000250: a118 203e dd62 083c ef7f 793d e95d e5bd
00000260: cd88 1bbe 2694 bd3d c0ff b13e 78c3 283c
00000270: e0ba 663d f678 53bd b6ba ce3d 5db5 a6be
00000280: 452f 5f3b 1292 92bd 3f7d 8b3e 221e 82bc
00000290: 4378 d53d dbe3 103e b322 943d 38ee cc3d
000002a0: 89b6 70bd 3f2b 6ebd f38c a93b 9dd0 403c
000002b0: e0e0 96bd 0b7b 01be 7363 e0bd a632 3e3d
000002c0: 495d 59be 39e1 783e 57ae 1e3d 3dc4 b33d
000002d0: cfe3 2dbd 40af 76bd d656 853e 8665 833d
000002e0: d6f1 403d 579e 683e 227e 01be f36e c7bb
000002f0: e899 e0be 47d3 d83d fb82 573e 4969 7f3e
00000300: 7780 823e 2760 d2bd d7b4 f0bd f553 9cbd
00000310: 1496 88bd 8c9f a9be 4505 29be ef91 12bf
00000320: 898d a6bc 2971 48bd 6e4a 85be 4909 84be
00000330: aa81 97be 99cf a4be 43bf 83be f5e8 533d
00000340: c12b f0bd b0f4 8d3c 851f ddbd 21ce 05be
00000350: 7c6e 893e d358 44be 4f00 573e 4542 813e
00000360: 9937 fdbd afd6 963d 5a14 8a3e 79ae ddbd
00000370: 2771 7fbd 6d2c 5fbe 9a66 bd3d c21f 2abd
00000380: 9d68 ed3d 97da 4f3d 2f69 3c3c 0a67 17bd
00000390: 3c62 9ebd 454c 15bd d919 9dbe ddb0 ebbc
000003a0: 99cd c03c 37a1 ff3c 8644 12bd 5e86 2b3e
000003b0: 328f e03e 9de2 f2bc 5437 2a3e 594c 81be
000003c0: 3ef1 563d 1c1f 273e 1a0a 11bf 58e6 efbd
000003d0: 9869 183d 6577 ab3c 46d8 66be 495c e6bd
000003e0: ab6e 89be a0b0 a8bd e4b3 3d3e b436 4b3e
000003f0: 9984 d9bd ba19 313e b40c c9be 0502 013e
-0.09238182 0.35187772 0.07829922 0.07397196 -0.048186935 -0.051421843 -0.15856364 0.115941115
-0.17280407 -0.16856645 0.3951462 0.13183752 -0.071475334 -0.23620296 0.0078085093 -0.2178218
-0.11307252 -0.2658629 0.20685746 -0.16916028 -0.05355591 0.050714582 0.32281366 0.26368824
-0.07585021 0.07199031 -0.0836337 -0.0407062 -0.14889821 0.3306811 0.28724438 -0.19832829
0.084066644 0.40232608 -0.17388354 0.14518964 -0.06922521 0.13873447 -0.089720346 -0.38287014
-0.12847626 -0.21287172 0.013750891 0.0348039 -0.2621208 0.09283952 -0.0102202315 0.18372174
-0.00055614987 -0.031886373 -0.042604905 -0.12577336 -0.16909885 0.41932315 -0.038235623 -0.17771696
-0.028191347 -0.16510797 0.14651926 -0.15074094 0.4585543 0.051792018 0.055083662 0.3742859
0.012675288 -0.009944011 -0.23945248 -0.22181813 0.1701158 -0.16479374 0.111377284 -0.25950438
0.19424252 -0.06391043 0.03944467 -0.15570186 0.121081494 -0.2778393 0.059558935 -0.24931018
-0.005696714 0.11644454 0.09503563 -0.04725596 -0.039216727 0.22513886 0.29153085 -0.03715634
0.45225164 -0.33206096 -0.053840905 0.27209124 0.20749302 0.2991894 0.3657826 0.032392655
0.34775898 -0.16055678 0.013971548 -0.2018183 -0.09277219 -0.008603176 0.21364559 0.0068654674
0.12861077 0.17739777 0.31636775 -0.04059332 0.18129215 -0.19582143 0.30675197 -0.13048115
-0.30613852 0.23099871 -0.09927969 -0.00889302 -0.059575513 -0.0057226922 -0.18082994 0.026730968
-0.004116982 -0.36619502 -0.26891387 -0.05382685 -0.29479912 0.13711597 0.24901053 0.2457226
-0.06465457 0.10051924 -0.13510713 0.1265524 0.055419903 -0.073258854 0.12386015 -0.025292935
-0.09639795 0.10225532 -0.17473483 -0.090625785 -0.063101396 -0.042928007 0.10498584 0.12212002
-0.1938275 -0.030318309 0.21851835 -0.21857375 0.15634395 0.008324352 0.060913023 -0.111995526
-0.15188904 0.09256773 0.34765434 0.01030051 0.05633056 -0.05162903 0.10094206 -0.32560244
0.0034055274 -0.07156767 0.27243993 -0.01588351 0.10423329 0.1414942 0.07233181 0.10006374
-0.05876783 -0.05814671 0.005174273 0.011768487 -0.0736711 -0.12644593 -0.109564684 0.04643502
-0.21226992 0.24304666 0.038740482 0.08777664 -0.042453583 -0.060225725 0.26042813 0.064158484
0.047105633 0.22716652 -0.12645772 -0.006086224 -0.4386742 0.10587173 0.21046059 0.24942507
0.25488636 -0.10272246 -0.117532425 -0.07633201 -0.0666925 -0.33129537 -0.16505916 -0.57253927
-0.020331161 -0.048936043 -0.26033348 -0.25788334 -0.29591113 -0.32189634 -0.2573186 0.051735837
-0.117270954 0.01732859 -0.107970275 -0.13066913 0.26842105 -0.19174509 0.20996211 0.25245872
-0.1236412 0.073651664 0.26968652 -0.10824294 -0.06236377 -0.21794291 0.09248085 -0.041534193
0.11592219 0.050745573 0.011499687 -0.0369635 -0.077335805 -0.03644969 -0.30683783 -0.028770858
0.023535537 0.031204803 -0.03570988 0.16750476 0.4385925 -0.029649073 0.16622669 -0.2525356
0.05247616 0.16320461 -0.5665604 -0.117138565 0.037210077 0.020930955 -0.2254344 -0.11248071
-0.26842245 -0.082368135 0.18525654 0.19845086 -0.10620994 0.1729497 -0.39267504 0.12598427

network_body._body_endoder.seq_layers.0.bias f4 [256]
00000000: 353a cfbc d6fc 103c 1a46 7fbc 4fce e5bb
00000010: ed18 a53c 662e 01bd d186 4bbd b7d9 a43d
00000020: f479 0ebc 2623 a8bd 3066 56bd 6f25 333d
00000030: 5714 2fbc 0ddb 69bd be88 433b 80bb 903c
00000040: ae65 1dbd 501a dcbc 7ea1 513d 9658 23bd
00000050: 83d2 68b8 e1de b63d a677 273b 0d61 8cbc
00000060: 52cd dcbd 33dd 24bc d231 823d 9dae a6bc
00000070: 3a31 83bd d50f f1bc edb9 ab3d e05d dd3d
00000080: 5974 313c 96e2 643d bfd4 833d 2890 853d
00000090: 5bbc b3bc 312d d3bc b4b0 dcbb aac4 fdbc
000000a0: f4e7 31bb d33b 403d 0479 e33b 0627 113d
000000b0: 9215 13bd 0c16 5ebc b628 3ebc a086 343b
000000c0: 97cf e3bb ad0c ea3c 7a61 1bbc 5bd5 9cb9
000000d0: 4e98 95bc d180 8ebc da00 98bc 968c 3dbd
000000e0: 6ede d6bb 04ff 5f3d 5d5d dcbd d4db a2bc
000000f0: 87b2 d93b 7389 8ebc cbea b4bd 63ab 12bd
00000100: ba48 9c3d a582 bb3c 84b9 bb3c d965 8bbc
00000110: 2b42 c73c e94d 263d dbd9 81bc 2f5a 1d3d
00000120: 4498 fa3c 27cb 0abc 6cc3 9dbc 8024 52bd
00000130: 897e 523d d32d febc 14d3 4ebc 2480 72bc
00000140: 6fb9 8e3c 7185 48bd 9696 573d c7e6 b1bb
00000150: 26e3 3b3d bf06 44bc 8080 a1bc 91e8 70bc
00000160: 6bfa dd3c f816 5a3d d846 f33b dff0 b9ba
00000170: 04cd 5ebb 4fb9 c2bb e98b e1bc e598 433d
00000180: 45c9 953d a07b 183d e4fc 783d 8c5b a0bd
00000190: a1d4 533d 3167 b6bc 53e1 c03c 85ea 683d
000001a0: c126 993d c344 a33c f945 393d 704f 6d3c
000001b0: cae8 743d bf29 8d3c b190 c0bc bf60 b5bd
000001c0: 2d05 3f3d 93e3 88bc 7556 0abd e1e3 773d
000001d0: 4c86 413d d246 25bc 96ee aabc b522 9e3b
000001e0: f814 4cbd 9eee fabb 0bb9 ec3c a8f2 2c3c
000001f0: 1d8b 1c3c b29c 3ebc ae95 f23c 55a0 e43b
00000200: 9ba5 c0bc 983a d23c 7518 05bd 0634 93bb
00000210: 5547 963c 8942 30bc 272d 163c ac17 3dbb
00000220: 1d7c f43c a842 133d c4f6 c83b a48f 3c3d
00000230: 069a 483c f048 83bb dedf c3bc 7690 883d
00000240: 8431 3c3d 7bf7 acbb d7a3 d0bc 84df a4bb
00000250: dcd3 51bd 9406 b63d 2c10 823d 2692 a1bc
00000260: e687 cab9 08a0 28bd 93a3 0ebd 1f39 773d
00000270: 6dc8 803d 4f7d 263d b25c b43c c1e3 503d
00000280: 742c 193d 0700 4fbb 7ebc ee3c c972 0fbc
00000290: e8f5 b83c ea63 0cbd 017c b3ba 1766 db3c
000002a0: 83cb 053c e72b b4b8 d979 04bd 027c d5bc
000002b0: 7e88 543d 0576 efbb 72fc 0dbd 1d4b 2cbb
000002c0: 7d52 323d 4ac0 ad3c 6db0 45bc b0d7 b3bc
000002d0: 9d05 acbc c665 2a3a c7aa a93b 69ce 6c3d
000002e0: 9589 9bbc d536 fc3c 5db3 293c d00b 06bc
000002f0: 5e5b 03bd 44f5 c13c e8e2 12bd 68cf b33d
00000300: 6b32 753d b861 55bc 2c0f 7d3c d596 8cbc
00000310: 5f83 d2bc 0785 913d 97c1 a83b 72b9 d53b
00000320: 56f0 6ebc b7ad 85bc 4197 81bc 08c0 213d
00000330: 9fc3 80bc e80b 6dbb 4b9d 353d d309 02bc
00000340: 7343 c3bc 8b81 f1bc 11b7 e73c 2d21 bfbc
00000350: e952 fbbc 37d5 a6bc 8108 123d 2dda b83c
00000360: 8ae7 633c b9d7 82bb 2531 c3bc 61ea 40bd
00000370: 1402 93bc 4ed4 d43c 46d5 adbc b019 d7bc
00000380: a989 293d 3429 033e 840b 20bd d97c d23b
00000390: 7a97 513d 779a b83c 99f6 533d 4f5b 29bb
000003a0: 0b72 aa3c 6ce2 993c a9c3 953b fb65 c1bc
000003b0: 3ff5 b4bc acb8 563d eebd 82bc 7ad1 eabc
000003c0: 1c42 d8bc 5cef 163c d150 67bc 73ba 3b3d
000003d0: bd66 e73c 6ef9 eabc baf7 d63c 4bd6 5fbd
000003e0: ad9d 083d a44c 5a3c 54f1 213d bef6 99bd
000003f0: 6493 62bb 697b d53b 4dcb b6bc 2cf0 95bc
-0.02529631 0.008849343 -0.015580678 -0.0070131193 0.020153487 -0.03153839 -0.049689118 0.08049338
-0.008696068 -0.08209829 -0.052343547 0.04373687 -0.010686002 -0.05709367 0.0029836143 0.017667532
-0.038427047 -0.026868016 0.0511794 -0.039879404 -5.5509165e-05 0.089292295 0.0025553494 -0.017136121
-0.10781349 -0.010062504 0.06357159 -0.020346934 -0.064058736 -0.029426495 0.08385072 0.10808921
0.010830962 0.05588015 0.064370625 0.06521636 -0.0219404 -0.025778385 -0.006734932 -0.030977566
-0.0027146311 0.046932053 0.0069419164 0.035437606 -0.035909243 -0.013555061 -0.011606386 0.0027546063
-0.006952237 0.028570497 -0.009483689 -0.000299136 -0.018261101 -0.017395409 -0.018555094 -0.04627665
-0.0065572774 0.05468656 -0.10759995 -0.019880213 0.0066435966 -0.017399525 -0.08833846 -0.03580798
0.07631059 0.022889445 0.02291561 -0.017016338 0.024323544 0.040601645 -0.015850952 0.038416084
0.030590184 -0.008471287 -0.019258223 -0.05130434 0.051390205 -0.03102771 -0.012623567 -0.014801059
0.017422406 -0.048955385 0.052633844 -0.005429122 0.045870923 -0.011964499 -0.019714594 -0.014703886
0.027096948 0.05324456 0.0074242167 -0.0014186165 -0.003399671 -0.0059425007 -0.027532535 0.047753233
0.0731378 0.037227273 0.06078805 -0.07829961 0.05171645 -0.022266002 0.023544943 0.05686428
0.07478095 0.01993025 0.045232747 0.014484271 0.059792317 0.01723182 -0.023506494 -0.088563435
0.046635795 -0.016710078 -0.033773858 0.060520057 0.047247216 -0.010087686 -0.02086572 0.0048259147
-0.049824685 -0.00765784 0.02889683 0.010555901 0.009554652 -0.011634039 0.029612388 0.006977121
-0.023516467 0.025662705 -0.032494027 -0.0044922857 0.01834456 -0.010758051 0.009166039 -0.002885322
0.029844338 0.03595224 0.0061329324 0.046035424 0.012243753 -0.0040064976 -0.02391046 0.06668179
0.04594566 -0.0052785254 -0.02546875 -0.005031528 -0.051227435 0.088879734 0.06350741 -0.01972301
-0.00038629695 -0.041168243 -0.034823965 0.06035721 0.06288228 0.040646847 0.022016857 0.050998453
0.03739591 -0.003158571 0.029142614 -0.008755394 0.022578195 -0.034274973 -0.0013693572 0.026782079
0.008166197 -8.591246e-05 -0.032342765 -0.026060108 0.05188798 -0.00730777 -0.03466458 -0.0026289888
0.0435357 0.021209855 -0.012065989 -0.021953434 -0.02099877 0.0006500151 0.005177829 0.057814036
-0.018986503 0.030787865 0.010357705 -0.008181527 -0.032069556 0.023676522 -0.035860926 0.08779794
0.059862535 -0.013023786 0.015445512 -0.017161766 -0.025697408 0.07105451 0.005150031 0.006522351
-0.014583668 -0.016318185 -0.015819194 0.039489776 -0.01571828 -0.0036170427 0.04433946 -0.007936913
-0.023835873 -0.029480716 0.028285535 -0.02333125 -0.030679183 -0.02036534 0.03565264 0.022564972
0.013910184 -0.0039930013 -0.023827145 -0.04709852 -0.017945327 0.025980141 -0.02121986 -0.026257366
0.04139105 0.12808686 -0.039073482 0.0064235744 0.05116985 0.022534592 0.051748846 -0.0025841778
0.020806333 0.018784724 0.0045704436 -0.023608198 -0.022089599 0.05242221 -0.015959706 -0.02866434
-0.02639871 0.009212341 -0.014118389 0.04583211 0.028247232 -0.02868339 0.026241172 -0.054647725
0.033353496 0.013323937 0.03953679 -0.075177655 -0.0034572715 0.006514956 -0.022313738 -0.018303

network_body._body_endoder.seq_layers.2.weight f4 [256, 256]
00000000: 4f93 eb3d 684f 863d 7dba 813d ecfc 8d3c
00000010: 78d6 ad3d ab18 903c 08f8 57bd 19e5 bcbd
00000020: edfa 533c a199 cc3c 4a4f 8a3d 08c7 4abb
00000030: 6c7a 033d fa79 1c3c 4822 943c da28 4d3d
00000040: 85be 903d 2e3a 4ebd 58aa b6bd 3070 3f3d
00000050: 523e 493d c1dc 373d 0b07 95bd ca74 d03d
00000060: ccad e2bd 9a2d 9cbd 521d 4f3d 89a6 6bbe
00000070: 8694 853d 3b73 ba3c bc7e 0abe 2d34 3b3b
00000080: e1b9 623c b5ce 3f3b d84c eb3b 1f44 763d
00000090: 470a 82bd 5347 d3bc 8956 09be 65e1 27bd
000000a0: 8b48 c93d d645 4a3d 95de 40bc 15f6 9fbd
000000b0: a000 27bd 24b6 86bd 7289 5a3b bdab ed3d
000000c0: 0920 083e dc60 bdbd 7a81 c9bd 505b 9abd
000000d0: b75f dfbb caaa 093e 0b23 9eba 0038 0b3b
000000e0: 1afa b8bd 5c42 863d 0205 343d 1edd 573d
000000f0: 3560 8cbc 1828 403c fda2 023e 9f3b 6dbc
00000100: 1f84 e43c 8156 703d 0357 893d 7812 3bbd
00000110: dc35 c23d 35f8 a63c 0b0c 64be f5ce 72bd
00000120: 6c7c 0c3c 9bfe 5d3d 80f7 c63b 1a72 12bc
00000130: 911a 7abd 3147 15bd a374 8dbd 4499 45bd
00000140: 89df 333b 88c8 c0bd ff49 c8bc 755f f03d
00000150: 3eeb 093c 4f69 6b3d 0f39 e8ba 8ea7 4b3d
00000160: e78d 80bd 9eb2 8bbd a650 7bbd 232d b2bd
00000170: 5396 c0bc 4ef6 ad3c 37e1 30bc 8f95 9cbd
00000180: a8b8 1d3c f084 293d ba34 be3b 0fe3 543d
00000190: 96a1 c8bb daa4 a23b 1082 4c3d df63 143e
000001a0: 5307 57bd b2a1 0bbb 383f 863d 6c58 c03c
000001b0: 0011 9d3c 8ce5 2fbd 5f74 76bd cb7c 3e3c
000001c0: 1a6e a9bd 68a9 88bd 2cbf c83c b80f 863d
000001d0: 63b2 933d 850a af3c 141c b13d abc2 2ebd
000001e0: da25 df3c ba8f 54bd 0bb7 52bb d9be d13c
000001f0: 7cf7 593d a44d a43d 46f2 f4bc bcbb 223c
00000200: 897a 8abc bc5e debb 2853 9b3c 01e6 36bd
00000210: 3fbb 92bd e96d c33b 2805 d2bc baa3 ffbd
00000220: af15 e6bc f856 99bd f07f 45bc ffee 89bd
00000230: 4b19 8ebb 1216 2c3c 237c 323d 18d9 b03c
00000240: 9baf b5bd 970b 9d3d dbe6 a63d 6194 513c
00000250: 22f1 3fbd 4103 8c3d dcec b83d 09f0 45bd
00000260: 2048 58bd b08d 74bd a694 79bc b466 5bbd
00000270: 842a 16bd 0d3c b43d 7f8c 0bbe cfec 543d
00000280: 6766 fabc 3c9e 12be 9710 84bd 7611 82bd
00000290: 7076 c5bd 7152 8abc 9804 86bc 3107 843c
000002a0: 0b0c 803c 5522 013d 86ed 49bd 08cb da3d
000002b0: c6fc 2dbd 4653 8fbc 5695 31bd 3783 a53c
000002c0: a037 643d 3239 a6bd d195 4ebd 509f a83d
000002d0: c3e5 493d 6cc1 993d 3380 063d 15db 3e3c
000002e0: 754f 583d c7d7 b23c f207 16bd 321c 653c
000002f0: f938 ccbc 6281 403d 4b60 393d bdb1 873d
00000300: a65a 143c c994 883d 2841 463c ea1c 7c3d
00000310: 9152 b83b 78a2 a7bc 823a 453d 4127 433d
00000320: 1d0c 93bb da8e a03b 33b7 e9bd e8a8 3abd
00000330: 6ed1 d4bd a641 f93c f4fd 793d 732a 653d
00000340: f035 9b3d ede9 2abd 9660 95bd 2875 453b
00000350: 2af7 bf3c d3c2 8fbc 1e5a 05bd 6440 bf3c
00000360: 7b52 4ebd 8c4c 683d a84d f5bc 7c46 1dbd
00000370: 9af1 28bc 774a b0bd f223 b73c c63b de3d
00000380: 0fe2 80bc 59e1 663d bf9d c83d 1092 163d
00000390: 31ae fe3c 74df 62bb 8a96 153b 56dc 7abb
000003a0: ba19 42bd 9702 94bd 9102 893c 2b5e 793d
000003b0: c11e d23d 5f62 e3bb 5c9e a3bc 018b 173d
000003c0: af7d 1abe 7149 83bd 01c3 0c3d 9dde 093d
000003d0: 3f9d c13d df1b 5d3b e4e9 a63d 2af0 99ba
000003e0: 5802 f1bc e4e2 fc3c 8c96 62bc e654 b9bd
000003f0: a0ec 19bd 8469 0a3e 7d74 7d3d b174 0a3d
0.11502706 0.06558114 0.06334398 0.017332517 0.08488172 0.017589888 -0.052726775 -0.092233844
0.012938243 0.0249756 0.067534044 -0.0030941386 0.032099172 0.009550566 0.018082753 0.050087787
0.07067589 -0.050348453 -0.08919209 0.04673785 0.0491317 0.04488826 -0.07276734 0.10178526
-0.110683054 -0.07625885 0.05056507 -0.23012747 0.06522469 0.022760024 -0.13524908 0.0028565035
0.013838262 0.0029267494 0.0071807913 0.06012356 -0.063496165 -0.025790846 -0.13411917 -0.040986437
0.098282896 0.049383007 -0.011771818 -0.07810608 -0.04077208 -0.06577709 0.0033346084 0.11605022
0.1329347 -0.0924699 -0.09839149 -0.07536948 -0.00681683 0.13444057 -0.0012064887 0.0021243095
-0.09032078 0.06555626 0.04395009 0.05270111 -0.017135719 0.011728309 0.12757488 -0.014479547
0.027895031 0.058676247 0.06706049 -0.04567191 0.09482929 0.020382026 -0.22270219 -0.0592794
0.008574586 0.05419789 0.006071985 -0.008938337 -0.061060492 -0.036444847 -0.06907012 -0.04824187
0.002744647 -0.09413248 -0.024449347 0.11736957 0.0084179025 0.057473477 -0.00177172 0.04972034
-0.06277066 -0.06821178 -0.06135621 -0.087000154 -0.02350918 0.021235611 -0.010795883 -0.076457135
0.009626545 0.041386545 0.0058046253 0.051974352 -0.006122778 0.0049634995 0.049928725 0.14491223
-0.05249722 -0.0021306095 0.06555027 0.023479663 0.019173145 -0.042943522 -0.060169574 0.011626433
-0.08272953 -0.06672937 0.02450522 0.06545967 0.07211759 0.02136732 0.086479336 -0.04266612
0.027239729 -0.05189488 -0.003215256 0.025603699 0.053214535 0.08022621 -0.029900681 0.009932455
-0.016904132 -0.0067861956 0.01896055 -0.044652943 -0.071646206 0.00596403 -0.025637224 -0.124824
-0.028086511 -0.07487291 -0.012054428 -0.06735038 -0.0043365113 0.010503309 0.043575417 0.021587893
-0.08871385 0.07668226 0.08149501 0.012791724 -0.04686082 0.06836558 0.09029552 -0.04832462
-0.05280316 -0.059705436 -0.015233194 -0.053564742 -0.03666164 0.08800516 -0.13627814 0.05198365
-0.030566407 -0.14318174 -0.06448477 -0.06350987 -0.09641731 -0.016885014 -0.016359612 0.01611671
0.015630743 0.031526882 -0.049298786 0.106832564 -0.04247739 -0.017495763 -0.04335531 0.02020417
0.05571711 -0.08116378 -0.050435845 0.082335114 0.049291383 0.075075954 0.032837104 0.011648913
0.05281015 0.021831406 -0.03662867 0.013983773 -0.02492951 0.04699839 0.045257848 0.06625698
0.009054815 0.066690035 0.012100495 0.061551012 0.005625077 -0.020463213 0.0481515 0.047644857
-0.004487528 0.0048998417 -0.114118956 -0.045571238 -0.10391508 0.030426811 0.061033204 0.055948686
0.07578647 -0.041726995 -0.07293813 0.0030129645 0.023433287 -0.017548954 -0.032556646 0.023346134
-0.05037163 0.056713626 -0.029944256 -0.038397297 -0.010311509 -0.08607953 0.022356007 0.10851245
-0.015732793 0.056367252 0.09795713 0.03676039 0.03108892 -0.0034618052 0.0022825324 -0.0038278303
-0.047387816 -0.072270565 0.016724857 0.06088082 0.10259772 -0.006939217 -0.019972973 0.0369978
-0.15087007 -0.06410492 0.034365658 0.033659566 0.094538204 0.0033738536 0.0815008 -0.0011744548
-0.029420063 0.030869909 -0.0138298385 -0.09049396 -0.03757918 0.13516814 0.06187867 0.03380269

network_body._body_endoder.seq_layers.2.bias f4 [256]
00000000: 639c b93b 668d 4f3c a612 b73c 019e 2e3c
00000010: fc47 15bc f6a1 803c a075 8c3c 1bbe e0bb
00000020: 45ba 483b ab3e eebb b7f0 523c 285b c53b
00000030: 7174 e63b f070 5b3c ed60 fdbc 6179 263c
00000040: 700c aa3c 5365 193b efbe bf3b 22b9 213c
00000050: 5d35 b43c 7c61 293c dddd b6bc 6f0b 713b
00000060: 9594 02bc ee1a 913a 1285 47bc 5c84 d1bb
00000070: f496 dd3c 0f19 053d c47b ce3c 1a26 b7bc
00000080: b77f 0e3c 7e17 c0bb 019a c5bc 1545 233c
00000090: 65f8 1f3c 230a c0ba a2d8 fa3b 933a f6bb
000000a0: 6a9f 5e3b 3548 913c a6f1 b639 85b5 9d38
000000b0: 9ff1 c0bc 4d10 103a b6d5 4dbb 1d07 7bbc
000000c0: 8e13 a2bc 24ad 6cbc 4f4b 07bc 9930 383c
000000d0: 2541 dfbb 7698 d6bc dc8b 3a3a 9c5d c7bc
000000e0: 40e0 1fbc aae7 973a 3d0f 95bc 2042 6ebc
000000f0: d914 4abc 219c c23c 7f29 0fb8 1485 28bc
00000100: 89ef dcbb 2d70 6fbc 6e13 793b 9132 343a
00000110: 326c 053d abdd 81bc 3de8 85b8 63db 1ebc
00000120: dbef 673c 70cc 61bc 68a8 5abb 217f 9fbb
00000130: ff61 c43c 2206 e03c ab14 793c 5032 953c
00000140: efe6 46bc d5a7 f1bb 54f8 d53c d192 de3c
00000150: ef0a dd3b d91b 8638 a56e c43c 55fd 993c
00000160: 519e be3c d240 42bc b7db 603b 3726 f0bb
00000170: 5a93 903c 1092 ecb9 b906 1d3c 883a 0d3d
00000180: a5e3 70bc 8c11 01bd fb2c 9b3c f13d 1fb9
00000190: 37c9 433c a4f6 483c fbbc a43c 4b3a 7dbb
000001a0: 2eb9 62bc 88f2 913c 8ba9 723c d9ef d3bb
000001b0: ab15 333b 4673 b4bc 531e 103d 6bc2 4cbc
000001c0: 7d6f a6b8 4945 fa39 7fef c03c 8936 b6bc
000001d0: 4cc9 7c3b 2579 89bb affd 32bc e291 9f3b
000001e0: 34e1 26bc 0a31 d0bc 4113 38bc fa04 eb3a
000001f0: 184c c53b 3960 95bc 9ca9 c2bc cf92 0ebc
00000200: ada2 54bc 066e aebc 5391 9bbc 0d77 6f3b
00000210: 7d22 42bc fd4d 023d 5832 4f3c a829 51bc
00000220: b9dd 913c f8d5 1bbc 0fde 743c 8085 403c
00000230: c119 b73c c3df 243c fb15 e03c 01e8 bfbc
00000240: 583e 923c 0434 a1bc ec46 96bc 50a5 b43c
00000250: 2771 0c3c 2c4e ba3c b0e8 9e3a a3a4 233c
00000260: 7f93 f63b ea7b 0b3b 5ebc 01bd 8475 4bbb
00000270: f115 b13c 4b42 a9bc 9699 f53b d98a 8f3c
00000280: c6c0 2b3c ea2b 073c 5932 093b d419 1d3d
00000290: 23d3 2b3c e96e 823b 2185 80bb b0ec 4b38
000002a0: e994 b23a 171e c2bc aed0 24bc 19cb 82bc
000002b0: 8ac8 87bb 4066 39bc d098 b03b ed42 10bc
000002c0: e28c 8aba 01a8 853c 10d0 26bc 6685 113c
000002d0: 2dbf 3f3b 4c68 b33c 2eb4 0c3c 7c6f a2bc
000002e0: dffa 373c 3170 4cbc 5296 a1bb 95bb f63c
000002f0: 324f 03bc e54e 813b a719 e6bc 2343 243a
00000300: 323a b43b 8087 243c 976a 433c 668f a1bb
00000310: bb1d f43c d850 e13a 4c10 bdbb af62 433c
00000320: f5cf ecba b556 bf3b 54bc 8f3c 5a66 f3bb
00000330: a216 6b3c 7715 a23c 92ca cebc d911 12bc
00000340: 3b87 3c3c 666b 19bc e75c b1bb 1404 913c
00000350: 657e c4bc 674e bebb f45a 0e3c 6ec0 323c
00000360: 10f6 a43c 5313 cd3b 478e 5f3c 3217 6b3b
00000370: 7782 e938 743a 993c d320 0b3d 0d8d 49bb
00000380: b68f 57bc bb6f f83b 8f11 f93b f57e 0a3d
00000390: 8417 3bbc 6d28 d63c 5de2 97bb 3d7e 94bc
000003a0: 7976 50bb c9cc 1bbc d883 c43b d3ba 843c
000003b0: f722 2239 d4b8 a939 bd31 123b ae9b 663b
000003c0: f80e 9e3c 7ab9 083c 6fb2 b33b d539 81bb
000003d0: d75f 213c 433e 97bb ccbd a9bc 7e8d cd3c
000003e0: 0bda 61bc a884 0b3a e1f5 a73c 1a02 003b
000003f0: 4865 edbb 55f3 183d 1b8d 283d c8e5 16bc
0.0056643947 0.012667989 0.02234776 0.010657788 -0.009111401 0.015702229 0.017145932 -0.0068586
0.0030628603 -0.007270654 0.012874774 0.0060228296 0.007032924 0.013393626 -0.030930007 0.010160775
0.020757884 0.0023406341 0.0058516185 0.009870799 0.021998102 0.0103381835 -0.02232259 0.0036780497
-0.007969995 0.0011070648 -0.0121777225 -0.0063939523 0.02704952 0.0324946 0.0252055 -0.022357035
0.008697442 -0.0058621755 -0.024121286 0.009965201 0.009763812 -0.0014651458 0.007655219 -0.007514307
0.003396953 0.017734626 0.00034893787 7.520154e-05 -0.023552714 0.0005495593 -0.00314079 -0.01532152
-0.019784715 -0.014445577 -0.008257701 0.011242055 -0.0068131858 -0.026195746 0.00071161776 -0.024336629
-0.009758055 0.0011589427 -0.018195743 -0.014542133 -0.012334072 0.023756089 -3.4132503e-05 -0.010285635
-0.006742422 -0.014614147 0.0038005966 0.000687399 0.032573886 -0.01585277 -6.385192e-05 -0.009695861
0.014156307 -0.013781652 -0.0033364538 -0.00486745 0.02397251 0.027346674 0.0152026815 0.018212467
-0.01214002 -0.0073747435 0.026119389 0.027169617 0.006745688 6.394805e-05 0.02397854 0.018797556
0.02326885 -0.011856275 0.0034310648 -0.0073287743 0.017648388 -0.00045122253 0.009584122 0.034479648
-0.014702712 -0.031510875 0.018942347 -0.00015186497 0.011949829 0.012265835 0.020109644 -0.0038639482
-0.013838096 0.017815843 0.01481093 -0.006467801 0.0027326148 -0.022027623 0.03518517 -0.012497525
-7.936263e-05 0.00047735337 0.0235517 -0.022242801 0.003857213 -0.0041953498 -0.010924741 0.0048696855
-0.010185529 -0.025414009 -0.011235059 0.001793056 0.006021034 -0.01823436 -0.023762517 -0.008701994
-0.012978238 -0.021292698 -0.018990194 0.0036539466 -0.011849043 0.031812657 0.01264628 -0.012766279
0.01780592 -0.009511463 0.014945521 0.011750579 0.022351148 0.010063115 0.027354231 -0.023426058
0.017851993 -0.019678123 -0.018344365 0.022051483 0.0085718995 0.022742353 0.001212379 0.009987983
0.007524907 0.0021283575 -0.03167378 -0.0031045387 0.021616908 -0.020661494 0.0074951155 0.017522262
0.0104829725 0.008250216 0.002093455 0.03835471 0.010487351 0.0039805067 -0.00392212 4.8619404e-05
0.0013624701 -0.023695989 -0.010059519 -0.015965985 -0.004143779 -0.011315882 0.0053893104 -0.008805019
-0.0010570551 0.016315462 -0.010181442 0.008881902 0.0029258237 0.021900319 0.00858788 -0.01982855
0.011229246 -0.01247792 -0.0049312497 0.030118743 -0.008014487 0.0039461725 -0.028088404 0.00062661077
0.0055001015 0.010042071 0.0119272685 -0.0049304245 0.029799333 0.0017190231 -0.005769765 0.0119253835
-0.0018067347 0.0058391937 0.017545857 -0.0074279727 0.014348658 0.019785626 -0.025243077 -0.008915388
0.011506851 -0.009363985 -0.005412686 0.01770214 -0.02398605 -0.005807686 0.008688677 0.010910137
0.020136863 0.006258407 0.013644761 0.003587198 0.00011134607 0.01870463 0.03396685 -0.0030754239
-0.013156822 0.0075816787 0.00760097 0.033812482 -0.011419181 0.026142323 -0.004635139 -0.018126601
-0.0031808896 -0.009509274 0.0059971623 0.016202366 0.0001546255 0.000323719 0.0022307478 0.0035188007
0.019294247 0.008345002 0.0054839174 -0.0039436617 0.00984951 -0.0046155765 -0.020720385 0.025091883
-0.013784896 0.00053221965 0.020502986 0.0019532503 -0.0072447397 0.037341435 0.041150194 -0.009210058

action_model._discrete_distribution.branches.0.weight f4 [4, 256]
00000000: b5d2 3bbc c75e 92bc 7689 8b3c 6203 b63a
00000010: dc31 2abc 3e01 0f3d ebf0 243b ed8b 553c
00000020: 69f1 1e3c 7463 15bc b420 49bc e7cc 2a3c
00000030: 9660 31bd 9308 7dbc 866d a63c 168c 99bc
00000040: cb48 f1bb ecc8 393c 2e10 513b d1e7 c1bc
00000050: 6422 94bc 0d0e aebb ea8e 483c df05 f03b
00000060: 330f 94bc 8f52 b53c 1078 b13b 720c 343c
00000070: 4b55 04bd 2984 14bd ec73 903c 7432 8c3c
00000080: 76bf 94bc 8363 c9bc 87d9 1c3c 5220 883a
00000090: 2f2f a6ba b262 153c 1ca0 273c a6c0 d43a
000000a0: b4c1 403c 0127 273c a344 193c 8030 883c
000000b0: 02c2 c53c a957 fabb 0e0e 39bc 383d cabc
000000c0: cdbd 8d3c 6c88 4cbc 3f4d 4abc dc49 9d3b
000000d0: 6eb1 653c 371a 23bb 64d9 c83b 903c 473b
000000e0: a1c2 07bc a3f8 423c cd07 3b3c b9f3 2dbb
000000f0: a929 b83b a752 6cbc 9e73 01bc 4be6 94bc
00000100: c58f 743b e99d 553c 3450 ef3c fdc6 363c
00000110: 3396 d8bc 6e52 b13c f37e 6fbc f6fc 563b
00000120: 1a49 dabc 97e7 62bb f3ae fbbc 6c77 823c
00000130: 0f65 333b 61f9 88bb e668 66bb 7de0 c03a
00000140: e616 77bc 60b2 98bc 58df ff3c 740a d9bc
00000150: 6dcf ce3c 9093 a5bb d9b0 94ba 36c1 e23b
00000160: 4706 7d3b 0450 a6bc da2a e9bc 683c c6bb
00000170: 2dae 903c c474 0dbb 0ad7 f3bb 7001 5f3c
00000180: 9533 8c3c 6146 c53b db45 90bc 57ae 12ba
00000190: 6ebc 7fbc f3f3 a1bc 38b2 8cbc eea0 353b
000001a0: fd43 9bba 1b90 4fbc 86ad a53c 9f01 a63a
000001b0: 5506 413c f742 a63c 2df6 bf3b 5f4e b13c
000001c0: 1e87 173d 59d6 393c 9f7a 2cbc 0667 8e3c
000001d0: 3f2d 183c 1668 5c3c c2b0 e53c 3798 1d3c
000001e0: ba92 15bc 379d e63c c2e9 073c f391 b7b9
000001f0: 23e6 2fbc 6b7a d93b 102b 3b3c aa9a 26bb
00000200: dc3c d23b 4c20 bf3c 59b1 fd3c 81b9 83bb
00000210: 9f88 0ebd 5aaf 933c 22a2 1cbb 93ea a9bc
00000220: 2543 503b 285a d43c 7c47 333c 9ce8 473c
00000230: f1bd c7bc 7951 bd3c f10f fbbb 9b80 a2bb
00000240: f24d 62bc 90ed fd3b d6f5 1eba e3ab 1fbc
00000250: a8e9 f0bc 2ef0 e63b 0419 d13c 13e4 babb
00000260: 1ef3 bb3c 4c35 b73b beb1 d73c 3fbc 5dbb
00000270: dfba 48bb 4f26 593a caac e5bb a9f9 c7ba
00000280: 526f ab3c 0cd4 c8bc 537c 403c 4964 bcbc
00000290: a304 b9bb 261a 92bc c46c d13a 37c0 653b
000002a0: 844a 4cbb 69e7 8b3c 0c53 e1bb 6b78 a73c
000002b0: c9b1 423c b7a7 8f3c 7a2a ee3b 7ac2 a4bc
000002c0: 74a5 1cbd 67c5 ed3c 833b 05b9 1862 1bbc
000002d0: 50fd 2ebc 04be cfbb b181 703b 31a8 05bc
000002e0: 2cc4 d5bc 0da0 2c3c 1d47 b03b 8bd9 9dbb
000002f0: 6127 9c3c 2f8f 4ebc 7446 ab3b ab06 0c3c
00000300: 4b6c df3b 1c5d 94bc 8cd8 84bb fb9c ae3c
00000310: b246 05ba ab73 c7b9 efe2 f4bc 6518 4e3c
00000320: df92 06bc fcf4 70bc 5ef7 0cbd 80bf 123c
00000330: fa91 c63b c3ad 67ba 44b7 e73a a217 393b
00000340: da46 10bb 6875 c23b 536a d439 4dfa 0bbc
00000350: b9bc 0a3d a897 1bbc f248 bdbb e648 6a3c
00000360: 2820 943c 003b f83c 1568 69bc d0f3 713b
00000370: 3532 cf3b b0a5 06bc 3ea6 893a 9096 89bc
00000380: 0b5b 283c 62fb fe3b 116c f93b e360 d3bc
00000390: d0a3 9c39 109a 4cbc 9a6e 433b 5be0 8f3b
000003a0: 2d1d a3ba 45c9 caba f6cf 0c3c c2b6 80ba
000003b0: db37 5e3c 86bf 9abb fd82 eb3b 20ed c23c
000003c0: 75f9 41bc e4a3 9abb 02d7 1d3b 9dbb 81bb
000003d0: e4a3 afbb 5cce 893c d423 6abb e007 3fbc
000003e0: 6e99 1d3d 04d5 823b 82ca 4bbc 1d70 79bc
000003f0: 2b0b fcbc 0b87 b9bc c660 773c ac3d 93bc
-0.011463811 -0.017867459 0.01703332 0.0013886506 -0.010387864 0.034913294 0.0025168012 0.013033849
0.009701111 -0.00911795 -0.012275863 0.010424829 -0.043305002 -0.015443939 0.020315897 -0.018743556
-0.007363414 0.011339407 0.0031900513 -0.023670109 -0.018082805 -0.0053117336 0.012241105 0.0073249186
-0.018073654 0.022134094 0.005415924 0.010989295 -0.032307904 -0.03625885 0.0176334 0.017113902
-0.018157702 -0.024583584 0.009573347 0.0010385609 -0.0012678857 0.009117769 0.010231044 0.001623173
0.011764932 0.01020217 0.009354743 0.01662469 0.024140362 -0.0076398444 -0.011294855 -0.024687394
0.017302418 -0.012483697 -0.0123475185 0.0048000645 0.014019353 -0.0024887451 0.0061294306 0.0030401088
-0.008286149 0.0119001 0.011415434 -0.0026542975 0.0056202007 -0.014424003 -0.0079011 -0.018176218
0.0037317139 0.013038137 0.029213049 0.011155841 -0.026438808 0.02164575 -0.014617669 0.0032804585
-0.026646186 -0.0034622902 -0.03072307 0.015926085 0.0027373468 -0.004180119 -0.003515774 0.001471534
-0.015081143 -0.018639743 0.031234428 -0.026494242 0.025245393 -0.005052991 -0.0011344209 0.006920005
0.0038608478 -0.020301826 -0.028462816 -0.0060496815 0.017661178 -0.002158449 -0.007441406 0.013611183
0.01711444 0.0060203527 -0.017611435 -0.00055954367 -0.01560889 -0.019769644 -0.017174825 0.002771433
-0.0011845824 -0.012668635 0.020224344 0.0012665278 0.011781295 0.020295603 0.005858204 0.021643816
0.036994092 0.011342608 -0.010527282 0.01738311 0.009288131 0.01345255 0.028038386 0.00961881
-0.009129221 0.028151138 0.008295478 -0.0003501322 -0.010736021 0.006636908 0.011423841 -0.0025421777
0.0064159464 0.02333083 0.030968355 -0.0040199165 -0.03479826 0.01802795 -0.002390035 -0.020741737
0.0031778303 0.025921896 0.010942336 0.0122014545 -0.024382563 0.023110138 -0.0076618125 -0.0049591786
-0.013812529 0.007749267 -0.0006063854 -0.009745571 -0.029408291 0.0070476746 0.025524624 -0.005703458
0.022943076 0.0055910703 0.026329871 -0.0033834127 -0.0030628962 0.00082836015 -0.0070091235 -0.00152569
0.020927105 -0.024515174 0.011748391 -0.022997038 -0.0056463047 -0.017834734 0.0015977849 0.0035057196
-0.0031172344 0.017078118 -0.006876355 0.020443162 0.011883208 0.017536027 0.007268247 -0.020112265
-0.038243726 0.029024793 -0.00012706038 -0.009483837 -0.010680512 -0.0063397903 0.0036698396 -0.008157776
-0.026094519 0.010536206 0.005379571 -0.004817193 0.019061746 -0.01260738 0.0052269045 0.008546512
0.0068183294 -0.018110804 -0.0040541347 0.021315088 -0.0005084082 -0.00038042417 -0.029893367 0.012579058
-0.008213728 -0.014706846 -0.034415595 0.00895679 0.006059882 -0.0008837843 0.0017678519 0.0028242846
-0.0022014887 0.005934406 0.0004051501 -0.008543563 0.033871386 -0.009496607 -0.005776518 0.014299607
0.01808174 0.03030157 -0.0142460065 0.0036919005 0.006323124 -0.008218214 0.0010501815 -0.016795427
0.010275613 0.007781432 0.0076117595 -0.025803035 0.00029876688 -0.012487903 0.0029820562 0.004390759
-0.0012444608 -0.001547136 0.008594504 -0.0009820091 0.013563122 -0.0047225384 0.007187246 0.02379471
-0.01183926 -0.0047192443 0.0024084453 -0.003959133 -0.0053601135 0.016822033 -0.0035726922 -0.011659592
0.0384764 0.0039926786 -0.012438418 -0.015224484 -0.030767044 -0.022647401 0.015098756 -0.017973743

action_model._discrete_distribution.branches.0.bias f4 [4]
00000000: 853f a93a 198b 0a3d 7404 203a 7e22 0cbd
0.0012912607 0.03382406 0.0006104179 -0.03421258

action_model._discrete_distribution.branches.1.weight f4 [15, 256]
00000000: 8355 b5bc 105c 17bd b231 9a3c b7c5 e0bc
00000010: 0fd1 cb3c 62ee 5abb f8e4 703c 6bb5 883b
00000020: fd93 233d 8b3f 9b3b 0a94 b23a 9dc1 4cbc
00000030: 70b0 da3b 5544 9cbc fc76 6fbc 259c f53c
00000040: ca1f 37bd 4011 263d 4d83 c83c 3d34 ffbb
00000050: 22e5 443c 36bf eabc ad2b 903b 0944 583c
00000060: cd89 aabc 745c 5fba a032 243b 6a77 b93c
00000070: 556e b53c 4d87 2a3c 2d47 303c 9b49 483b
00000080: 96d2 e8bb b46d db3c 1281 193d d8cf fb3b
00000090: 3ec1 a53b 4a5b 4fbc a697 f43b 3ce6 83bc
000000a0: a3e6 b03b 6508 033d 314a 813b e487 22b9
000000b0: c6d3 75bb 1f82 063d 907b 4fbc efab 5a3b
000000c0: 1e47 05bd 5f04 1cbc 1748 cf3c d520 fcbb
000000d0: b4fe 71bc b239 5d3c e556 dbb8 567f c43c
000000e0: 363b 93bc e46a 873c 7bd6 2d3d 5be9 153c
000000f0: 91c0 0c3d bd1c 8fbb b789 11bd a8cb 47bd
00000100: d4ae 793c 4aa0 183c 4479 ee3c 52ce 3e3c
00000110: c391 e43b 5c29 6d3c 86c9 0cbd 87a0 cbbb
00000120: 404e 98bc f5ad 673a ccd3 0dbd 7194 833c
00000130: 5200 113c 9069 e0bc e219 eabc 3be0 323c
00000140: 9a44 8f3c f3e9 883a 8eb9 9e3c ac6a 3bbc
00000150: c076 8d3c f6ac 063c 3756 103d a9c8 45b9
00000160: 77ae b43b 4419 48bb c96a d33a a7cd b6bb
00000170: 01aa 5c3c b742 d4bc 84f1 d03c c87f 9c3a
00000180: f754 8a3c 6d93 b5bc cfa0 4ebc dfa3 8f3c
00000190: 1427 6f3c b92c d53c 9eff f1bb 60c2 763c
000001a0: 712f d63c da55 053c 96b1 8a3c 5609 f73b
000001b0: 4ef8 8abb b9f7 693c ab17 21ba 5235 bbbc
000001c0: e7f9 073d 9e71 f2bc 5854 57bc 2187 293c
000001d0: 2f4f 85bd 193a 843c 3fdf b43c 6773 6bbc
000001e0: a18c 06bd 5a57 4b3d 76a3 923c 5878 9c3c
000001f0: c8e7 373b 695d 8ebb b977 87bc cb26 d93c
00000200: 706c d83c d564 a73c 1e74 533c 919b 5abc
00000210: 2e44 ef3a 9c3c 8ebb 9e52 ff3c e14d 223c
00000220: 5eb6 c43c 9369 14ba 293d 1d3c f583 8ebc
00000230: 9b01 6cbb 755e d73c 8b83 d33b 3eda 8c3c
00000240: 86fb cdbb 49ee 003d dd7b 133c fffc c63c
00000250: ec6e 26bd c117 c33c 1eb2 853c 05d1 16bc
00000260: 45b2 1a3c cfd3 11bd 3c97 31bc 8a16 b0bc
00000270: b491 84ba ef5f 14bc 27b1 8438 4f07 843c
00000280: 6bd4 a53c d175 f4bc 5bab bbbc 384b 073c
00000290: fda4 e23b a965 4bbd 3d60 823b d2b1 a6bc
000002a0: 1ca3 47bc d772 c73c 23a8 abbc d2a8 3dbb
000002b0: 3345 5e3d 464f 79bc 7bf2 85bb 4f53 84bc
000002c0: 21db 12bc 8e92 533c 7c6e 7f3c 269b 64bd
000002d0: bf35 f8bb 0fbd 8d3b 0baa ad3c 713d ccbc
000002e0: 2079 633a 94b6 9f3b e34d e6bc 2b80 7b3b
000002f0: 0358 ebbb 5fbe 32bb d30f 563c 017e 493c
00000300: 4593 09bb c4b6 7abc 0432 363c 904e cb3b
00000310: d9af 723c dc1d 0f3d a6e5 17bd 3808 a33c
00000320: 63d7 5a3c 03bd 043c e6b0 35bd 6578 1a3c
00000330: 8733 0c3c 66db 1fbc e0b7 8abc 6bd2 603c
00000340: 4ecb 00bd f6b0 85bc 2c79 cd3c 8996 823c
00000350: d5b1 233c 2ea3 93bb ba29 803b d396 ceb9
00000360: dd7d 8b3c 9ea8 913c d747 9bbb 8b09 e53c
00000370: 229e 83bb b94a 48bc 0e78 81bc 6948 1c3c
00000380: e144 873c 9ad0 b43a 35be 94bc 753d 353b
00000390: dad9 34bc 5176 323b 1bcd d4bc 5217 ec3c
000003a0: 5a98 32bd 01af 8d3b 2aa9 3cbc 95c6 353b
000003b0: 07dc 6dba f877 873b ac21 28bc 3e1f 513c
000003c0: 9dc9 a0bb afa5 f5b9 ede6 c53c c3cd e3bc
000003d0: 0706 1cbd a76d 653c 76e7 183d 4b18 60bc
000003e0: 2f59 f03c 5b24 ef3c 552c b43b c950 0cbd
000003f0: ef2c acbc 5f7f a5bc 4f17 50bc 4d4f a2bc
-0.022135502 -0.036953032 0.018822525 -0.027438028 0.02487996 -0.0033406247 0.014703028 0.0041720173
0.039936054 0.0047377995 0.0013624441 -0.012497333 0.006673865 -0.019075552 -0.01461577 0.029981682
-0.04470805 0.040543795 0.024476672 -0.0077882097 0.01201752 -0.02865563 0.004399738 0.013199815
-0.020817662 -0.00085205515 0.002505459 0.022639949 0.022147337 0.010408235 0.010759157 0.003056145
-0.007105182 0.026785709 0.037476607 0.007684689 0.0050584367 -0.012656042 0.007464367 -0.016100995
0.005398588 0.031990428 0.003945612 -0.00015500147 -0.003751026 0.032838937 -0.012663737 0.003336664
-0.032538526 -0.0095225265 0.02530293 -0.0076943436 -0.014770199 0.013502525 -0.00010458919 0.0239865
-0.01797257 0.016530462 0.042440873 0.009149875 0.034363333 -0.0043674395 -0.035531726 -0.048778206
0.015239436 0.00931556 0.029110558 0.01164587 0.006975384 0.014475193 -0.034371875 -0.0062142047
-0.018592 0.00088378723 -0.034625813 0.016061993 0.008850174 -0.027394086 -0.028576795 0.0109177185
0.017488766 0.0010445699 0.019375589 -0.011439007 0.017268538 0.008219948 0.03523847 -0.00018862136
0.005513962 -0.0030532638 0.0016129847 -0.005578715 0.013468266 -0.025910718 0.025505789 0.0011939937
0.016886218 -0.022165025 -0.012611582 0.017534195 0.014596719 0.026022302 -0.0073852083 0.015060991
0.026145669 0.008138144 0.016930383 0.0075389547 -0.004241026 0.014280253 -0.00061451894 -0.022852574
0.03319731 -0.029595193 -0.013142668 0.010347159 -0.06509244 0.016140984 0.022079108 -0.014370776
-0.032848958 0.04964385 0.01790021 0.019100353 0.0028061736 -0.0043446315 -0.01653658 0.026507756
0.026418895 0.020433823 0.012906102 -0.013342754 0.0018254572 -0.0043407213 0.031167325 0.009906263
0.02401274 -0.0005661484 0.009597101 -0.017396906 -0.00360117 0.026290158 0.00645489 0.01719391
-0.0062860874 0.031477246 0.009001699 0.02429056 -0.040633127 0.023815038 0.016320284 -0.009205108
0.009441917 -0.035602387 -0.01083928 -0.021495122 -0.0010114224 -0.0090560755 6.327248e-05 0.016116766
0.02024289 -0.029841335 -0.022908857 0.00825768 0.006916641 -0.049657498 0.0039787577 -0.020348463
-0.012184884 0.024346752 -0.020954197 -0.0028939736 0.054265212 -0.015216654 -0.004087744 -0.016153006
-0.008963377 0.012913359 0.015590306 -0.055812024 -0.0075747664 0.004325516 0.021199247 -0.024931641
0.0008677412 0.00487406 -0.028113311 0.0038375955 -0.0071821227 -0.0027274115 0.013065296 0.012298108
-0.002099232 -0.015302364 0.011120323 0.0062044337 0.014812433 0.034940585 -0.037084244 0.01990138
0.013357016 0.0081017045 -0.044358157 0.009428118 0.008557207 -0.0097568985 -0.016933382 0.013722043
-0.031443886 -0.016319733 0.025082193 0.015940921 0.009991129 -0.0045055365 0.003911224 -0.00039403755
0.01702779 0.017780598 -0.0047387886 0.027958652 -0.0040166536 -0.0122248465 -0.015804317 0.009538748
0.016512336 0.0013795078 -0.018157104 0.002765504 -0.011038268 0.0027231167 -0.025976708 0.028819714
-0.043602325 0.0043238406 -0.011514941 0.0027736772 -0.0009073619 0.0041341744 -0.010261934 0.012763796
-0.0049068467 -0.00046853485 0.024157966 -0.027808076 -0.038091686 0.014003194 0.037330113 -0.013677667
0.029339401 0.02919214 0.005498449 -0.03425673 -0.02101752 -0.020202337 -0.01270087 -0.019813204

action_model._discrete_distribution.branches.1.bias f4 [15]
00000000: ff50 21bb 9306 703a fa5d 3e3c 1921 aebc
00000010: 94df 063d 700f 193d 1f33 0bbd 3934 ce3c
00000020: b5f2 c33c c284 d5bc 75b5 713c 6647 f3bb
00000030: 46b9 3abc 494c 03bd bfea febb
-0.0024614928 0.0009156253 0.011619085 -0.021256017 0.032928064 0.037368238 -0.0339843 0.025171386
0.023919443 -0.02606428 0.014752735 -0.007424283 -0.011396712 -0.032055173 -0.0077794488

action_model._discrete_distribution.branches.2.weight f4 [15, 256]
00000000: 7798 14bb 3a13 ab3c 30ae 3a3d 0c89 113c
00000010: de00 6fbb 67ad 833d c4a5 363d 2365 03ba
00000020: c6e9 a53c 485f 93bb a2a6 3ebd 875c 053d
00000030: 12ab d2bc 6ac3 723d 1c32 8f3c ebfc ae3c
00000040: ffcf df3b f8f8 e5bc 7ab2 f03c 7a01 edbb
00000050: a281 0c3c 923d ba3c 9a46 133d de38 0d3c
00000060: 16b9 e43b ea2f fa3c e4ad a8bc 502f 7b3b
00000070: 731a 123c 9dc2 babc 7d15 3d3d 013d a13c
00000080: 8fd1 853c 69ba a33b 7f52 6dbc 07a7 6abb
00000090: 7756 803c d0c9 f9bc 3c95 a33b 6975 763d
000000a0: 71ad f5bc da8c 823b bd21 0ebc 556e 4cbc
000000b0: 07c3 043c c0a0 2a3d b63d 603c e99c 9bbb
000000c0: 88e4 fc3c 042a 6fbc 0501 363d 1829 ecbb
000000d0: 051c aebc 0ef9 a5bc 873c 1a3b 0c25 4cbd
000000e0: fbcb 0c3c 6964 023d 28f4 d1bc b6f2 553c
000000f0: b498 9abb 5c14 d63c 504e 153d 3afe 643b
00000100: 2aa5 00bd 1f97 573c df4b b13c f2ee 8c3a
00000110: 4085 a43b cf38 9e3c a30b b5bc 4164 ed3a
00000120: d914 8d3c 3ea2 2e3c 3d57 693c 6fce fb3b
00000130: 40ae e6bc 2b20 0d3d ca70 223d 2a6c 56bd
00000140: 1487 1d3c 36b9 873c 4d96 f13c bf0b 25bd
00000150: 1cd8 19bd 49a4 4039 1b8a b13c cc16 0e3d
00000160: 9527 253d 4cca d23b 7ec3 093d bc71 cc3c
00000170: 90a5 0f3d a7c8 c13c a349 423c a40a 153d
00000180: 08f0 36bc 9029 953b ce91 4cbc fd30 2f3b
00000190: 2128 943c 78c1 07ba dea9 46bc 0474 ce3c
000001a0: cdc2 c33c 5c60 143c d6eb d43c 80c1 0abd
000001b0: 5269 2a3a 7dd8 1d3d 3bff 893c a122 19bd
000001c0: 5768 48bc ba30 703d 6255 10bd bbdf a03c
000001d0: 0e69 b0bc 7a83 8a3c 7cce a63c d656 5bbc
000001e0: d113 183d 1848 943c 59cf e0ba e9fb fc3c
000001f0: 7920 c2bc da5b 193d 530d 703c 06ef e7bc
00000200: 9659 65bd d617 0c3d ac5b e63c 3905 5cbc
00000210: abd6 a1bc bf27 b03c 453d c93c 6c97 e4bb
00000220: 1315 583c 528f edbc 935c f83c 8671 20bd
00000230: c1ed 08bd 5197 6dbb 12e9 5b3d 2ec1 423d
00000240: 72fd 59bc 0878 2abc b0a9 58b8 4e32 1b3b
00000250: a704 273d 82e1 233a acad 8cbc cff0 113d
00000260: f194 11bd 7449 6c3a 90b0 14bb fc6d 1d3d
00000270: 71c2 1a3b ff3a 793c 317a 2ebd f675 17bc
00000280: 6d6b 343d 01df 4e3c 1a78 443d 6c3b c8bb
00000290: 35d8 4abc c914 f4bc f526 55bc edf8 20bd
000002a0: dd0c dc3c d775 4f3d cd03 ac3b 77df 39bd
000002b0: 414f d6bc 33ef b73c 022e 603d 72c5 d93c
000002c0: 801c ce3c 6658 953b e1bd c13c 5cc2 a2bc
000002d0: 3076 f23b 092e f1bc ec23 ad3c 8587 583c
000002e0: cd2a e6bc b10c 14bc 9ff4 753d 7cc3 90bc
000002f0: e71f da3c fe4c 26bc 1c7a eebc dead 13bc
00000300: 476c 3b3c c220 203d bdb8 73bd 7c45 e23b
00000310: 84e3 d4bb 10df 143d 4955 913c 00b6 f53c
00000320: ec31 0b3b 4c88 bf3c 69ce 2abc 9e5b 793d
00000330: 8a2e 8a3c 3621 8fbc f2af 693b 8786 0f3d
00000340: 88ef ef3c 6eaa dc3c a382 773d 4a0f a6bb
00000350: bd29 babc 09c1 9a3d fc83 753c 7473 e1bc
00000360: 10eb ba3c 325e 873c adf7 dfba 3a97 053c
00000370: b3bc 5abd cf67 373c 085b 383c d3b5 cf3b
00000380: 4363 ae3c 24da d63b 17c3 ab3c 0676 4f3d
00000390: 74e7 5d3c 10ce 6a3b 1449 d13c 08e6 1cbd
000003a0: dff3 503c 7cd6 c2bc 0f00 313d c9d7 87bb
000003b0: 84c2 723c 434b 0b3c 2489 f93c 53b7 1e3c
000003c0: 3b32 ee3c 9c60 173c 337d 173d 6679 1fbd
000003d0: 6e8d 383d 5a34 a73c 99c8 b7bc 9f1c 893c
000003e0: 8eb5 bc3b 106a c63c b239 123b 4d2b 1ebc
000003f0: 21cf 78bc e497 cfba 23ef 1c3c f502 503d
-0.0022673884 0.020883191 0.045576274 0.008882772 -0.0036469023 0.06429558 0.04459168 -0.0005012324
0.020253073 -0.0044974424 -0.046545632 0.032558944 -0.025716338 0.059268393 0.017479949 0.021360835
0.006830215 -0.02807282 0.02938198 -0.007232842 0.008575829 0.022734437 0.035956003 0.008619515
0.006980072 0.030540425 -0.02059073 0.003832776 0.008917439 -0.022797877 0.04616307 0.01968241
0.016335277 0.004996587 -0.014485001 -0.0035805122 0.01566623 -0.03049174 0.0049921554 0.060170565
-0.02998993 0.003984076 -0.008675036 -0.012477477 0.008103139 0.04165721 0.013686588 -0.0047489298
0.030870691 -0.01459742 0.044434566 -0.007207047 -0.021253595 -0.02026036 0.0023534612 -0.04984002
0.008593555 0.03183404 -0.025629118 0.013058355 -0.0047179107 0.026132755 0.036451638 0.003494157
-0.031407513 0.013158589 0.021642623 0.0010752364 0.0050207675 0.019314198 -0.022100275 0.0018111543
0.017221855 0.010658799 0.014241991 0.007684521 -0.02815926 0.034454506 0.039658345 -0.052349247
0.009614725 0.016567808 0.029490614 -0.040294405 -0.037559614 0.00018371748 0.0216723 0.03468971
0.04032095 0.006432807 0.0336337 0.024956577 0.035070002 0.023655249 0.011858377 0.0363871
-0.011165626 0.004552074 -0.012485934 0.002673208 0.018085541 -0.00051786704 -0.01212546 0.025201805
0.0238966 0.009056177 0.025991362 -0.033875942 0.00065006793 0.038536537 0.016845336 -0.03738654
-0.012231908 0.05864022 -0.035237677 0.019637933 -0.021534469 0.016908396 0.020362131 -0.0133874025
0.037128273 0.018100783 -0.0017151638 0.030881839 -0.023697125 0.037441112 0.014651614 -0.028312217
-0.05599364 0.03420242 0.028119884 -0.01342898 -0.019755682 0.021503327 0.024565348 -0.0069760587
0.013188618 -0.028999005 0.03031758 -0.039170764 -0.033429865 -0.0036253522 0.05368907 0.04754751
-0.013305055 -0.010404594 -5.1656447e-05 0.0023681107 0.04077592 0.000625156 -0.017172657 0.035630044
-0.035542432 0.0009013631 -0.0022688247 0.038434967 0.0023614431 0.01521182 -0.042597 -0.009244433
0.04404776 0.01262641 0.0479661 -0.0061105993 -0.012380649 -0.029795067 -0.013009776 -0.039299894
0.026861602 0.05064949 0.0052494765 -0.04537913 -0.026160838 0.022452926 0.054731376 0.026583407
0.025160074 0.004557657 0.023650112 -0.019868068 0.007399343 -0.029440897 0.021135293 0.013215904
-0.02809658 -0.009036229 0.060047742 -0.01767134 0.02662654 -0.010150192 -0.02911096 -0.009013621
0.01143939 0.03909374 -0.059502352 0.006905256 -0.0064968485 0.03634554 0.017740862 0.02999401
0.0021239473 0.023380421 -0.010425189 0.06087839 0.016867895 -0.01747189 0.003565785 0.035040405
0.029289022 0.026936736 0.06042732 -0.0050677406 -0.02272498 0.0755635 0.014985081 -0.027520873
0.022817165 0.016524408 -0.0017087363 0.008153731 -0.053402614 0.0111941835 0.011252172 0.006338814
0.021287566 0.006556766 0.02096705 0.050649665 0.013543952 0.003582839 0.025547542 -0.038305312
0.012753456 -0.023783915 0.043212947 -0.0041455966 0.014816884 0.0085018305 0.030460902 0.009687263
0.029076686 0.009239342 0.036984634 -0.038934134 0.045056753 0.020410705 -0.02243452 0.01673728
0.0057589477 0.024220496 0.002231222 -0.009653878 -0.015186102 -0.0015838114 0.009578499 0.05078407

action_model._discrete_distribution.branches.2.bias f4 [15]
00000000: 0d48 41bb 30e9 97bc ecfa 623c 5dc6 38bc
00000010: 8ad8 a1bc 0745 fa3c 5232 433c b6b6 dc3b
00000020: 336e bdbc cfbb 66bc 6e2d 2a3c bae7 9d3c
00000030: ead3 8b3c b54b 8bbc 0c5f 0a3b
-0.0029492409 -0.01854381 0.01385377 -0.011277762 -0.019756574 0.030550493 0.011913853 0.006735648
-0.023123836 -0.014082863 0.010386808 0.019275535 0.017068822 -0.017003873 0.0021113781
