results/AgentRankingsAndAcceptedRankings/AgentBehavior/AgentBehavior-499960.onnx (onnx, 333671 bytes, 11 tensors)

discrete_act_size_vector f4 [1, 3]
00000000: 0000 8040 0000 7041 0000 7041
4.0 15.0 15.0

network_body._body_endoder.seq_layers.0.weight f4 [256, 30]
00000000: 0a38 1c3e f22b 3d3d 16f1 73be 1d4b 8b3d
00000010: 6a86 c33d ddcd 15be 08d9 4bbe 2548 583e
00000020: 9692 4cbd d6ec 41bd 7102 073e 66fe 3a3e
00000030: 13a1 943e 6d73 7c3d f576 213d 0f4f 313e
00000040: aa80 0dbe 51f7 7bbe 3196 433c 1747 033d
00000050: 2348 4abd c4eb a9bd 901e 843e a819 ba3d
00000060: 1b7c 483d 64aa b4be 1c5e 1b3d a32e 83bd
00000070: ac22 41bd 6054 783e ffbf 4b3e 16a4 433e
00000080: bd93 5b3d 406b b2bc 6b55 44be 5af9 833e
00000090: 7fb8 a0be 6306 113d 5041 3a3e 91ab 92be
000000a0: ba41 2d3d 6da9 193d 50ff 823c 4bff 6fbb
000000b0: db66 7a3e 7103 86be 2954 3fbd 69be 2cbe
000000c0: fed3 153e dc9c dabc 4b35 2f3d 28aa 843e
000000d0: 6314 0ebe 8edb b1bd ef46 183e af41 6abe
000000e0: 7efc 0f3e 6502 013e fb02 a6bd 8744 d13d
000000f0: c46d 26be 1fee 51bd ee04 f83d f8d8 f43e
00000100: bc17 923e 6f76 a03e 13db 7d3c c8e6 6dbd
00000110: 327f 033e 49c6 c73e 8d84 983e 5ed6 7c3c
00000120: 0624 62be cb1c ea3e 75b5 a83e b17c d63d
00000130: 3bd7 623c a2d6 de3d fa45 8dbd 3652 d5bd
00000140: d530 43be 6150 793e 04a1 9e3e 535e 8dbd
00000150: c436 3c3e 563d b23d f388 263e 7930 ba3d
00000160: 773a 313e d6f4 863c 9723 753e 8f1b d73e
00000170: 5205 2ebd b831 e4bd 6aaa 41bd ba9e e83c
00000180: db87 1f3e 671a 713e f18c c73d 4425 35bc
00000190: 49b0 543e 343b b33d b032 afbd fd66 223e
000001a0: 01e3 f43d b4ac 7cbe 5ca6 f4bb 22a1 fc3d
000001b0: 087e 833c a547 063e 3c52 953d f1fe 0a3d
000001c0: e3f2 0dbf 5bbe 2d3e 21e5 a9bc 1d85 913e
000001d0: 01e3 433e 5fec 8f3e 58f6 a0bd cb6f 49bd
000001e0: a534 383c b0ba 8fbe e241 a53e 81e1 4fbe
000001f0: 9254 02bc 1bd2 1c3d f036 82be 366f f93d
00000200: 4d5c 353e d2f2 6fbe f7da c5be 5760 34be
00000210: e6f0 3cbe 2d48 663e 336f 0dbe 7673 1d3d
00000220: 51fb a83e 500a 0dbe a915 923e ea30 3dbe
00000230: 7d93 9abe 1055 4a3d f0e8 e5bd d78b 473d
00000240: f27b 613e d660 1a3e f3e2 91bd de7c 70be
00000250: 4561 1f3e dc8a a3bd a151 f73d 7991 b6be
00000260: 7e2a 49be 884b 04be 0d76 1ebe 4604 d43d
00000270: 8310 673e c02a f8bc 6af0 b2be f259 253e
00000280: ab0f adbd cbe2 b9bd a5d9 0c3c b5df 0cbe
00000290: 792b cabe da11 203e 1977 3ebe 852e 30be
000002a0: bd97 d0bd c9ab 043d 1274 6fbe 001b 213d
000002b0: a62c dcbd 6692 4dbb 9398 18bf cf85 14be
000002c0: a46f 043c 075a 7c3c 5aa0 84be a0df 3dbe
000002d0: 695e 16be 462b ad3d 250a 4e3d 23b3 6c3e
000002e0: 9782 68bc 6880 03be 54fb 063e d533 adbd
000002f0: 6918 4f3d 48e7 9e3d dd88 08bd f122 713e
00000300: d4ea aabd 7fd5 47be 96af 5f3d 44af d53d
00000310: f261 813e 2cd8 dbbd 3714 05bd bc8e 2abd
00000320: 7b91 063e 7caa a2be 685b 69bd 0095 15be
00000330: de0a a73d 8070 643e 5da4 5cbd d81f a13d
00000340: e839 0fbd 9fcc 81be 413f c73e 80ea 2abe
00000350: f267 333d 5c60 dabd f0cc a43e b6a2 0d3e
00000360: e9b8 2a3e f7fe a9bd ef66 bb3c bed3 513d
00000370: 9227 b33d 1ef8 383c 21cb dc3d d8d9 e13d
00000380: 8532 7b3d f92d 0f3e 6c0d 56bd 91f8 113e
00000390: 9a23 9f3e c27b 77be 1065 423d ed94 41be
000003a0: bc8a 973d 6617 9a3d 92d3 c83d 2c54 453d
000003b0: 0d9f 13be 4473 50be d8d0 ba3d 8775 d7bc
000003c0: 6407 e2bd aaf6 a0bd d278 b9bc f020 a7bd
000003d0: 8c7a c0be b79f f33e f596 9f3d b929 73be
000003e0: aa2c 173e 1ca9 9fbe f5c3 7f3d 19f0 e0bc
000003f0: d03b a63c f37a 1e3e 05ad ea3d f532 7cbe
0.15255752 0.046184488 -0.23822436 0.06801436 0.09547122 -0.14629312 -0.1990701 0.21121271
-0.049944483 -0.047345005 0.13184525 0.18261108 0.2902914 0.061633516 0.039420087 0.17315315
-0.13818613 -0.24606062 0.011937664 0.03205022 -0.0493852 -0.08296922 0.25804567 0.09086925
0.04894648 -0.35286248 0.037931547 -0.064053796 -0.047152206 0.24250937 0.1989746 0.19105563
0.05360769 -0.021779656 -0.1917321 0.25776178 -0.3139076 0.03540648 0.18188977 -0.2864652
0.04229901 0.037515093 0.015990883 -0.0036620672 0.24453299 -0.261745 -0.04671112 -0.1686951
0.1463165 -0.026686125 0.042775434 0.2591107 -0.13874964 -0.08684455 0.14870809 -0.22876619
0.14061162 0.1259857 -0.08106037 0.10218149 -0.1625281 -0.05125248 0.12110315 0.47821784
0.28533733 0.31340358 0.015494126 -0.05808142 0.1284149 0.39018467 0.29788628 0.0154319685
-0.22084054 0.45725092 0.3295094 0.10473002 0.01384526 0.10880782 -0.068981126 -0.10416071
-0.19061597 0.24347068 0.3098222 -0.069027565 0.18380266 0.08703105 0.1626318 0.09091277
0.17307459 0.016474169 0.23939358 0.42013213 -0.042485543 -0.111422956 -0.04728166 0.028396
0.15579168 0.23545228 0.09743679 -0.011056248 0.20770372 0.087515265 -0.0855459 0.158596
0.1195736 -0.24675256 -0.0074661206 0.12335421 0.016051307 0.13113268 0.072910756 0.033934537
-0.5544874 0.16967146 -0.02073914 0.2842187 0.19129564 0.28110024 -0.07859486 -0.04917888
0.01124302 -0.2807212 0.32276827 -0.20300867 -0.007954733 0.03828631 -0.2543254 0.12179415
0.17710991 -0.23432472 -0.3864362 -0.17614876 -0.1845127 0.2248847 -0.1381195 0.03844019
0.3300424 -0.13773465 0.2853215 -0.1847569 -0.3019065 0.04939753 -0.1122607 0.048717346
0.22019938 0.15076002 -0.07123365 -0.23485133 0.15564449 -0.0798547 0.12076116 -0.35657862
-0.19645116 -0.12919438 -0.1547472 0.103523776 0.22564892 -0.030293822 -0.34949046 0.16147593
-0.08450254 -0.090764605 0.008596812 -0.13757212 -0.39486292 0.1563181 -0.1860012 -0.17205246
-0.10185192 0.03239039 -0.23384121 0.03933239 -0.107507035 -0.0031367778 -0.5960781 -0.14504169
0.008083258 0.015402324 -0.2590359 -0.18542337 -0.14684452 0.084555194 0.050302643 0.2311521
-0.014191291 -0.12841952 0.13181812 -0.08457152 0.05056039 0.07758957 -0.033333648 0.23548485
-0.08345571 -0.19515036 0.05461081 0.1043382 0.2527004 -0.10734591 -0.03248998 -0.04164003
0.13141434 -0.31770694 -0.056971937 -0.1460762 0.081563696 0.2230854 -0.053867687 0.07867402
-0.034967333 -0.25351426 0.38915446 -0.16691017 0.0438003 -0.1066291 0.32187605 0.138316
0.166721 -0.08300584 0.022876231 0.051227324 0.08747782 0.0112896245 0.10780931 0.110278785
0.061327476 0.13982381 -0.052258894 0.14254977 0.3108185 -0.24168304 0.047459662 -0.18904467
0.07399508 0.07523994 0.09805979 0.048175976 -0.14416142 -0.2035647 0.09121865 -0.026301159
-0.11036566 -0.078595474 -0.02264062 -0.08160579 -0.37593496 0.4758279 0.07792465 -0.23746385
0.14763132 -0.31183708 0.06244274 -0.027458237 0.020292193 0.15476589 0.11458782 -0.24628814

network_body._body_endoder.seq_layers.0.bias f4 [256]
00000000: 9536 603d 2cbc 833d 6c50 443d 4c81 703d
00000010: 61f8 383d 642b 00be 21e5 f13c e760 8d3d
00000020: 0d12 0d3d 0789 933c 6c83 6b3d ab30 803d
00000030: de6a 49bd 72a6 243d 34fa 863d 2581 d73d
00000040: bff2 08bd 356e 8a3d d6a9 0cbd d820 723d
00000050: a148 5f3c 5193 c63b 2600 823d 233a 1e3d
00000060: d14c a83d d5cc b73c 63ca 9d3d 2e26 3dbc
00000070: f2e7 163d 05d9 a73d ed79 e6bb a2ab 5c3d
00000080: b6c8 7f3d f1c0 9f3d 86ce 793d 2257 5b3d
00000090: 5a2f ae3d 0101 c03c 607f 953d e438 37bd
000000a0: 8991 e7bc c312 433d 39a5 4d3d fbcc 8c3c
000000b0: f2b4 9c3d 7cc0 16be d543 3c3d 3149 793d
000000c0: 1d47 1a3d c1e7 a5bc a90c 643d c04f 3b3d
000000d0: 6898 cebd d9f7 6d3d 317f c43d 9bb8 233d
000000e0: 5bee 9bbc 8750 833d f3a2 b13b fa59 d6bd
000000f0: 666f 90bd 08de b53d 543f 583d 10b7 e0bc
00000100: 81de bd3d abea 9b3d 647a 253c 0761 a53d
00000110: ae0f 9a3d 9f03 f03c 23bf 2f3d c090 a63d
00000120: 75c0 723d 713f 4a3d 8033 163d 99a4 a53d
00000130: 4452 bf3d 40a2 873d d317 ab3c f783 13bc
00000140: 1465 eb3c 6dec 1e3d 1666 bd3d 5fd1 c53c
00000150: 11da 543d cee8 d13d ecfa 9e3d c326 f6bc
00000160: 64dd dabc 2550 1bbd 8bf3 6ebc 4041 043d
00000170: 0af0 493d c9a0 483d 7dc1 a43d 9957 0d3c
00000180: b2f4 843d 7607 a13d b7a0 bc3c 2e80 0dbe
00000190: 965b 103d b877 03be 6a2a ef3c 901b 27bd
000001a0: 4d3b a83c 1cfb 18bd 3b1f 2ebd 2ce6 4f3d
000001b0: f386 1c3d 473d 87bd be82 203c e307 343d
000001c0: 627e 083d 8d97 893d 3f02 673d f88b 9b3d
000001d0: dd16 efbc 9024 913d 0dbb ff3c 8fc5 6dbc
000001e0: 584b 7b3d 0808 7a3d e2b1 2a3d 3467 15bc
000001f0: 232e 313d 42e5 e3bc 100a 1d3d 4929 1dbb
00000200: 7d07 8c3d 0e0e de3c df14 7dbc 8204 a1bd
00000210: 9825 9c3d 8852 fb3c 6cd4 923d a37d 933d
00000220: 1276 dc3d 905f 4d3c fed9 023d 1bcc 2cbd
00000230: 7029 5a3d 9923 8b3d 9b78 a03d 2100 f1bd
00000240: 08d9 b1bc 0966 563d 8488 4b3d 493c b33b
00000250: b3d3 a63d ee71 1abd e62c 873d d74f 9bbc
00000260: fbc0 6e3d 6aeb 8e3c 1d75 373d ba36 853b
00000270: dfe5 d63a acda 583d 2832 583d a220 d0bd
00000280: 950a a73c e007 06be 7335 aebd 166c ea3c
00000290: 10e4 88bc 7352 823b c946 823d 2e19 0abe
000002a0: 30ce 273d 30a2 4ebd 464a 373d ce14 0e3d
000002b0: 7dcf b63d 1b85 703c 6af3 3c3d 5419 c43d
000002c0: 2bb7 6dbd 51d2 16bd 9050 33ba 4b39 0e3d
000002d0: 3a2b 323d 03b4 a8bc fc1d a63d d2d4 573d
000002e0: a63d 603d 7fdb d63c 34fb bd39 b082 0abe
000002f0: f347 e3bd a0f3 203b fc4f 993d 1367 d5bc
00000300: ce88 a1bc b373 0abe b286 7e3d 24bd 193c
00000310: 7d97 5ebd cdb8 a8bd bc12 2bbd d98d 07be
00000320: 62eb 9c3d 692f 60bc 6acd 6cbd c686 173d
00000330: b09f bf3b 5a48 c9bb 52fb a23d b56f e5bd
00000340: 4f66 ec3c 2fd7 2b3b d055 193d b817 eb3c
00000350: 6af0 1e3d 5433 95bc 64e5 c53d 33c5 943c
00000360: 9786 183d 1c3a 753c a0a8 0c3d cdba 173d
00000370: 329a f53c c048 e63d 49ea 5d3d 0ecf 873d
00000380: d859 8a3d cfc2 5c3d 8c94 153d bc74 54bd
00000390: ea6c f5bc d2b0 2a3d 845d af3d 2d6c 81bc
000003a0: 45cb 43bd 5972 003d 069d e7bc 6f55 993d
000003b0: 4991 ae3d b725 debd 7b9e 6b3c 2ef8 8f3d
000003c0: ccbf 8f3d 8294 eb3c afbf b7bd b098 a63d
000003d0: ea76 953d 9bbb e7bd 8f8c 45bd b782 eb3c
000003e0: 4c8c 123c 4647 3b3d c999 8b3d aedd 633c
000003f0: bb41 92bd 0b66 96ba 88cb 9d3d 9dae 9f3c
0.054739553 0.06432375 0.04792826 0.058717057 0.045158748 -0.12516552 0.029528202 0.06903248
0.034441043 0.018009676 0.05749838 0.06259283 -0.049174182 0.040197797 0.06590691 0.10522679
-0.033434626 0.067593016 -0.034341656 0.059113353 0.013628156 0.006060042 0.063476846 0.038629662
0.082177766 0.022436539 0.07704618 -0.011544747 0.036842294 0.0819569 -0.0070335777 0.05387462
0.062447272 0.078004725 0.06098797 0.053549893 0.08505125 0.023437979 0.072996855 -0.04473199
-0.028267639 0.047625314 0.050206397 0.017187586 0.076517 -0.14721864 0.045963127 0.060860816
0.037665475 -0.02025211 0.055676136 0.045730352 -0.10087663 0.058097694 0.09594572 0.039970975
-0.019034555 0.06411844 0.0054210364 -0.104663804 -0.070524976 0.0888024 0.05279477 -0.027431041
0.09270955 0.07613119 0.010099981 0.08075147 0.07522522 0.029298602 0.04290689 0.081330776
0.059265573 0.04937691 0.036670208 0.08088035 0.09341863 0.066227436 0.020885384 -0.009003631
0.028734721 0.038799692 0.09247987 0.024147687 0.051965777 0.10249482 0.07762703 -0.03004778
-0.026716895 -0.03791823 -0.014584432 0.03228879 0.049301185 0.04898146 0.080447175 0.008626842
0.064919844 0.07862751 0.023025854 -0.13818428 0.035243593 -0.12838638 0.02919503 -0.04079777
0.02053609 -0.03734885 -0.042510252 0.05075662 0.038214635 -0.066034846 0.009796796 0.043952834
0.033323653 0.06718359 0.056398626 0.07595056 -0.029185707 0.07087052 0.031217122 -0.014512434
0.06135115 0.061042815 0.04167355 -0.009118844 0.04325689 -0.02781928 0.038339674 -0.0023980907
0.06837366 0.027106311 -0.015446871 -0.07862188 0.07624358 0.030679002 0.071694225 0.07201698
0.107647076 0.012534991 0.031946175 -0.042186838 0.053262174 0.06793899 0.07835504 -0.11767603
-0.021709934 0.052343402 0.04969074 0.005469833 0.08145847 -0.037706308 0.066003606 -0.018958969
0.05828951 0.017446239 0.044789422 0.004065362 0.0016395411 0.052942917 0.052782208 -0.10162474
0.020390788 -0.13088942 -0.085062884 0.028615993 -0.016710311 0.003977114 0.063611574 -0.13486168
0.04096812 -0.050447643 0.044748567 0.03468781 0.08926294 0.014680172 0.046130575 0.095751435
-0.05803601 -0.036821667 -0.0006840313 0.034722608 0.043498255 -0.020593649 0.08111188 0.052693196
0.054746293 0.02622771 0.0003623605 -0.13526416 -0.110977076 0.0024559274 0.07485959 -0.026050126
-0.019718554 -0.13520698 0.062140174 0.009383474 -0.05434369 -0.08238373 -0.041765913 -0.13237704
0.07662083 -0.013683178 -0.057813086 0.036993764 0.0058478937 -0.006142658 0.07958092 -0.11202947
0.028857378 0.0026220789 0.037435353 0.028697833 0.038803495 -0.018212952 0.096628934 0.018160438
0.03723773 0.014967468 0.0343405 0.03704338 0.029980753 0.11244345 0.05417851 0.066312894
0.067554176 0.05389672 0.03651862 -0.05186914 -0.02995916 0.041672535 0.085627586 -0.015798653
-0.047801275 0.03135905 -0.028273117 0.07486998 0.08523805 -0.10847037 0.014381046 0.070297584
0.07019004 0.028757337 -0.089721076 0.081345916 0.07298072 -0.1131508 -0.04822975 0.028748853
0.008944582 0.04572227 0.068164416 0.013907833 -0.07141443 -0.0011474503 0.07704836 0.019492442

network_body._body_endoder.seq_layers.2.weight f4 [256, 256]
00000000: 4798 c7bd 6ca8 2f3d d296 ed3d 9786 a53d
00000010: 1ba5 853d 3643 99bc 7306 6e3d ec1b a13d
00000020: 97bb 2a3d 1ea6 253d bb2d 3abc 05eb 0abd
00000030: 655a d0bd d5bb c3bd c491 98bd 872f ff3d
00000040: a145 1b3d 2bfd 123c 7cb2 8a3b 1163 fd3c
00000050: f81a 8eb9 92ad 483d 534d f03c b083 0fbd
00000060: 028f 10bc 9152 73bd 11b8 ba3d a16d d73d
00000070: 76b2 4b3b a60c 21bd 26ee bebc c14e f5bd
00000080: 5986 eabd a45d a53c e4d6 c3bd 4615 583d
00000090: 64d3 b5bc ba8e 813d 2287 06bd 0cd5 45bd
000000a0: 3854 433d e92e 023d 03e9 e93c b3da da3d
000000b0: fcdd 57bd 2381 a53c 412e 8e3d bc43 bbbd
000000c0: 058c 96bc bbcd b73c d4d9 393d 4b7d 953d
000000d0: 76f6 98bd a913 7fbc 508c 5fbd 48ec 0fbd
000000e0: 9f55 da3c 9cbd 65bc 0a18 b7bd c73a 55bd
000000f0: 40a4 bfbd e6f5 b93d dfc1 0bbd f527 033e
00000100: 0b75 9a3d 9916 7b3d 0bd2 0dbc 555a be3d
00000110: dcf4 febc c700 ea3b 5e95 363d 105f 0dbd
00000120: 7397 2dbe 1864 e6bb 23c0 aa3c 5567 8abb
00000130: f422 2cbc ca07 57bb 82fa dd3d 3490 12bd
00000140: 18ad 943c c1e0 cf3c 76b5 1abd f717 bdbc
00000150: 619a 563e b295 c83d 0652 ab3d 76a3 21bc
00000160: ad45 213c 7540 8fbd bf21 60bc ad9e dabc
00000170: 6dc7 6a3c 63e9 15bc b2a3 d23c 9e65 ec3b
00000180: 6721 9ebb 20a8 4cbd 244f 7a3d e55f 973c
00000190: a35a bdba fd34 6cbd 07b9 b8bd 1148 83bc
000001a0: 1f29 3a3d 476e 29bd 3655 c8bd 411e 6f3c
000001b0: 1efa cdbd 9719 9d3d 360b 5a3c 5284 90bc
000001c0: 75d6 3dbd 5111 d33c 7ffd 05be 66fb 60bd
000001d0: b855 d8bd 1dbd babc 9b61 05bd c57a 81bb
000001e0: 21e8 d9bb 385c ad3d eed4 ce3d 345e 00bc
000001f0: 11a0 013d ac22 07be 03db 0a3e 80eb 063d
00000200: 9b6e 953d a28f 6abd fb8b 13be 313a 33bd
00000210: 0dc9 f73d fdd8 0dbd 32e3 783d e340 823d
00000220: 9be9 96bb 32cf b5bc 3ca4 ffbd fcba bb3d
00000230: f99e fb3d 40fd 8b3d 7511 443c 68ee c4bd
00000240: ccf0 e33c 4747 b9bc e633 fe3c 9963 06bd
00000250: 0ed1 e33d 40a6 b03d 17d6 983d e720 423d
00000260: 0391 afba 3974 a03c e16a 6fbd f99f 07be
00000270: e1e3 1b3d 5d52 f23d 4cbc 88bd 518a 8f3d
00000280: 3003 6c3c 65b7 1d3c b4bc 25bd 4a35 363d
00000290: 1ec2 883b 6df9 be3d 8445 c13d af8f 9bbd
000002a0: 7756 61bd f1f3 98bd 0f55 9e3d 4360 babc
000002b0: f20d 42bc 186e cebb 594e b4bc 6338 d23d
000002c0: 6f2e 8dbb 4be4 aebd 6e43 97bd 700e b13c
000002d0: a874 ab3c e815 da3c ced4 4b3d 3497 d23d
000002e0: 1c84 2b3d 5f0c 16bc 9189 1e3d 3a76 5039
000002f0: ee05 18be d66f b43d f098 073d f19e 41bd
00000300: c70e 50bd 0910 98bc 0c20 8ebd ac55 e73d
00000310: f9cf 24bb 2dc7 a63c 11eb 38bc 6da3 6fbd
00000320: 4f5c ec3c e9ae a43d 7777 6ebd c83a fdbd
00000330: ca13 543d e287 8d3b 2423 5e3d 322b 14bd
00000340: 3224 50bd 83d5 cfbc 93af c83d c1c8 44bd
00000350: 3ea9 06bd 1a1c 5fbe 6031 a03d bc0b d3bc
00000360: 92f0 2bbd ec88 4fbc ecf7 98bc f0a1 1a3e
00000370: 8c6f 4dbe b7b0 6e3d fa03 bebc 6e18 af3b
00000380: ec21 dc3b c159 4cbd 1981 e8bc b09b eebd
00000390: 30c9 a5bd ee48 14bc fa77 2d3d 0d72 113c
000003a0: 40da 9c3d c8b4 b1bc 5e5b fbbd 2740 4c3d
000003b0: 85a6 79bd 06e7 cfbd 980e 4c3d 87e7 a0bd
000003c0: 9d80 92bd 9719 f5bc e552 2b3c 7bb7 8abc
000003d0: 0cc8 df3c f0d7 5abd 8fde a4bd ac14 c53d
000003e0: 9ea3 cbbd 6f3f c03c e48c 0ebc 8f8c 073e
000003f0: fa2b d03c 997f bcbc 08f3 c23b 9b91 983d
-0.097458415 0.04288523 0.11601032 0.080823116 0.06525632 -0.018708806 0.05811162 0.07866654
0.041682806 0.040441625 -0.011363442 -0.03391554 -0.101734914 -0.095573105 -0.074496776 0.12460237
0.0379082 0.008971493 0.004232703 0.030931028 -0.00027104444 0.048993655 0.029333746 -0.035037696
-0.008823158 -0.059404913 0.09117139 0.10518957 0.0031081713 -0.039318703 -0.023306917 -0.11977912
-0.11451406 0.020186253 -0.095624715 0.052754663 -0.022195525 0.06326051 -0.032843716 -0.04829888
0.04768774 0.03178302 0.028553491 0.10686245 -0.052701935 0.020203179 0.06942416 -0.09143779
-0.018377313 0.022436967 0.045373753 0.07299288 -0.07468884 -0.015568652 -0.05457717 -0.035137445
0.026652155 -0.014022257 -0.08940132 -0.052058008 -0.093575 0.090801045 -0.034120437 0.12808211
0.075418554 0.061300848 -0.008656035 0.09294573 -0.031122617 0.007141206 0.04457604 -0.034514487
-0.16952305 -0.007030975 0.020843571 -0.004223744 -0.01050638 -0.003281104 0.10838796 -0.035782054
0.018148944 0.025375726 -0.03777071 -0.023082716 0.20957328 0.09794177 0.08365254 -0.009865632
0.009843272 -0.06994716 -0.013679921 -0.02668699 0.014329773 -0.009149882 0.025712822 0.007214262
-0.004825759 -0.049965024 0.06111063 0.018478343 -0.0014446568 -0.05766772 -0.09019666 -0.016025575
0.045449372 -0.041364934 -0.09781878 0.014594615 -0.10057472 0.076708965 0.013308337 -0.01764122
-0.0463471 0.025765093 -0.13084982 -0.054927252 -0.105632246 -0.022795254 -0.032563787 -0.003951403
-0.0066499864 0.08464855 0.10099207 -0.00783496 0.03164679 -0.1319682 0.13560109 0.032939434
0.07296487 -0.057265885 -0.14408867 -0.043756668 0.12098894 -0.034630764 0.060763545 0.063600324
-0.0046054847 -0.022193525 -0.12482497 0.09166524 0.12286181 0.06835413 0.011967053 -0.09615785
0.027824782 -0.022616995 0.031030606 -0.032809827 0.111238584 0.0862546 0.074627094 0.04739466
-0.0013394657 0.01958667 -0.058451537 -0.13244618 0.03805912 0.11832116 -0.0667654 0.07008804
0.014405057 0.009626244 -0.040463164 0.044484414 0.004173531 0.09324918 0.09437087 -0.07595765
-0.0550141 -0.07468403 0.077310674 -0.02275098 -0.011844145 -0.0062997453 -0.022010015 0.10264661
-0.004308514 -0.08539637 -0.07385908 0.02161333 0.02092965 0.026621774 0.049763493 0.10282746
0.041874036 -0.009158223 0.038705412 0.00019880469 -0.14846012 0.088103935 0.033104837 -0.04727072
-0.050795343 -0.018562334 -0.06939706 0.112956375 -0.0025148375 0.020358646 -0.011286513 -0.058505464
0.02885261 0.08041174 -0.0582194 -0.12364727 0.051776685 0.004319177 0.05423273 -0.036174007
-0.05081577 -0.025370365 0.09799113 -0.048043016 -0.032876246 -0.21788064 0.078219175 -0.025762431
-0.041977473 -0.012666922 -0.018672906 0.15100837 -0.20062083 0.058273997 -0.023195256 0.0053434884
0.006717911 -0.049890283 -0.028381871 -0.11650789 -0.08095014 -0.009050591 0.042350747 0.0088772895
0.076588154 -0.021692649 -0.12273286 0.049865868 -0.06094982 -0.10151486 0.049818605 -0.0785666
-0.07153437 -0.029919429 0.010456775 -0.016933193 0.02731707 -0.05342859 -0.08050262 0.096230835
-0.09943317 0.023467747 -0.008700583 0.13237213 0.025411595 -0.023010062 0.0059493817 0.07449647

network_body._body_endoder.seq_layers.2.bias f4 [256]
00000000: 780a 3d3d d5d3 703d a971 a6bc 2275 c4bc
00000010: 5377 213d a155 b8bc 9683 0fbd 708e 113d
00000020: 6ec0 90bc cffe 403d e804 7b3d cb0a 4a3d
00000030: a1a7 fd3c 90d4 32bd a40e 303c 13e2 49bc
00000040: e507 c23c a43e fdbd 48e0 893d e16e 34bd
00000050: 702c 8dbd aab0 463d abad 583c 52d3 a5bd
00000060: bf9c 93bb 687c cb3c 8092 2f3d 90d3 583a
00000070: b2cd 513b 5e07 6dbd a11d 8e3c 43c4 943c
00000080: 12bb 7d3d 86da 063c 4445 443c 462e b83b
00000090: adb4 a9bd 7548 cabc 2448 4e3c 65aa 11be
000000a0: 15a8 893b 6ce2 403d 1d15 8b3c e87b 503d
000000b0: 74a2 4f3d 8668 00be 3daa ce3b 9534 9d3d
000000c0: bc10 f0bc 1a52 383d e79c 81bd 940c 2bbd
000000d0: 2ffa ffbd e87a 69bd b97b 06be 50ae 843d
000000e0: 199d 46bd 0323 9b3c e596 643d 71d9 41bc
000000f0: efa3 4e3d eb35 773d 1ada 0e3d 93f0 7d3d
00000100: 0653 1d3d 3f2f 883d b27a 5d3d 8e0e 63bd
00000110: 2101 0f3d dd99 30bc 8496 02be cff1 643d
00000120: 3b12 543d 98e4 64bd 2599 c4bc 5a22 07bd
00000130: 2e93 cf3c 1acb 1e3d f7a1 7cbc 6bd9 343d
00000140: d638 57bc 1f96 f63c 148b 1f3d 42d7 e5bc
00000150: c95c fb3c 858a 5e3d 10f5 243d f79f 06be
00000160: 9ecc 1abd bac1 b43c 9123 51bc f5d7 663d
00000170: 0e36 6bbd 1870 583d 1b52 01bd 7cae 1c3d
00000180: f884 f4bb 3d2f a83a 84ff 9d3b da96 603c
00000190: d466 953d 7994 c33c 397f 083c b093 1abd
000001a0: a6f2 4e3d 50bb 01be aad2 663d 4909 d63c
000001b0: 8371 0e3c f8e5 88bc 15dd 3f3d 5949 2a3a
000001c0: 72f9 8dbd 185d a33c f276 103d b219 79bd
000001d0: 71a1 153d f2c6 7e3d 15cc 8ebd 0427 58bd
000001e0: 9d1e 403d d264 8f3c c21c 8e3c bdca 04bd
000001f0: 0b22 cf3b 14bd 6fbc 7316 84bb 2d78 fb3c
00000200: ceb6 65bd 4715 febc d8bc 9dbd 1ccd d03c
00000210: 7618 81bb 1f0c ab3c 8f12 483d b734 323c
00000220: 33ea 633a 4359 253d 2b6d a0bd c7bd 953d
00000230: 954e 07bd f9f2 373d 3206 083d 0552 5dbb
00000240: f76e 62bc c6dc 593d 0b54 c13c ee57 083c
00000250: 1f8f 62bd 2427 82bd 2036 e3bc 4298 613d
00000260: 952d 6dbc 3318 da3b b93b f83b 26ed 293b
00000270: c608 8cbd f0b6 58bb 28e3 f33c 7021 e63c
00000280: 4c11 e23c 0fe3 85bd 38fa 713d 57bc 11bd
00000290: 233f 103c d840 1c3d f70a 333d 1911 5bbc
000002a0: ecc6 fd3c 0942 773d d7df 97bd fcae 313d
000002b0: 1158 363d 6ee5 263d cb06 113c f7e5 81bc
000002c0: 51fc f4bd f213 503d d058 c5bd 31c1 663d
000002d0: ce92 123d 744f 97bd 2107 d43c db04 fc3c
000002e0: 535d a3bc 57f3 a7bc 8e3e e13c 3e43 c4bd
000002f0: 072f 073d 07d8 b2ba f6ef 2abb 26ad 5e3d
00000300: 87da a6bc 2686 313d e826 1f3c 01ea a13b
00000310: 7c8f 5f3c 32e3 1f3c 03b9 0bbd 52a0 6d3d
00000320: 6548 7b3d fa83 eebc e0c0 9a3c 5d6b 2d3d
00000330: fe89 d73c dc58 0d3d b6e2 8dbc 21b4 c63b
00000340: b704 02bc 61a3 273d 4dad 4f3d 8cdd 563d
00000350: 0213 edbd f521 333d 58b0 ce3b 26c1 e7bd
00000360: 0d63 fdbd 343a 753c db19 b9bd 230e 853c
00000370: 5ab6 bfbd cc78 ee3b 4f75 a03d f2ea 42bd
00000380: db8e 2f3d 8fe5 133d 74bc 5f3d df10 dbbc
00000390: ec2e a83c c12e 733b bff9 8a3d 319f 5ebc
000003a0: 9d93 16bd 0a57 b1bc 86d5 943c 0985 563d
000003b0: a3e0 eb3c f094 763d 306a a43c 1bb0 abbd
000003c0: 97e4 8d3c c6ab 7fbd a806 92bd 479e db3c
000003d0: f1ac f0bb 1b9a 0fbd b3f9 36bc 2f81 6c3d
000003e0: 0dcd f0bd 8780 ae3c af50 8d3c f5c5 01be
000003f0: 2131 063d 36bb f33b 4f95 f6bd 9489 f2bc
0.046152562 0.05879577 -0.02031787 -0.023981635 0.039420437 -0.022501769 -0.0350376 0.03553623
-0.017669883 0.047118004 0.061283976 0.0493267 0.03096372 -0.043659747 0.010745678 -0.012321967
0.023685405 -0.123654634 0.067322314 -0.044051055 -0.068932414 0.048508324 0.013224999 -0.08096947
-0.0045047696 0.024839595 0.042864323 0.00082712714 0.0032013473 -0.057868354 0.017348113 0.018159991
0.061945982 0.008230811 0.011979405 0.0056207506 -0.08286414 -0.024692753 0.012590442 -0.14225157
0.004200945 0.047090933 0.016977841 0.050899416 0.050692037 -0.12539873 0.006306915 0.07676045
-0.029304855 0.045000173 -0.06328755 -0.041760042 -0.124988906 -0.05700198 -0.13133134 0.0647856
-0.048489664 0.018937593 0.055807967 -0.011831627 0.050449308 0.060354155 0.034875967 0.061997008
0.038409255 0.066496365 0.05407209 -0.055433802 0.034913186 -0.010778871 -0.1275273 0.05589467
0.0517752 -0.055882066 -0.023998806 -0.032991745 0.025338735 0.03876791 -0.015419475 0.04415266
-0.013136109 0.03010088 0.038950995 -0.028056744 0.030683892 0.05433132 0.040272772 -0.13146959
-0.037792794 0.022065032 -0.012764827 0.056358296 -0.057424597 0.052841276 -0.031572443 0.03825234
-0.00746214 0.0012831461 0.0048217196 0.013707841 0.072950035 0.023874508 0.0083311135 -0.037738502
0.050524376 -0.1266911 0.05635325 0.026127474 0.0086940555 -0.01671122 0.0468417 0.0006495915
-0.069323435 0.019941851 0.035269685 -0.06081552 0.036530916 0.062201448 -0.06972519 -0.052771583
0.046904195 0.01750413 0.017347697 -0.03241991 0.006321197 -0.014632482 -0.0040309965 0.030696953
-0.05608254 -0.031016005 -0.07702035 0.025488429 -0.0039396835 0.020879803 0.048845824 0.010876826
0.0008694261 0.04036833 -0.07833322 0.07311588 -0.033033926 0.04490945 0.033209033 -0.0033770811
-0.013820401 0.05318906 0.023599645 0.008321745 -0.055312272 -0.06355122 -0.02773577 0.055076845
-0.0144762 0.006655717 0.007575479 0.0025928705 -0.06837611 -0.0033068024 0.029771402 0.028092116
0.027596138 -0.065374486 0.059076518 -0.035580005 0.0088041155 0.038147777 0.04371163 -0.013370776
0.030978642 0.06036571 -0.07415741 0.04337977 0.04451758 0.040746145 0.008851717 -0.015856726
-0.11962188 0.05080027 -0.0963608 0.056336585 0.035784535 -0.07388201 0.025882306 0.030764034
-0.019941961 -0.020501776 0.027495649 -0.09583138 0.033003833 -0.0013644703 -0.002608297 0.054364346
-0.020367874 0.043340825 0.009713866 0.0049412255 0.013645049 0.009758757 -0.034111988 0.05801422
0.061348338 -0.029115666 0.018890798 0.042338718 0.026310917 0.03450857 -0.017320018 0.0060639535
-0.007935694 0.040927295 0.050702382 0.052457377 -0.11575891 0.043733556 0.006307643 -0.11316137
-0.12372408 0.01496749 -0.09038135 0.016242092 -0.09360953 0.0072775837 0.07834875 -0.047587343
0.042860847 0.036107596 0.054623082 -0.026741443 0.020530187 0.0037106725 0.067859165 -0.013587759
-0.03676187 -0.021647949 0.018168222 0.052372966 0.028793639 0.06020063 0.020070165 -0.08383199
0.017320914 -0.062419675 -0.07130176 0.026808871 -0.007344835 -0.035059076 -0.011167931 0.057740387
-0.1175786 0.021301521 0.017250387 -0.12673171 0.032761697 0.007438089 -0.12040197 -0.029606618

action_model._discrete_distribution.branches.0.weight f4 [4, 256]
00000000: 6eab 02bd c374 34ba dde0 eb3a fd0d 823b
00000010: cb44 11bc 363f 063d 09f4 9a3c 6235 75bc
00000020: 4036 a73c bd66 04bd 6ad5 a8bc 1e3e 023b
00000030: 49fb 1abd fe3f 673c fbcd 5bbc aa72 0f3c
00000040: b7f1 3fbc 414d 2b3d 69c3 26bc adb0 493d
00000050: 8e91 043d c181 b1bc 95b4 dfb9 f953 4d3d
00000060: c112 993c 253a e23b f909 1abd a51d e3ba
00000070: 44b9 753c 4ba2 283d 6b9f 803b 98b0 80bc
00000080: a2a8 56bc e063 213c 3e1d 973b 0ed5 64bc
00000090: 2c0e 633c fccb 1cbb bcec bfbc 0b2a 423d
000000a0: 9b68 a33c f0a2 ffbb 4608 4abb 2539 11bb
000000b0: dfb5 b3bc f4f5 0f3d ff01 54bc 12fc 45bc
000000c0: 3785 1fbb 57ea 76bb 690b 1d3d 89ab fd39
000000d0: f320 7a3d d7c5 123d 4e8a 323d 2bbe 3dbd
000000e0: 56ce 253d 9870 cf3a 76d5 17bd 55a2 98bc
000000f0: 1ca5 8ebb 102f 4abc 67a7 7bbc cd9f 3cbc
00000100: 7f40 aabc 785e 27bd b77e 05bd 1414 4e3c
00000110: 27e4 c23c 24b2 143d 70af f13c 5c1d 18bd
00000120: f0fc d0bc 4102 513d dbb8 2d3d 33ce e73c
00000130: 9650 03bd 989e 12bd a7b9 c53b 394a cbbc
00000140: 84ce 4b3c 4256 8abc 9a3b 6c3c b8ee 2d3d
00000150: 10f7 aabc 1a7b e9bc 632d debb 2d27 273d
00000160: 04b5 0b3d 3fc2 dcbc 129c b23c 246a 18bd
00000170: 3aee ae3c cc67 32bc bd0f cabb 74e7 20bc
00000180: c1bf 263c 50c1 a6bb 7583 b5bb 53dd a2bc
00000190: fff7 7cbc b1af 9bbc 2401 13bc b199 963a
000001a0: e1ba 08bd 99bb 2f3d 25a6 fcbc 70da fdbc
000001b0: 23ed 71bc 5f99 c4bc 60ab 50bc ba53 103a
000001c0: d708 ae3c c0ae 93bc 9624 4bbc 153b 7a3c
000001d0: bb9c b4bc c870 99bc edef 4c3d 3bec 9f3c
000001e0: 5cd8 d9bc c55a 513b 7641 333b 7257 be3c
000001f0: 895a a93b 594f 9fbc 7fca c73c 2a73 1dbd
00000200: a0b2 163d cf2e 82bb a1c8 ca3c 7583 d9ba
00000210: 5c7c 9fbc bbd9 b6bc b82c 15bd 126c 10bd
00000220: 53d8 abbb 0f18 9fbc 1fec 153d 94da 29bd
00000230: 8147 163b 73d6 f2bb 96bd 3ebd aed9 a03c
00000240: b3d3 92bb d5a7 8cba 4d58 d73b 9ef3 31bd
00000250: 4738 fc3c 006f 013d 969c 4dbc 3995 24bc
00000260: f9da ca3c 5895 8c3c d6fa bd3c 5c56 d7bc
00000270: 1915 953c 5f5d b73c b187 c03b 3f0a a1bc
00000280: bc0b c2bc 23f4 bd3c 2351 e2bc 4192 363c
00000290: c7fd 6ebc 309e 38bd afc7 9cbc f57b 45bb
000002a0: 4e56 cc3b 5282 17bd c4da 553d 8d0b 113b
000002b0: 0c27 823c f003 9e3b 5f31 3bbc 1ebd f13c
000002c0: b020 2a3d 88a6 a3bb 259f 3b3d f1a2 83bc
000002d0: 1820 ddbc ea5f 183d e8de 2f3c 6dd9 c4bc
000002e0: 37f1 a9bc 82de 493c d5d0 a1bc 76fd 1b3d
000002f0: d800 aebc 9aae abbb f4da b93c 6917 d0bc
00000300: 5729 d0ba 3ccf 1ebd d9eb 863a 26b4 8dba
00000310: 9004 cbbc 41e6 063c 24dc 883c d3b6 9cbb
00000320: 3d72 47bd 3dd1 b93c e130 2bbc 07d5 58bb
00000330: 076f 973b e492 5dbb 1228 f8bb ea16 83bb
00000340: bc78 903c 904b e2bc 6ef2 70ba c92a b13a
00000350: 9061 263d c549 95bb 7158 ee3c a80d 113d
00000360: ee6e 463d 11fc 71bb bd75 cd3c 2783 4abb
00000370: c16c f83c f974 12bc 39a3 1bbd 1e7f a63b
00000380: 6e7a 45bd 0556 a1ba 0d44 1abc 2300 5a3c
00000390: 1050 03bd 3603 273d 7beb b9bc 7d03 a63c
000003a0: 5eb7 433c 9151 50bc 332f 94bb 558b 2cba
000003b0: 325e 45bd 8651 fdbc e3f8 a6bc 710d 4b3d
000003c0: ca04 b1bc 0533 163d 2ba2 eb3c 6fc9 f5bc
000003d0: 117a bfbc f5e8 353b 8e7f b5bb 0e97 2bbc
000003e0: 7404 fd3c 9ce7 b0ba 88c9 c7bb ab09 223d
000003f0: 1e4e 603c 8cc4 f5ba 3c02 063d 33ba 103c
-0.03190177 -0.0006883854 0.0017996092 0.0039689527 -0.008866499 0.032775126 0.018915193 -0.014966341
0.02041161 -0.03232454 -0.020609576 0.001987345 -0.0378373 0.014114378 -0.013415809 0.008755365
-0.011715344 0.041821722 -0.010178425 0.049240757 0.032365374 -0.021668317 -0.0004266842 0.05012891
0.0186857 0.006903904 -0.037607167 -0.001732756 0.014997784 0.0411704 0.003925254 -0.015709206
-0.013101729 0.009850472 0.0046116402 -0.013966812 0.013858359 -0.0023925295 -0.023428313 0.047403377
0.01994734 -0.007801406 -0.0030827685 -0.0022159305 -0.021937309 0.03514667 -0.012939929 -0.012084024
-0.0024340877 -0.0037676299 0.03834096 0.00048383724 0.06106658 0.035833206 0.04358893 -0.046323936
0.04047998 0.0015826402 -0.037068807 -0.018632093 -0.0043531787 -0.012340322 -0.015359736 -0.011512709
-0.020782707 -0.040861577 -0.032591548 0.012578029 0.023790432 0.0363027 0.0295026 -0.037137374
-0.025511235 0.05102754 0.04241262 0.028296566 -0.032059275 -0.035795778 0.0060340944 -0.024815666
0.012439374 -0.016886834 0.014418507 0.042463988 -0.020869762 -0.028501082 -0.006780313 0.040808845
0.034108177 -0.026948093 0.021802936 -0.0372106 0.02135383 -0.010889005 -0.006166427 -0.009820808
0.010177554 -0.0050889626 -0.0055393525 -0.019880926 -0.015439986 -0.019004675 -0.00897244 0.0011489895
-0.033381347 0.042903516 -0.030840943 -0.030987948 -0.01476601 -0.023998914 -0.0127361715 0.00055056403
0.02124445 -0.018027663 -0.0123988595 0.015272875 -0.022047391 -0.018730536 0.0500335 0.019521823
-0.026592426 0.0031944972 0.002735225 0.023235057 0.0051682633 -0.019447016 0.02438855 -0.038439907
0.036791444 -0.003972865 0.02475387 -0.0016594963 -0.019468479 -0.022320619 -0.0364196 -0.035259314
-0.0052442937 -0.019420652 0.036602136 -0.041468218 0.0022930803 -0.0074108182 -0.046567522 0.019635048
-0.004480803 -0.001073117 0.0065718056 -0.043445222 0.030788554 0.0316 -0.01254954 -0.010045343
0.024762617 0.017161056 0.023190897 -0.026286297 0.018198537 0.02238339 0.0058755507 -0.019658206
-0.023687236 0.023187703 -0.02762658 0.011143268 -0.014586872 -0.045072734 -0.019138185 -0.0030133699
0.0062358743 -0.036989518 0.052210584 0.002213213 0.01588776 0.0048222467 -0.011425345 0.029509123
0.04153508 -0.0049942173 0.04580607 -0.016068907 -0.026992843 0.037200846 0.010734297 -0.024029458
-0.020744903 0.012321116 -0.0197529 0.038083516 -0.021240637 -0.00523932 0.022687413 -0.025401788
-0.0015881461 -0.038771853 0.0010293677 -0.0010811135 -0.024782449 0.008233608 0.016706534 -0.0047825365
-0.04869293 0.02268278 -0.010448665 -0.0033085959 0.00462139 -0.0033809477 -0.007573136 -0.0040005343
0.017635696 -0.027623922 -0.0009191398 0.0013516779 0.040620387 -0.004555913 0.029094907 0.035413414
0.048445635 -0.0036923925 0.025080556 -0.0030900927 0.030325295 -0.008939021 -0.037997458 0.0050810715
-0.04821246 -0.0012308961 -0.009415639 0.013305697 -0.032058775 0.040774547 -0.022695294 0.020265335
0.011945574 -0.012714759 -0.004522228 -0.00065820414 -0.048185535 -0.030922662 -0.02038235 0.049573366
-0.021608729 0.03666975 0.028763851 -0.030003278 -0.023373635 0.0027757261 -0.0055388873 -0.010473026
0.030885912 -0.0013496759 -0.0060970224 0.03956 0.0136905 -0.0018750592 0.032716975 0.008833456

action_model._discrete_distribution.branches.0.bias f4 [4]
00000000: 7d9b 54bd a730 bb3d e790 39bc 1ac4 41bd
-0.051906098 0.09140139 -0.011326051 -0.047306158

action_model._discrete_distribution.branches.1.weight f4 [15, 256]
00000000: 1cc2 f43a 5b07 9ebb 1d81 b9bc 756d 51bc
00000010: a507 b03c 9df9 10bc 564b 873c b105 ab3c
00000020: 20a8 0b3c 17ea 50bb daf9 f2bb ab55 d3ba
00000030: 43da b9bb d8db 94bc 88cf bbbc b38b 703c
00000040: c331 29bc c2a9 1fbc 64a9 713b d419 be3a
00000050: 8fdb 45ba 1584 00bb 89bc 9dbc 9242 04bc
00000060: 280a 7ebc d140 0d3d 3f50 5abc 94c4 ee3c
00000070: 57f8 2f3c 6c42 0ebd ef54 ba3c 49bf 583c
00000080: b6f3 303b 98e8 26bb cc83 a43b 6ea4 a43c
00000090: df2c 46bc 6572 84bc b9af c03b 2896 223c
000000a0: 0644 8bb9 1ebe b43c 5aba 0c3d 1708 623c
000000b0: d920 2f3c b3a7 f4bb f426 b1bc 66c7 523c
000000c0: a54f 243a f4e4 293d 99d5 db3b 9787 87bc
000000d0: e570 f3bb 2cf7 39bc faa6 143c 66e8 89bc
000000e0: e1be 36bb 0911 c73b 9812 51bc 6235 34bd
000000f0: 7d58 0b3d f59e f03c 08c5 b2bb 43cc 2e3d
00000100: bb40 6a3c c6e8 993a 0385 e83a 94ac f3bc
00000110: 1d04 95bc de61 bd3c ffd3 143b e6de 2bbc
00000120: 87c9 f5bb 5136 e0bc 95c3 bcba a1e2 383c
00000130: f194 19bc 58b5 163c da43 f2bc e8da ecbb
00000140: 5432 253d 088c ab39 1d88 663c ebde abbb
00000150: 589d ac3b e04f ffbb c00b 0dbc 07a7 4438
00000160: 2a26 28bc 11fc cfbb 20de d53c 6145 953c
00000170: 6c2f 973c f1ed b13c 5a54 4bbc ad3d e13c
00000180: 2d23 bbbb 52fa d0bb a73a d73b f4e8 87bc
00000190: 7075 113d 1261 7d3c 9711 16bc ecbd 1339
000001a0: f422 c5b9 befc bc3b aaa5 91bc 19c2 adbb
000001b0: c93c 06bc 882f 5fbc 8213 8eb9 36af b4bb
000001c0: 61f7 9ebc b45d fdbc 810b 793c 9650 823b
000001d0: 41e2 cb3a 324d b5bc fd89 203c d196 3abc
000001e0: aca2 023c 026f bc3b 2f99 0c3c e05a 51bc
000001f0: 26fb 8f3b 9d8c adbc af6e a03c 034a c4bc
00000200: 825e c6bb 7c6c 99bc 272b 29bc 51cb 463d
00000210: b37c b83c 144b dabc 03f0 41bc f087 03bd
00000220: 7d11 1f3c 068b 1abb 232e 2dbc 3d79 9cbb
00000230: d8bf 70bc 6a58 0d3d 24ab 4bbc 4bb9 fe3c
00000240: 4e87 9d3c 2d86 d33b 7760 083c 487f 27bd
00000250: 8c86 583c ccc4 a5bb a45d f8bc 5985 12bc
00000260: 0f99 343d e4de 983b f589 013c a529 67bd
00000270: 0d90 213b 2c9b 2c3d f2a3 ae3c ff8f 31bb
00000280: 99e7 22bc 4093 d8bc 2ef9 a5bc 1363 4bbc
00000290: 0f77 41bc 5b23 56bc 2679 923b 24d3 d8bb
000002a0: 176f cbba 86f9 92bb efff 133c 9a83 ab3c
000002b0: 1392 1a3d e0d3 0b3c b8fb 2b3b 8154 4e3c
000002c0: bcc0 21bc 6a22 563c 4c6e 34bc 57b2 9bbc
000002d0: b85f 213c d1fa 86bc b364 e73c 7cbd 0bbd
000002e0: c53e 6c3b bc4e d6ba dcf5 2a3b d6dd a7bc
000002f0: 3400 463b eaa8 003c 62d3 4fbc 964a 683a
00000300: 50be e03c 41af c9bc d35f 44bc da42 f33b
00000310: 6a27 f6bb 7b35 823b 9380 cb3b 8f7f fc3c
00000320: ebb8 3c3b ad4e 093b a182 fe3b bd9b d53c
00000330: d398 f0bb c4d5 6bbb 2689 16bd b7da 17bd
00000340: b866 b33b dee3 843c 0fb0 c73c 2f65 76bb
00000350: ded8 c9bb d374 aaba b2ba 913c cf10 17bc
00000360: 019e 513b f565 373c b39d 87bc 0613 1abb
00000370: ed8e 6dbb 1877 ec3b 6216 c33c 33b7 8d3c
00000380: d083 b1bc cbb4 95bc e979 6cbc e144 0b3c
00000390: 033f 12bd c828 033d 57ef 98bc 1489 933c
000003a0: adc0 00bd 16d7 b8bc 4854 39bd 7fd2 bc3c
000003b0: c2a5 0bbd ca8f 173c e474 ecbb 6d47 81bc
000003c0: 5c0c 32bc 9604 efbb feb4 68bc f5bf a4bc
000003d0: 5624 893c 0349 7ebc a280 69bc 1734 c13c
000003e0: d034 4e3b d384 57bc 31c0 a33b 68b4 91bb
000003f0: c2ac 0fbc 004e 8ebc 55ea 863a 12e2 9c3c
0.0018673572 -0.004822654 -0.022644574 -0.012782444 0.02148802 -0.008848575 0.016515415 0.020876737
0.008523971 -0.003187781 -0.0074150385 -0.0016123554 -0.005671771 -0.018171236 -0.022926107 0.014681744
-0.0103268055 -0.009745063 0.0036874646 0.0014503547 -0.00075476704 -0.0019609977 -0.01925494 -0.008072512
-0.015505351 0.034485642 -0.013324796 0.02914647 0.010740361 -0.034731314 0.022745578 0.0132292
0.0027000732 -0.0025468227 0.005020594 0.020097937 -0.012095659 -0.016167829 0.005880323 0.009923495
-0.00026562827 0.022063311 0.034357406 0.013795874 0.010688984 -0.0074662804 -0.02162502 0.012864923
0.00062679715 0.041478112 0.0067088124 -0.016544146 -0.0074292296 -0.011350434 0.009073013 -0.016834449
-0.0027884769 0.006075029 -0.012760781 -0.043996222 0.034019936 0.029372672 -0.005455617 0.042675268
0.0142976595 0.0011742346 0.0017739836 -0.029745378 -0.018190438 0.023117956 0.0022709367 -0.010490155
-0.0075008306 -0.02736965 -0.001440155 0.011284501 -0.009373889 0.009198509 -0.02957337 -0.007228244
0.0403312 0.00032719993 0.014070538 -0.0052450798 0.0052677803 -0.0077915043 -0.008608758 4.6885598e-05
-0.010263005 -0.0063471873 0.026106894 0.018221559 0.01845523 0.021719905 -0.012410248 0.02749523
-0.0057109804 -0.0063774968 0.006568271 -0.016590573 0.035512388 0.015465038 -0.009159467 0.00014089764
-0.0003760081 0.005767434 -0.01777919 -0.0053026793 -0.008193203 -0.013622172 -0.00027098885 -0.005514051
-0.019405069 -0.03092847 0.015200497 0.0039768917 0.00155551 -0.022131536 0.009798524 -0.0113884965
0.007973354 0.005750538 0.008581444 -0.012778014 0.004393953 -0.021185214 0.019584028 -0.023961073
-0.0060537467 -0.018728487 -0.01032523 0.04853374 0.022520399 -0.026647128 -0.011837008 -0.032112062
0.009708759 -0.00235814 -0.010570082 -0.004775195 -0.014694177 0.034508146 -0.01243094 0.031094214
0.019229557 0.006455204 0.00832378 -0.04089287 0.013215672 -0.0050588604 -0.030318089 -0.008942925
0.04409128 0.0046652425 0.007906427 -0.0564362 0.0024652511 0.04214017 0.02131841 -0.0027093885
-0.0099429125 -0.026437402 -0.02026042 -0.012413758 -0.011808171 -0.013069953 0.0044700084 -0.006616967
-0.0015520778 -0.004485312 0.009033187 0.020936776 0.037736963 0.008534402 0.0026242565 0.0125933895
-0.009872612 0.013069728 -0.011012625 -0.019005938 0.009849481 -0.01647702 0.02824626 -0.034116253
0.0036048156 -0.0016350369 0.0026086485 -0.020491522 0.0030212523 0.007852772 -0.012684675 0.0008861212
0.027434498 -0.0246197 -0.011985737 0.007423741 -0.0075120227 0.0039736605 0.0062103956 0.030822543
0.0028796743 0.0020951435 0.007767037 0.026075238 -0.007342437 -0.0035985569 -0.03675189 -0.037073817
0.0054748915 0.016221937 0.024375943 -0.0037596931 -0.006159886 -0.0013004787 0.017789219 -0.009220316
0.0031985047 0.011193742 -0.016554689 -0.0023509874 -0.003624852 0.0072163455 0.023814384 0.01729927
-0.021669298 -0.018274685 -0.0144333625 0.008500309 -0.035704624 0.032021314 -0.018668814 0.0180097
-0.03143375 -0.022563498 -0.045246392 0.023049591 -0.034093626 0.009250591 -0.007216083 -0.015781129
-0.0108672045 -0.007294248 -0.014203308 -0.020111063 0.01674096 -0.015520337 -0.01425186 0.023584409
0.0031464584 -0.013154226 0.0049972762 -0.004446555 -0.008769216 -0.017371178 0.0010293225 0.019150767

action_model._discrete_distribution.branches.1.bias f4 [15]
00000000: eaf6 8cbb 9760 1b3b 66a1 263b 8b98 e6b9
00000010: 28b6 103b b90a dfbb 4228 f93b 3e8d 4d3c
00000020: 22ea 10bb b071 1abb dee4 85bb 853e 18b9
00000030: 4dac b7bb b46a 1c3c 84a0 efbb
-0.0043018954 0.0023708695 0.002542579 -0.00043982672 0.002208123 -0.006806698 0.007603676 0.012545882
-0.002211221 -0.0023566298 -0.004086121 -0.0001451914 -0.0056052567 0.009546924 -0.007312836

action_model._discrete_distribution.branches.2.weight f4 [15, 256]
00000000: 1fdc 353c c43b 9a3c eac5 2e3c 472d 153d
00000010: fb17 bd3c c6b3 14bb 6577 823b d0a7 083c
00000020: 1d4b 2c3d bbf2 12bc e8f5 663c 6df7 72bc
00000030: 6921 2f3b 22e0 363d 6022 223d 802d 4bbd
00000040: 0a31 23bd ba72 ac3a 4a13 c5bc 7617 d5bc
00000050: 442c 083d 2e4c adbb b174 20bd 7079 323c
00000060: acd3 ce3c 323f 073c aaa1 1b3c e85e 253d
00000070: 32f8 8b3a a7c6 d23c 4ea4 f5b9 a4c0 19bc
00000080: d638 11bd 8615 aabb 1308 65bb 11c7 27bc
00000090: 3079 103c 31d6 90bc 9f43 b63c 2dc9 64ba
000000a0: 53f2 1bbd 215c b1bc 825d 6ebc 50ff f1bc
000000b0: 1013 36bc 91a3 43bb 25be 03bd 901e 8a3c
000000c0: 0f57 443d 5275 5f3c 524a 833b 6029 243c
000000d0: d086 c63b a345 093d c9cf e7bb 4cc0 44bc
000000e0: 672b bb3c 4eb1 17bd a95d 20bc bd64 873c
000000f0: 2b1a 00bd 62f0 ce3c a4b1 82bc 9dd5 793b
00000100: dc2f ef3c 653a 29b9 e5f7 683a baeb 2b3d
00000110: 58ce 01bd ba71 433c 8987 343b 4c49 b23c
00000120: 126a 40bc 4178 f23c 14d4 ee3c 8b2b 7d3c
00000130: 9dc4 37bc 36cb c5bc c194 dc3c 6542 97bc
00000140: 4505 12bd db39 22bd 189e 4fbd dfd1 293c
00000150: e02e 67bc 9d9b 7ebc b579 f1bc 3b87 28bc
00000160: 8b39 73bc 76f8 27bc c1ea 633c 4445 a3bc
00000170: e824 223a 2958 65ba 141e c838 21f7 0cbc
00000180: 2554 17bc 07d7 d9bc 5e78 f3bb ac57 81bb
00000190: d986 013c 1223 e2bc 7793 c43c 4bba 0f3d
000001a0: 718d 03bd 0569 b83a 2676 71bb 6b08 933c
000001b0: 77b5 5d3d 802b f9bc 8fa0 793c 5d2c 133d
000001c0: b548 a1bb feaa 98bb fc3a 68bc 24b2 d6bb
000001d0: 079a b13b f6ec 81bc 3428 293c 9077 263d
000001e0: af89 adbc 6c02 dfbc 0577 4fbc 902d 8a3c
000001f0: d201 c8bb 3640 083d 3047 cb3c 984b 313b
00000200: d97d acbb 44d9 de3c e8af 043c 15b9 0cbd
00000210: 2cbd 913c e319 cdbc a4c6 dfbc f8d0 79bb
00000220: 17ef ffba 46be 6d3c 7702 b53c 00e0 74bc
00000230: 4d61 023d 89ec 433c a094 8e3a e42e 113d
00000240: df1e 92bc 4faf 96bc 9d34 b13c 2959 6e3b
00000250: 609f b83c ee0e 193c 03dc 0ebc da70 0ebd
00000260: 899c 3ebc cba8 2bbd 68ef 9d3c bb55 173d
00000270: b425 e03c 8095 99bc 5dfb 02bc 14ab 27bc
00000280: 8d43 043c fc26 2a3b c6fc b53c ce44 a93a
00000290: 4b66 7abb fcff 5f3c 3f7a e0bb aa3a a93c
000002a0: 4fea 27bb 30f0 2ebc 9750 923b dbb0 3f3c
000002b0: 226d 6bbc 68d5 3dbd 918d 0dbd 48b4 54bb
000002c0: 7dc0 3fbc 7e9c 363c 9d81 cb3b 7ea7 5f3c
000002d0: 5a2a b2bc 1314 a43c c95f 05bc d095 02bc
000002e0: 35e0 693d 4697 203c e34d a3bc d4dc 3d3b
000002f0: 8f3d e1bb f4c1 013b 55ac 823c c4d7 84bc
00000300: d0d3 693c 2b31 d0bb 2950 b4bc 41cc 9dbb
00000310: e799 e739 f280 78bc 30b1 0ebb 21b7 743c
00000320: f6a2 16bc 69cc 68bc 6e9c 8bbc c81a 803a
00000330: 6c85 193d d55c c9bb 781e a93c 8cb8 aebc
00000340: e495 013d 5d04 bcbc 29d0 43bc 6b6a 7abc
00000350: 6396 e4bb b191 9dba cabd b53b 6a88 47bb
00000360: c545 873b e560 84bc c95e 42bc e8da 0e3c
00000370: 0646 31bc 872d 473c 77a4 5bbc a7c3 3e3d
00000380: 1599 1c3c fce6 ed3a 0ada 0abd 9153 77bb
00000390: 57ec 77bc 642a a7bc 11ae 9cbc 9044 78bd
000003a0: 69f5 3a3d 5835 33bb 2008 803a f080 ebbc
000003b0: ac6a 283c 01ba 183c 6aa2 06bc 9433 a0b9
000003c0: cf63 9738 6161 113c 2707 2a3d 2e00 e43b
000003d0: 30fa 4f3c fed4 b63c 389e 4c3c e37c 98bc
000003e0: e7f4 b93b 9876 9b3c 9a1b 35bc 97eb f0b9
000003f0: fa3a 56bd d12a 5dbc e659 acbb 7061 e43c
0.011099844 0.018827327 0.010667304 0.036420133 0.023082724 -0.002269016 0.003981518 0.008340791
0.04206382 -0.008969004 0.014096715 -0.014829499 0.0026722795 0.044647343 0.039583564 -0.04960394
-0.03984169 0.001315675 -0.02405705 -0.026012164 0.03324534 -0.0052886223 -0.039173786 0.010893211
0.025247417 0.008254813 0.009498993 0.040373713 0.0010678826 0.02572949 -0.00046852458 -0.009384308
-0.035454594 -0.005190554 -0.003494744 -0.010240332 0.008817956 -0.01768026 0.022249041 -0.00087274873
-0.038072895 -0.021650376 -0.014548661 -0.029540688 -0.011112943 -0.0029852132 -0.032163758 0.016860276
0.047934588 0.013638811 0.0040066624 0.01001963 0.0060585514 0.033513676 -0.0070743305 -0.012008738
0.022847844 -0.037034325 -0.009787955 0.016527528 -0.031274956 0.025261108 -0.015953846 0.0038121708
0.029197626 -0.0001613885 0.0008887037 0.041972853 -0.031690925 0.01192897 0.0027546606 0.021763466
-0.011744039 0.029598357 0.029153861 0.015452276 -0.01121631 -0.02414475 0.0269264 -0.018464277
-0.035649557 -0.039605957 -0.05068788 0.010364979 -0.014110297 -0.015540031 -0.02947698 -0.010286148
-0.014845262 -0.010252109 0.01391095 -0.01993049 0.0006185309 -0.00087487936 9.542346e-05 -0.008603842
-0.00923637 -0.02659179 -0.0074301204 -0.003947219 0.007905685 -0.027604613 0.023996098 0.035089772
-0.03211731 0.0014069384 -0.0036844104 0.01794835 0.054128136 -0.03041625 0.015236034 0.03593098
-0.0049219974 -0.0046590557 -0.014174219 -0.0065519977 0.005419973 -0.015860062 0.010324527 0.040641367
-0.021183817 -0.027222835 -0.012662654 0.016867429 -0.0061037326 0.03326436 0.024814218 0.0027053114
-0.0052640256 0.02720321 0.00809858 -0.034356195 0.0177904 -0.025036758 -0.027316399 -0.003811894
-0.001952621 0.014510697 0.022095902 -0.014945984 0.031831075 0.01195825 0.0010878034 0.03544511
-0.017836986 -0.01839414 0.021631533 0.0036369062 0.022536933 0.009341938 -0.008719447 -0.034775592
-0.011634001 -0.04190902 0.019279197 0.036946993 0.027361728 -0.018748045 -0.0079945 -0.010233659
0.008072746 0.0025963178 0.022215258 0.0012914182 -0.0038207944 0.013671871 -0.0068505104 0.020657856
-0.0025621837 -0.010677382 0.0044651735 0.0116998805 -0.014369281 -0.0463461 -0.034558836 -0.0032456089
-0.011703608 0.011145709 0.0062105195 0.013650773 -0.02174871 0.020029103 -0.008140513 -0.007970288
0.057098586 0.009801691 -0.0199346 0.0028970735 -0.0068737934 0.0019799443 0.015951315 -0.016216166
0.014271691 -0.0063535175 -0.02201088 -0.0048156087 0.0004417442 -0.015167462 -0.0021773092 0.014936239
-0.009194126 -0.014208891 -0.017042365 0.0009773606 0.037480757 -0.0061450996 0.020644411 -0.021328233
0.031637087 -0.0229513 -0.011951485 -0.015284161 -0.0069759353 -0.0012021569 0.0055463063 -0.00304463
0.00412819 -0.016159484 -0.011863419 0.0087191835 -0.010819918 0.012156851 -0.013405911 0.046573307
0.009557982 0.0018150504 -0.033899345 -0.0037739018 -0.015132031 -0.020405956 -0.01912597 -0.06061226
0.045644198 -0.0027345028 0.0009768046 -0.028748006 0.010279339 0.009321691 -0.0082174335 -0.00030556007
7.218832e-05 0.008873315 0.041510727 0.0069580292 0.012693927 0.02231836 0.012488894 -0.018614238
0.0056749466 0.018977448 -0.011053944 -0.00045951895 -0.05230234 -0.013498978 -0.00525974 0.027878493

action_model._discrete_distribution.branches.2.bias f4 [15]
00000000: 28b6 e6ba a87d 523b db8e 253c 3940 28bb
00000010: 5ccb a23b 0feb c2bb 6207 cbbb 33bc 95ba
00000020: 4e46 813b 95a4 c43b 44d2 023a 9ca4 6d3a
00000030: ea66 58bc e18c e7bb 3c00 2d3c
-0.0017601894 0.0032118354 0.01010486 -0.0025673045 0.00496809 -0.0059484313 -0.0061959485 -0.0011423886
0.0039451485 0.006001065 0.00049904385 0.0009065361 -0.01320813 -0.0070663546 0.010559138
