results/AgentRankingsAndAcceptedRankings/AgentBehavior/AgentBehavior-999976.onnx (onnx, 333671 bytes, 11 tensors)

discrete_act_size_vector f4 [1, 3]
4.0 15.0 15.0
00000000: 0000 8040 0000 7041 0000 7041

network_body._body_endoder.seq_layers.0.weight f4 [256, 30]
0.14425345 0.06056936 -0.22553252 0.06788364 0.07633804 -0.1480693 -0.17484953 0.18419664
-0.08129406 -0.03800105 0.119784676 0.1697942 0.25923672 0.07332129 0.03913581 0.18441358
-0.13573247 -0.25419804 0.021589717 0.046000767 -0.041864477 -0.066909455 0.27093914 0.102349296
0.04374446 -0.3677557 0.03640664 -0.05606195 -0.0475628 0.24473621 0.20608023 0.21636711
0.07923954 -0.00361941 -0.21674407 0.23415954 -0.28879115 0.003895296 0.149911 -0.26376152
0.054286294 0.03943939 -0.0044260607 0.004371453 0.22986944 -0.27433655 -0.06558118 -0.16678405
0.15282018 -0.020647628 0.054166067 0.25734073 -0.13760087 -0.06901187 0.14212808 -0.24482894
0.14538619 0.1360328 -0.08818174 0.10653717 -0.18002726 -0.021322826 0.113912486 0.49601376
0.2994051 0.30771625 0.01648286 -0.06877063 0.113164544 0.39803618 0.29293734 0.011032016
-0.23010509 0.470582 0.311497 0.11614876 0.0036081823 0.11466386 -0.069444075 -0.107599124
-0.19605684 0.25191176 0.3067744 -0.06564019 0.17604914 0.082367904 0.17079245 0.09666297
0.17549433 0.021233216 0.23344575 0.40900013 -0.042423774 -0.07940498 -0.009736026 0.044072714
0.13712347 0.24302232 0.1019227 -0.014196318 0.20651498 0.10756461 -0.06626166 0.15419893
0.10420362 -0.24374364 0.005742007 0.13023657 0.012928076 0.1271683 0.094893456 0.03917713
-0.57481676 0.17866342 -0.028182024 0.3054383 0.20484447 0.30280665 -0.07759449 -0.035745483
0.005620891 -0.28006518 0.30913994 -0.22292487 -0.039354626 0.016362162 -0.26686245 0.10135347
0.13934456 -0.22190696 -0.35127935 -0.17521256 -0.20504327 0.23286277 -0.17472057 0.050563935
0.35607275 -0.12531558 0.30727696 -0.19007869 -0.30182418 0.07012133 -0.10083064 0.051605955
0.23709501 0.15340532 -0.06624116 -0.23291866 0.15135798 -0.06860834 0.08448694 -0.36301598
-0.22619577 -0.14191349 -0.14691205 0.07645383 0.1787627 -0.037995704 -0.3721566 0.14860718
-0.082993336 -0.11581215 0.029138213 -0.1572906 -0.38874415 0.13412735 -0.19604896 -0.16825369
-0.11852094 0.028087568 -0.25263947 0.014283577 -0.13642415 -0.027736649 -0.6144742 -0.16471577
0.0051447116 -0.010805901 -0.27568188 -0.20512658 -0.15788335 0.0964645 0.048255347 0.25570938
-0.005194569 -0.14174858 0.12047696 -0.06619385 0.08238391 0.10493417 -0.062044263 0.22843796
-0.06431983 -0.19220367 0.049228847 0.12414358 0.2673935 -0.108080454 -0.041658152 -0.019318316
0.1509702 -0.3089717 -0.046677284 -0.1472472 0.105893254 0.24750824 -0.04577597 0.098144144
-0.010566237 -0.2514057 0.3557995 -0.17506279 0.016218018 -0.117286794 0.3449604 0.13967337
0.18431298 -0.097677544 0.031346988 0.050347887 0.08326196 0.012056826 0.114883326 0.10259954
0.0413154 0.15282512 -0.0445574 0.16226701 0.3170093 -0.2568962 0.04826659 -0.18774498
0.0719098 0.06986357 0.10027739 0.046718553 -0.14310811 -0.20123829 0.09085307 -0.018155051
-0.11224148 -0.10431711 -0.042412143 -0.119571015 -0.3782924 0.47526208 0.038466156 -0.24301924
0.16880739 -0.30360347 0.06393443 -0.024642963 0.007936824 0.1372243 0.14036776 -0.2411448
00000000: 2db7 133e 9417 783d fff1 66be 9406 8b3d
00000010: 1e57 9c3d 7b9f 17be c10b 33be 0b9e 3c3e
00000020: 807d a6bd fda6 1bbd ab51 f53d 88de 2d3e
00000030: adba 843e 7929 963d df4c 203d ead6 3c3e
00000040: 74fd 0abe 3f26 82be ebdc b03c 4d6b 3c3d
00000050: 167a 2bbd d307 89bd 89b8 8a3e 829c d13d
00000060: 642d 333d 7a4a bcbe 211f 153d 37a1 65bd
00000070: 36d1 42bd 219c 7a3e b206 533e 578f 5d3e
00000080: 5748 a23d a033 6dbb 28f2 5dbe 85c7 6f3e
00000090: 6fdc 93be 3948 7f3b 4582 193e c00b 87be
000000a0: 4e5b 5e3d 338b 213d 7d08 91bb 683e 8f3b
000000b0: e562 6b3e d775 8cbe 6d4f 86bd 70c9 2abe
000000c0: e57c 1c3e 3725 a9bc 3ddd 5d3d 2ac2 833e
000000d0: 3ee7 0cbe 1856 8dbd 068a 113e 70b4 7abe
000000e0: 1ee0 143e 2f4c 0b3e a198 b4bd 2930 da3d
000000f0: 1159 38be 35ad aebc f34a e93d 84f5 fd3e
00000100: a04b 993e fc8c 9d3e 1007 873c 9ed7 8cbd
00000110: d0c2 e73d 66cb cb3e e2fb 953e a1bf 343c
00000120: aba0 6bbe 20f0 f03e 897c 9f3e 67df ed3d
00000130: 4177 6c3b e3d4 ea3d b238 8ebd ee5c dcbd
00000140: 20c3 48be 94fa 803e 8911 9d3e 5d6e 86bd
00000150: 3a46 343e 81b0 a83d 37e4 2e3e 3cf7 c53d
00000160: c9b4 333e 48f1 ad3c 670c 6f3e 7768 d13e
00000170: 8dc4 2dbd 149f a2bd da83 1fbc 9785 343d
00000180: 186a 0c3e d8da 783e d9bc d03d ac97 68bc
00000190: aa78 533e d64a dc3d 31b4 87bd 53e6 1d3e
000001a0: b568 d53d ef97 79be 7227 bc3b bc5c 053e
000001b0: 48d0 533c 6838 023e 8057 c23d 3378 203d
000001c0: 3127 13bf 8bf3 363e fddd e6bc 6962 9c3e
000001d0: c0c2 513e 7909 9b3e dce9 9ebd db69 12bd
000001e0: 742f b83b b464 8fbe 9747 9e3e 6b46 64be
000001f0: 5132 21bd f109 863c 32a2 88be 6892 cf3d
00000200: 57b0 0e3e 943b 63be e3da b3be ec6a 33be
00000210: ddf6 51be 9473 6e3e f3e9 32be 211c 4f3d
00000220: 2b4f b63e ba52 00be 6853 9d3e fda3 42be
00000230: b388 9abe c69b 8f3d 4b80 cebd c460 533d
00000240: 09c9 723e 4916 1d3e 72a9 87bd 3b82 6ebe
00000250: 96fd 1a3e 8882 8cbd 7d07 ad3d 3bdd b9be
00000260: dd9f 67be c551 11be 1d70 16be d393 9c3d
00000270: 920d 373e 62a1 1bbd 4f8b bebe 7b2c 183e
00000280: 69f8 a9bd ec2e edbd 43b3 ee3c c910 21be
00000290: 7909 c7be ae58 093e 0fc1 48be b24a 2cbe
000002a0: 1bbb f2bd e617 e63c f659 81be aa05 6a3c
000002b0: c6b2 0bbe f837 e3bc 2e4e 1dbf 40ab 28be
000002c0: f894 a83b 3c0b 31bc 2d26 8dbe b40c 52be
000002d0: 2cac 21be 2e8f c53d 66a7 453d 57ec 823e
000002e0: 3437 aabb 8a26 11be a0bc f63d a490 87bd
000002f0: e5b8 a83d bae7 d63d 2022 7ebd a4eb 693e
00000300: 1dba 83bd 0ad1 44be 30a4 493d fd3e fe3d
00000310: cde7 883e 4959 ddbd bda1 2abd 7241 9ebc
00000320: ef97 1a3e 8a31 9ebe ae30 3fbd f8c7 16be
00000330: 90de d83d cd72 7d3e 957f 3bbd ccff c83d
00000340: 031e 2dbc 3fb8 80be 5a2b b63e a943 33be
00000350: a6db 843c 0f34 f0bd a69e b03e 8906 0f3e
00000360: 8bbc 3c3e 2a0b c8bd b365 003d 9639 4e3d
00000370: 3f85 aa3d fe89 453c f347 eb3d b51f d23d
00000380: 563a 293d 307e 1c3e d281 36bd 5329 263e
00000390: 0b4f a23e e687 83be 30b3 453d 3840 40be
000003a0: 7245 933d a214 8f3d 3b5e cd3d f45b 3f3d
000003b0: ef8a 12be 6911 4ebe 2d11 ba3d e7b9 94bc
000003c0: dcde e5bd 35a4 d5bd 5bb8 2dbd a6e1 f4bd
000003d0: 8baf c1be 8d55 f33e b08e 1d3d 09da 78be
000003e0: d8db 2c3e ea71 9bbe 0ef0 823d 0ae0 c9bc
000003f0: 7409 023c 8784 0c3e 91bc 0f3e aaee 76be

network_body._body_endoder.seq_layers.0.bias f4 [256]
0.08475356 0.08691683 0.055692047 0.07128803 0.07052353 -0.25908384 0.054902878 0.085719734
0.06840732 0.038276903 0.08368673 0.058883954 -0.05397299 0.06191577 0.09322164 0.15633762
-0.033265285 0.10186225 -0.05132817 0.07503572 0.023959264 0.0007008542 0.08512135 0.04246621
0.12859994 0.028866608 0.12010505 -0.022921035 0.06004888 0.120242275 0.005374865 0.050354432
0.065755144 0.12047454 0.08382149 0.063441195 0.11141487 0.030620128 0.09199759 -0.049859658
-0.034031134 0.09121207 0.06288533 0.025517276 0.10731755 -0.28027636 0.074658185 0.077286445
0.030830882 -0.011496316 0.07925001 0.078290105 -0.15933356 0.069878675 0.13247445 0.06260218
-0.02104699 0.09029157 0.013198919 -0.2006932 -0.07161222 0.13552691 0.0678731 0.0109195765
0.12647657 0.10766286 0.025628781 0.102792725 0.09175907 0.034648437 0.04891727 0.13098814
0.07898643 0.06359424 0.055548165 0.1457626 0.11643611 0.10123987 0.049970027 -0.022983616
0.030998506 0.04095954 0.12371975 0.018439727 0.06412987 0.13029699 0.11588736 -0.050761208
-0.036414295 -0.041841276 -0.015942046 0.048280723 0.10098923 0.08428336 0.13693637 0.042960733
0.10036835 0.11252103 0.013377445 -0.26358256 0.04906933 -0.22703707 0.037515324 -0.034235816
0.068073064 -0.038229752 -0.051550016 0.05481732 0.054473374 -0.08374919 0.0040563857 0.056078423
0.04581583 0.08054938 0.07717078 0.08773176 -0.024572005 0.08625513 0.0468509 -0.020415915
0.08069378 0.07193029 0.05316646 -0.012152957 0.04515476 -0.015232302 0.10835158 0.0015436442
0.0945922 0.03012977 -0.026948886 -0.11703352 0.103061095 0.046690803 0.0891806 0.099792354
0.15169393 0.0054119853 0.06692914 -0.049797073 0.06851134 0.09947703 0.116342716 -0.22484985
-0.020600114 0.10981756 0.08209945 0.0069567296 0.119406685 -0.05081145 0.10133736 -0.0054007154
0.055159606 0.00579588 0.06569501 -0.004834418 0.008987417 0.08533347 0.07485176 -0.17481507
0.023041803 -0.23764431 -0.12620619 0.059914283 -0.004670937 0.0018577701 0.10573799 -0.22001031
0.051497366 -0.07672698 0.06879979 0.059248712 0.13472813 0.025467038 0.10368256 0.13786419
-0.058885697 -0.0451019 -0.012596683 0.043001276 0.059801206 -0.032692663 0.118669644 0.10712373
0.0660453 0.031016639 0.0051872474 -0.24171233 -0.17669782 0.02057098 0.11549019 -0.038131047
-0.010978469 -0.25058347 0.09000249 0.0023229362 -0.07824026 -0.1488954 -0.033229016 -0.21885501
0.10358774 -0.017767483 -0.07381842 0.037927788 0.014495768 -0.0006414123 0.10201953 -0.1820094
0.042157292 0.015168214 0.047435455 0.04066779 0.04710258 -0.029527808 0.15257753 0.06301392
0.059632204 0.023495201 0.043289766 0.029571218 0.042135127 0.17844225 0.07780137 0.07639822
0.11422247 0.09296128 0.096053846 -0.06168998 -0.034081485 0.04034516 0.11177045 -0.018922534
-0.07685513 0.048108127 -0.017509384 0.12317241 0.1258731 -0.17512937 0.027711589 0.076608755
0.09719165 0.025012847 -0.12561636 0.120655015 0.094617434 -0.20235509 -0.03428632 0.035023894
0.029526526 0.062764615 0.11519905 0.018597128 -0.08236317 -0.010874377 0.100023754 0.033615604
00000000: 4693 ad3d 7301 b23d 581d 643d 75ff 913d
00000010: a46e 903d a3a6 84be d7e1 603d d48d af3d
00000020: 2319 8c3d 3ec8 1c3d f363 ab3d 4d30 713d
00000030: c812 5dbd 649b 7d3d fdea be3d f816 203e
00000040: 2e41 08bd 289d d03d 7d3d 52bd 54ac 993d
00000050: 3846 c43c 87b9 373a 1a54 ae3d 0cf1 2d3d
00000060: b4af 033e aa79 ec3c a3f9 f53d e5c4 bbbc
00000070: d0f5 753d 9541 f63d a31f b03b 7340 4e3d
00000080: a2aa 863d 5bbb f63d 9aaa ab3d 75ed 813d
00000090: 7b2d e43d 10d7 fa3c 3c69 bc3d a439 4cbd
000000a0: 3b64 0bbd 65cd ba3d 06ca 803d 9b09 d13c
000000b0: 4ec9 db3d 6280 8fbe 64e6 983d 5b48 9e3d
000000c0: 0c91 fc3c 0b5b 3cbc d44d a23d 9056 a03d
000000d0: 5628 23be 8d1c 8f3d 62a7 073e 9235 803d
000000e0: bd6a acbc c9ea b83d 4740 583c 8582 4dbe
000000f0: 6da9 92bd 91c7 0a3e 0d01 8b3d 06e8 323c
00000100: 1383 013e 587e dc3d 73f3 d13c fe84 d23d
00000110: 2eec bb3d 85eb 0d3d 7a5d 483d c121 063e
00000120: a3c3 a13d b23d 823d 7986 633d ca42 153e
00000130: 0e76 ee3d d956 cf3d 5fad 4c3d 2348 bcbc
00000140: 94f0 fd3c 31c5 273d c860 fd3d e90e 973c
00000150: 8556 833d 936c 053e 5a56 ed3d fcea 4fbd
00000160: 2827 15bd c261 2bbd e598 82bc 02c2 453d
00000170: 71d3 ce3d c19c ac3d 0c39 0c3e 98f7 2f3d
00000180: ec8d cd3d 6d71 e63d 122d 5b3c 4bf4 86be
00000190: ecfc 483d 687c 68be aba9 193d db3a 0cbd
000001a0: e469 8b3d cd96 1cbd 1c26 53bd 2088 603d
000001b0: 791f 5f3d b284 abbd 6eeb 843b 7db2 653d
000001c0: 61a9 3b3d 13f7 a43d b70b 9e3d b6ac b33d
000001d0: 3b4b c9bc 88a6 b03d bbe6 3f3d 473f a7bc
000001e0: c842 a53d 3050 933d 13c5 593d 321d 47bc
000001f0: 33f4 383d e890 79bc 6fe7 dd3d 1b54 ca3a
00000200: 8eb9 c13d b5d2 f63c e9c3 dcbc 45af efbd
00000210: b211 d33d db3e 3f3d 52a4 b63d ef5f cc3d
00000220: a755 1b3e 0657 b13b 2512 893d 04f8 4bbd
00000230: ac4f 8c3d 9dba cb3d 1745 ee3d 0a3f 66be
00000240: 92c1 a8bc 07e8 e03d c223 a83d 47f5 e33b
00000250: 7e8b f43d ab1f 50bd f689 cf3d 7cf8 b0bb
00000260: 0aef 613d 5eeb bd3b 1b8b 863d 0a6a 9ebb
00000270: f63f 133c 50c3 ae3d e14b 993d b902 33be
00000280: 2ac2 bc3c 0859 73be 323c 01be ae68 753d
00000290: a90e 99bb 6c80 f33a 298d d83d 624a 61be
000002a0: e7ee 523d 0923 9dbd e8e6 8c3d c7ae 723d
000002b0: 2cf6 093e 40a0 d03c 8657 d43d 452c 0d3e
000002c0: 2132 71bd c5bc 38bd 5162 4ebc 1b22 303d
000002d0: 1cf2 743d bee8 05bd 1209 f33d b063 db3d
000002e0: c242 873d 9b16 fe3c c9f9 a93b 7083 77be
000002f0: 46f0 34be 7984 a83c 1f86 ec3d 4d2f 1cbd
00000300: 09df 33bc 7a4c 80be 3a53 b83d 673c 183b
00000310: 6e3c a0bd 0978 18be 261b 08bd 871b 60be
00000320: cf25 d43d 1d8d 91bc 1d2e 97bd 2b5a 1b3d
00000330: a87f 6d3c 7324 28ba 9eef d03d ac60 3abe
00000340: 20ad 2c3d 1a84 783c ae4b 423d 4593 263d
00000350: a3ee 403d 4de4 f1bc 493d 1c3e 710d 813d
00000360: e640 743d 0279 c03c 9c50 313d 573f f23c
00000370: e295 2c3d 91b9 363e 5356 9f3d ac76 9c3d
00000380: 78ed e93d 7c62 be3d e1b7 c43d a2ae 7cbd
00000390: 0799 0bbd f740 253d e8e7 e43d 6e03 9bbc
000003a0: 3966 9dbd 070d 453d d76f 8fbc d141 fc3d
000003b0: e1e4 003e 1d55 33be 6a03 e33c 0de5 9c3d
000003c0: 6a0c c73d bee7 cc3c 93a1 00be fa19 f73d
000003d0: c9c6 c13d 2c36 4fbe d06f 0cbd 3775 0f3d
000003e0: 9de1 f13c bc8a 803d 7bed eb3d 0159 983c
000003f0: 06ae a8bd 712a 32bc 41d9 cc3d 84b0 093d

network_body._body_endoder.seq_layers.2.weight f4 [256, 256]
-0.1205597 0.032652676 0.1051585 0.10365112 0.040621743 -0.01956343 0.060385652 0.06719574
0.024871394 0.03478468 -0.0034403263 -0.06371904 -0.09904392 -0.09082592 -0.08200173 0.09942118
0.0692167 0.004683511 0.05227716 0.047619447 0.03195724 0.036445122 0.04708212 -0.06266458
-0.024533074 -0.06412154 0.09837637 0.12249396 -0.009798814 -0.064850874 -0.006396529 -0.12631448
-0.12835358 0.050559323 -0.08344136 0.05804969 -0.0728735 0.058276433 -0.044325486 -0.04578293
0.06646053 0.029877335 0.02768466 0.12544484 -0.09677682 0.013121331 0.089708224 -0.096184924
-0.014671755 0.046052236 0.05450008 0.08081558 -0.075936474 -0.00064106664 -0.06333905 -0.040992588
0.043365374 -0.013924623 -0.10473385 -0.05924082 -0.1040004 0.07377534 -0.023950953 0.14527704
0.08429184 0.047424432 -0.00027678593 0.082169704 -0.06543481 0.0053315517 0.05009596 -0.026771381
-0.175356 -0.017638363 0.024139574 -0.025317777 -0.010967588 0.000514708 0.11790669 -0.043363273
-0.0046830717 0.019367522 -0.037866898 -0.047185455 0.22296587 0.11703994 0.07150143 -0.010008598
0.017340701 -0.057426408 -0.009609994 -0.048971187 0.0073603424 -0.01920781 0.012652983 -0.008264028
-0.004727242 -0.065906055 0.083808295 0.0074501378 0.014385701 -0.068544134 -0.090426885 -0.019710286
0.065247655 -0.039810643 -0.09271068 0.010983535 -0.10899838 0.07542798 0.0119644385 -0.008328848
-0.02680286 0.02297872 -0.134881 -0.079158075 -0.10861029 -0.035754662 -0.024697091 -0.017210102
-0.014713403 0.10675143 0.09527281 0.009834867 0.05740638 -0.08839283 0.13366029 0.08642129
0.07150028 -0.07218055 -0.12678401 -0.04189977 0.13291278 -0.048263792 0.048215173 0.047381993
-0.018891336 -0.0035635473 -0.09347158 0.12039275 0.12829489 0.05138466 0.009238542 -0.10247385
0.052735068 -0.02922012 0.04248458 -0.030794945 0.11067723 0.096370816 0.06317431 0.044292726
-0.014564109 0.030684918 -0.043750193 -0.11490167 0.06628619 0.1289435 -0.08126044 0.05372723
0.010181213 0.0017866524 -0.022411095 0.020186303 0.0061869016 0.098823205 0.10384925 -0.085313864
-0.042924944 -0.0337278 0.0613515 -0.009049266 -0.008469769 -0.017283471 -0.012660407 0.118027955
-0.0141548095 -0.07832689 -0.06850899 0.036875173 0.00010927352 0.005670012 0.043328635 0.09677761
0.03913549 -0.032666262 0.07920405 -0.009242152 -0.1565932 0.12293801 0.027823279 -0.028035954
-0.035285078 -0.030625435 -0.09062555 0.12372011 -0.0063602063 0.012654655 0.0022844172 -0.064331055
0.0069510667 0.09789456 -0.03134899 -0.105892405 0.05398587 0.028455343 0.03593923 -0.042327285
-0.037692435 -0.04707656 0.1014304 -0.054433826 -0.03510247 -0.21255203 0.1020229 -0.023556571
-0.073860444 -0.033831228 -0.029137548 0.15415813 -0.2371545 0.04822873 -0.059852563 0.0072067874
0.0060729706 -0.06931617 -0.06651377 -0.12731786 -0.06697043 -0.021698413 0.037289042 0.038435146
0.05445436 -0.034309357 -0.13518286 0.06486044 -0.08042821 -0.10838393 0.07133239 -0.07934697
-0.076880805 -0.030758545 0.017161973 -0.011533937 0.010594133 -0.06305826 -0.08561626 0.11054082
-0.07346254 0.05367768 -0.020790067 0.12426306 0.03690365 -0.023488108 -0.015006212 0.052871846
00000000: 01e8 f6bd d0be 053d 575d d73d 0a47 d43d
00000010: fc62 263d 7d43 a0bc f256 773d ec9d 893d
00000020: 18bf cb3c 617a 0e3d 1977 61bb 217f 82bd
00000030: 8ad7 cabd f102 babd 86f0 a7bd 559d cb3d
00000040: 7cc1 8d3d 2378 993b 9320 563d 9c0c 433d
00000050: 98e5 023d 7b47 153d 2ed9 403d 4a56 80bd
00000060: 96f9 c8bc 2752 83bd 8d79 c93d 1dde fa3d
00000070: 348b 20bc 89d0 84bd f999 d1bb 9558 01be
00000080: 1f6f 03be 4b17 4f3d 4ee3 aabd 83c5 6d3d
00000090: b43e 95bd 45b3 6e3d a48e 35bd e286 3bbd
000000a0: 751c 883d 50c1 f43c f1ca e23c 9d74 003e
000000b0: ed32 c6bd dafa 563c f2b8 b73d 9afc c4bd
000000c0: cd61 70bc 45a1 3c3d 7a3b 5f3d a482 a53d
000000d0: 9584 9bbd 410d 28ba e7b7 81bd d8e7 27bd
000000e0: e49f 313d 1a24 64bc b37e d6bd 81a6 72bd
000000f0: 29fe d4bd 8717 973d ca34 c4bc 81c3 143e
00000100: 33a1 ac3d 1f40 423d 941d 91b9 9748 a83d
00000110: b002 86bd 4cb4 ae3b 6c31 4d3d a84f dbbc
00000120: 8690 33be 547e 90bc 5bc0 c53c 3a67 cfbc
00000130: 66b1 33bc 78ed 063a 1079 f13d b09d 31bd
00000140: 7474 99bb a3a8 9e3c 521a 1bbd 8945 41bd
00000150: 2a51 643e a3b2 ef3d 576f 923d 1afb 23bc
00000160: 160e 8e3c f437 6bbd 3c73 1dbc 0396 48bd
00000170: 072f f13b b259 9dbc 754e 4f3c d865 07bc
00000180: fbe6 9abb c1f9 86bd afa3 ab3d 4920 f43b
00000190: 01b2 6b3c de60 8cbd bb31 b9bd 7777 a1bc
000001a0: 90a0 853d 7c10 23bd 19df bdbd 49f4 333c
000001b0: 8b3a dfbd fc79 9a3d 7e06 443c b875 08bc
000001c0: ac91 dbbc de3d bc3c 3f1e 0abe a11d a2bd
000001d0: 126f debd 7b73 12bd 8e51 cabc 33fc 8cbc
000001e0: 7c10 71bc 7ea0 da3d 641e c33d 6c22 213c
000001f0: f422 6b3d 4d07 b5bd 3ede 083e a5fd b03d
00000200: bd6e 923d 65d3 93bd abd3 01be 189f 2bbd
00000210: 4a1a 083e 41b0 45bd 467d 453d 9f13 423d
00000220: 01c2 9abc 678a 69bb 076e bfbd 7990 f63d
00000230: bc5f 033e b978 523d 415d 173c cfdd d1bd
00000240: ba00 583d 085f efbc 5004 2e3d ae45 fcbc
00000250: beaa e23d 105e c53d 8861 813d 4a6c 353d
00000260: 4d9e 6ebc f05e fb3c 6733 33bd 9151 ebbd
00000270: 0ec1 873d c409 043e e06b a6bd 1511 5c3d
00000280: 1acf 263c 1b2e ea3a 7997 b7bc bf5d a53c
00000290: 7ebb ca3b d263 ca3d eaae d43d 09b9 aebd
000002a0: 11d2 2fbd 2926 0abd b64b 7b3d 5f43 14bc
000002b0: c9c4 0abc 1196 8dbc 996d 4fbc a4b8 f13d
000002c0: 93e9 67bc d969 a0bd 714e 8cbd 6c0a 173d
000002d0: c629 e538 82cb b93b 5e79 313d 5733 c63d
000002e0: 894c 203d 0fcd 05bd bc35 a23d 656c 17bc
000002f0: f859 20be ecc6 fb3d a5ed e33c a8ab e5bc
00000300: 1687 10bd 31e2 fabc e399 b9bd f860 fd3d
00000310: 4769 d0bb 7855 4f3c 29b6 153b 00c0 83bd
00000320: c6c5 e33b f17c c83d cc67 00bd 1ede d8bd
00000330: 4a20 5d3d 2e1b e93c 0435 133d 605f 2dbd
00000340: 6263 1abd 5ad3 40bd beba cf3d 01f6 5ebd
00000350: 9cc7 0fbd 3da7 59be 62f1 d03d b6f9 c0bc
00000360: 2544 97bd 9d92 0abd deb1 eebc a1db 1d3e
00000370: a1d8 72be 7d8b 453d f627 75bd ea26 ec3b
00000380: c5ff c63b a3f5 8dbd 5f38 88bd 9d5f 02be
00000390: cb27 89bd dfc0 b1bc 65bc 183d 2c6e 1d3d
000003a0: 890b 5f3d f887 0cbd 606d 0abe 8dd5 843d
000003b0: 8cb7 a4bd 65f8 ddbd b716 923d aa80 a2bd
000003c0: af73 9dbd 58f9 fbbc 4497 8c3c d7f8 3cbc
000003d0: 0493 2d3c b024 81bd 9457 afbd 3a63 e23d
000003e0: 8773 96bd 21dd 5b3d ee4f aabc a27d fe3d
000003f0: 4828 173d 226a c0bc 9ddc 75bc 2690 583d

network_body._body_endoder.seq_layers.2.bias f4 [256]
0.06666061 0.094793715 -0.028965827 -0.0095673725 0.046850782 -0.029247291 -0.04865528 0.03258449
-0.018858502 0.069987655 0.10480966 0.057626188 0.021821389 -0.07185212 0.014147117 -0.026743019
0.016744073 -0.20350124 0.10099108 -0.051484115 -0.11401895 0.0641525 0.0059371586 -0.11372069
0.012583979 0.026834229 0.047754575 0.014861758 -0.010626379 -0.06056511 0.050320927 0.023537068
0.06257335 0.017133486 0.005058734 -0.002421307 -0.117786705 -0.050157264 0.013422707 -0.20775469
0.010270466 0.07333545 0.025399027 0.04741365 0.05606051 -0.19701144 0.015340948 0.119601175
-0.025771584 0.06193087 -0.0821092 -0.06840346 -0.18599273 -0.08513552 -0.19966501 0.09267732
-0.07238028 0.014765217 0.0505713 -0.0025658226 0.058398638 0.10271024 0.031710558 0.09667313
0.061551772 0.09214988 0.07313905 -0.07953274 0.038033172 -0.013147644 -0.19499776 0.0858076
0.058679886 -0.059546746 -0.03612297 -0.039736714 0.02417905 0.041277066 -0.0025802334 0.034392536
-0.042955626 0.033479113 0.0634421 -0.041353356 0.009199908 0.093965106 0.036959622 -0.19913821
-0.0697477 0.011424536 -0.029251838 0.08158201 -0.0850935 0.061414722 -0.04800958 0.044634514
-0.0067038867 0.0033019835 0.009044814 0.032724995 0.091670156 0.02281097 0.020756174 -0.039773088
0.045431636 -0.19222578 0.08324238 0.03128653 0.021352964 -0.024161208 0.047771208 0.004024144
-0.09008754 0.025459068 0.030234842 -0.092352256 0.02251346 0.08692546 -0.09730629 -0.051847868
0.052099094 -0.0046060956 0.019941019 -0.04728605 0.009779931 -0.025495263 0.011405715 0.052396853
-0.08814898 -0.03650328 -0.10305214 0.032481506 -0.017668163 0.032475673 0.07094788 0.028350996
0.0065841656 0.038131703 -0.1055484 0.08702793 -0.04127703 0.050879765 0.04224804 -0.014891697
-0.03900363 0.054927964 0.024606006 0.014276234 -0.08061251 -0.10303983 -0.029767266 0.058694948
-0.035323624 -0.013214725 0.006809917 -0.012135667 -0.10089187 -0.010524302 0.03708507 0.031060103
0.025472092 -0.10156117 0.0740229 -0.0705291 0.0056858477 0.034027893 0.08120048 -0.0126977945
0.040450174 0.07907545 -0.12492953 0.04267931 0.049033523 0.039362777 -0.0073441844 -0.018800901
-0.20182241 0.05902131 -0.16588527 0.08864121 0.025032455 -0.115436785 0.034486298 0.04819048
-0.033191945 -0.0137127405 0.01753949 -0.19468561 0.031047234 -0.012390029 0.013878617 0.09898211
-0.0036923704 0.065947734 0.0020951936 0.0017246469 0.020058855 0.027964463 -0.04775545 0.10033695
0.07689376 -0.06073548 0.035288144 0.04591129 0.037307534 0.072565764 -0.017451607 -0.008159788
-0.012991572 0.0651597 0.06809657 0.077922836 -0.18916266 0.026278988 0.010268969 -0.19371164
-0.18725972 0.01543485 -0.17560095 0.022983259 -0.1779593 0.027569436 0.0908387 -0.069745965
0.044457566 0.03785596 0.047931865 -0.05910352 0.0291491 0.028318707 0.08320762 -0.02401398
-0.04495648 -0.031275257 0.024319088 0.05902299 0.03765223 0.09641713 0.011285753 -0.14092247
0.03296743 -0.09187537 -0.08375906 0.034738168 -0.020139111 -0.053429693 0.00016169595 0.09379284
-0.18995704 0.011961609 0.020854374 -0.1997242 0.028514137 0.012947839 -0.20745426 -0.055715956
00000000: 5c85 883d 3523 c23d be49 edbc 78c0 1cbc
00000010: 9be6 3f3d 0498 efbc c24a 47bd 5077 053d
00000020: 257d 9abc b055 8f3d 72a6 d63d 7009 6c3d
00000030: c5c2 b23c 3427 93bd 4fc9 673c 2d14 dbbc
00000040: de2a 893c a162 50be 69d4 ce3d 02e1 52bd
00000050: c482 e9bd 6362 833d 7f8c c23b 65e6 e8bd
00000060: 092d 4e3c 75d3 db3c 4d9a 433d bb7e 733c
00000070: 441a 2ebc 1f13 78bd 511d 4e3d cfd0 c03c
00000080: 7526 803d 865b 8c3c bdc3 a53b caae 1ebb
00000090: 283a f1bd b471 4dbd eaea 5b3c a5bd 54be
000000a0: 7545 283c e530 963d 9f11 d03c d134 423d
000000b0: b59f 653d 5ebd 49be 9958 7b3c 76f1 f43d
000000c0: ee1e d3bc 39ab 7d3d de28 a8bd 1d17 8cbd
000000d0: e174 3ebe 885b aebd fc74 4cbe 9bcd bd3d
000000e0: 1d3c 94bd cfe9 713c da23 4f3d 5c27 28bb
000000f0: 6933 6f3d bf59 d23d eee2 013d 90fc c53d
00000100: b61d 7c3d 14b9 bc3d edc9 953d 10e2 a2bd
00000110: acc8 1b3d 3769 57bc 7ead 47be e5bb af3d
00000120: 525a 703d 4ae7 73bd aef5 13bd f7c2 22bd
00000130: 2513 c63c 2412 293d 2219 29bb 30df 0c3d
00000140: 3df2 2fbd 6521 093d efed 813d 2362 29bd
00000150: 36bb 163c c770 c03d f962 173d e3ea 4bbe
00000160: e2d7 8ebd fa2d 3b3c 8da1 efbc 7814 a73d
00000170: 8045 aebd 018e 7b3d b1a5 44bd aed2 363d
00000180: 47ac dbbb 1766 583b b330 143c a50a 063d
00000190: 90bd bb3d 12de ba3c da08 aa3c 1be9 22bd
000001a0: 8616 3a3d d6d6 44be fb7a aa3d 4e26 003d
000001b0: 69ec ae3c baed c5bc beab 433d f7dc 833b
000001c0: d17f b8bd 898f d03c 0faf f73c 2e23 bdbd
000001d0: 266e b83c fa05 b23d 8548 c7bd 6e5e 54bd
000001e0: dc65 553d bbee 96bb 595b a33c 04af 41bd
000001f0: 013c 203c 71db d0bc 09df 3a3c 159e 563d
00000200: 7487 b4bd 7784 15bd 000d d3bd 540b 053d
00000210: d3bc 90bc 3605 053d 1f4d 913d 5940 e83c
00000220: fcbf d73b fd2f 1c3d c229 d8bd b33b b23d
00000230: 1a12 29bd 4d67 503d 480c 2d3d 4efc 73bc
00000240: 45c2 1fbd 25fc 603d 8992 c93c dee6 693c
00000250: 2c18 a5bd 8c06 d3bd 7bda f3bc 1d6a 703d
00000260: 81af 10bd 9382 58bc b925 df3b add4 46bc
00000270: 66a0 cebd 1f6e 2cbc 84e6 173d c271 fe3c
00000280: d9aa d03c 4dff cfbd 5199 973d 9071 90bd
00000290: 5950 ba3b d560 0b3d 704c a63d 690a 50bc
000002a0: 15af 253d 4ff2 a13d 0edb ffbd 80d0 2e3d
000002b0: 60d7 483d dd3a 213d 7ca7 f0bb 5904 9abc
000002c0: 89aa 4ebe 54c0 713d d4dd 29be 8689 b53d
000002d0: dd10 cd3c 1f6a ecbd 8141 0d3d 6163 453d
000002e0: 47f4 07bd 67ab 60bc faae 8f3c aa5b 47be
000002f0: c556 fe3c 8cff 4abc 2463 633c 22b7 ca3d
00000300: b2fb 71bb 9b0f 873d 844f 093b 8c0d e23a
00000310: 7852 a43c bb15 e53c 389b 43bd 757d cd3d
00000320: 7a7a 9d3d c4c5 78bd 4d8a 103d 7a0d 3c3d
00000330: c9cf 183d 5c9d 943d acf6 8ebc a2b0 05bc
00000340: 9ada 54bc 7372 853d 3776 8b3d 0296 9f3d
00000350: dbb3 41be 0847 d73c 2e3f 283c 585c 46be
00000360: 03c1 3fbe 74e2 7c3c bcd0 33be 6347 bc3c
00000370: f63a 36be 4cd9 e13c a409 ba3d f9d6 8ebd
00000380: 2319 363d da0e 1b3d 3454 443d 8816 72bd
00000390: 18ca ee3c a2fc e73c c268 aa3d f7b8 c4bc
000003a0: 4924 38bd 7c1a 00bd d338 c73c 17c2 713d
000003b0: 3a39 1a3d 5876 c53d e1e7 383c fb4d 10be
000003c0: db08 073d 2729 bcbd df89 abbd 9c49 0e3d
000003d0: c7fa a4bc 18d9 5abd ed8c 2939 7616 c03d
000003e0: 1984 42be a0fa 433c cbd6 aa3c 8084 4cbe
000003f0: 7b96 e93c 2c23 543c e46e 54be 6a36 64bd

action_model._discrete_distribution.branches.0.weight f4 [4, 256]
-0.048839737 -0.010063092 0.025063857 0.01779894 0.0012731685 0.03806649 -0.003978834 -0.022656146
0.034502525 -0.03217432 -0.033812016 -0.0030868999 -0.0492233 0.028249659 -0.007983556 -0.0036219624
0.014795565 0.06878333 -0.0077261073 0.047065664 0.039769154 -0.022622481 -0.02064358 0.05616444
0.019480245 -0.016489685 -0.05588841 -0.015832096 -0.014893634 0.068905264 0.027946856 -0.030090665
-0.023494886 0.039374117 0.0015618308 -0.024308879 0.04272272 -0.010030824 -0.027697593 0.076526076
0.002001883 -0.012986015 -0.0045374176 -0.012807505 -0.014580466 0.06523791 -0.01146564 -0.035523422
0.0012915235 -0.021076774 0.038199946 0.01667669 0.09075006 0.04500985 0.07185475 -0.055760033
0.049548946 -0.0020042434 -0.040351838 -0.03512186 -0.007125083 -0.017731508 -0.025667842 -0.019697918
-0.012974362 -0.051989812 -0.04148205 0.025221843 0.002221701 0.032254737 0.058694758 -0.026966175
-0.03855382 0.07246892 0.03727308 0.02326103 -0.031626813 -0.052155025 0.0069534467 -0.023834681
-0.011670122 -0.01954441 0.012549582 0.035603303 -0.030639663 -0.039020605 -0.016031124 0.068803914
0.018983478 -0.03117745 0.026500361 -0.047225915 0.014417198 -0.02561711 -0.01041905 -0.02542832
-0.0035599377 -0.0074240942 -0.013054784 -0.034543216 -0.018781604 -0.015647074 0.007596038 0.02243525
-0.040415175 0.0741169 -0.01979702 -0.0285576 -0.018675948 -0.035368215 -0.024655504 0.0077720387
0.037103303 -0.03870181 -0.009958786 0.025725089 -0.016452594 -0.03388547 0.06091097 0.023341952
-0.038782023 0.010496434 0.00031180528 0.014590428 -0.0052323383 -0.009011936 0.009762584 -0.023804804
0.046075724 0.008241026 0.034253366 0.0011120274 -0.029017055 -0.005092165 -0.007861748 -0.034063313
-0.007972829 -0.026529396 0.04814549 -0.052525476 0.009094578 -0.0153614525 -0.051647566 0.019798467
-0.011988518 -0.008316969 -0.007127565 -0.059324987 0.048946507 0.05697752 0.0041132714 -0.030670691
0.0075828563 0.008710396 0.007432854 -0.0074186516 0.034719776 0.042799953 0.007012054 -0.03639936
-0.018491857 0.04491508 -0.016318142 0.01750222 -0.01977379 -0.042860605 -0.03158133 0.022205908
0.007832889 -0.039903276 0.07532807 0.005263579 0.004971523 -0.0014438294 -0.006246387 0.031137824
0.065536045 -0.020928117 0.071752 -0.038668025 -0.01495105 0.057587896 0.011458242 -0.015348124
-0.0073448718 0.022723587 -0.029821016 0.05992796 -0.023917526 0.007510286 0.0050133704 -0.03213149
0.00015891393 -0.025054503 0.00279451 -0.028419765 -0.0058088545 -0.006571403 0.011819479 -0.011942966
-0.06319557 0.03519155 -0.023204895 -0.010542512 0.0028606546 -0.02122939 -0.020037832 0.010383335
0.00882631 -0.04700511 -0.015452383 0.014961936 0.068918295 -0.027867846 0.037536472 0.063975945
0.07610231 0.009197536 0.044749625 0.006976135 0.05181875 -0.0064597134 -0.037264783 0.027265638
-0.04566996 0.015377388 -0.012340627 0.0050556343 -0.03202931 0.028235815 -0.04171368 -0.004501761
0.0100629125 -0.0031333128 0.004710544 -0.012142239 -0.062442552 -0.029987816 -0.028815892 0.07050802
-0.02422082 0.048352476 0.04442916 -0.023726607 -0.037668142 0.014497074 -0.02088469 0.0017178347
0.057877254 -0.0054545244 -0.004619465 0.066484615 0.0020321538 -0.0011060891 0.058419723 0.018589627
00000000: 2d0c 48bd abdf 24bc b852 cd3c 15cf 913c
00000010: 72e0 a63a 9ceb 1b3d e160 82bb 6299 b9bc
00000020: 8552 0d3d 38c9 03bd 787e 0abd 964d 4abb
00000030: 5f9e 49bd d46b e73c 76cd 02bc 725e 6dbb
00000040: 1969 723c 46de 8c3d 492b fdbb edc7 403d
00000050: fbe4 223d c852 b9bc ba1c a9bc af0c 663d
00000060: 0995 9f3c 6015 87bc 3feb 64bd 50b2 81bc
00000070: 6e04 74bc 341e 8d3d cef0 e43c b380 f6bc
00000080: 5978 c0bc c146 213d 58b6 cc3a 6a23 c7bc
00000090: 05fe 2e3d 5358 24bc 10e6 e2bc b4b9 9c3d
000000a0: 0632 033b 4bc3 54bc 9eae 94bb 92d6 51bc
000000b0: e8e2 6ebc 749b 853d 61da 3bbc 0281 11bd
000000c0: 5648 a93a 33a9 acbc 8c77 1c3d 8e9d 883c
000000d0: 2bdb b93d 405c 383d 9528 933d a264 64bd
000000e0: d6f3 4a3d a059 03bb f847 25bd f1db 0fbd
000000f0: 8779 e9bb ab41 91bc 5e45 d2bc 875d a1bc
00000100: 6b92 54bc 45f3 54bd 15e9 29bd 0a9e ce3c
00000110: f599 113b 8b1d 043d ea69 703d 2be8 dcbc
00000120: 9cea 1dbd 966a 943d a8ab 183d ea8d be3c
00000130: 1e8b 01bd 82a0 55bd bdd9 e33b f340 c3bc
00000140: 0a34 3fbc 991b a0bc c39c 4d3c c5d4 113d
00000150: 0800 fbbc 12d4 1fbd b453 83bc 11e9 8c3d
00000160: 3d83 9b3c da67 ffbc 4917 d93c f66f 41bd
00000170: 1c36 6c3c f9da d1bc aab4 2abc 0d4f d0bc
00000180: d84d 69bb d145 f3bb bce3 55bc 307d 0dbd
00000190: e1db 99bc 4b2e 80bc 2fe8 f83b 21ca b73c
000001a0: 628a 25bd 9aca 973d 5c2d a2bc a1f1 e9bc
000001b0: 4dfe 98bc 43de 10bd 57fa c9bc 96ac fe3b
000001c0: a2f9 173d ca85 1ebd 2d2a 23bc 6cbd d23c
000001d0: 97c7 86bc 7ecb 0abd c87d 793d 9f37 bf3c
000001e0: e6d9 1ebd 3cf9 2b3c cc79 a339 b10c 6f3c
000001f0: 0974 abbb cda6 13bc 3ff3 1f3c 4b02 c3bc
00000200: e6b9 3c3d 5e05 073c 424d 0c3d 73c1 913a
00000210: 2db5 edbc 2ddc a6bb 90ce 00bc f985 0bbd
00000220: 78a0 02bc 2d54 d9bc 3534 453d f424 57bd
00000230: 6d01 153c 9aae 7bbc 668c 53bd 6530 a23c
00000240: 7d6b 44bc e543 08bc 598e e9bb c2fe 72bd
00000250: 227c 483d 4361 693d 9fc8 863b 1a41 fbbc
00000260: 9c79 f83b 0cb6 0e3c 4c8f f33b 2918 f3bb
00000270: 5336 0e3d 014f 2f3d 5fc5 e53b 7f17 15bd
00000280: 3c7c 97bc e0f8 373d a0ad 85bc d160 8f3c
00000290: a5fc a1bc 9a8e 2fbd 6d5b 01bd 2ae9 b53c
000002a0: 8555 003c 9e71 23bd 9a45 9a3d 1a7a ac3b
000002b0: 28e8 a23b e03e bdba 7eae ccbb c014 ff3c
000002c0: c337 863d 7171 abbc b6f2 923d 5d62 1ebd
000002d0: 40f5 74bc 49e1 6b3d 5abb 3b3c b376 7bbc
000002e0: 40ad f0bb d126 ba3c 344b f4bc 0577 753d
000002f0: b0ee c3bc d818 f63b 3347 a43b 4f9c 03bd
00000300: 22a2 2639 1a3f cdbc 1924 373b 91d0 e8bc
00000310: 3458 bebb ec54 d7bb 7da6 413c 6eac 43bc
00000320: ae6c 81bd 0425 103d 3118 bebc 80ba 2cbc
00000330: d279 3b3b 42e9 adbc 6126 a4bc dd1e 2a3c
00000340: 3a9c 103c 6e88 40bd fe2b 7dbc e822 753c
00000350: 0925 8d3d 1c4b e4bc d8bf 193d d205 833d
00000360: 87db 9b3d 43b1 163c 624b 373d 1098 e43b
00000370: e63f 543d 01ac d3bb f5a2 18bd 305c df3c
00000380: 6d10 3bbd 71f1 7b3c 5730 4abc bca9 a53b
00000390: 2a31 03bd cc4e e73c f7db 2abd 8283 93bb
000003a0: eade 243c 4458 4dbb e85a 9a3b 3ef0 46bc
000003b0: c3c3 7fbd 02a9 f5bc 4e0f ecbc 8266 903d
000003c0: be6a c6bc 3f0d 463d 5afb 353d 4d5e c2bc
000003d0: e949 1abd 2385 6d3c 5f16 abbc f828 e13a
000003e0: b310 6d3d debb b2bb e25e 97bb 1629 883d
000003f0: e22d 053b 31fa 90ba 8549 6f3d 4649 983c

action_model._discrete_distribution.branches.0.bias f4 [4]
-0.07346421 0.13877064 -0.040488422 -0.065016754
00000000: 6774 96bd e419 0e3e 30d7 25bd 8127 85bd

action_model._discrete_distribution.branches.1.weight f4 [15, 256]
0.020387279 -0.001596638 0.0024132857 -0.037832167 0.005533117 0.0055595427 0.031176975 0.040144615
-0.004235212 0.01015594 0.02576998 4.617817e-05 -0.0133822085 -0.02836383 -0.03669408 0.0067322087
-0.009801614 -0.0008917609 0.0052712243 -0.017390616 -0.0013435965 0.034786154 -0.017685592 0.0021254288
-0.038299803 0.054540634 -0.005677451 0.033838723 0.026624614 -0.051541183 0.028876482 0.03239785
0.017097915 0.0076424065 -0.011364403 0.0012724167 -0.023017066 0.017706623 -0.00030678688 0.021933451
-0.03690275 0.023163427 0.10243784 0.02439656 0.01628689 0.0035838361 -0.020584267 0.0023410495
0.0021941925 0.088996775 0.021392567 -0.009233801 0.0015476528 -0.003010897 0.021610428 -0.0026566098
0.01170044 0.011734157 0.008617441 -0.07841031 0.03947617 0.046262093 0.017421316 0.07707321
0.031713553 0.005450042 -0.002991067 -0.035544794 -0.001346834 0.07165503 0.01288977 -0.026245367
-0.014985244 -0.037708297 -0.018698055 0.036258295 -0.0010560604 0.008033145 0.0068935836 0.015994135
0.036254637 0.019379266 -0.013848874 0.031777255 0.0027242058 0.0007283486 -0.0049494104 0.012083554
0.018908167 0.007458263 0.07005763 0.03625277 0.024628917 0.031726375 0.0028712286 0.06111688
-0.030215602 -0.02567141 0.012565445 0.011640951 0.061374966 0.015566395 -0.046489097 -0.021673352
-0.004404655 0.011863737 -0.042234212 -0.01947622 -0.014991727 -0.026749365 0.031293232 -0.0020766673
-0.024781028 -0.037756722 0.040629797 -0.013907436 -0.0030934082 -0.015448604 0.031896982 -0.00227406
0.014850539 0.030501219 -0.010190781 -0.012265351 0.0019950154 -0.03940336 -0.0006623939 -0.037972476
-0.0010811744 -0.01759214 -0.0110211745 0.05770171 -0.0032696507 -0.042941235 -0.026141372 -0.029700464
-0.00782773 0.0032995662 -0.0005421778 -0.00567258 -0.014474877 0.05207658 -0.026240682 0.042150736
0.027875707 0.018534482 -0.030751055 -0.07838014 0.04677564 -0.0033758043 -0.045983676 -0.000568327
0.07975791 0.020442586 0.012049308 -0.039925527 -0.008074984 0.0399985 0.03892467 -0.011400443
0.004925244 -0.03103443 -0.011243806 -0.024360172 0.0072929696 -0.008547085 0.011612394 0.021078594
0.029633319 0.015442335 0.012853847 0.042821653 0.032560755 -0.0058471463 0.02620412 0.00020468458
-0.00075042015 0.026975455 -0.0028051124 -0.031171389 0.009766252 -0.018867083 0.030086197 -0.025812728
-0.016903765 -0.008093397 0.014865598 -0.016711285 -0.008101286 -0.0025310698 0.040605806 -0.029387433
0.046928402 -0.027136734 0.023321347 0.03179143 -0.01085581 0.006620432 0.015445395 0.015589058
-4.7915866e-05 0.0049807047 -0.0205143 0.01705715 -0.0075535877 0.015069328 -0.055177424 -0.05822307
0.022226926 0.008239101 0.037609328 0.014096219 0.00423215 0.012931311 0.02658066 -0.0048560654
0.01340817 0.034608033 -0.013158071 0.012560311 0.0002247165 -0.02181543 0.041268375 0.036964223
-0.01829786 -0.021943152 -0.0077697663 0.032527674 -0.062581964 0.026655432 -0.006819646 0.013665523
-0.060531646 -0.052396525 -0.040435277 0.03411551 -0.036068663 -0.001307918 -0.028869236 -0.019596081
0.0005011934 0.026632125 -0.031448487 -0.03258745 -0.0012868149 -0.043454386 -0.011006391 0.016670346
0.012816509 -0.006810142 -0.015388408 0.0050514443 0.00029950766 -0.034437865 0.008282486 0.040372197
00000000: 3903 a73c 4846 d1ba 3728 1e3b e7f5 1abd
00000010: 264f b53b d32c b63b db66 ff3c ae6e 243d
00000020: 89c7 8abb 1a65 263c 911b d33c 6faf 4138
00000030: 0d41 5bbc 435b e8bc 884c 16bd dc99 dc3b
00000040: f396 20bc 10c5 69ba 3cba ac3b c476 8ebc
00000050: 9e1b b0ba ed7b 0e3d 60e1 90bc c74a 0b3b
00000060: 41e0 1cbd 0066 5f3d e909 babb 799a 0a3d
00000070: dd1b da3c d91c 53bd 5f8e ec3c 9cb3 043d
00000080: ed10 8c3c 276d fa3b c331 3abc 38c7 a63a
00000090: 498e bcbc 7b0d 913c 3dd8 a0b9 c8ad b33c
000000a0: 5727 17bd 3ac1 bd3c eeca d13d 4bdb c73c
000000b0: 156c 853c cbde 6a3b 56a0 a8bc 4b6c 193b
000000c0: 71cc 0f3b f143 b63d 773f af3c 5e49 17bc
000000d0: 9cda ca3a 7852 45bb 5a08 b13c 841a 2ebb
000000e0: 34b3 3f3c 9f40 403c 2b30 0d3c 9695 a0bd
000000f0: c4b1 213d 527d 3d3d 26b7 8e3c 8fd8 9d3d
00000100: 12e6 013d 4496 b23b c705 44bb 6b97 11bd
00000110: 4088 b0ba dfbf 923d 9d2f 533c 8600 d7bc
00000120: ab84 75bc 0474 1abd aa2c 99bc 9483 143d
00000130: 826b 8aba 749d 033c 92e3 e13b 2206 833c
00000140: be7f 143d 44c1 9e3c 63e6 62bc de28 023d
00000150: 9788 323b a6ee 3e3a aa2e a2bb 19fa 453c
00000160: 4de5 9a3c 7264 f43b 607a 8f3d c97d 143d
00000170: 95c2 c93c 84f3 013d 392b 3c3b b255 7a3d
00000180: b686 f7bc d94c d2bc 4cdf 4d3c b0b9 3e3c
00000190: 5164 7b3d 310a 7f3c 5a6b 3ebd 508c b1bc
000001a0: ed54 90bb 1f60 423c c8fd 2cbd 988c 9fbc
000001b0: dc9f 75bc 7c21 dbbc 552d 003d b218 08bb
000001c0: 9501 cbbc cba6 1abd 6e6b 263d 04dc 63bc
000001d0: c7ba 4abb 241c 7dbc 69a6 023d 6508 15bb
000001e0: ad4f 733c b1dd f93c 3cf7 26bc 9cf4 48bc
000001f0: cebe 023b 6b65 21bd 81a4 2dba 0789 1bbd
00000200: 31b6 8dba 641d 90bc 2892 34bc a158 6c3d
00000210: a347 56bb 26e3 2fbd 6e26 d6bc 634e f3bc
00000220: e13f 00bc 893d 583b f020 0eba 0de1 b9bb
00000230: 0928 6dbc 404e 553d b3f6 d6bc 40a6 2c3d
00000240: 985b e43c a0d5 973c a3e9 fbbc c485 a0bd
00000250: d097 3f3d 993c 5dbb 6159 3cbd c8fb 14ba
00000260: 1d58 a33d 3677 a73c 766a 453c f388 23bd
00000270: f04c 04bc 78d5 233d 7a6f 1f3d ecc8 3abc
00000280: f163 a13b eb3b febc f137 38bc fc8e c7bc
00000290: ddf9 ee3b 1309 0cbc e941 3e3c 04ad ac3c
000002a0: 93c1 f23c d901 7d3c f198 523c c265 2f3d
000002b0: 6d5e 053d 6b99 bfbb 06aa d63c 99a0 5639
000002c0: d8b7 44ba a1fb dc3c fad5 37bb 245b ffbc
000002d0: a102 203c 248f 9abc 5477 f63c 3775 d3bc
000002e0: c479 8abc 2b9a 04bc d68e 733c 1be6 88bc
000002f0: 42bb 04bc 4ee0 25bb 4652 263d eabd f0bc
00000300: ff37 403d db4d debc 690c bf3c bb37 023d
00000310: 91dc 31bc 35f0 d83b af0e 7d3c 4069 7f3c
00000320: 45f9 48b8 2e35 a33b 9b0d a8bc 70bb 8b3c
00000330: 1684 f7bb 58e5 763c b901 62bd 507b 6ebd
00000340: 3e15 b63c 4bfd 063c 3d0c 1a3d d4f3 663c
00000350: d9ad 8a3b d9dd 533c afbf d93c a11f 9fbb
00000360: f1ad 5b3c 27c1 0d3d f394 57bc c3c9 4d3c
00000370: e0a1 6b39 46b6 b2bc 0709 293d cc67 173d
00000380: 65e5 95bc 20c2 b3bc 8699 febb bd3b 053d
00000390: f92a 80bd 7e5c da3c 5677 dfbb 5ce5 5f3c
000003a0: 08f0 77bd bd9d 56bd 769f 25bd b4bc 0b3d
000003b0: bcbc 13bd 726e abba 2d7f ecbc f687 a0bc
000003c0: 8562 033a 9d2b da3c 21d0 00bd 6b7a 05bd
000003d0: 58aa a8ba 3afd 31bd 2654 34bc 4090 883c
000003e0: 56fc 513c 9d27 dfbb a91f 7cbc 9686 a53b
000003f0: 3d07 9d39 b80e 0dbd 44b3 073c 515d 253d

action_model._discrete_distribution.branches.1.bias f4 [15]
-0.0068218596 -0.0014309345 0.016837375 0.0042996835 -0.0017850888 -0.0037820006 0.008067343 0.015127843
0.006140936 -0.009041985 -0.00779908 -0.0221019 0.004886584 0.015228225 -0.0135046905
00000000: e889 dfbb 328e bbba 89ee 893c 5ce4 8c3b
00000010: a4f9 e9ba 71db 77bb e42c 043c c6da 773c
00000020: e839 c93b d524 14bc 6d8f ffbb 0b0f b5bc
00000030: a31f a03b ce7f 793c c742 5dbc

action_model._discrete_distribution.branches.2.weight f4 [15, 256]
0.014162992 0.009615751 0.0063286177 0.03129446 0.020288179 -0.011745008 0.026793322 0.008321719
0.04324035 -0.011212961 0.028873274 -0.0182203 -0.008374687 0.021607075 0.03068078 -0.03818025
-0.06826704 -0.01840592 -0.024676396 -0.019186271 0.020383835 -0.015167319 -0.038996715 0.014196166
0.029082008 0.0062899394 0.009346073 0.051371045 0.00051696063 0.022487652 0.013006225 0.0028974025
-0.03695721 -0.0035964882 -0.010441526 -0.014473077 -0.034113627 -0.015827874 0.022554912 -0.020502998
-0.014082944 -0.019945584 -0.005823556 -0.023145204 -0.02260761 -0.02207461 -0.023144701 0.021586535
0.029939326 0.034473963 -0.0005129148 -0.02188123 -0.012079335 0.03913145 -0.02523882 -0.007858788
0.0045162058 -0.030763742 -0.008889828 0.020696042 -0.0022342333 0.03548482 -0.0037233226 0.028417083
0.041579038 0.0031209278 0.004171576 0.026582934 -0.03844297 0.022448104 -0.015060479 0.016566755
-0.013502148 0.02626952 0.043539792 0.041466568 -0.025304807 -0.0103956945 0.02439992 -0.03452294
-0.02158454 -0.04910012 -0.020953553 0.00045702554 -0.002553063 -0.025351156 -0.029844996 -0.028596
-0.013363087 0.0018145386 0.011011662 0.0009872194 0.013387634 -0.0021697376 -0.0054875407 -0.0003611106
-0.025353821 -0.014531968 -0.017538706 -0.014052168 0.004238332 -0.022871269 -0.017761203 0.033760052
-0.03555747 -0.01981764 -0.021972496 0.0061228527 0.045113184 -0.027460637 0.0055483794 0.040683452
-0.020173261 -0.013696521 -0.020825483 -0.039147746 -0.0064807744 -0.027710037 0.009742062 0.053569887
-0.0070531187 -0.009851092 -0.003231793 0.022343943 -0.009111018 0.022597536 0.028853774 -0.011702612
-0.032754596 0.016721549 -0.026670355 -0.041012783 0.0051629404 -0.04660275 -0.02825088 -0.009975063
0.005887663 0.0062119 0.009744645 -0.014196646 0.042195242 0.015285445 -0.007581283 0.048001956
-0.018110301 -0.01835969 0.049901325 -0.0040631793 0.00491561 0.004864218 -0.00616557 -0.03062553
0.013093133 -0.052906435 0.021987116 0.010021827 0.010519869 -0.029051336 0.02374931 -0.010114048
-0.01368084 -0.022712618 0.017448848 -0.026010018 -0.008881287 0.0013579348 0.0068033743 -0.023086306
0.004444288 -0.013838092 -0.002293334 0.010140087 -0.0100266775 -0.039975896 -0.04730719 0.05032419
-0.029228633 -0.0043893633 -0.0041547525 0.013472247 -0.03148829 0.0059683304 0.005062675 -0.026375163
0.054592177 -0.0055976966 -0.023581736 -0.014793281 -0.0016824638 -0.0038863807 0.01765845 -0.0040701
0.014187075 -0.019227201 -0.035262555 -0.002449282 -0.01669369 -0.009143557 -0.006709709 0.026864592
-0.010284021 -0.021246146 0.019059798 0.01418021 0.025324188 0.017030895 0.0090105515 -0.029923268
0.050668035 0.017402997 -0.0063874335 -0.01317476 -0.027239224 -0.0029102243 0.01056863 -0.020865925
-0.014342175 -0.02599174 -0.025334792 0.009542133 -0.030234203 0.02106699 -0.01418526 0.03988439
-0.00067750545 -0.01303448 -0.03182606 0.0019470833 -0.027894285 0.0024399662 -0.015177527 -0.059053957
0.039643805 0.013391208 -0.00882561 -0.031899985 -0.0019260235 0.017227441 0.0039776117 -0.009296664
-0.005784871 -0.0028376544 0.02942213 -0.0040792804 0.030847764 -0.003976089 0.025565695 -0.014172186
-0.012296516 0.007512447 -0.04151453 -0.018445631 -0.05460906 -0.0135735385 -0.02494401 0.03910695
00000000: e50b 683c 628b 1d3c 4b60 cf3b 9f2e 003d
00000010: 6533 a63c 226e 40bc ab7d db3c d257 083c
00000020: cb1c 313d 91b6 37bc a587 ec3c bd42 95bc
00000030: fc35 09bc 5201 b13c 4256 fb3c e562 1cbd
00000040: 97cf 8bbd 03c8 96bc 2726 cabc 872c 9dbc
00000050: 00fc a63c 5980 78bc 05bb 1fbd 0997 683c
00000060: 643d ee3c d61b ce3b 4520 193c 726a 523d
00000070: a484 073a 0638 b83c 1018 553c 59e2 3d3b
00000080: 7260 17bd 0fb3 6bbb ef12 2bbc 7c20 6dbc
00000090: bbba 0bbd 75a9 81bc 14c5 b83c e7f5 a7bc
000000a0: 26bc 66bc ec64 a3bc 87d3 bebb 039b bdbc
000000b0: 9833 b9bc d0d5 b4bc f599 bdbc 3fd6 b03c
000000c0: 5143 f53c 9234 0d3d 2175 06ba 4440 b3bc
000000d0: 67e8 45bc 4d48 203d a4c1 cebc 25c2 00bc
000000e0: aefc 933b 3e04 fcbc a4a6 11bc bf8a a93c
000000f0: 376c 12bb 8858 113d fd02 74bb f1ca e83c
00000100: c84e 2a3d 7b88 4c3b b7b1 883b 74c4 d93c
00000110: 6076 1dbd 16e5 b73c 3ac0 76bc 01b7 873c
00000120: 1d38 5dbc 2d33 d73c c856 323d d9d8 293d
00000130: 074c cfbc b452 2abc 57e2 c73c ed67 0dbd
00000140: 10d2 b0bc 351d 49bd c9a6 abbc ee9c ef39
00000150: 4a51 27bb 3aad cfbc 7e7d f4bc 2942 eabc
00000160: d9f0 5abc d0d5 ed3a 426a 343c 9665 813a
00000170: cf57 5b3c 2832 0ebb d4d0 b3bb 7253 bdb9
00000180: d1b2 cfbc 7e17 6ebc 55ad 8fbc 103b 66bc
00000190: b5e1 8a3b 875c bbbc f17f 91bc fb47 0a3d
000001a0: b6a4 11bd 9a58 a2bc aaff b3bc 36a2 c83b
000001b0: 9ac8 383d 21f5 e0bc 2ecf b53b b1a3 263d
000001c0: 6542 a5bc 5f67 60bc 349a aabc 6359 20bd
000001d0: ad5c d4bb 2900 e3bc 2b9d 1f3c 196c 5b3d
000001e0: d91d e7bb 7966 21bc 7dcc 53bb a50a b73c
000001f0: 6146 15bc 781e b93c c05e ec3c 50bc 3fbc
00000200: af29 06bd a1fb 883c ca7b dabc 05fd 27bd
00000210: e22d a93b 86e2 3ebd 646e e7bc 726e 23bc
00000220: 4ced c03b 328d cb3b 01a8 1f3c 0d99 68bc
00000230: ebd4 2c3d ce6f 7a3c 696c f8bb b39d 443d
00000240: 0e5c 94bc 1067 96bc 5565 4c3d 6b24 85bb
00000250: 2013 a13b 0564 9f3b 8d08 cabb 64e2 fabc
00000260: 9584 563c 6bb4 58bd 531e b43c 9732 243c
00000270: 875b 2c3c 11fd edbc ea8d c23c 64b5 25bc
00000280: 9a25 60bc d00f babc e3f0 8e3c f612 d5bc
00000290: d182 11bc bbfc b13a d7ee de3b 7e1f bdbc
000002a0: 64a1 913b 2ab9 62bc c34b 16bb 9c22 263c
000002b0: ef46 24bc c4bd 23bd 2fc5 41bd bd20 4e3d
000002c0: e370 efbc a6d4 8fbb 9724 88bb b3ba 5c3c
000002d0: ddf9 00bd fc91 c33b cce4 a53b ba10 d8bc
000002e0: 0c9c 5f3d e26c b7bb 7c2e c1bc 855f 72bc
000002f0: 1e86 dcba a6b2 7ebb 74a8 903c 795e 85bb
00000300: e870 683c 5d82 9dbc 786f 10bd 2284 20bb
00000310: 35c1 88bc dcce 15bc 1edd dbbb 2213 dc3c
00000320: 4f7e 28bc 660c aebc 4b23 9c3c 1d54 683c
00000330: ac74 cf3c 6084 8b3c fea0 133c a421 f5bc
00000340: 4989 4f3d bb90 8e3c ad4d d1bb f3da 57bc
00000350: cb24 dfbc 76b9 3ebb 0c28 2d3c 04ef aabc
00000360: 71fb 6abc a1ec d4bc e98a cfbc 9b56 1c3c
00000370: b8ad f7bc ae94 ac3c 4b69 68bc d05d 233d
00000380: 9f9a 31ba 928e 55bc 0b5c 02bd 4635 ff3a
00000390: 8e82 e4bc d7e7 1f3b 2aab 78bc 90e2 71bd
000003a0: 8b61 223d cc66 5b3c 4b99 10bc 8fa9 02bd
000003b0: a072 fcba 9020 8d3c a056 823b 0951 18bc
000003c0: 048f bdbb f1f7 39bb ae06 f13c 7cab 85bb
000003d0: 73b4 fc3c da49 82bb 266f d13c 7532 68bc
000003e0: 5477 49bc f92a f63b 240b 2abd 4b1b 97bc
000003f0: c0ad 5fbd 8c63 5ebc 6157 ccbc 9c2e 203d

action_model._discrete_distribution.branches.2.bias f4 [15]
0.008470824 0.014056395 0.012077373 0.01020437 -0.009388158 -0.0017758079 -0.0038823783 -0.0032938556
-0.0058957855 -0.001933164 -0.0090023335 0.008199415 -0.008994316 -0.0030700124 0.008767453
00000000: 36c9 0a3c cb4c 663c 2de0 453c 3b30 273c
00000010: cad0 19bc 3ac2 e8ba 806f 7ebb badd 57bb
00000020: 6f31 c1bb 3862 fdba 867e 13bc d756 063c
00000030: e55c 13bc 4332 49bb 5da5 0f3c
