results/AgentRankingsAndAcceptedRankings/AgentBehavior/AgentBehavior-2000019.onnx (onnx, 333671 bytes, 11 tensors)

discrete_act_size_vector f4 [1, 3]
000000 00 00 80 40 00 00 70 41 00 00 70 41
       4.0 15.0 15.0

network_body._body_endoder.seq_layers.0.weight f4 [256, 30]
000000 53 5e 0c 3e 5f 27 c9 3c c2 9b 80 be a5 00 7c 3d
       0.13707857 0.024554906 -0.25118834 0.061524052
000010 f0 a7 ab 3d 9b 3a 2a be 73 b2 1d be f5 1b 47 3e
       0.08381641 -0.16623919 -0.15400104 0.19444259
000020 5d dc 1d bd ed 1d 80 bd e3 65 fd 3d cb d4 3a 3e
       -0.038540233 -0.06255708 0.12372949 0.18245237
000030 39 1e 74 3e 30 5b 12 3d 6f 55 94 3c dd 54 44 3e
       0.23839654 0.035731494 0.018107144 0.19172998
000040 c7 d6 0a be 96 3a 83 be 05 e5 dd 3c be 20 0d 3d
       -0.13558494 -0.25630635 0.027086744 0.034455054
000050 60 7d 32 bd 16 a1 53 bd c3 3f 8e 3e 91 88 cf 3d
       -0.0435766 -0.051667295 0.2778302 0.1013347
000060 4f a0 11 3d 62 dd be be 6a ec 21 3d dd d2 50 bd
       0.035553273 -0.37278277 0.039532103 -0.050982345
000070 26 e2 6a bd df 7e 70 3e b8 67 58 3e f2 56 5b 3e
       -0.05734458 0.23485897 0.21133316 0.21419886
000080 08 d5 6a 3d e9 0a 60 bc 82 a4 7d be 7b 77 4f 3e
       0.05733207 -0.013674476 -0.24769786 0.20260422
000090 f6 0a 9a be 75 b0 31 3b 3f 7e 24 3e 9c 9f 8a be
       -0.30086488 0.0027113233 0.16063784 -0.27074897
0000a0 29 ca 48 3d 17 18 2e 3d 2b 9b ba bc 50 96 f3 bc
       0.04902092 0.042503443 -0.022779068 -0.02973476
0000b0 20 22 48 3e 2d 95 87 be ac 04 91 bd 8e be 20 be
       0.19544268 -0.26481 -0.07080969 -0.15697691
0000c0 2b 65 27 3e 74 39 0d bd 8f 3c 8a 3d bb a0 94 3e
       0.16347186 -0.03447862 0.06749832 0.29028878
0000d0 03 0e 16 be 2d d3 9f bd 4b d8 20 3e 6d 52 78 be
       -0.14653783 -0.078039505 0.15707509 -0.24250193
0000e0 f9 8a 1e 3e 33 59 1f 3e 04 df 9a bd 73 ce f3 3d
       0.15482701 0.1556137 -0.07562068 0.119046114
0000f0 14 c0 16 be b3 a0 04 bd a1 af 0e 3e 5e 95 f7 3e
       -0.1472171 -0.032379817 0.13934185 0.48356146
000100 1e 7e a6 3e 8b b9 a6 3e 8e 62 4a 3d 43 88 a9 bd
       0.32518095 0.32563433 0.049410395 -0.08277943
000110 d0 4c e4 3d f4 f4 dd 3e 4c c9 89 3e b0 6f d3 3c
       0.11147463 0.43350947 0.2691139 0.025810093
000120 5a b1 46 be 91 ee ea 3e 43 8a 98 3e 9b b9 e2 3d
       -0.19403592 0.45885137 0.29792985 0.11070558
000130 c6 18 87 3a 0b ec f6 3d 0b ed 8b bd ef 64 e9 bd
       0.0010307066 0.120567404 -0.06832322 -0.11396205
000140 52 13 56 be c3 4f 81 3e e0 d5 a2 3e 2c 6a 84 bd
       -0.20905808 0.25256166 0.318038 -0.06465563
000150 27 3c 3e 3e d1 93 98 3d 3e 0a 38 3e d5 f6 cd 3d
       0.18577634 0.07450069 0.17972657 0.10056845
000160 0b 3a 37 3e e5 57 92 3c 56 aa 7b 3e 14 50 e4 3e
       0.17893235 0.017864177 0.24576697 0.44592345
000170 ae b5 48 bd 8b 0a 91 bd 17 d2 09 bd f9 ac 09 3d
       -0.04900139 -0.07082089 -0.033647623 0.033612225
000180 84 3f eb 3d e5 a6 98 3e 1d df ff 3d df b2 c4 bc
       0.11486724 0.2981483 0.12493727 -0.024011074
000190 e1 71 21 3e 10 66 0c 3e 4e ea 68 bd 8a f9 0c 3e
       0.15766098 0.13710809 -0.056864075 0.13767067
0001a0 15 5f b4 3d 10 12 7d be 37 1c 44 ba 38 36 05 3e
       0.08807198 -0.24713922 -0.0007481011 0.13008964
0001b0 05 d4 b1 3b b7 6b 06 3e 9d aa a0 3d 54 48 78 3c
       0.005426886 0.13127027 0.07845042 0.015153963
0001c0 97 a3 10 bf 30 64 34 3e 8e ac 13 bd 4e 31 a1 3e
       -0.5649962 0.17616343 -0.036053233 0.3148293
0001d0 4a 7e 59 3e a7 36 9a 3e fe 56 a2 bd 7f 07 0f bd
       0.21239582 0.3011982 -0.07926749 -0.03491926
0001e0 15 70 61 bc 6c 25 90 be 7a b6 9b 3e 35 2a 62 be
       -0.013759633 -0.2815355 0.30412656 -0.22086413
0001f0 65 11 a5 bc f4 95 82 3d 3b 7b 80 be 7b dc a5 3d
       -0.020149896 0.063762575 -0.25094017 0.08098694
000200 43 32 18 3e 11 e6 6c be 1f 29 a6 be b7 a8 49 be
       0.14862923 -0.23134638 -0.32453248 -0.19693266
000210 aa ca 6d be 39 4a 58 3e 35 a4 d7 bd a5 81 6a 3d
       -0.23221841 0.21122064 -0.10529367 0.057252545
000220 5a ac be 3e bf 96 12 be 30 11 9b 3e 3e 30 43 be
       0.3724087 -0.14315318 0.3028655 -0.19061372
000230 70 8c 9c be c8 7e 88 3d dc 1f cb bd 2a 4f 77 3d
       -0.30575895 0.066648066 -0.09918186 0.06037823
000240 3e f2 78 3e 76 78 17 3e 8e 38 80 bd da ad 72 be
       0.24311158 0.14792046 -0.06260787 -0.23699132
000250 ab ff 26 3e cd 91 b8 bd 61 ce ca 3d 35 d3 bd be
       0.16308467 -0.09012184 0.09902645 -0.370752
000260 27 a3 54 be 12 16 30 be 3a b5 38 be 09 46 0b 3e
       -0.20765363 -0.17195919 -0.18037882 0.13600935
000270 09 fc 48 3e a7 18 8f bd 5b aa be be 33 c0 4b 3e
       0.19627394 -0.06987124 -0.37239346 0.19897537
000280 bb 68 9b bd ea c8 32 be b6 c0 10 3d 00 39 1d be
       -0.07588335 -0.17459455 0.035340033 -0.15353775
000290 d0 b2 e1 be 66 69 04 3e c9 ec 56 be 3a 61 4c be
       -0.44081736 0.12930831 -0.20988764 -0.19958964
0002a0 42 38 e0 bd c1 43 a0 3c 05 b3 8d be 98 9a be 3c
       -0.1094823 0.019563558 -0.27675644 0.023267075
0002b0 02 e8 34 be 05 f8 18 bd 50 a5 1f bf 39 74 21 be
       -0.17666629 -0.037345905 -0.6236162 -0.15766992
0002c0 1b 33 fb 3b e6 46 b5 bc 7c 7f 8f be 48 c8 6e be
       0.0076660044 -0.022128534 -0.2802695 -0.23318589
0002d0 0a 7e 32 be ae ab e1 3d 13 54 77 3d d8 a2 7b 3e
       -0.17430893 0.110190734 0.060382914 0.24573839
0002e0 35 fa c4 bb 5d 27 fc bd e0 aa 9f 3d fb fe c6 bc
       -0.0060112723 -0.123121955 0.07796264 -0.024291506
0002f0 53 80 da 3d d8 01 a6 3d 18 79 9f bd f5 4a 78 3e
       0.10669007 0.081058204 -0.07786769 0.24247344
000300 d6 b8 6b bd 64 ee 21 be f4 ea 48 3d 36 6b e9 3d
       -0.05754932 -0.15813595 0.049052194 0.11397402
000310 3a 85 97 3e b7 a4 e5 bd 37 e9 33 bd bc 0c 1d bb
       0.2959383 -0.112130575 -0.043923583 -0.002396389
000320 54 af 11 3e ce 03 a9 be f3 88 7c bc 66 5b 1b be
       0.14227039 -0.33010715 -0.015413511 -0.15171584
000330 43 4f b9 3d e6 ac 86 3e 06 20 e3 bc c1 60 d6 3d
       0.09048321 0.26303786 -0.02772523 0.10467673
000340 c7 fb 98 bc ca df 79 be 33 98 db 3e c9 18 79 be
       -0.018674744 -0.24401775 0.42889556 -0.24325861
000350 f7 66 59 3d 85 58 16 be b7 87 db 3e 97 31 29 3e
       0.05307671 -0.14682205 0.4287698 0.16522823
000360 bd 0d 80 3e 55 5d 03 be ff ba ad 3c 5e 99 d9 3d
       0.2501048 -0.12828572 0.02120733 0.106249556
000370 54 40 b6 3d cd e9 85 3b ed 18 0b 3e 4a b4 08 3e
       0.08898988 0.004086709 0.13583727 0.13350025
000380 2f ab c8 3d c0 09 1b 3e 4d 3f bc bc 03 88 36 3e
       0.09798276 0.15140438 -0.022979403 0.17825322
000390 cc 8b ae 3e 31 18 80 be 39 c5 6e 3d 55 2a 21 be
       0.34091032 -0.25018457 0.058293555 -0.15738805
0003a0 52 b3 b8 3d 54 b4 bb 3d a2 d8 10 3e 7c 46 50 3d
       0.09018578 0.09165254 0.14145139 0.05084847
0003b0 c3 c7 07 be a4 68 4b be 4c 6d cd 3d c6 d7 a5 bc
       -0.13259797 -0.19864136 0.10030612 -0.02024449
0003c0 2b 2e 06 be a5 ef 14 be 10 30 f2 bc 5d af 07 be
       -0.13103549 -0.14544542 -0.029563934 -0.1325049
0003d0 9a e1 b6 be aa 51 ef 3e e6 87 52 3b 8e 63 78 be
       -0.35718995 0.46741992 0.0032124459 -0.24256727
0003e0 50 f0 19 3e 6f 34 9f be 94 32 8f 3d 6b ef 0e bd
       0.15033078 -0.3109469 0.06992069 -0.034896296
0003f0 72 ec 23 bb d5 d3 1d 3e ab 4b 56 3e 1d ef 63 be
       -0.0025012759 0.15412839 0.20927303 -0.22259183

network_body._body_endoder.seq_layers.0.bias f4 [256]
000000 7a e6 a8 3d 73 2a b8 3d 38 9e 1c 3d c2 0a 6d 3d
       0.08247085 0.089924715 0.038236827 0.057871588
000010 ce 96 9e 3d 8f bc ac be 6b 2c 8d 3d cd 68 b6 3d
       0.077436075 -0.3373761 0.06893238 0.08906708
000020 6b a5 eb 3d bc d5 b7 3d 35 4a 9e 3d b1 2c 34 3d
       0.1150616 0.089763135 0.077289976 0.043987934
000030 68 22 53 bc f1 a2 95 3d 16 39 c9 3d 1e 71 57 3e
       -0.012886621 0.07306469 0.098253414 0.21039245
000040 21 38 1a bd 4f 78 e1 3d 52 80 4a bd e9 56 a1 3d
       -0.037651185 0.11009275 -0.049438782 0.07877905
000050 cd 0c ff 3c 52 0c 72 bc 65 f4 d9 3d 25 49 aa 3c
       0.031134034 -0.014773445 0.10642318 0.020786831
000060 5f 1c 0a 3e 5b 8c e7 3c 8d 1b fe 3d c5 29 b6 bc
       0.13487385 0.028265169 0.12407599 -0.022236714
000070 53 07 6f 3d 36 55 08 3e 9e fc 2f ba b0 fb 11 3d
       0.058356594 0.13313755 -0.0006713363 0.03564042
000080 13 a7 54 3d cb e9 17 3e a5 a4 c3 3d e9 2a 30 3d
       0.051917147 0.14835279 0.09552888 0.043009672
000090 02 0a fa 3d 78 54 e6 3c 1b 02 bc 3d 74 0b 80 bd
       0.1220894 0.02811645 0.09180089 -0.062521845
0000a0 54 b9 0e bd 00 38 ea 3d d0 e9 45 3d 37 f1 7a 3c
       -0.03484471 0.114364624 0.048318684 0.015316299
0000b0 f0 a2 0e 3e 44 50 bc be 71 0d cf 3d 82 7d ab 3d
       0.13929343 -0.36779988 0.101099856 0.08373548
0000c0 bd d0 3b 3c ac 79 58 3c e8 5d 9d 3d 56 b1 b8 3d
       0.011463341 0.013212603 0.07683927 0.09018199
0000d0 68 3a 2a be 95 9d 9b 3d c0 e1 0e 3e 94 21 83 3d
       -0.16623843 0.07598416 0.13953304 0.06402889
0000e0 b3 1a 08 bd c4 9e ae 3d 48 1b 83 bb 75 9a 91 be
       -0.033228587 0.08526376 -0.004001055 -0.28438154
0000f0 ec 86 49 bd 37 71 21 3e 87 8d bd 3d ca 56 3d 3d
       -0.049200937 0.15765844 0.0925551 0.046225347
000100 14 d9 01 3e 77 fc 08 3e 66 63 1e 3d b9 1a b5 3d
       0.12680465 0.13377558 0.038669012 0.088429876
000110 f1 b5 ab 3d 4b 8c d3 3c d1 35 dd 3c 56 e1 1e 3e
       0.08384312 0.025823733 0.0270032 0.15515646
000120 56 60 b7 3d 71 73 94 3d cf 69 29 3d 6c 84 45 3e
       0.089539215 0.07248581 0.041360673 0.19288796
000130 d4 6d ee 3d 19 4e df 3d 9f ce 78 3d 53 8e 97 bc
       0.11642042 0.10903568 0.060743924 -0.018500483
000140 32 d1 3d 3d 2b f4 ee 3c 87 7a 04 3e b4 e7 bc 3c
       0.046342082 0.029169163 0.12937365 0.023059703
000150 36 4c 5a 3d 41 7e 04 3e 82 71 01 3e c4 53 72 bd
       0.053295337 0.12938787 0.12640956 -0.059161916
000160 f4 80 c3 bc a5 ae 3f bd 13 31 0b bd 4e 68 c7 3c
       -0.0238652 -0.046797413 -0.033982348 0.024341729
000170 2e e3 0b 3e c4 2b ed 3d aa 54 37 3e ee 01 66 3d
       0.13660881 0.11580613 0.1790339 0.056154184
000180 b7 c1 13 3e 74 9c e7 3d a0 b5 b9 3b 4a 1c c2 be
       0.14429365 0.11309138 0.0056674033 -0.37912208
000190 63 43 5d 3d a5 49 a7 be 41 1a 3b 3d 67 bb 37 bd
       0.054019343 -0.32673374 0.045679335 -0.044856455
0001a0 02 fc a1 3d 8b c8 41 bd b5 d8 00 bd 25 5f 5d 3d
       0.07909395 -0.047310393 -0.031456668 0.054045815
0001b0 12 79 5e 3d e9 ce 99 bd 70 1d f0 bc fa e3 39 3d
       0.05431468 -0.07510168 -0.029310912 0.04538343
0001c0 7e 96 73 3d 4c 47 94 3d c0 c4 c1 3d 0b 05 ae 3d
       0.059469692 0.07240161 0.09461355 0.084970556
0001d0 b3 7c f4 bc 48 f0 aa 3d cf b0 36 3d 5d b9 ca bc
       -0.029844617 0.08346611 0.04460221 -0.024746591
0001e0 e8 24 95 3d 8d 88 7c 3d e3 5a d5 3c e8 b4 e3 bc
       0.0728243 0.061653662 0.026044315 -0.027796224
0001f0 57 21 0f 3d c5 b8 11 bc d9 7a 1b 3e d5 4b b5 3c
       0.034943905 -0.00889415 0.15183581 0.022130886
000200 de d8 e1 3d 90 00 3f 3d ab 3d e3 bc ed 65 0a be
       0.11027692 0.046631396 -0.027739367 -0.13515444
000210 ee 9a cd 3d ac 20 43 3d 52 02 9a 3d 44 fc d9 3d
       0.10039316 0.04763858 0.07519974 0.10643819
000220 7e 7d 2f 3e 30 d8 ca bc b5 26 cc 3d 03 d5 a1 bd
       0.17137715 -0.02476129 0.0996832 -0.07901957
000230 b7 46 7a 3d b3 bb c4 3d 9a 1b 0a 3e 0d 0c 90 be
       0.061102595 0.09606113 0.13487092 -0.28134194
000240 18 38 74 bc 7f 4e 0a 3e b3 aa a8 3d d4 0c 55 3b
       -0.014905952 0.13506506 0.08235683 0.0032508867
000250 d4 c3 02 3e 5c af 41 bd 1a 45 ca 3d c0 f7 31 bc
       0.12770015 -0.047286376 0.09876461 -0.010862291
000260 44 b5 4f 3d 61 9b 8a 3b d2 4e 85 3d 39 fb 78 3c
       0.050709978 0.0042299484 0.065091744 0.015196615
000270 b4 ea 79 38 ad c9 e0 3d ba 41 89 3d 88 03 54 be
       5.958481e-05 0.109759666 0.067019895 -0.20704472
000280 c2 62 2a 3c a0 a0 9c be 50 cb ff bd 66 b4 b0 3d
       0.010399522 -0.30591297 -0.12489951 0.08628158
000290 96 90 82 bc e5 89 57 bc 87 df c8 3d 97 4d 95 be
       -0.015938085 -0.013155435 0.098082595 -0.2916076
0002a0 88 5c 60 3d c1 ff a7 bd f0 fa a1 3d 1a 9d 50 3d
       0.054775745 -0.08203078 0.07909191 0.050931074
0002b0 7b 45 12 3e d7 c9 66 3d cc ed 0d 3e 0f 02 1e 3e
       0.14284317 0.056344833 0.13860244 0.15430473
0002c0 08 4c 45 bd 94 65 74 bd 21 4b 0d bd 2e 50 b7 3c
       -0.048168212 -0.059667185 -0.034495477 0.0223771
0002d0 f5 f1 97 3d db 82 0a bd be bb 06 3e 98 77 0c 3e
       0.074191965 -0.0338162 0.13157555 0.13717496
0002e0 a6 f8 89 3d 3b b1 ad 3c e3 bf a7 3c d7 be ae be
       0.06736879 0.021202674 0.02047724 -0.34129974
0002f0 29 b6 40 be b8 3f 8b 3c d9 65 4b 3e 1c cf 26 bd
       -0.18819489 0.016998157 0.1986307 -0.04072486
000300 1e d0 9c bc 15 69 b6 be 37 e0 fe 3d fc 83 b0 bc
       -0.019142207 -0.35627046 0.12445109 -0.02154731
000310 81 61 7f bd 3e de 18 be 3e 46 b2 bb 15 aa 99 be
       -0.062348846 -0.14928529 -0.0054405024 -0.30012575
000320 01 89 b9 3d d7 0d 0f bd 36 f5 85 bd a4 d0 a6 3c
       0.090593345 -0.034925308 -0.06540911 0.02036316
000330 5c 9d 06 3c cd 38 1e 3c e4 9e db 3d 1c 29 59 be
       0.008216228 0.009657097 0.10723665 -0.21207088
000340 71 51 a0 3c 0a d8 2e 3c 3e d7 e7 3c 91 ea ee 3c
       0.019570084 0.010671625 0.028300878 0.029164584
000350 9d f7 ff 3c df 60 3d bd dc 0e 32 3e 75 5a 9b 3d
       0.031246 -0.04623496 0.17388481 0.07585613
000360 d8 82 8f 3d d8 b5 76 3b 9d 13 0b 3d 46 0e 58 3c
       0.07007378 0.0037645008 0.03395425 0.013186997
000370 e9 0e 84 3d 2d 88 57 3e 78 72 85 3d 38 6d 89 3d
       0.064481564 0.2104804 0.06515974 0.06710285
000380 d2 ff 01 3e e3 57 e5 3d be 94 01 3e a7 c8 31 bd
       0.12695244 0.11198404 0.12654397 -0.043404248
000390 f4 46 fd bc ec ac b6 3c a1 d3 d5 3d ae 93 95 bc
       -0.030917622 0.022299252 0.10440756 -0.018258896
0003a0 39 21 8f bd 78 40 1f 3d a1 10 ff bc 83 67 12 3e
       -0.069887586 0.03887984 -0.031135859 0.14297299
0003b0 f3 d2 0f 3e 89 96 1c be 5f 6c 30 3c 27 e9 a0 3d
       0.14045314 -0.152918 0.010768025 0.0785697
0003c0 26 41 db 3d f5 e3 bc 3b 11 d0 b6 bd f7 1a 0d 3e
       0.107057855 0.0057644793 -0.08926404 0.13779818
0003d0 d1 cc c7 3d 7a 56 93 be 68 08 d6 bc ab f4 ee 3c
       0.097558625 -0.28776914 -0.026127055 0.029169401
0003e0 f6 39 66 3d 70 e8 1c 3d f2 6e 27 3e 63 cf 8d 3c
       0.05620762 0.038307607 0.16350916 0.017310804
0003f0 fe b3 a6 bd 89 6a ab bc 7f 1d cc 3d af 30 32 3d
       -0.081397995 -0.020924823 0.099665634 0.04350346

network_body._body_endoder.seq_layers.2.weight f4 [256, 256]
000000 fa 8d fb bd dd 58 cd 3c f1 0d 82 3d 9e 3f db 3d
       -0.12282939 0.025066787 0.06350315 0.107054934
000010 bb e2 43 3d db 72 02 3b c3 a5 89 3d c5 96 af 3c
       0.04782365 0.0019904885 0.0672107 0.021434197
000020 cb 09 ca 3c df cc 78 3d e0 fc 1c bc e4 e7 82 bd
       0.024662873 0.060742255 -0.0095817745 -0.06391886
000030 d4 79 ae bd b8 90 e4 bd 34 9f 9d bd fa e6 be 3d
       -0.085193306 -0.111604154 -0.07696381 0.09321399
000040 bf cc 48 3d 76 26 c7 bc a6 2c 5f 3d b0 30 ec 3c
       0.049023386 -0.024310332 0.05448594 0.02883181
000050 10 b6 d7 3c c9 3a 40 3d 1d 4e 67 3d 82 bd b3 bd
       0.026331931 0.046931062 0.05647098 -0.0877638
000060 b3 dc 86 bd 5e 3b f7 bd 00 26 c8 3d 41 37 d4 3d
       -0.06585064 -0.1207187 0.09772873 0.10362101
000070 04 3c 89 bc 14 24 9a bd fa 00 07 3b 48 62 17 be
       -0.01675225 -0.075264126 0.0020599947 -0.14783585
000080 0b f9 ea bd 90 44 69 3c c3 d6 a6 bd 6c d5 4f 3d
       -0.114732824 0.014237538 -0.08146431 0.050740644
000090 04 a2 b5 bd 76 25 85 3d 3d 03 12 bd 09 d5 8d bd
       -0.08868793 0.06501286 -0.03564762 -0.06925399
0000a0 90 2a 18 3d f9 44 45 3c 10 c4 02 3c c4 a3 c7 3d
       0.037149966 0.01204037 0.007981315 0.09748033
0000b0 67 57 01 be fd 52 fd 3c f7 fb ed 3d bc 37 c6 bd
       -0.12630998 0.030923361 0.11620324 -0.09678599
0000c0 5b c6 a9 bc e5 2c 57 3c 39 83 10 3d d8 77 b8 3d
       -0.020724466 0.013133262 0.035281394 0.090072334
0000d0 b3 4f 85 bd 99 f4 73 3c c2 48 6f bd fc 95 03 bd
       -0.06509342 0.01488986 -0.058418997 -0.032125458
0000e0 04 68 29 3d 6f 9e 3e bd 45 e9 bd bd e0 0a 40 bd
       0.041358963 -0.046537813 -0.09273008 -0.04688537
0000f0 f4 7d fb bd 47 c1 53 3d 79 09 a5 bb c6 a1 1f 3e
       -0.12279883 0.051697996 -0.0050365296 0.15589055
000100 a2 b5 b0 3d 9e 87 6e 3d dc db b1 bc df ef eb 3d
       0.08628394 0.058234803 -0.021711282 0.11520361
000110 05 be 81 bd fe a3 80 bc 8f 8b 1b 3d ab 60 46 bd
       -0.063350715 -0.015703198 0.03797489 -0.048432034
000120 c4 88 33 be fe d8 5e bd 7b 68 84 ba 80 66 84 bc
       -0.1753264 -0.05440616 -0.0010101938 -0.016162157
000130 9e d5 7c bc b6 fc 00 3c fe 90 9a 3d 48 ec 9a bd
       -0.01543179 0.007872751 0.07547186 -0.07564598
000140 aa c3 08 3c 32 7a d0 3c 42 14 92 bd 8e 46 b8 bd
       0.008347431 0.025448892 -0.0713277 -0.08997832
000150 02 ee 67 3e 1b d9 85 3d b8 2d b1 3d fc e9 8b bc
       0.22649387 0.0653555 0.08651298 -0.017079346
000160 c8 fb 3f 3d d4 c8 42 bd 82 a1 88 bb 27 42 54 bd
       0.046870977 -0.047554806 -0.004169644 -0.0518209
000170 8f 99 3d bc d8 98 35 bd f9 a9 14 bc 20 c1 36 bc
       -0.011572256 -0.044335216 -0.009073728 -0.011154443
000180 cb df 15 3d 65 c7 64 bd ab 1e c8 3d c7 ac a6 3c
       0.03659038 -0.05585422 0.097714745 0.020346059
000190 b6 5a 8b b9 e1 fc 60 bd 8f ab b5 bd 45 f9 ee bc
       -0.0002657973 -0.054928664 -0.08870613 -0.029171595
0001a0 20 0f 74 3d 6f 15 56 bd 17 a0 e7 bd 2f cf ec bb
       0.059584737 -0.052266534 -0.113098316 -0.0072268466
0001b0 bf 75 30 be dd 3d 8a 3d fb 64 65 3c a5 bb 49 bc
       -0.17232417 0.06750081 0.014001126 -0.012312804
0001c0 90 e0 6d bd 7c b2 11 3d 34 b1 f5 bd 74 a9 94 bd
       -0.058075488 0.035570607 -0.119966894 -0.07258883
0001d0 0d 97 9f bd f5 54 0d bd 92 52 ae bc c2 af 44 3c
       -0.077924825 -0.03450485 -0.021279607 0.012004795
0001e0 92 0a 3e bd 97 fa 98 3d 9e 60 e2 3d 06 37 1c bc
       -0.0463968 0.07469671 0.110535845 -0.009534603
0001f0 96 f0 07 3c 3d e9 ee bd ce 98 f9 3d c6 3e 0e 3e
       0.008297106 -0.116655804 0.12187348 0.13891134
000200 04 a6 c2 3d f7 2b 17 bd 9e c7 05 be 6b fd 49 bd
       0.09504321 -0.036907163 -0.13064429 -0.049313944
000210 3a 1b 0b 3e af 6a 2a bd 36 65 92 3c 5f 42 fd 3c
       0.13584605 -0.041605648 0.017870527 0.030915437
000220 f7 3a 1d bc 2e 4f 55 bc 4e af 8e bd b9 25 f9 3d
       -0.009596578 -0.013019366 -0.069670305 0.12165398
000230 5b b4 ef 3d 6f b5 71 3c c5 56 00 3d 81 d5 b1 bd
       0.11704322 0.01475273 0.03133275 -0.08683301
000240 fe 39 21 3d 06 eb 8d bc 51 3d 27 3d 0e 1b 0f bd
       0.039361946 -0.017323982 0.04082996 -0.03493791
000250 74 cb 8b 3d 4d 05 a5 3d 1e 0b 64 3c e3 df 23 bb
       0.06825915 0.08057652 0.013918666 -0.0025005273
000260 a2 72 08 bc a4 62 f2 3b 49 26 a6 bd f1 90 0f be
       -0.008328112 0.007397013 -0.08112771 -0.14020135
000270 39 a9 82 3d 32 47 b6 3d e8 21 07 be 81 76 8c 3d
       0.06379933 0.08900298 -0.13196528 0.0685854
000280 38 59 58 bb bb 98 3c 3c c8 86 b2 ba d9 4f 7d 3c
       -0.0033012163 0.011511023 -0.001362049 0.015460932
000290 c3 1e 82 3c ad 9e ba 3d 1b 4d d5 3d cf fa 9b bd
       0.015883809 0.09112296 0.10415097 -0.07616197
0002a0 cc ed d1 bd 1d 49 4a bc d9 75 2b 3d a4 7c fa bc
       -0.10250434 -0.012346533 0.041860435 -0.030577011
0002b0 d2 9e 1f bd b4 a1 0a bd 8e 71 c4 bb 71 22 07 3e
       -0.038969822 -0.03384562 -0.005994982 0.13196732
0002c0 c9 81 48 3c e6 33 a4 bd 1d 4d 42 bd 22 61 15 3d
       0.012237974 -0.08017711 -0.047436822 0.036469586
0002d0 d7 e3 b6 3c 2f 13 ac 3c ea f5 e1 3c dd 70 8d 3d
       0.02232544 0.021005241 0.027583081 0.069062926
0002e0 4e fd 2f 3d b3 a7 72 bd 84 0a 98 3d cc 9d d5 3b
       0.04296618 -0.05924196 0.07423881 0.006519055
0002f0 32 01 fd bd f5 f9 b2 3d d7 89 16 3d 23 5d 13 bd
       -0.123537436 0.08739082 0.036752548 -0.035977494
000300 85 ae 2f bd b5 0c a3 bc dc db e5 bd 83 1e dc 3d
       -0.042891044 -0.01990352 -0.112235755 0.10748007
000310 6f 07 f6 3b 58 e2 ca 3c 3c 2e 4d bd e8 17 38 bd
       0.0075082104 0.024766132 -0.05009292 -0.044944674
000320 66 d8 7e 3c 24 53 db 3d af b3 23 bd d6 2a dd bd
       0.015554523 0.10709217 -0.03996628 -0.10799186
000330 fd b4 39 3d 2d 99 73 3d 07 66 6d bc 3d 5a c0 bc
       0.04533862 0.05947225 -0.014489657 -0.023480529
000340 d2 ff 89 bd b6 3b ac bd 0e 9f ea 3d 29 71 1f bd
       -0.06738247 -0.084098265 0.114561185 -0.038926277
000350 61 e3 0b bd 9d f9 58 be 35 c4 b6 3d 19 48 30 bc
       -0.034152392 -0.2118897 0.08924142 -0.010759377
000360 5b 68 b5 bd 30 3b 2d bd a6 04 53 bd 05 d1 16 3e
       -0.08857795 -0.042292774 -0.051518105 0.14728172
000370 81 0f 5f be e9 d3 70 3d 98 01 82 bd b1 93 1d bc
       -0.21783258 0.058795843 -0.0634796 -0.009617732
000380 1c d0 5d 3c 07 61 39 bd d2 a6 d4 bd ea fb 11 be
       0.013538387 -0.045258548 -0.10383381 -0.14256254
000390 89 06 ad bd 0f d6 0a bd b4 d4 a2 3c 28 b0 9f 3d
       -0.08448512 -0.03389555 0.019876815 0.07797271
0003a0 8a 65 d7 3d 0d 0d b8 bd 99 dd 2c be a5 5e cb 3c
       0.10517414 -0.08986864 -0.16881408 0.024825403
0003b0 5c a5 fb bd 10 2e d0 bd 7d bd 34 3d c4 da 80 bd
       -0.12287399 -0.10165036 0.044126023 -0.06291726
0003c0 d3 cf 40 bd 38 f1 52 bd 09 6e fc 3b ac cf af bb
       -0.047073197 -0.051499575 0.007703547 -0.0053653326
0003d0 27 0d fc 3b b8 b1 27 bd d0 04 f5 bd 4f b7 fb 3d
       0.0076919976 -0.04094097 -0.119638085 0.12290823
0003e0 0a 49 04 be db 09 69 3d c1 eb 68 bd a9 6a 1c 3e
       -0.12918487 0.056894165 -0.056865457 0.15275063
0003f0 5d 83 25 3d ec 17 1c bd 3f 64 74 bd 1d e2 5e bc
       0.04040848 -0.03810875 -0.059665915 -0.013603714

network_body._body_endoder.seq_layers.2.bias f4 [256]
000000 b4 dc 75 3d 31 d3 e7 3d 4e b2 37 bd 6a 6b 7b bc
       0.060024932 0.113195784 -0.04484778 -0.015345434
000010 9d a1 44 3d 28 51 12 bd ff 7f 58 bd e5 79 e7 3c
       0.04800569 -0.035721928 -0.05285644 0.028256366
000020 a8 15 bc bc 85 5c 98 3d c5 8b 10 3e 7c 93 4e 3d
       -0.022959545 0.07439522 0.14115818 0.05043362
000030 e6 4b 3c 3c 82 6e ca bd a6 50 8b 3c 65 c5 39 bd
       0.011492705 -0.09884359 0.01700623 -0.045354266
000040 3b 22 a6 3b b6 b5 52 be 02 f7 f8 3d 71 81 a3 bd
       0.0050699986 -0.2057713 0.12156488 -0.07983673
000050 69 77 1b be d1 f8 80 3d 8e 64 4a bc 5b 7d 13 be
       -0.1518227 0.06297458 -0.012353076 -0.14403288
000060 4d dd 0e 3d 15 dc 59 3c 76 f5 59 3d c6 df 4a 3c
       0.034879018 0.013297101 0.053212605 0.012382453
000070 4c 42 42 bb fc 10 98 bd 13 d7 58 3d 65 bd de 3c
       -0.0029641567 -0.074251145 0.052939486 0.02718992
000080 51 74 52 3d d8 21 03 3a 59 de 99 3b 89 35 65 bc
       0.05138046 0.00050022965 0.0046956954 -0.013989815
000090 52 0d 1c be df 69 86 bd 22 f0 10 3b e1 91 4d be
       -0.15239456 -0.06563162 0.0022115787 -0.2007518
0000a0 47 ba e9 bb 78 d6 9c 3d a5 c5 ad 3c 98 73 2c 3d
       -0.0071328017 0.07658094 0.021212408 0.042102426
0000b0 ea cd 53 3d 60 5c 4e be e4 e7 33 3c d3 64 19 3e
       0.051710047 -0.20152426 0.01098058 0.14979868
0000c0 c4 08 d7 bc 01 a3 72 3d 5c 3c e2 bd 50 77 a9 bd
       -0.026249297 0.059237484 -0.11046669 -0.0827471
0000d0 33 3c 3b be d9 9e df bd 59 db 4c be 09 34 da 3d
       -0.18284683 -0.1091897 -0.2000555 0.10654456
0000e0 7e 69 73 bd e3 38 cd 3b 67 32 13 3d 03 91 e4 bb
       -0.059426777 0.006262885 0.03593674 -0.0069752946
0000f0 32 c7 75 3d cd 74 02 3e 7d 6f cd 3b 31 54 f5 3d
       0.06000442 0.12739868 0.006269394 0.11978949
000100 17 47 cb 3d 7e a9 e0 3d 8e 7a 7a 3d 64 65 a8 bd
       0.09925669 0.10969828 0.061152034 -0.08222464
000110 61 25 34 3d 0c 36 6e bc 4a 7f 45 be 16 e6 b6 3d
       0.04398096 -0.014539253 -0.19286838 0.08930604
000120 2d a7 26 3d ce 43 8b bd c3 b8 12 bd 8d f6 59 bd
       0.040686775 -0.06800042 -0.035820734 -0.053213645
000130 7d 4f 3a 3c 9c e1 e8 3c 11 c3 96 bc 01 67 38 3c
       0.011371491 0.028427891 -0.018403562 0.011255027
000140 6d 43 92 bd a2 25 94 3c 15 29 86 3d c8 e7 89 bd
       -0.07141767 0.018084351 0.065508045 -0.06733662
000150 e3 34 bd bb ca 66 f5 3d 4c a1 bf 3c a8 9e 4b be
       -0.005774127 0.11982496 0.023392342 -0.19884741
000160 17 f1 c3 bd c8 11 54 bc 7d 71 28 bd 5b 65 d0 3d
       -0.095674686 -0.0129436925 -0.041123856 0.10175582
000170 34 7d d7 bd 14 6d 6f 3d 85 d5 85 bd e2 76 43 3d
       -0.105219275 0.058453634 -0.06534866 0.047720797
000180 0b 94 08 3c 7d 92 26 bc f5 1f ff bb 79 14 00 3d
       0.008336077 -0.010166761 -0.007785792 0.031269524
000190 58 ee b0 3d 50 79 ab 3c c1 fb d0 3c 52 ef 2b bd
       0.086392105 0.02093187 0.02551067 -0.04197628
0001a0 7b 66 ef 3c 29 7e 45 be da fd be 3d ec 6c 2a 3d
       0.029223671 -0.19286408 0.09325762 0.041607782
0001b0 b8 ea e3 3c 4a c2 26 bd a7 83 17 3d 4a 8c c4 3b
       0.027821884 -0.040712632 0.036990788 0.005998169
0001c0 3b 2a f1 bd fc 81 24 3d f0 65 5f 3c 0e f7 f6 bd
       -0.11775633 0.040163025 0.013635144 -0.12058841
0001d0 85 9f 3a 3c 4c 7f cb 3d 2f 3b e9 bd 44 5b 9b bd
       0.0113905715 0.09936389 -0.113882415 -0.07585767
0001e0 b1 4e 66 3d 76 58 e8 bc 4c a7 42 3c 0d 0e 55 bd
       0.05622739 -0.028362494 0.011880707 -0.052015353
0001f0 48 8c 95 3c 9a 2e 15 bd c1 eb 2e bb d5 f5 3d 3d
       0.018255368 -0.036421396 -0.0026690813 0.04637702
000200 65 4d ee bd fa 62 5f bd b3 8f f5 bd 52 92 9a 3c
       -0.116358556 -0.05453775 -0.11990299 0.0188686
000210 23 a0 c9 bc 01 44 cc 3c db 0f a3 3d 87 0b 1c 3d
       -0.024612492 0.02493477 0.079620086 0.03809693
000220 05 a9 5c ba 6c 4d 08 3d 91 05 0d be a2 c8 d0 3d
       -0.000841752 0.03327696 -0.13771655 0.10194518
000230 1f aa 30 bd 02 70 4d 3d d6 88 47 3d 05 10 24 bd
       -0.04313099 0.050155647 0.04871448 -0.04005434
000240 dc 41 66 bd f6 be 3d 3d 4e 7f 17 3c 77 3e 08 3d
       -0.056215152 0.046324693 0.00924666 0.033262696
000250 92 a4 c3 bd 46 5e 1c be f0 20 2c bd 45 b7 5f 3d
       -0.09552874 -0.15270337 -0.0420236 0.05461814
000260 2d 1b 37 bd 26 e9 6c bc 5c 0d 63 3b c0 0c cb bc
       -0.04470365 -0.014459884 0.0034645414 -0.024786353
000270 c8 64 04 be ed 66 01 bd b6 4f 08 3d 2b 57 de 3c
       -0.1292907 -0.0315923 0.033279143 0.027141174
000280 2f 78 19 3c 69 03 07 be f6 21 a9 3d 43 dc ab bd
       0.009367033 -0.13184895 0.08258431 -0.08391621
000290 af c8 b1 bc c1 db 36 3c 61 17 f3 3d fd f8 ca bc
       -0.021702139 0.011160792 0.118696935 -0.02477693
0002a0 61 14 a2 3c 77 ff bc 3d 06 de 38 be 58 51 1e 3d
       0.019785108 0.092284136 -0.18053445 0.038651794
0002b0 80 9a 0d 3d 07 4d 68 3c 6a be d4 bc d1 88 10 bd
       0.03457117 0.014178521 -0.025969703 -0.03528673
0002c0 12 00 56 be 4f 2c 47 3d 7a 50 51 be 77 12 0f 3e
       -0.20898464 0.04862624 -0.20440856 0.13971888
0002d0 b5 44 dd 3c f2 f5 22 be e4 57 0e 3d a7 23 52 3d
       0.027010301 -0.15914133 0.034751788 0.051303532
0002e0 53 e6 52 bd ef ca 2d bd 5f 55 b1 bb e8 c1 54 be
       -0.051489186 -0.04242986 -0.0054117884 -0.20777094
0002f0 b2 7f 7b 3c 3f fa ce bc 3e 18 8d 3c 7f 8b 06 3e
       0.015350269 -0.025265811 0.017223474 0.13139151
000300 fa 44 84 bc ac 94 a0 3d 71 c6 d1 bc 12 e1 ef bc
       -0.016146172 0.07840857 -0.02560732 -0.029282127
000310 24 30 e9 3b 76 c2 d7 3c 11 d0 63 bd 88 49 f6 3d
       0.0071163345 0.026337843 -0.05561835 0.12025744
000320 d7 72 cd 3d d1 b6 a2 bd e3 53 48 3d dc f2 05 3d
       0.100316696 -0.07945026 0.048908126 0.032702312
000330 fc dd 3b 3d 4a a0 ce 3d fe f2 f3 bc ac ff 81 bc
       0.045865998 0.100891665 -0.029778954 -0.015868984
000340 29 4a 03 bd 40 43 9c 3d b8 b5 92 3d d3 9b ac 3d
       -0.032053147 0.076300144 0.07163566 0.084281586
000350 db 89 43 be c5 4e 84 3c 84 37 6c 3c 04 d1 50 be
       -0.19095556 0.016150841 0.014417533 -0.20392233
000360 bb d7 3a be 8b 82 6f bc c5 22 53 be 8f e1 03 3d
       -0.18246357 -0.014618526 -0.20618732 0.03219753
000370 3f d6 42 be 2e e4 c7 3c 61 b3 cd 3d f9 3a 9c bd
       -0.19027041 0.024400797 0.100439794 -0.07628436
000380 b7 4f e0 3c 17 63 40 3d d1 ff 40 3d 53 ef 9c bd
       0.027381761 0.0469695 0.047118966 -0.07662835
000390 cf 13 86 3c 18 e6 61 3d 30 37 cb 3d 18 20 0b bd
       0.016366867 0.055151075 0.099226356 -0.033966154
0003a0 0a 68 30 bd 52 5e 77 bd 39 56 ec 3c 92 ec 7f 3d
       -0.04306797 -0.060392685 0.028849708 0.06248147
0003b0 0f 02 63 3d 48 16 fa 3d 95 9b f8 bb c7 60 51 be
       0.055421885 0.12211281 -0.007586906 -0.20447074
0003c0 5c da c1 3c 6b 6b de bd 4b fa d6 bd ba 9f c1 3c
       0.023663692 -0.10860332 -0.10496958 0.023635734
0003d0 b3 17 2d bd b4 dc a9 bd 9e 88 76 3c 19 af de 3d
       -0.04225893 -0.08294049 0.0150472205 0.10873241
0003e0 7b c4 43 be 01 da a5 3c 9f 09 76 3c 50 b8 52 be
       -0.1911792 0.020245554 0.015016942 -0.20578122
0003f0 3f cd 95 3c f7 4b 07 3b 9e 45 58 be 2d 9b 9c bd
       0.018286346 0.0020644644 -0.21120307 -0.07646785

action_model._discrete_distribution.branches.0.weight f4 [4, 256]
000000 c2 6e 12 bd 88 37 e1 bc 54 a1 19 3c 99 f5 3b 3c
       -0.035750158 -0.0274923 0.0093768425 0.011472129
000010 40 6f be 3c dd 4f fd 3c 8a 97 c1 bb 02 13 11 3b
       0.023246408 0.03092187 -0.0059079574 0.0022136574
000020 39 ca 26 3d 5c dd d1 bc d5 a7 34 bc 00 0d e7 3b
       0.0407202 -0.025618248 -0.011026342 0.0070511103
000030 6d 94 2a bd 45 14 0f 3d cc fa f7 39 18 b9 0e 3c
       -0.041645456 0.03493144 0.0004729837 0.008711122
000040 c6 43 67 3c 94 ce b1 3d 9d 0c ba bc 44 c2 2b 3d
       0.01411528 0.0868198 -0.022711093 0.041933313
000050 08 2c 48 3d 5a 1a 1f bc cd 3b 82 bc b6 30 25 3d
       0.048870116 -0.009710873 -0.015897656 0.040329657
000060 1f 7e 94 3c 22 fb a7 3b 80 d8 24 bd c0 4e af 3b
       0.018126545 0.005126373 -0.040245533 0.005349964
000070 b9 a4 7f 3b 7a 21 31 3d 5d a4 cb 3c 66 79 5e bc
       0.0039008094 0.043244816 0.024858648 -0.013578748
000080 1c 88 06 bc ad b6 fb 3c de b5 b1 3c 5d 84 16 bc
       -0.008211162 0.030726755 0.021693166 -0.009186831
000090 f9 4a 2d 3d 8c 30 7c 3c cd 88 08 bc ec d4 cf 3d
       0.042307828 0.015392434 -0.008333397 0.101480335
0000a0 a9 18 60 3c 36 1e cf bc 21 24 b2 3b ea cd a1 bb
       0.013677754 -0.02528296 0.005436436 -0.004937877
0000b0 c4 6d 2d bb 3e 9c a5 3d 6c 7b 08 bc 59 0f 38 bd
       -0.002646313 0.080864415 -0.008330207 -0.04493651
0000c0 68 53 2d 3c 34 8e 83 bc a3 a7 52 3d 44 33 de 3c
       0.010578968 -0.016059019 0.051429402 0.027124055
0000d0 e1 62 e0 3d 23 61 5e 3d b3 5c bd 3d 56 05 80 bd
       0.1095636 0.054291856 0.092461966 -0.06251018
0000e0 63 ed 86 3d d2 74 8d 3c a1 37 18 bd 84 81 44 bc
       0.06588247 0.017267618 -0.037162427 -0.01199377
0000f0 4d 4b 99 3b f3 fa 67 bc f6 94 45 bc 21 83 97 bc
       0.004678166 -0.014158952 -0.012059441 -0.018495144
000100 ee 77 93 bc c9 16 8d bd 40 bc 98 bc 7c 7b 2e 3d
       -0.018001523 -0.068891115 -0.018644452 0.042598233
000110 ec 65 ea 3c 6e f8 64 3d da 44 9f 3d f2 f6 0f bd
       0.028613053 0.055900984 0.07776804 -0.035147615
000120 e2 20 23 bc 66 44 5d 3d 3f 7a 18 3d f5 58 dc 3c
       -0.00995657 0.054020308 0.037225958 0.026897887
000130 13 7a 0d bc 21 2d 83 bc 00 9c 94 3c 20 d8 36 bc
       -0.008635062 -0.01601273 0.018140793 -0.011159927
000140 d7 e5 0a 3b 22 cc 1e 3c a4 3e b8 3b 3e d9 0b 3d
       0.0021194124 0.009692224 0.0056227017 0.034142725
000150 50 69 38 bd 91 12 66 bd 17 72 c7 ba 76 9e af 3d
       -0.04502231 -0.05617005 -0.0015216497 0.08575146
000160 02 8d 10 3d 1e c8 38 bd 42 cb 2f 3d f7 b5 43 bd
       0.035290726 -0.04511272 0.04291845 -0.047780957
000170 3e e7 e4 3c e5 eb 52 bc 04 e3 a7 3a 3f 0c 36 bc
       0.027942296 -0.012873624 0.0012808745 -0.011111318
000180 58 e6 b7 3c e6 c2 48 3b 0b 73 00 3c 9f d1 93 bc
       0.022448704 0.0030633747 0.007839928 -0.018044291
000190 9c 7a b1 bc 92 58 d0 3c 1f 24 85 3c 1e 80 a2 3c
       -0.02166491 0.025432859 0.016252575 0.019836482
0001a0 6c 7b 1a bd 6f 8d c3 3d a6 05 00 bd 0a 0f a5 bc
       -0.03771536 0.09548461 -0.031255387 -0.020148773
0001b0 b6 0b 62 bc ee 1a bd bb fb 05 02 3c 3f d7 76 3c
       -0.013796737 -0.0057710325 0.007935996 0.015065967
0001c0 66 c3 98 3c 0c aa 88 3b 12 4b e1 b9 a1 94 90 3c
       0.01864786 0.004170662 -0.00042971276 0.017648997
0001d0 ce 96 a7 bb 00 e4 bf bc f8 b5 68 3d 6a 5f a0 3c
       -0.005114413 -0.023424149 0.056814164 0.019576747
0001e0 27 81 ad bc 89 90 f3 3a 47 b3 f0 bb e1 2f 50 3c
       -0.021179749 0.0018582504 -0.0073455903 0.012706728
0001f0 ab 3c 8a bc 15 ee 78 3c 57 55 3c 3c 1c c2 e8 bc
       -0.016874632 0.015193482 0.011494956 -0.028412871
000200 f3 a0 67 3d f8 7f 41 ba c7 50 28 3d 4f bf 96 3c
       0.056549978 -0.00073814346 0.04109266 0.01840177
000210 26 e6 26 bc b2 8b 0d 3b 68 02 ab bc 63 75 44 bd
       -0.010186708 0.0021598157 -0.02087517 -0.04796351
000220 01 a1 02 b7 7b c6 77 bc f5 43 53 3d 28 b7 51 bd
       -7.7860905e-06 -0.015123005 0.05157848 -0.051200062
000230 7a d9 1f 3b c7 ea 90 3c e1 b7 5d bd 86 db ab 3c
       0.00243911 0.017690076 -0.05413044 0.0209787
000240 78 9b ff ba 24 9f 11 3c 47 00 e8 bb 70 04 dd bc
       -0.0019501289 0.00888804 -0.007080111 -0.026979655
000250 e0 5d 9b 3d 03 df 6e 3d de a6 06 bc 67 56 1b bc
       0.075862646 0.05831815 -0.008218495 -0.009481049
000260 f3 c7 e5 3c 50 05 c2 3c 98 b2 fe 3c 3a 97 00 bc
       0.028049445 0.023684174 0.03109102 -0.007848555
000270 a3 ed 05 3d 04 6b 3f 3d bb 04 52 3c a3 93 e7 bc
       0.03269733 0.046732917 0.012818511 -0.02826864
000280 88 67 f7 ba 3b e1 3a 3d 93 5d 8f bc 7b 19 a3 3c
       -0.0018875459 0.045624953 -0.017500674 0.019909611
000290 26 50 89 bb c8 18 aa bc e1 7f 02 bd dd cd b3 3b
       -0.0041904626 -0.02076377 -0.031860236 0.0054871873
0002a0 0b e1 48 3c 8f f8 4d bd d8 f1 b7 3d ef 51 0c 3c
       0.012260686 -0.050285872 0.08981675 0.008564456
0002b0 63 50 bd 3a 2f 13 94 3c fa 8a 38 39 d8 b5 dc 3b
       0.0014443513 0.018075554 0.0001759938 0.0067355447
0002c0 3e 69 a9 3d 46 12 36 bc 94 22 ad 3d 1e 16 53 bd
       0.082720265 -0.011112755 0.08453861 -0.051534764
0002d0 25 8f a4 bc b1 05 65 3d e7 dc 1b 3b d3 ad a2 bc
       -0.020087788 0.05591363 0.002378279 -0.019858276
0002e0 62 b9 55 bc 05 42 77 3c 73 7c f3 3b db 24 9f 3d
       -0.013044687 0.015091424 0.007430607 0.077707015
0002f0 13 8a cb bb 89 cb 90 3c d3 65 c7 3c 59 c2 61 bd
       -0.006211528 0.017675178 0.024340546 -0.055116985
000300 45 73 44 3b 5c 7e da bc 98 d6 5f bb af 8a b3 ba
       0.0029975933 -0.026671581 -0.0034155007 -0.0013697947
000310 af 58 a9 ba b2 36 0b 3d 6b 0d 0f 3d 2b 78 e6 bc
       -0.0012920107 0.03398771 0.034924906 -0.028133472
000320 36 ad 85 bd 5a 3d 22 3d 79 ac ba bc 24 35 9a bb
       -0.06527178 0.03960929 -0.02278732 -0.004706042
000330 89 aa 97 3c de 6e 11 bd 48 e4 5e bb 71 55 31 3c
       0.018513935 -0.03550612 -0.0034010578 0.0108235935
000340 5c a7 88 3c 51 32 61 bd 9b 82 c9 bc 2d 21 f0 3c
       0.016681366 -0.054979626 -0.02459841 0.029312694
000350 62 5a b8 3d 72 bc 28 bc b5 81 1e 3d 7b fb a5 3d
       0.09001614 -0.010298835 0.038697917 0.08104607
000360 e5 29 c3 3d 65 ad 29 3c e7 c2 76 3d f8 a0 4d 3c
       0.09529475 0.010356282 0.060244467 0.012550585
000370 4f e3 8b 3d 15 76 52 3a 8b 61 e8 bc 26 ff d0 3c
       0.06830465 0.000802846 -0.028366825 0.02551229
000380 1d 8d 57 bd 67 e9 fa 39 4c b7 66 bc 56 77 b9 3c
       -0.05262481 0.00047857614 -0.014081787 0.022639912
000390 ff 7b b3 b9 a1 ff 2d 3d 49 60 48 bd c3 07 48 3c
       -0.00034233925 0.042480115 -0.04891995 0.012208882
0003a0 d4 db 2d 3c 1b 18 0c bb 25 a6 3d 3c d4 e4 02 bd
       0.010611493 -0.0021376673 0.0115752565 -0.03195651
0003b0 ff 79 22 bd 2c c9 53 bd 3e eb b0 bc f9 4a a4 3d
       -0.039667126 -0.051705524 -0.021596547 0.080221124
0003c0 84 e1 34 bc 29 c9 92 3d 4e 92 01 3d 6c 2e 21 bc
       -0.011040095 0.071672745 0.031633668 -0.009837728
0003d0 1f a1 da bc a9 e5 61 3c 69 da 7a bb e9 d0 d1 bc
       -0.026688157 0.013787665 -0.0038277155 -0.025612311
0003e0 69 a7 a0 3d 70 17 31 bc 13 2e 4d ba 83 0b aa 3d
       0.07844431 -0.010808811 -0.0007826995 0.08302977
0003f0 29 9c d1 3c 3d c3 75 3c 3e 64 98 3d 3e a1 06 3d
       0.025587158 0.015000162 0.07440995 0.032868616

action_model._discrete_distribution.branches.0.bias f4 [4]
000000 e5 45 ab bd ac 4a 34 3e b3 4a 89 bd b3 94 ae bd
       -0.08362941 0.1760661 -0.06703701 -0.08524456

action_model._discrete_distribution.branches.1.weight f4 [15, 256]
000000 8a aa 70 3b 90 aa 0a bd e5 58 1d 3c 5b a8 a8 bd
       0.0036722743 -0.033854067 0.009603714 -0.08235236
000010 73 9d b1 3c 41 fe e6 bc 9d 06 89 3c a7 f7 7f 3d
       0.021681523 -0.02819741 0.016726786 0.06249204
000020 02 60 fd bc 46 d3 be 3c 07 06 4d 3d 59 78 42 3c
       -0.03092957 0.023294102 0.050054576 0.011869513
000030 f7 80 b9 bc c1 1d f8 bc fb 98 37 bd 0e 9b 7c bc
       -0.022644503 -0.030287625 -0.044823628 -0.015417827
000040 0d 5f 05 bc 2c d2 35 3c 89 00 b4 bb 1e 16 b3 bc
       -0.008140338 0.011097472 -0.005493228 -0.021861132
000050 e4 67 97 3a be 34 56 3d fc 02 ed bc 91 1d 9d b8
       0.0011551348 0.052296393 -0.028932087 -7.4918506e-05
000060 6e cb 96 bd dd 20 1e 3d 8f 0d 5e bc 7c 5c 37 3d
       -0.0736302 0.03860556 -0.013553037 0.044765934
000070 db d9 05 3d 67 a6 9b bd 4d b7 02 3d 7a ec 44 3d
       0.032678466 -0.07600098 0.03191309 0.048077084
000080 a4 10 50 3c 5e 25 1a 3a a5 56 0b bc 07 ec 95 bc
       0.01269928 0.0005880202 -0.008504544 -0.018301023
000090 c4 cc 0c bd 46 21 e1 3b d2 40 47 bc 72 5b 12 3d
       -0.034374967 0.0068704216 -0.01216145 0.03573174
0000a0 e7 16 4b bd fa d6 af 3c 45 30 fa 3d ec 26 0b 3d
       -0.04958239 0.021464814 0.12216238 0.033972666
0000b0 75 ad e6 3c 2d 70 6a 3c c2 c2 07 3c 21 5c d4 bc
       0.028158883 0.014308971 0.00828618 -0.025922837
0000c0 89 3a 50 bb f1 cc ce 3d 24 82 1b 3d d9 11 64 3c
       -0.003177317 0.10097683 0.03796591 0.013920271
0000d0 85 2e 3b 3c 4b ef a1 bb 00 20 15 3d 40 58 21 3c
       0.011424665 -0.004941856 0.03640747 0.009847701
0000e0 ab b3 99 3c 52 65 81 3c 3c ab 1d 3b 37 a4 ef bd
       0.01876243 0.015795384 0.0024058362 -0.11701243
0000f0 40 14 69 3d e4 6a 7d 3d 8f 57 80 3c f0 6a af 3d
       0.056904078 0.061869517 0.015666751 0.085653186
000100 df fb 7e 3d f1 77 fe 3b b0 b1 af bc 66 70 2e bd
       0.06225192 0.007765763 -0.021447033 -0.04258766
000110 e2 66 ec bb df a8 eb 3d dd 6c bf 3c e8 c1 3d bd
       -0.007214413 0.11506819 0.02336734 -0.0463275
000120 f1 a4 ac bc 93 c9 3c bd 3a ac ef bc 82 f7 c3 3c
       -0.021074744 -0.046090674 -0.029256929 0.023921732
000130 f0 4c a5 3c 54 e4 97 3c 7a 50 d9 bc 01 0d 8b 3c
       0.020178288 0.018541493 -0.026527632 0.016973974
000140 69 fb 07 3d 56 cb e4 3c 24 87 d9 bc f5 93 d2 3c
       0.033198748 0.02792899 -0.026553698 0.025705317
000150 53 ea 9f 3c 7e 98 12 bb 0d 75 3f bc cf c3 cf 3c
       0.019520914 -0.0022368724 -0.011685622 0.025361924
000160 40 4f 75 bc df 70 41 3c 92 34 d1 3d 22 94 50 3d
       -0.014972508 0.011806696 0.10215105 0.05092252
000170 02 3f 74 3b ef 74 2d 3d 8c e4 b3 bb fd da 85 3d
       0.0037269 0.042347845 -0.0054898914 0.06535909
000180 32 2c 4f bd 49 f2 2e bd 3f 1d 12 3d 2d 11 93 bc
       -0.050579257 -0.04271153 0.035672422 -0.017952526
000190 bd 7e 85 3d a3 98 3a 3d 7e c9 66 bd 4b 10 1b bd
       0.06518314 0.045555722 -0.0563445 -0.037857335
0001a0 d2 29 03 bb b5 23 b1 3c f7 74 25 bd 29 2b e2 bc
       -0.002001394 0.021623472 -0.04039475 -0.027608471
0001b0 d6 d8 da bc 74 59 cd bc f2 21 f4 3c 52 4c 8a bc
       -0.026714724 -0.025067069 0.029801343 -0.016882095
0001c0 79 06 19 bd dc f9 6e bd 5c 2a 4c 3d 76 c1 11 bd
       -0.03735969 -0.058343753 0.049845085 -0.03558489
0001d0 ce 1d 72 3a d0 90 5e ba fd 82 33 3d e2 62 c4 bc
       0.00092360086 -0.00084902067 0.043826092 -0.023972932
0001e0 f7 8a 8c 3c bb 19 4b 3d 0c 59 b6 bc 45 d8 60 bd
       0.017156107 0.049585085 -0.022259258 -0.05489375
0001f0 e8 20 46 bc ae 75 88 bd 6d 62 00 bd eb 92 16 bd
       -0.012092806 -0.066630706 -0.031343866 -0.036761206
000200 40 e0 82 bc 1f b3 17 bd 0d 99 93 bc 78 4e 6b 3d
       -0.015976071 -0.037036058 -0.018017316 0.05744788
000210 77 84 d5 3b 74 a0 66 bd e5 dc 6e bd f7 c8 2b bd
       0.006516035 -0.056305364 -0.05831613 -0.041939702
000220 a8 0e e6 bb 8c ff 33 3c 07 3f 1a 39 f2 f5 57 3c
       -0.00702079 0.01098622 0.00014710064 0.0131811965
000230 36 d0 19 bd e2 15 b5 3d d7 63 21 bd e7 c4 5a 3d
       -0.03755208 0.088420644 -0.039401855 0.053410437
000240 f1 fe 0a 3d e1 1e fe 3c db 67 43 bd 8d d3 cd bd
       0.033934537 0.031020584 -0.047706466 -0.10050116
000250 80 d1 9f 3d 50 b0 b2 3b 59 ee 54 bd e5 cf ff bb
       0.07803631 0.005453147 -0.05198512 -0.0078067654
000260 cb ff df 3d a2 85 a6 3c 33 9d ad 3c f0 30 70 bd
       0.109374605 0.020327393 0.021193122 -0.05864042
000270 e6 ad 77 bc b7 fe 88 3d 87 f2 51 3d d2 64 eb bc
       -0.015117144 0.06689208 0.051256683 -0.028734598
000280 7e 3b 82 bb 1d c1 46 bd c2 c2 2a bc 70 9f 6f bd
       -0.003974377 -0.04852401 -0.01042241 -0.05850166
000290 b4 44 d6 3b 11 f1 c4 bb 70 c4 db 3c ff 8f 08 3c
       0.006538952 -0.0060101827 0.026827067 0.008335113
0002a0 0e 39 30 3c 1c f8 96 3c 76 36 e7 3c c4 bb 55 3d
       0.01075579 0.018428855 0.028224211 0.05218102
0002b0 b6 de 51 3d 51 cf 16 3b da 73 79 3d cd 26 8b bc
       0.051237784 0.0023011754 0.0609015 -0.016986275
0002c0 9f 10 2c 3c e2 58 5d 3c cc d8 c5 3b 0c 1d 40 bd
       0.01050201 0.013509961 0.006037807 -0.0469027
0002d0 58 c2 fe 3c fa a8 32 bc bd f0 1a 3d cc e5 1f bd
       0.03109853 -0.010904545 0.037827242 -0.03903751
0002e0 c9 f0 c7 bc 0a 63 c9 bc 52 a9 00 3d af a5 cc bb
       -0.024406807 -0.024583358 0.031411476 -0.006245337
0002f0 30 66 f4 bb eb 20 ad bc 54 f8 10 3d c8 68 42 bd
       -0.0074584708 -0.02113386 0.035393074 -0.04746321
000300 8f 4f ff 3c 45 37 1a bd e0 14 3e 3d cb 85 06 3d
       0.031165866 -0.037650365 0.046406627 0.03284244
000310 09 f5 1c bc aa 73 85 3c 7d 72 85 3c 67 34 04 3b
       -0.009579905 0.016290504 0.016289944 0.0020172836
000320 c5 04 a2 3c e9 5f 9e 3c 64 8b 35 bd 8b 60 52 3c
       0.019777665 0.019332843 -0.044322386 0.0128404
000330 91 5f 26 bd c5 67 86 3a 7f bd be bd 53 1c 92 bd
       -0.040618483 0.0010254314 -0.09313487 -0.07134309
000340 11 81 20 bb d4 92 65 bb 0b 4c a8 3c 53 8f 25 3d
       -0.0024490992 -0.0035030143 0.020544073 0.040419888
000350 f7 75 93 3c 41 9e 4b 3b 89 68 63 3d ce 8e 88 3b
       0.018000586 0.0031069668 0.055519614 0.0041674143
000360 4f e9 da 3c 62 ef 3d 3d cc 60 23 bb fa 80 82 3c
       0.026722578 0.04637087 -0.0024929522 0.015930641
000370 dc f3 1c 3c d3 dc c2 bc 13 a0 90 3d 92 16 86 3d
       0.009579625 -0.023786938 0.07061782 0.06547274
000380 f3 73 ed bc 5f c2 31 bd 16 9e 54 3c 43 e7 90 3c
       -0.028985953 -0.043398257 0.012977144 0.0176884
000390 e0 5a a8 bd 94 cf 42 3d f3 46 c4 bc d7 d7 e4 3b
       -0.08220458 0.047561243 -0.023959612 0.006983738
0003a0 40 3f a4 bd fe 7b 8b bd ef ed 15 bd f0 da 1e 3d
       -0.080198765 -0.06810759 -0.036603864 0.038783014
0003b0 6f 06 43 bd ed 59 91 3a ce 35 fa bc d9 ae d5 bb
       -0.047613557 0.0011089422 -0.030543234 -0.0065210876
0003c0 49 ea 8a 3a 6e 1b 52 3d 5b 97 7b bd fe 8c 52 bd
       0.0010598387 0.05129569 -0.06142364 -0.051403992
0003d0 1c e6 6e bc 65 b0 6b bd 63 36 44 bd f5 66 b2 3c
       -0.01458123 -0.05754127 -0.04790343 0.02177761
0003e0 04 0b d9 3c e1 e5 08 bd 18 85 80 bc 5f 2f 88 3c
       0.02649451 -0.033422355 -0.015688464 0.01662415
0003f0 f5 b1 47 3a 8c 43 0c bd d6 08 9c 3c fb cf 29 3d
       0.0007617765 -0.034244105 0.019047182 0.04145811

action_model._discrete_distribution.branches.1.bias f4 [15]
000000 75 b7 72 bc 72 d9 ca 3b f7 9b ae 3c 4d 37 2c 3c
       -0.014814247 0.0061904723 0.021314604 0.010511232
000010 e1 1f bd bb 1a f5 8c bc d4 85 00 3c 82 97 b8 3b
       -0.0057716225 -0.017206717 0.007844407 0.0056332955
000020 fe b5 e2 3b 93 86 ae 3b a8 94 29 bc ac 1e 94 bc
       0.006918668 0.005326101 -0.010350384 -0.018081032
000030 5e df 75 3b d5 b8 b6 3c 02 eb 83 bc
       0.003751717 0.022304932 -0.016103271
