results/AgentRankingsAndAcceptedRankings/AgentBehavior/AgentBehavior-1499986.onnx (onnx, 333671 bytes, 11 tensors)

discrete_act_size_vector f4 [1, 3]
00000000: 0000 8040 0000 7041 0000 7041
4.0 15.0 15.0

network_body._body_endoder.seq_layers.0.weight f4 [256, 30]
00000000: 6de0 113e ec41 3e3d 2058 70be 7fe7 5e3d
00000010: fa89 b93d d2b2 23be c43d 22be a743 353e
00000020: 874a 6bbd b660 4cbd d058 e73d a509 1d3e
00000030: b4a4 7d3e a187 2d3d dec3 fe3c d46e 353e
00000040: 1172 0fbe 93bb 8abe 8cac d03c ecfd 023d
00000050: dc6f 3fbd 3666 87bd e74b 883e 6960 a73d
00000060: 6a38 193d 4cb3 b8be 985c 0b3d 3f6f 58bd
00000070: 7c10 79bd 6e5c 6a3e c194 5c3e 950e 563e
00000080: dc0d 533d 16d2 203c 5a4f 60be 7489 5b3e
00000090: 47d7 9bbe f180 36bb e03c 233e fdb2 85be
000000a0: 6700 363d e830 dc3c e4f4 86bb 49b7 a8bc
000000b0: 95d8 593e 5838 8cbe 8c33 91bd 1d51 29be
000000c0: 54ac 1b3e 5a5e 0dbd 6e14 643d e54b 933e
000000d0: da1f 13be 0d8f b3bd 1cc0 153e a76d 76be
000000e0: f5cf 133e 1aeb 1a3e 9927 9ebd 10da e53d
000000f0: 2856 17be eb34 bbbc 0127 0c3e 2841 fc3e
00000100: 5f6a a23e a12a a03e 99d8 503d 8050 99bd
00000110: d65b cd3d 54dc cf3e abe2 893e 1bbc 7b3c
00000120: 3993 59be 435c f03e 8beb 933e 365e ed3d
00000130: a470 3e3b 9b6d e93d 5524 88bd 276f e0bd
00000140: 8069 54be 954e 853e 5800 a23e 5a82 7fbd
00000150: 7ef3 3c3e f6ff b73d b355 373e ae07 cf3d
00000160: a2f1 383e dcfc bc3c a501 7c3e 2bcf d93e
00000170: 6855 4bbd 6388 67bd 4573 91bc 17d2 633d
00000180: 08d4 f93d e259 883e 81ef e83d 1f10 6bbc
00000190: 4135 2c3e 41d7 073e 3bbb 31bd b915 1a3e
000001a0: 38e2 ae3d cf88 7abe 4b92 9b3b 5830 033e
000001b0: 1f61 513b 0c8a 0d3e 900b b93d 063d 023d
000001c0: 6b17 13bf 5ba8 383e c1d5 ffbc 16a6 a23e
000001d0: 005f 543e 6afb 9b3e bea1 a2bd aca2 23bd
000001e0: a145 57ba 518f 96be 1aeb 9e3e 8e70 66be
000001f0: 7abb f6bc e1bc 013d 7456 7cbe 9d70 d63d
00000200: d450 143e 0046 6cbe bdf7 a4be e6a0 2fbe
00000210: bba7 5bbe 41f2 5d3e d669 05be 64ca 7d3d
00000220: 7f85 c03e 2269 07be 36bd a33e fe67 3fbe
00000230: 5012 9cbe f6fc 913d 637c d8bd cee4 8b3d
00000240: 82e0 7d3e cbf1 0b3e f92f 74bd 36ed 66be
00000250: 21da 253e d84b adbd d74f c93d 7329 b7be
00000260: 2b2f 47be eeed 19be a4d2 39be 6058 cf3d
00000270: 8171 463e 0304 93bd 3ded bdbe ec72 303e
00000280: c80a b3bd 7e7e 07be 1244 1c3d 72af 35be
00000290: 1f68 c4be 5ab7 e03d 301b 59be f5bf 45be
000002a0: 0a1d 01be 44d8 573c 5f6b 8bbe e373 823c
000002b0: b2c2 29be 583b 2ebd 53f3 1fbf fc79 23be
000002c0: 8771 bc3b 06cb f0bc 6e9d 91be 6a69 63be
000002d0: 30b1 18be 21bb 943d a743 743d 4174 673e
000002e0: fc50 a23b fead fcbd a47d dc3d d98f 31bd
000002f0: 6169 b03d 032b d43d fbb4 80bd 2ec6 783e
00000300: 2074 6abd 0c28 31be 1557 283d 71c9 f33d
00000310: ba01 953e 0d1b cebd 457c 10bd d4dc 15b5
00000320: 769a 203e 99db a9be 8bb5 0ebd a235 11be
00000330: 33d7 cb3d 6020 833e 0426 0cbd efb6 e23d
00000340: 8bff 70bc ec43 84be 8755 cc3e 1bbc 55be
00000350: aca4 733d d374 f3bd 05ac c93e 675d 153e
00000360: 3c1c 613e 9b69 dcbd 780b 843c f1fa a03d
00000370: 7e08 9d3d 1ee7 553b 9761 043e 239f ef3d
00000380: a2db 733d e209 2c3e 8c88 82bc acaf 303e
00000390: b378 ad3e c121 7dbe 0aa7 503d 52fc 2cbe
000003a0: b145 ca3d 171d bf3d 9ba1 003e 542b 7a3d
000003b0: 06f3 00be da3c 49be bd96 cb3d 0540 5bbc
000003c0: 9921 08be b6f4 f6bd 670a 6ebd f073 11be
000003d0: 30bb c2be e03d f03e fc76 e3bb d084 73be
000003e0: 7bae 1f3e 5aa0 9abe 4672 663d e73a acbc
000003f0: e7ba 31bb 1644 263e a126 3d3e c424 69be
0.14245768 0.046449587 -0.23471117 0.05441999 0.0905952 -0.15986183 -0.15843874 0.17701589
-0.05744412 -0.04989692 0.112962365 0.1533571 0.2476986 0.042365674 0.031099256 0.17718059
-0.14008357 -0.27096233 0.025472902 0.03198044 -0.046737537 -0.06611292 0.2662041 0.08172686
0.037407316 -0.36074293 0.03402385 -0.052840468 -0.060806736 0.22886822 0.2154112 0.20904
0.05152689 0.009815713 -0.2190527 0.21439153 -0.3043768 -0.002784785 0.1594119 -0.2611312
0.044433977 0.026878789 -0.0041185487 -0.02059521 0.21274026 -0.27386737 -0.0708991 -0.16534849
0.15202457 -0.03451381 0.055683546 0.2876884 -0.14367619 -0.08767519 0.14624065 -0.24065267
0.14434798 0.15128747 -0.077223964 0.11223233 -0.1477896 -0.022852382 0.13686754 0.4926846
0.3172178 0.31282523 0.050987814 -0.07486057 0.10027282 0.40597785 0.26930746 0.015364672
-0.21247567 0.4694539 0.28890643 0.11590235 0.0029058838 0.11397859 -0.06647555 -0.109587006
-0.2074337 0.26036516 0.31640887 -0.062380172 0.1845226 0.089843675 0.17903785 0.10108887
0.18060926 0.023069791 0.24610002 0.4254087 -0.049641997 -0.056526553 -0.01775516 0.05562028
0.12198645 0.26631075 0.11373807 -0.014347105 0.1681719 0.13265707 -0.043391448 0.15047349
0.085392416 -0.24466251 0.004747664 0.1281141 0.0031948758 0.13822192 0.090354085 0.031796478
-0.5745761 0.18032973 -0.031229855 0.3176734 0.20739365 0.3046525 -0.07941006 -0.039950058
-0.00082119746 -0.29406217 0.31038743 -0.22503874 -0.030118693 0.03167427 -0.24642354 0.10470698
0.14483958 -0.23073578 -0.3222026 -0.17151222 -0.21450703 0.21674444 -0.13028654 0.061960593
0.3760185 -0.13223699 0.31980294 -0.18692014 -0.3048272 0.071283266 -0.105706 0.068307504
0.24792674 0.13666455 -0.059616063 -0.22551426 0.16196491 -0.08461732 0.09829681 -0.3577381
-0.19451587 -0.15032169 -0.1814676 0.10124278 0.19379236 -0.071784995 -0.3709506 0.17231339
-0.08742291 -0.13231847 0.038150854 -0.17742708 -0.38360688 0.109724715 -0.21201777 -0.19311507
-0.12608734 0.01317412 -0.27230355 0.0159244 -0.16578177 -0.042537063 -0.6248066 -0.15964502
0.005750838 -0.029393684 -0.28440422 -0.22208181 -0.14911342 0.072622545 0.05963483 0.22602941
0.0049535017 -0.12337874 0.107661515 -0.043350074 0.086138494 0.10359766 -0.06284519 0.2429435
-0.05723965 -0.17300433 0.041098673 0.11903656 0.2910288 -0.10063753 -0.035274763 -5.582817e-07
0.15683922 -0.33175352 -0.0348411 -0.14180616 0.09953155 0.25610638 -0.034215942 0.11070048
-0.014709364 -0.2583307 0.39909002 -0.20872538 0.059483215 -0.11887517 0.39389053 0.14586411
0.21983427 -0.1076233 0.01611875 0.07860363 0.076676354 0.0032638977 0.12927853 0.11700275
0.05953563 0.16800645 -0.015934251 0.17254514 0.3388115 -0.24719907 0.05094055 -0.16893128
0.09876574 0.0933172 0.12561648 0.061076477 -0.12592706 -0.1965212 0.099408604 -0.013381963
-0.13294066 -0.12058394 -0.05811539 -0.14204383 -0.38033438 0.46922207 -0.0069416743 -0.23781133
0.15593903 -0.30200464 0.056261323 -0.02102418 -0.002711946 0.1623691 0.18471767 -0.22767931

network_body._body_endoder.seq_layers.0.bias f4 [256]
00000000: 90fb ab3d 856f cf3d 1f2d 433d a346 8c3d
00000010: 85e0 9c3d 5a95 a5be bf61 7b3d 3a93 b63d
00000020: 1042 b93d f1ca a23d a095 aa3d dabf 653d
00000030: a51b 03bd 9311 993d d2ad d43d cec2 453e
00000040: 9521 2abd 8178 f23d 09af 4bbd 2f4d a63d
00000050: 03dd 183d 46b5 7bbb 89fb cc3d e04a 153d
00000060: 89ca 0c3e ffa7 f83c a2db 043e 410d d7bc
00000070: f2bb 5e3d 5456 053e 9991 063b cf0e 333d
00000080: 3331 803d 008c 0a3e 906c c63d c8e3 733d
00000090: 101d ff3d 63cf 1a3d 2c38 cf3d 825b 5cbd
000000a0: d137 22bd ee4c da3d 5856 6b3d 1003 cd3c
000000b0: 7f5f 0c3e 7377 aabe 8158 b73d a06d 993d
000000c0: 3a96 a23c 5504 af3b 4690 933d 06b9 c63d
000000d0: 834d 2bbe ceeb aa3d 1470 1e3e c285 933d
000000e0: 2ef9 efbc fcde be3d 7046 b13b cfac 84be
000000f0: 5462 91bd 7624 1a3e 8aa7 9f3d c879 c93c
00000100: a1ac 073e 255a 013e d29a 163d af52 d13d
00000110: 93dc b93d 612a 0f3d 0861 073d 4d7b 163e
00000120: 65e6 b23d c080 8a3d fac8 3f3d 54e3 343e
00000130: bd2b ed3d ef79 e73d 9662 633d 1494 9bbc
00000140: e113 1d3d 8c05 0d3d f70f 063e 294a b73c
00000150: c3ff 6a3d ff5f 0d3e 5e05 043e c599 4bbd
00000160: 2964 07bd bee6 32bd ad80 bdbc 63b1 0c3d
00000170: f5de 063e 60f0 db3d 5f88 1b3e 208d 573d
00000180: 8fa8 063e 0081 023e e674 1d3c 70d9 acbe
00000190: e90d 6d3d 8b67 96be 5cf1 413d d7a7 23bd
000001a0: cda9 953d 0143 39bd 4f65 12bd f64f 673d
000001b0: 4b91 773d 55f2 a0bd 7ba7 33bc 0437 603d
000001c0: 96a4 4a3d 25b2 a63d 4719 a53d 0592 ba3d
000001d0: 3b04 d2bc 007e a83d 12aa 1b3d db06 99bc
000001e0: 17e8 a03d 32f2 873d ef97 343d e36a 8dbc
000001f0: fa76 ef3c b236 6dbc 4fc0 033e 088e 243c
00000200: 444c d83d 9890 243d e4f3 c3bc 8a07 03be
00000210: 66cc d43d 6500 613d 26fd b33d 69b8 e13d
00000220: f51a 283e c7ec 58bc 7bf9 b53d 9a82 8fbd
00000230: 0d40 843d b991 da3d 0af4 113e 744a 8fbe
00000240: a482 4bbc 5048 023e 28e3 c43d d049 c03a
00000250: e5dc f63d 3541 58bd bff4 d43d 8db6 06bc
00000260: d30b 6c3d 8c47 b43a 330a 9e3d 91f9 5c3a
00000270: 4ce1 9639 44bf de3d b254 9f3d 7f73 59be
00000280: 2e14 a03c e398 90be 829b 05be 2e64 b43d
00000290: 4cf7 f2bb 7bb2 f3bb 7498 da3d 0eef 89be
000002a0: 2b82 4e3d 919b a9bd 6ac3 973d 7308 6a3d
000002b0: e10c 1e3e ea86 383d d228 013e eb9b 163e
000002c0: a76c 68bd 9cec 4abd 5448 f2bc ba3d 0e3d
000002d0: fdb4 9d3d 9698 21bd 62e5 043e 9301 043e
000002e0: af18 8d3d 8c54 d53c 3dc7 e93b 02bf 93be
000002f0: 1350 47be 08bb a63c 15e6 353e 0c34 25bd
00000300: f3be 02bc 7dc1 9ebe 4767 ed3d f39a 6dbc
00000310: 1874 a2bd f9d9 24be 3bb4 4abc ebd6 8bbe
00000320: d350 d83d 0e0f bebc 80bf 7bbd 47fa ed3c
00000330: 98ef 523c 56d0 d9bb d943 dd3d c69e 53be
00000340: 16b4 003d 1233 c43c b9a1 2f3d f3f6 1b3d
00000350: c7fe 2b3d bb01 12bd b152 313e c2ee 9b3d
00000360: 7d39 913d 9384 943c 92cb 2f3d 70b0 b53c
00000370: 447d 6c3d 52ba 4d3e 68c9 983d 56e1 923d
00000380: c00e 013e 5c5f fa3d ae79 f03d d8a8 4cbd
00000390: dcae 16bd 070d 1c3d 477d ea3d a495 abbc
000003a0: 5c9a adbd 0106 2c3d 4972 aebc 9ab9 0d3e
000003b0: c177 0c3e 0f62 38be eaf7 d93c 9049 a33d
000003c0: cb17 d63d a926 813c feca e0bd ad84 053e
000003d0: 14a1 d13d 9bea 76be 397c 0cbd 9e07 ea3c
000003e0: ee3a 3a3d 338b 443d 01f8 0d3e c722 813c
000003f0: 96e9 b0bd 2d6a 85bc 0600 d03d 3bd8 433d
0.08397591 0.101286925 0.047650453 0.068494104 0.07660011 -0.3234051 0.061372515 0.089148
0.090458035 0.07948864 0.0832932 0.056091167 -0.032008786 0.07474055 0.10384716 0.19312593
-0.041535933 0.118393905 -0.049727473 0.0812019 0.03732015 -0.0038407608 0.10008914 0.03644836
0.13749136 0.030353544 0.12974408 -0.026251437 0.054378457 0.13021213 0.002053356 0.043715294
0.06259384 0.13529968 0.096886754 0.0595434 0.12456715 0.037795436 0.10118136 -0.053798206
-0.039604012 0.106592044 0.05745539 0.025025874 0.13708304 -0.33294258 0.08952428 0.074916124
0.019847024 0.0053410926 0.07205252 0.09703259 -0.16728787 0.083457574 0.15472442 0.07203247
-0.029293623 0.09319875 0.005410008 -0.25913092 -0.07098833 0.15052971 0.077956274 0.024594203
0.13249446 0.12632044 0.036768742 0.10220849 0.09075274 0.034952525 0.03305152 0.14695473
0.087353505 0.06762838 0.046822526 0.17664844 0.11580608 0.11302554 0.05551394 -0.018991508
0.038349036 0.034429118 0.13092028 0.02237423 0.05737282 0.13806151 0.12892672 -0.049707193
-0.033054505 -0.043677084 -0.023132646 0.034348857 0.13170989 0.10739207 0.1518874 0.05262482
0.13150238 0.12744522 0.00961039 -0.33759642 0.057874594 -0.29375872 0.04734932 -0.039954986
0.073077776 -0.045229916 -0.035741147 0.05647274 0.060441297 -0.07858721 -0.010965223 0.054739967
0.049473368 0.08139447 0.08061462 0.09109882 -0.025636783 0.082271576 0.03800399 -0.018680027
0.078567676 0.06637992 0.044090208 -0.017262882 0.029231537 -0.014478372 0.12866329 0.0100436285
0.105614215 0.040176958 -0.023920007 -0.12795845 0.103905484 0.054932017 0.087885186 0.110215016
0.16416533 -0.013240046 0.08885475 -0.07007332 0.06457529 0.10672326 0.1425325 -0.2798649
-0.012421284 0.12722898 0.09613639 0.0014670435 0.12053851 -0.05279656 0.10398244 -0.008222234
0.057628464 0.0013754233 0.07716789 0.0008429522 0.0002877809 0.10876325 0.07779826 -0.21235465
0.019540872 -0.28241643 -0.13047603 0.0880817 -0.007414734 -0.007437048 0.106736094 -0.26940197
0.050417107 -0.08281625 0.07410319 0.057136964 0.154346 0.04505054 0.12613228 0.14707915
-0.056744244 -0.049542055 -0.029575504 0.034726836 0.077005364 -0.039452158 0.12978128 0.12891226
0.06889474 0.026041292 0.0071343468 -0.28856665 -0.1946414 0.020352855 0.1776355 -0.04033284
-0.007980096 -0.31006995 0.11591964 -0.014502275 -0.079322994 -0.16098775 -0.012372072 -0.27312407
0.10562291 -0.023200538 -0.061461926 0.029050006 0.012874506 -0.00664715 0.108039565 -0.20666036
0.031421743 0.023950133 0.04287884 0.038077306 0.04199102 -0.03564618 0.173167 0.07613899
0.07091043 0.018129623 0.04291875 0.022178859 0.05773665 0.20090607 0.0746029 0.07171886
0.12603283 0.122252196 0.117419586 -0.04996571 -0.036787853 0.03809836 0.11449676 -0.020945378
-0.08476707 0.041997913 -0.02129473 0.13840333 0.13717557 -0.18006156 0.026607472 0.07973015
0.10453757 0.015765505 -0.10976218 0.13038893 0.10235801 -0.24112932 -0.034298155 0.028568085
0.045466356 0.047984313 0.13864137 0.015763653 -0.08638303 -0.01628598 0.101562545 0.047813635

network_body._body_endoder.seq_layers.2.weight f4 [256, 256]
00000000: 1298 ddbd ba23 f33c add4 ac3d d625 d53d
00000010: fc61 103d 8a83 f2bb 2f07 6d3d 647f 253d
00000020: 8678 623c 2241 213d a28a 7fbb 2705 93bd
00000030: 06fc d7bd f007 c0bd 2b09 9fbd 79f5 c33d
00000040: f6a0 803d 8b35 443b 6cf0 513d 9b49 3e3d
00000050: ff82 e03c 81b9 143d 805e 543d 7488 9bbd
00000060: ead4 33bd a557 ccbd 4fa3 cc3d ca22 db3d
00000070: e992 cfbc 74f4 8bbd 4e38 18bc e074 11be
00000080: b7de 02be 6670 233d 82bd a5bd c9a6 743d
00000090: 1673 c1bd 75a2 6f3d 6ac4 2ebd 922c 5fbd
000000a0: e527 573d 74da d63c f9c8 bc3c 0e36 ff3d
000000b0: 4e99 f2bd 8d4c c33c dd4a dc3d 4685 a3bd
000000c0: 298a 9dbc 67b6 f03c 8e8a 463d 26fd a53d
000000d0: 3dda 86bd 9762 763c 1a6b 5fbd ec9b 15bd
000000e0: 3504 303d b957 edbc 675a cbbd e399 3dbd
000000f0: 7886 00be c770 7f3d b4e5 a9bc d8bd 123e
00000100: 0386 9f3d b1a8 4e3d ec27 be3b 361d ca3d
00000110: f202 85bd 4df4 b0bb 2e55 413d d296 e0bc
00000120: 600f 3cbe ebe7 00bd c701 6b3c aad0 44bc
00000130: 8ff6 7bb8 595a f9bb 0334 ba3d b300 8fbd
00000140: d7b8 4f3c 66e0 933c fb0f 38bd 9387 9abd
00000150: 0246 623e 449d bc3d 0ad7 a63d a5a3 93bc
00000160: 3833 193c 5f9b 45bd 8af8 57bc 072f 4cbd
00000170: 565c 3f3c 4daf 22bd b145 463b 9d1a 9cbc
00000180: f0f7 c63c 6a3b 71bd 5b38 bf3d 9bda 6a3c
00000190: 330a 1b3c 566e 72bd c38d bdbd fa73 73bc
000001a0: fe2d 6e3d b715 34bd 02ee d9bd 088b febb
000001b0: cb6f 0ebe 1d7c 8e3d b714 4a3c 7634 a5bc
000001c0: 9f71 28bd de6e b33c ab7f 04be 6ce8 94bd
000001d0: 8d9d babd a5d3 34bd 1e88 c1bc 8fee 50bc
000001e0: 2c16 f4bc eff6 cb3d 26c9 d33d 177d fc3a
000001f0: a635 033d beb7 bbbd a020 043e 6290 d03d
00000200: 15c9 a33d a5a7 83bd 727e 05be e7af 56bd
00000210: 3a87 0b3e 352d 14bd dce4 f43c aa01 3f3d
00000220: 80d3 85bc 3428 ecbb 0ed6 9fbd 7c55 ea3d
00000230: 6228 ed3d ebd2 2a3d 04ea a83c 7605 cbbd
00000240: 7414 3d3d c208 cabb 91e7 223d ed86 eebc
00000250: 176a c73d a420 b43d af1f 6a3d 9518 873c
00000260: ae69 e9bc 0f40 5f3c 71b0 43bd 9094 0abe
00000270: 4a59 6a3d 23b3 ee3d 0a18 ddbd 4f5c 803d
00000280: 6c2f 0d39 1aa6 0c3c cb11 d8bc 4d12 993c
00000290: 65dc 1cba 75d1 a53d bc86 af3d 4022 a3bd
000002a0: 2e03 98bd e3e2 cfbc db92 413d 2c4a d2bc
000002b0: a7c4 9ebc 9919 cbbc 0839 aebc aa72 fd3d
000002c0: a59f d5bc 37b6 aabd 23f8 67bd 5a9e 1b3d
000002d0: cf90 59ba 6f44 933c 4a33 a53c f96e b03d
000002e0: ced7 283d 60b0 2abd 1ad1 983d 79de d239
000002f0: a01e 13be cc05 d83d 79b4 473d 88bf e3bc
00000300: ee07 1ebd aca5 aebc 0020 d1bd 1f2d f83d
00000310: f69c 013b a6a3 7f3c 850d 83bc dc41 59bd
00000320: e5c3 1c3c 8651 c33d 9a5a 0cbd 6635 d3bd
00000330: 2318 0e3d 2b00 023d ac63 3aba d216 dbbc
00000340: 6a78 43bd 2a4c 5bbd e8f4 d33d 2eeb 79bd
00000350: 7bd9 16bd 2f27 5cbe d77b ca3d efae 55bc
00000360: f922 b7bd 48cb ffbc ebd0 1bbd 57f6 173e
00000370: 5e57 7abe 84ba 743d 1d54 86bd 6223 e53a
00000380: 0dc9 9b3c 17fe 6dbd 71ea 96bd 7a3b 03be
00000390: 3bd9 96bd 4fdb f4bc 68c2 063d 3105 6c3d
000003a0: d23b 923d 686c 61bd 0de0 20be 7e85 653d
000003b0: 54f5 d9bd cd2f d2bd f472 863d 8760 b5bd
000003c0: c9c1 73bd 80d8 1dbd 2aeb f93a b378 ebba
000003d0: c961 9e39 7a3f 5abd f254 c0bd 406d 053e
000003e0: abe8 d5bd bc79 5b3d 69bf 03bd 231a 013e
000003f0: b02e 153d 7ae9 01bd 6a38 27bd 13fc ac3c
-0.10820021 0.029680122 0.08439002 0.10407607 0.035249695 -0.0074009346 0.05786818 0.040404692
0.01382268 0.039368756 -0.0038992544 -0.07178717 -0.105461165 -0.09376514 -0.077654205 0.095683046
0.06280701 0.002993914 0.051254675 0.046456914 0.027406214 0.036309723 0.051847935 -0.07594386
-0.043904223 -0.09977654 0.09992086 0.10699995 -0.025338607 -0.06833735 -0.009290768 -0.1420474
-0.12780271 0.039902113 -0.08092786 0.05972937 -0.09445779 0.05850454 -0.042667784 -0.054485865
0.05252828 0.026227213 0.02304505 0.12461482 -0.11845647 0.023840213 0.107564665 -0.07984404
-0.019230919 0.029383851 0.04847198 0.08104925 -0.065845944 0.015038154 -0.0545455 -0.03652565
0.042972762 -0.028972493 -0.09929352 -0.046289336 -0.12551296 0.062363412 -0.020739414 0.14330232
0.077892326 0.050453845 0.005803099 0.09868853 -0.064947024 -0.0054002167 0.047200374 -0.027415667
-0.1836524 -0.031471174 0.0143436855 -0.01201264 -6.007269e-05 -0.0076096472 0.09091952 -0.06982555
0.012678347 0.018051337 -0.044937115 -0.0754539 0.22097018 0.092096835 0.08146484 -0.018022368
0.00935059 -0.048243877 -0.013181815 -0.049849536 0.011679729 -0.03971796 0.0030253942 -0.019055659
0.024288148 -0.058894552 0.09336921 0.014334346 0.009462881 -0.059187256 -0.092555545 -0.014859194
0.05814933 -0.04396602 -0.106410995 -0.0077680387 -0.13909833 0.069572665 0.01233404 -0.020166617
-0.041123983 0.021903452 -0.12939326 -0.072708935 -0.09112082 -0.044147152 -0.023624476 -0.012752189
-0.029795729 0.09959208 0.103411004 0.0019263354 0.032033585 -0.091659054 0.1290307 0.10183789
0.07997338 -0.0642846 -0.13036516 -0.052413847 0.13625804 -0.036175925 0.029894285 0.046632446
-0.016336203 -0.007206941 -0.078044996 0.11442086 0.11579968 0.041705053 0.0206194 -0.09913151
0.046162084 -0.006165595 0.03977162 -0.029117072 0.09737032 0.08795288 0.057159122 0.016491214
-0.028492775 0.013626113 -0.04777569 -0.13533235 0.05721406 0.11655261 -0.10795601 0.062676065
0.00013464474 0.008584524 -0.026375672 0.018685484 -0.0005983769 0.080965914 0.085706204 -0.07965517
-0.074224815 -0.025376743 0.047259193 -0.025670134 -0.01938088 -0.02479248 -0.021267429 0.12375386
-0.026077101 -0.08335536 -0.056633126 0.037992813 -0.0008299471 0.017976968 0.020166058 0.08614916
0.041221432 -0.04167211 0.07461758 0.00040220076 -0.14367151 0.10547981 0.048756097 -0.02780129
-0.03858178 -0.021319233 -0.10211182 0.12117981 0.0019777394 0.015602982 -0.015997658 -0.053041324
0.009568189 0.09537034 -0.034266092 -0.10312919 0.034690987 0.03173844 -0.0007110189 -0.02674428
-0.047722258 -0.053539433 0.103494465 -0.0610153 -0.0368285 -0.21499322 0.09886902 -0.013042196
-0.089422174 -0.031224862 -0.038041037 0.14840065 -0.2444739 0.059748188 -0.06559012 0.0017481858
0.019016767 -0.058103647 -0.07368935 -0.12815657 -0.07365652 -0.02988973 0.032900244 0.05762214
0.07140316 -0.055035025 -0.15710469 0.05603551 -0.10642496 -0.102630235 0.06564894 -0.08856302
-0.05951098 -0.03853655 0.0019067277 -0.0017965048 0.00030208964 -0.053283192 -0.09391202 0.13029957
-0.104447685 0.05358289 -0.032164965 0.12607627 0.036421478 -0.0317168 -0.040825285 0.021116292

network_body._body_endoder.seq_layers.2.bias f4 [256]
00000000: 528f 823d c3c5 cc3d e6c3 f2bc d90a 20bc
00000010: 3cda 523d 3612 fdbc 7f8b 57bd 8433 e33c
00000020: 2669 87bc 2d73 9a3d 8b19 023e 5e5c 5d3d
00000030: 7db1 4b3c cb58 c4bd 3adf a53c 84ab 30bd
00000040: 2d26 593c 5d7c 57be b6fb da3d 3b78 90bd
00000050: 0afd 10be c470 963d 9fef 2ebb 14d0 00be
00000060: 7451 f33c bf59 713c 4ff5 473d f1e2 7e3b
00000070: 3b73 dabb 4424 81bd 5f92 653d 418f d93c
00000080: d4cb 683d b592 413c 15b8 013b d500 8abc
00000090: b90e 11be 6f41 65bd e4ad db3b 1fd1 54be
000000a0: 3262 b73a 9b03 9e3d a4a9 bb3c 34d8 543d
000000b0: e137 3e3d 20bd 51be 2a23 a23c 9231 013e
000000c0: 964b b3bc 03df 883d 6103 d4bd 80ad 97bd
000000d0: ac47 41be 75e1 e0bd 79f5 50be fe6c ca3d
000000e0: 728b 8cbd 8316 433c 5561 2b3d 6816 65bb
000000f0: e894 6e3d 0ab3 f53d c4f6 c73c 43e8 e83d
00000100: 314b be3d f98a db3d a292 933d 4b5f b2bd
00000110: 394b 3d3d 6240 4abc aa3c 4cbe 0261 ac3d
00000120: 0f85 613d 2cbb 87bd 2f81 f9bc 9dfc 45bd
00000130: 0b4c 953c d403 153d 6d1c e8bb 3c88 b03c
00000140: 7b09 80bd d993 0d3d 7be3 653d 2edf 5ebd
00000150: ae3f 9f3b f327 e13d 81a4 ec3c d714 51be
00000160: 9374 acbd b2e3 073b 7a6d 10bd fb1b bf3d
00000170: 7764 cfbd 85d9 4f3d 0dff 77bd 138f 3d3d
00000180: 3d6c a03b 1ba8 c6ba 78cc 5abb 21c7 f03c
00000190: 865e ad3d 331e 0c3d 8f0d a43c ef3c 07bd
000001a0: 3d09 203d 091c 4bbe f4d2 be3d 3ba3 413d
000001b0: 29f6 fb3c e47c 09bd a737 1d3d bb8c b0bb
000001c0: 13d2 d1bd a16c fc3c 9fdf 8e3c fda2 e5bd
000001d0: b5ad 663c b61f c63d aaf7 ddbd 0785 78bd
000001e0: 9475 7e3d e81c 4dbc 863d 343c 6cac 3bbd
000001f0: f8ae 263c 73eb acbc def2 d93b 8b2a 643d
00000200: 8bcc e7bd b1f3 38bd c26e 01be 502a c73c
00000210: 2ba6 72bc 94d9 153d 424c 973d c4b6 233d
00000220: 33df 623c fbe2 fd3c bd38 03be f19c c93d
00000230: 4073 2abd 80f3 693d e876 3e3d 5bed b0bc
00000240: 4b10 3dbd 9bb0 613d 61f7 ab3c 2a88 a03c
00000250: adf7 c3bd f35b 02be 8ea5 ecbc b586 553d
00000260: 9c4c 11bd b747 a7bc 204a 623c 64dc 42bc
00000270: 06cf fbbd 6e01 b1bc e142 2b3d bcba a33c
00000280: 8255 a73c bcfa fbbd a290 a33d d7f5 a9bd
00000290: 3b33 c83a e7a1 be3c 7ca5 cc3d 1d63 6abc
000002a0: bf1a 0d3d a6a3 be3d 1be5 22be b746 0d3d
000002b0: 9994 453d 499b d43c 1e72 4cbc 37f5 90bc
000002c0: 180d 5abe f767 5a3d cde3 4ebe eddd f03d
000002d0: 1960 f23c 27d1 0ebe ce90 1d3d 8abe 6e3d
000002e0: 41c2 2bbd eb6b d7bc 0db5 e33b 4568 58be
000002f0: 1cee d83c bc54 97bc 88bf 0f3c 4130 e63d
00000300: 1d64 20bc 50f9 9c3d c203 9e3a e235 38bc
00000310: b152 313c 6958 093d 9136 50bd 10d0 043e
00000320: 6aee bf3d 1f12 9bbd f0f5 3f3d cf9f 113d
00000330: 4524 523d c4b2 c53d 9b7a a9bc c811 7bbc
00000340: 2d82 09bd 9122 913d 4e20 893d 3a12 c33d
00000350: 10e9 48be 5567 653c 9bd2 bb3c a703 59be
00000360: c6e0 41be fd21 fd3a 0ebe 54be 6363 103d
00000370: 192e 47be 3655 f93c 7ccb c73d ff24 90bd
00000380: 9af6 233d cc31 1e3d 2474 5f3d f0d9 8fbd
00000390: 0c43 d53c 3c03 433d f068 bc3d 700d 03bd
000003a0: 0b44 46bd b665 39bd ca3e d53c 0bbd 893d
000003b0: 0210 383d 6875 dc3d c784 10bb f896 3bbe
000003c0: b317 e93c 6733 dbbd 3edc c5bd 18a8 ee3c
000003d0: 31dd 04bd ce18 94bd 149f 9c3b 6dd6 e73d
000003e0: 6138 47be cf8c 823c 1079 343c af40 57be
000003f0: 8dbe d33c ac38 293c a195 5dbe dcca 96bd
0.063749924 0.099986576 -0.029634427 -0.009768211 0.051477656 -0.030892473 -0.05262327 0.027734526
-0.01652963 0.07541499 0.12705056 0.054043166 0.012432453 -0.095872484 0.020248044 -0.04313232
0.013253731 -0.21043535 0.10692541 -0.07054182 -0.14159027 0.07345727 -0.0026693118 -0.12579376
0.029701926 0.01473087 0.04881793 0.0038892592 -0.0066665686 -0.06305745 0.056047793 0.026557567
0.05683501 0.011814763 0.001979356 -0.0168461 -0.14165772 -0.055970605 0.006704079 -0.20782898
0.0013991056 0.077155314 0.02290804 0.051964 0.04644001 -0.20482302 0.019792158 0.12616566
-0.021886628 0.06683161 -0.10352207 -0.074061394 -0.18874997 -0.109805025 -0.2040614 0.0988407
-0.068625346 0.011907223 0.04184087 -0.0034955982 0.058247477 0.119970396 0.02440966 0.113724254
0.092916854 0.10719866 0.07205702 -0.08709582 0.046214316 -0.012344452 -0.19945017 0.0841694
0.055058535 -0.06627497 -0.030457107 -0.048336614 0.018224737 0.036380604 -0.0070834667 0.021549337
-0.06251808 0.034564827 0.056125145 -0.05441206 0.004859886 0.10993948 0.028887035 -0.20418106
-0.08420672 0.0020735082 -0.035260655 0.09331509 -0.10126584 0.050744552 -0.06054597 0.046279024
0.0048957155 -0.00151563 -0.0033386033 0.029391827 0.084652945 0.034208488 0.020025996 -0.033017095
0.03907131 -0.19834913 0.0931758 0.04727481 0.030757027 -0.03356637 0.038383152 -0.00538787
-0.102451466 0.030813517 0.017440615 -0.11212728 0.014079501 0.09674017 -0.10838254 -0.06067374
0.06212385 -0.012519099 0.011000996 -0.04581873 0.010173552 -0.021108365 0.0066512665 0.055704635
-0.1131831 -0.045154277 -0.12639907 0.024312168 -0.014810125 0.03658445 0.07387592 0.03996922
0.01384716 0.030992022 -0.12814613 0.09844387 -0.041613817 0.057116985 0.046500117 -0.021597555
-0.046158116 0.055100065 0.020991983 0.019596178 -0.09568725 -0.12730388 -0.028887536 0.05213042
-0.03547345 -0.020419938 0.013811618 -0.0118933655 -0.12295346 -0.021607127 0.041811828 0.019986503
0.020426515 -0.12303683 0.07986571 -0.08298843 0.0015274057 0.02327056 0.09992501 -0.014305857
0.034449335 0.09308557 -0.1590771 0.034491267 0.048237417 0.025952952 -0.0124783795 -0.017695053
-0.21294057 0.053321805 -0.20204087 0.11761079 0.029586839 -0.13946973 0.038468175 0.05828718
-0.0419333 -0.026296576 0.006949073 -0.21133526 0.026480727 -0.018473022 0.008773692 0.112396725
-0.009789494 0.0766474 0.0012055563 -0.011243315 0.010822938 0.03353158 -0.05083329 0.12969995
0.09371646 -0.07571816 0.046865404 0.035552796 0.05130412 0.096532375 -0.020688346 -0.015324064
-0.03357141 0.07086671 0.06695615 0.09524961 -0.19620156 0.014001687 0.022927573 -0.211928
-0.189334 0.0019312497 -0.20775625 0.035251033 -0.19451179 0.03043614 0.097556084 -0.070383064
0.0400301 0.03862171 0.05455412 -0.0702399 0.026032947 0.047610506 0.09199703 -0.031995237
-0.048404735 -0.045263015 0.026030917 0.0672551 0.04493714 0.10764581 -0.0022051798 -0.18319309
0.028453683 -0.107031636 -0.096611485 0.029132888 -0.032437507 -0.072312936 0.004779706 0.11320195
-0.194551 0.015936283 0.011015192 -0.21020769 0.025847698 0.010328453 -0.2163911 -0.07362911

action_model._discrete_distribution.branches.0.weight f4 [4, 256]
00000000: a3bb 13bd 297a 35bc 37b3 353c b44c a63b
00000010: ddea 8a3b eaf7 0b3d 6e95 833b 3375 9abc
00000020: e49f ef3c 9927 97bc d240 0ebd d761 f338
00000030: 9ed2 1cbd 1972 f73c b618 a3bc 8453 573b
00000040: 2462 553c 1f7b b13d 2645 adbb cbb3 243d
00000050: 56b1 383d edab 11bc 6b96 7eba e7ed 443d
00000060: 357d 303c da0a a1bb b114 21bd 9a64 2cbc
00000070: ca5d 0d3c 5023 723d af64 973c aeed b3bc
00000080: d5e4 64bc 2e65 e83c 4e1d 843c 48ae 5bbc
00000090: d676 103d f588 b53b a355 a7bc 4fe2 c83d
000000a0: 08f1 a93c aa15 a1bc 4099 66bb 6ee3 8abb
000000b0: 3ddf 81bc 5ba0 ad3d 0466 2dbc 3ca0 eebc
000000c0: c5ae 27ba aeef efbc 33f7 2a3d 9a6f 503c
000000d0: 1e4d e43d b550 483d 80df be3d 2583 5ebd
000000e0: f893 4a3d f743 393c 8032 c6bc a39c 9abc
000000f0: e168 3f3b 46e3 01bd 610c 8ebc 0828 81bc
00000100: 28cb 13bd 3f9a 20bd bead edbc 0612 0c3d
00000110: 00fe 963c 7bb0 953c fab9 9e3d fb96 a8bc
00000120: 0ed4 82bc 6fb8 733d ab0c 453d 035d 913c
00000130: 9ccb 52bc 06f4 40bc 0d2d bbbb 5bb3 9fbc
00000140: c4cb 91bb 63f8 85bb ff81 983c bc1b c93c
00000150: 803a 12bd 4446 57bd cb73 74bc b833 b53d
00000160: e45b 9c3c c216 0fbd cd11 e33c ca42 2dbd
00000170: 6368 e33c 8061 2abc 2911 a13b 15f8 89bc
00000180: c2dc 5c3b d9ac 7bba 6d4a d83b 7a24 19bc
00000190: 9ebb bebc 4c9c 943b abca f33b c626 c93c
000001a0: 1812 11bd 8001 c03d 1059 c3bc ee08 aebc
000001b0: 6583 10bc bf26 1dbc 1f01 f73b 6fa9 053c
000001c0: 3505 093d b13b 0ebc 34e8 91bb 81b4 933c
000001d0: f846 1cbc 94a9 eabc 3ca7 4b3d f5f8 993c
000001e0: e8a2 93bc 8056 26bb 941f 03bc 44b4 063c
000001f0: d01a f8bb 38f1 e83b c1c8 8e3c 7047 fdbc
00000200: f569 303d 6f88 ceba e60f f93c 8806 8f38
00000210: 7560 81bc 0b8f edbb 115f 8cbc 661d 16bd
00000220: 392e b6bb 98e5 01bc 088f 2c3d f626 10bd
00000230: a457 d3bb 0e23 44bb 1190 f3bc f8d3 923c
00000240: 88e4 acbb e02c a73b 341c 14bb cc5a 04bd
00000250: ccac 493d ed91 813d a621 acbb 7217 94bc
00000260: c474 103c faee 583c d66d f73b c56b 61bc
00000270: e775 083d 1368 2c3d 30e1 473b bfc4 79bc
00000280: 8916 31bc 8d71 123d 3fc9 b8bc e646 c73c
00000290: 4415 12bc ec21 05bd bad8 cfbc 6da5 1d3c
000002a0: b7ae 7b3b 4999 eabc 2619 b43d 72d2 7b3b
000002b0: 918b 763b 2630 d33b 94ca 55bc 6e68 a93c
000002c0: f9a3 aa3d fdd4 80bc 85df ac3d da04 05bd
000002d0: 6a20 b9bc 561d 803d e244 873a 9da7 31bc
000002e0: 5e59 06bc 227a 953c aab8 47bc 125e 9e3d
000002f0: 9039 5bbc 63cb e03b a533 f43b 101c 19bd
00000300: 252b 3cba e393 b5bc 2f8a 1bbc 9c51 06bc
00000310: c28b dbbb 32e6 ce3c e113 913c 09fd 11bd
00000320: bfab 82bd 2dd1 103d eee4 cebc 224f 9bbb
00000330: e8a1 343c 1d8f b4bc fd73 fcbb 37eb fa3b
00000340: ba3c 2b3c bb0f 2cbd a3e8 c9bc 0135 863c
00000350: c2e9 b63d 23d4 35bc 495e f43c e34f a83d
00000360: 6d5a c43d edf3 403c dce2 6c3d 49f1 90bc
00000370: 6e7c 8e3d b5e7 cf3b 8e3b 01bd 79c2 843c
00000380: 3798 23bd 0442 833c 795c 28bb 72b1 1e3c
00000390: 9592 67bc 6cd6 013d 2c0c b8bc 54d0 c23b
000003a0: 3477 bd3b 0a64 fbbb 6c18 d63c 94dc 02bd
000003b0: 89ea d3bc f3cd 08bd e603 05bd c706 a53d
000003c0: 7d7f ecbb 8f90 173d ce4a 133d b3d4 4bbc
000003d0: cb43 d5bc cbb7 803c 5fa0 d03b bdf7 59bc
000003e0: 6f19 a13d 199e 8fbb efd6 2bbb ab40 ac3d
000003f0: 01ea f03b c998 bf3c 8e83 983d 6501 c13c
-0.036067616 -0.0110764885 0.011090091 0.0050750617 0.0042394237 0.034171976 0.004015616 -0.018854713
0.029251046 -0.018451499 -0.034729786 0.00011605367 -0.038286798 0.030205773 -0.019909244 0.0032856176
0.013023887 0.086660616 -0.005287784 0.040210526 0.045090996 -0.008891088 -0.0009711745 0.048078444
0.010772039 -0.0049146237 -0.039326373 -0.010522032 0.008628318 0.059115708 0.018480627 -0.02196392
-0.013970573 0.028368559 0.016127255 -0.013408251 0.03526958 0.005540008 -0.020426577 0.0980879
0.020744815 -0.01966365 -0.003518656 -0.0042385375 -0.015853519 0.08477851 -0.010583404 -0.02912914
-0.0006396587 -0.029289093 0.041739654 0.01272192 0.111475214 0.048905093 0.09319973 -0.054324288
0.04945752 0.011307708 -0.024194002 -0.018873518 0.00292068 -0.031710885 -0.017339887 -0.015766159
-0.036082417 -0.0392096 -0.02901351 0.034196876 0.018431664 0.018272629 0.07750316 -0.020579806
-0.015970256 0.05950206 0.048107784 0.017744547 -0.012865927 -0.01177693 -0.0057121576 -0.019494703
-0.0044493396 -0.004088448 0.018616674 0.024549358 -0.03570032 -0.052557245 -0.014920185 0.08847755
0.019086786 -0.034933813 0.027718449 -0.042300023 0.027759736 -0.010399222 0.0049153757 -0.016841928
0.0033700918 -0.00096006464 0.006600669 -0.009347076 -0.023282822 0.0045352336 0.0074399314 0.024554621
-0.035417646 0.09375286 -0.02384618 -0.021244492 -0.008820389 -0.009591757 0.0075379754 0.008158072
0.03345223 -0.008681224 -0.0044527296 0.018030407 -0.009538405 -0.028645314 0.049720034 0.01879547
-0.018022016 -0.0025381148 -0.008003134 0.00822169 -0.0075715557 0.0071088336 0.017429711 -0.030917853
0.0430698 -0.0015757213 0.030403089 6.819988e-05 -0.015793065 -0.007249718 -0.017135175 -0.03664913
-0.0055597094 -0.007928275 0.042128593 -0.035193406 -0.0064496566 -0.002992812 -0.029731782 0.01792334
-0.0052762665 0.005101785 -0.0022599818 -0.032313153 0.049237058 0.06326661 -0.0052530346 -0.018077586
0.008816902 0.01324057 0.0075509353 -0.013758604 0.033315565 0.04209144 0.0030499212 -0.015244662
-0.010808595 0.03575282 -0.0225569 0.0243258 -0.008916203 -0.032503054 -0.025371898 0.00962196
0.0038403699 -0.028637545 0.08793859 0.0038424996 0.003761981 0.0064449487 -0.013048787 0.020679679
0.083320566 -0.01572656 0.084410705 -0.03247533 -0.022598464 0.062555954 0.0010320211 -0.010843185
-0.008200018 0.018246714 -0.012190023 0.07732786 -0.013380423 0.006860183 0.0074524456 -0.037380278
-0.000717806 -0.022165244 -0.009493395 -0.008198168 -0.00670001 0.02525625 0.017709674 -0.035641704
-0.06380414 0.035355736 -0.025255647 -0.004739658 0.01102493 -0.022040898 -0.0077042566 0.0076574343
0.01045149 -0.04200719 -0.024647063 0.016382696 0.089313045 -0.011097941 0.029830115 0.08218362
0.0958756 0.011776906 0.057833537 -0.017693179 0.06957327 0.0063447603 -0.031550936 0.016206013
-0.039940085 0.01602269 -0.0025689884 0.009685861 -0.014134069 0.03169863 -0.022466742 0.005945245
0.0057820324 -0.0076718377 0.026134692 -0.03194864 -0.025868671 -0.033399533 -0.03247442 0.08057933
-0.007217346 0.037003096 0.03596001 -0.012440848 -0.026033303 0.01571264 0.006366774 -0.013303694
0.07866179 -0.0043828604 -0.002622064 0.08410772 0.007352114 0.023388283 0.07446967 0.023560235

action_model._discrete_distribution.branches.0.bias f4 [4]
00000000: b5b0 a9bd e17a 253e 3c1f 66bd b65b 95bd
-0.08285657 0.16160156 -0.05618213 -0.07292883

action_model._discrete_distribution.branches.1.weight f4 [15, 256]
00000000: 81a4 3e3c cdf8 12bd 6eb2 b93b 8b6e 8dbd
00000010: dda9 333c f2de dbbc 2ee3 fd3c 09aa 4b3d
00000020: 9f87 51bc bff8 b23c 133c b33c fbb0 123c
00000030: 5bdc d9bc 55fa 03bd c546 56bd 0dff c23b
00000040: 5066 423b 15ce c33b 4d58 263c 9229 d1bc
00000050: e3b4 2bbb e048 313d 9642 cfbc 8157 613c
00000060: d232 91bd de8e 5c3d a777 37bc 3f5b ff3c
00000070: 9752 003d 98b0 95bd fd34 103d 5345 ee3c
00000080: e2f3 a53c 8e89 9c3c 8ce2 abbb 59ca 18bc
00000090: b29c 11bd c110 c93c d3cf 34bc 5fa2 f83c
000000a0: 2a86 05bd c7eb 123d 3f3e db3d 4b62 263d
000000b0: 650f 953c 4ca5 323c 7b22 86bb 243d cabc
000000c0: 11fa 09bc 96d7 cb3d 60da 0f3d d074 02bb
000000d0: 26f0 023c b7ba c8bb e7f4 003d 7d71 27bc
000000e0: 5e73 863c 7169 043d 70a9 923b da43 d9bd
000000f0: feba 6f3d c487 223d dd6d 723c 83de a33d
00000100: 9001 2d3d 112b 3d3b 7ee5 68bc d260 44bd
00000110: 4d7c d1b9 1c5e c33d 96f9 9e3c e4f8 48bd
00000120: 4c37 2cbc e063 35bd 4abf 9cbc f0f9 a13c
00000130: 2ed3 1b3c 6227 473c d630 20bc abf5 ab3c
00000140: 85e5 303d 88fc ff3c 91ab 5ebb 29ab 9b3c
00000150: c55d 1e3c 6f7a 40bc df0c 35bc f69f 9c3c
00000160: 9888 d7ba 1932 8ebb b8c0 cd3d 0d54 1a3d
00000170: 4c08 a03c 2342 fb3c cdc1 b238 6c91 743d
00000180: 72c4 0cbd 1c1a b9bc 5ab6 973c 688e 32bc
00000190: ead3 6e3d d0ca 163d 47f6 57bd 87ab 31bd
000001a0: 5ec2 dfba 2d01 9d3c f30c 0fbd 5b15 33bd
000001b0: a865 24bd 105f b0bc 8b58 183d 15c5 81bc
000001c0: c5cc 03bd 4492 3bbd 0fc9 3b3d 5ef3 fabc
000001d0: 9ae9 ffba 1e3b 6dbc d06b 493d a7d2 97bc
000001e0: b80c b33c a5da 663d d90d 00bd 78b8 13bd
000001f0: 9fc6 97bc 6b94 84bd 97d0 3fbc c073 d0bc
00000200: 40ee b2bb f51a 33bd 4c7a 8abc 0a6a 8a3d
00000210: 7cfe dabb 7495 06bd a188 53bd 583c 1bbd
00000220: 6334 09bc 7964 c5bb 3636 74bb 722d 9cba
00000230: 8cda 2fbd b80c 923d cd3b 17bd f7f0 463d
00000240: 9b70 ef3c 1094 283d 7947 52bd b34d b8bd
00000250: 938f 9a3d 7dde 533a 6f81 23bd b629 acb9
00000260: 3385 d03d 3610 d33c 4d71 d93c 4996 88bd
00000270: 10ee 8bbc fca7 993d 3fa6 263d 1d43 a7bc
00000280: 1d33 313b 34c9 2bbd fa1e 5dbc a3fe 34bd
00000290: 4d7d a03b 8976 2ebc 6d65 4d3c 4708 b53b
000002a0: 88a9 843c 89d9 bb3b e779 8f3c c9d3 0b3d
000002b0: 7893 393d 5556 bd3b c213 363d ad37 34ba
000002c0: 5fb4 683b 1deb ef3b 23c7 9dba 8597 62bd
000002d0: 701b b73c b5c3 79bc 9f88 593d 8c0f 24bd
000002e0: 2f0c 04bd c8e4 7bbc 2bfd 093d 706a 5bbc
000002f0: 06e3 f2bb 1c69 9cbc 2101 9f3c 23db e7bc
00000300: cbf8 4b3d bd42 d3bc c926 163d 12c4 d13c
00000310: 6c56 45bc 4cc6 d23c 485e f03c 7992 8e3c
00000320: 8770 3a3c ace5 8b3c bd1c 15bd 096e 573c
00000330: b73d cbbc 5157 6f3c 4b24 92bd 00e2 40bd
00000340: 18f9 4f3b d7c7 e2ba eecb dd3c 959a 383d
00000350: 40e7 483c d4be 0a3c b7c8 603d 8bef 6fba
00000360: 0b6a a63c 6be9 3f3d 6a45 1abc 2ec1 4a3c
00000370: e89f d93b 854a 84bc 4f5a 643d 6fc7 553d
00000380: 5d4c 0cbd 3223 0fbd d63f 943b 6d99 b13c
00000390: 40df 97bd bd5a 213d d533 63bc ad01 833c
000003a0: b88d 92bd 1083 65bd 170d 07bd 3be8 133d
000003b0: 7fba 4abd e6bc 0aba 0afa 37bd 341c 75bc
000003c0: 3e15 1dbc 9ddc 263d d865 39bd a7e8 39bd
000003d0: 0601 9bbc 5b09 69bd 7025 23bd 6163 1c3d
000003e0: 378b aa3c 8da5 10bd afe7 fabb 60ef 273c
000003f0: 129c e73b 704d acbc 1733 5a3c 6adc 203d
0.0116359005 -0.035881806 0.0056670224 -0.0690585 0.0109657915 -0.026839707 0.030992117 0.049722705
-0.012788682 0.021847127 0.021879232 0.008953328 -0.026594331 -0.032221157 -0.052313585 0.0059508146
0.0029663034 0.0059754946 0.0101528885 -0.025532518 -0.0026200346 0.04328239 -0.025300305 0.013753773
-0.07089771 0.053847186 -0.011197961 0.03117144 0.031328764 -0.07309073 0.035206784 0.02908579
0.020257894 0.01910856 -0.0052455124 -0.009325587 -0.035549827 0.024544122 -0.011035877 0.030350862
-0.032598652 0.035869386 0.10705232 0.040621083 0.018195817 0.010903668 -0.004093466 -0.024687357
-0.008421437 0.09953229 0.035120368 -0.0019906051 0.007991826 -0.006125774 0.031483557 -0.010219929
0.016412433 0.03232712 0.004475765 -0.10608645 0.05852794 0.039680257 0.014796701 0.08001425
0.04223782 0.002886478 -0.014214871 -0.047943898 -0.00039956198 0.09539434 0.019406121 -0.049065486
-0.010511231 -0.0442847 -0.019134182 0.0197725 0.009510798 0.012155386 -0.009777268 0.020991167
0.043187637 0.031248346 -0.0033976773 0.019002514 0.009665911 -0.01174794 -0.011050432 0.019119244
-0.0016443906 -0.004339468 0.10046524 0.037677813 0.019535206 0.030671185 8.5237996e-05 0.059708998
-0.034367032 -0.022595458 0.01851957 -0.01089821 0.058307566 0.03681451 -0.052725103 -0.04337647
-0.0017071476 0.0191656 -0.03492446 -0.043721538 -0.04013601 -0.021529704 0.037193816 -0.015841046
-0.032177705 -0.045793787 0.04584604 -0.030633625 -0.0019524575 -0.014479427 0.049175084 -0.018533064
0.02185665 0.05636086 -0.031263206 -0.036064595 -0.018527327 -0.06473621 -0.011707447 -0.025445819
-0.0054605305 -0.04372688 -0.016904019 0.067585066 -0.006683169 -0.032857373 -0.05164397 -0.037899345
-0.008374306 -0.00602394 -0.0037263758 -0.0011915399 -0.042933032 0.07131332 -0.036922265 0.048569646
0.0292285 0.04115683 -0.051337693 -0.08999195 0.07546916 0.00080821646 -0.03991836 -0.00032837474
0.10181656 0.025764566 0.026543284 -0.066692896 -0.01708129 0.075027436 0.04068589 -0.020417744
0.0027038523 -0.04193993 -0.013496155 -0.044188153 0.0048977495 -0.010648378 0.012536389 0.0055246684
0.01619412 0.0057327193 0.017514182 0.03413752 0.045306653 0.005778114 0.044452436 -0.00068747514
0.00355079 0.007321729 -0.0012037497 -0.05532028 0.02235195 -0.015244414 0.053108808 -0.04005389
-0.03223818 -0.01537437 0.033688705 -0.013392076 -0.007412317 -0.019093089 0.019409718 -0.028302735
0.049797814 -0.02578866 0.036658082 0.025606189 -0.01204453 0.025729321 0.029341832 0.017403828
0.011379368 0.01707729 -0.03640436 0.013148793 -0.024809701 0.01460822 -0.071358286 -0.04709053
0.0031734165 -0.0017301989 0.02707478 0.045069296 0.012262166 0.0084683485 0.054878917 -0.0009152821
0.020314237 0.046853464 -0.009415964 0.012375159 0.0066413768 -0.016148815 0.055750187 0.052192148
-0.034252513 -0.034945674 0.0045242114 0.021679604 -0.074156284 0.039393175 -0.013867338 0.01599201
-0.07155937 -0.056033194 -0.032971468 0.036110144 -0.049494263 -0.000529243 -0.04491619 -0.014960337
-0.009587584 0.040737737 -0.04526314 -0.04538789 -0.018921386 -0.056893688 -0.039830625 0.038180713
0.020818336 -0.03531413 -0.0076570134 0.010249943 0.0070681656 -0.021033019 0.013317845 0.039272703

action_model._discrete_distribution.branches.1.bias f4 [15]
00000000: bdae 22bc fc32 8a3c dec1 da3c fa01 83b9
00000010: 9a83 94bb 38b7 1dbc fe8c 293b e381 b63b
00000020: e672 5a3b 1651 6dbb 9e15 c4bb 7667 e6bc
00000030: 0d48 803a c8e3 af3c f68f 12bc
-0.009929356 0.016870014 0.026703771 -0.0002498774 -0.0045322897 -0.009626202 0.0025871391 0.005569683
0.0033332645 -0.003621166 -0.0059840223 -0.028125506 0.0009787098 0.02147092 -0.008945456

action_model._discrete_distribution.branches.2.weight f4 [15, 256]
00000000: b30e 1c3d 9a90 813c 60a4 1c3b 88a0 fb3c
00000010: 0a4d 8038 c624 5cbc bb54 e43c 109f fc3c
00000020: e42f 0f3c 3e85 e0bb d13e 133d 7688 8ebc
00000030: a52a fbbc ba76 433c 9225 df3c ce38 06bd
00000040: f0c8 bfbd 814d d6bc 37c8 d6bc a415 b4bc
00000050: b52d 8c3c 5829 a4bb d6e7 0bbd 6543 c83c
00000060: 787b 123d 844e 283c 76e8 833c 8c9b 133d
00000070: a4f8 14bb 5299 a23b 6ece 44bb 17bc b73c
00000080: e69a 04bd ad7c 613b 48de c8bc ff86 96bc
00000090: 52ae 49bd 8b32 8f3c fbe5 9d3c 151f edbc
000000a0: 7839 f8bb 230c f0bc ccaa 82bc 179b 9dbc
000000b0: 527c 8fbc 5840 f5bc 39ab debc 6e84 033d
000000c0: 6bbc ea3a 8797 d23c 5170 e6b9 7b78 85bc
000000d0: 1fc4 a0bc 61f7 153d c533 fbbc ca75 23bc
000000e0: 9266 2f3b 6df3 64bc f81c e23b 1149 063d
000000f0: caf3 8cba 6774 893b 5ad0 2c3c 1fb6 2b3d
00000100: f446 0f3d 802b 3abb e6a8 7bbc 9d0c 793c
00000110: 26e9 0fbd 6223 073d ae03 c9bc 4e45 083c
00000120: d2ce 72bc a59e c33b 2706 7a3d 31f7 223d
00000130: 2e2e 02bd 1821 40bc efa0 123d 4888 14bd
00000140: a5fb 01bd f65c 43bd c165 a2bc 198d 4d3c
00000150: f91a 3bbc 8778 4cbd e497 97bc ce69 11bd
00000160: e444 72bb 2c2a 4bba 89f1 12bc 2730 1fbc
00000170: c904 6d3c 94c9 c63a b971 60bc 45b1 683c
00000180: a039 8b3b d575 3cbc a3df d0bc a9c8 9cbc
00000190: cf63 55bc 2262 e0bc 8677 4cbd a636 c4ba
000001a0: 777b 40bd c0a0 e6bc 68b9 9b3b fd86 dfbc
000001b0: 777d db3c 70e9 3dbc 8391 f33b 276a 2e3d
000001c0: 2b75 2fbc f57f ff3c 3b83 34bc b8f7 6fbd
000001d0: daf8 b2bc 354a f6bb 369c b93c 930e 393d
000001e0: be19 a03c 7fa4 abbc 2d67 0a3c c05e c43c
000001f0: d6ed 533b 612c 263c 622c ec3b d179 2a3c
00000200: a620 34bd 0b31 f53b a23f 22bd a178 7abd
00000210: 1f01 8bbc eda5 6bbd 8f7a 47bd 41ec 26bc
00000220: 1e28 673b 2b77 e73b ace8 e6b9 4855 aebc
00000230: 318e 503d 9d9c 5b3c 0f56 353b 27f3 c03c
00000240: 2a4a 9ebc 14e2 b2b9 b74a 3b3d a0db 8f3c
00000250: 648b d3bc 2137 703b 9b6f 843c adfc bfbb
00000260: 2056 033d 189a 70bd e967 1d3d 6c6a adbb
00000270: b47c ecbb 05eb 2ebd 033e c63c ab85 b8bb
00000280: c25f dbbc 75b8 2ebd 2353 bf3c d1dc 3abd
00000290: 20e6 0dbc e49b 88bc dab5 313c e2c6 99bd
000002a0: d08a 32bc 0be9 f9bc 9d61 8ebb 598c fb3b
000002b0: f5da 1cbb 0baf 04bd de0b 30bd c0fc 583d
000002c0: 2db7 10bd 583b 91bc f92a 0fbc a6c9 183d
000002d0: d28f 39bd 7d64 173b eab3 003c 0e44 3bbc
000002e0: 6f6f 0e3d fe53 e8bb 7347 11bc 4fd2 b0bc
000002f0: f501 b1bc 7911 15bd 6dc7 233d 8a9d abbb
00000300: ff03 a3bb 16cf 8fbc 1a61 23bd 3925 53bc
00000310: 0cc6 84bc 514a 133d 8601 473c fc57 343b
00000320: 3b1c 91bc f0d6 48bd c898 0c3d cbe0 203c
00000330: 970c d93b d628 f83c d7d0 a13c ab70 abbc
00000340: 0e76 073d 40c2 a53c b267 74b9 173e dfbc
00000350: 5a94 0bbd 6a88 323c 4357 a63c 6b40 fdbc
00000360: ad3e a0bc 750a 0dbd ded7 edbc ba77 df3c
00000370: 5865 0bbd 5fa8 943b 1d1e bcbc 6ad7 a73c
00000380: 577b 84bb 1c9d fabc 3d80 6cbc 078e bebc
00000390: e7b8 01bd 2166 4d3c 3ca2 02bc c06a c8bc
000003a0: c70b e23c 28c5 7d3c b637 6c3c 999d 25bd
000003b0: fd61 c73c d90b ea3c 8d87 0abc 99e4 25bc
000003c0: 8c20 c23b 1b52 c73a f37a 183c 3079 0ebc
000003d0: 232e f53a 703b 87bc 9492 333d bc15 2a3b
000003e0: 01dd 8ebc b8ad d23b ad6a 95bd 4744 e0bc
000003f0: 213f 35bd 2064 d2ba 469d 01bd 29d3 de3c
0.038099956 0.015816022 0.0023901686 0.030716196 6.117865e-05 -0.013436502 0.027872434 0.030837566
0.008739445 -0.006851821 0.03594858 -0.017399054 -0.030659983 0.011930162 0.027239595 -0.032769017
-0.09364498 -0.026160004 -0.026218517 -0.021982975 0.017111639 -0.0050098114 -0.034156643 0.024446199
0.03576228 0.010272626 0.016102057 0.036037013 -0.002273121 0.004962125 -0.0030030268 0.022428555
-0.032374285 0.0034406588 -0.024520054 -0.018374918 -0.04923851 0.017480155 0.019274702 -0.028945485
-0.00757521 -0.029302662 -0.015950583 -0.019238992 -0.017515335 -0.029937908 -0.027181255 0.032108717
0.0017908936 0.02570702 -0.000439527 -0.016292801 -0.019624768 0.036612872 -0.030664334 -0.009976814
0.0026764018 -0.013974053 0.006900426 0.032784525 -0.0010753807 0.0041947844 0.010547722 0.04192173
0.034979776 -0.0028407276 -0.015360093 0.015200761 -0.035134457 0.032992728 -0.024537887 0.008317305
-0.014819818 0.0059698396 0.061041024 0.03978652 -0.03178232 -0.01172664 0.03579801 -0.03626278
-0.031734128 -0.047696076 -0.01982391 0.012545847 -0.011420005 -0.04991963 -0.018505044 -0.035501294
-0.0036967332 -0.00077501195 -0.008968719 -0.00971607 0.014466473 0.0015166276 -0.013698989 0.014202421
0.004248813 -0.011502703 -0.025497263 -0.019138651 -0.0130242845 -0.027390543 -0.049918674 -0.00149699
-0.046992745 -0.028152823 0.0047523268 -0.027286047 0.026793225 -0.0115913 0.007433118 0.042581704
-0.010709087 0.031188944 -0.011017616 -0.058585852 -0.021847177 -0.0075161704 0.022657495 0.045179915
0.019543525 -0.020952461 0.008447451 0.023970962 0.0032337806 0.010142417 0.0072074393 0.01040502
-0.04397645 0.007482653 -0.039611466 -0.061150197 -0.016968308 -0.057531286 -0.048700865 -0.010188163
0.0035271714 0.0070637665 -0.00044042373 -0.0212809 0.050916854 0.013404039 0.0027669703 0.023553444
-0.019322474 -0.00034119247 0.04572555 0.01756078 -0.025823303 0.0036653953 0.016166499 -0.0058589787
0.032064557 -0.058740705 0.038429175 -0.0052922275 -0.007217014 -0.0427046 0.024199491 -0.005631169
-0.02677906 -0.04265638 0.023355072 -0.045620743 -0.008660823 -0.016675897 0.010846579 -0.07508637
-0.010897353 -0.030506631 -0.0043451325 0.007676643 -0.002393422 -0.032393496 -0.042980067 0.052975416
-0.03533094 -0.017728493 -0.008738273 0.037301682 -0.045303173 0.0023100667 0.007855395 -0.0114298
0.03477424 -0.007090091 -0.0088671325 -0.021584658 -0.021607378 -0.036393616 0.03998511 -0.005237286
-0.0049748416 -0.017554801 -0.039887525 -0.012887293 -0.016207717 0.035959546 0.012146359 0.0027518263
-0.017713657 -0.049033105 0.03432539 0.00981922 0.0066238153 0.03029291 0.019752903 -0.020927748
0.03307157 0.020234227 -0.00023308283 -0.027251286 -0.034077026 0.010896781 0.020305282 -0.030914506
-0.019561136 -0.0344338 -0.029033598 0.02727877 -0.034032196 0.004536673 -0.022963578 0.02048846
-0.0040430236 -0.030592494 -0.014434871 -0.023261083 -0.031670477 0.012536556 -0.00797325 -0.024464965
0.027593507 0.0154889 0.014417579 -0.0404335 0.024338717 0.028570103 -0.008455169 -0.010125303
0.00592429 0.0015206964 0.009306657 -0.008695886 0.0018705766 -0.016507834 0.04384096 0.0025952896
-0.017439367 0.0064294003 -0.072957374 -0.027376307 -0.044249658 -0.0016051568 -0.03164413 0.027200298

action_model._discrete_distribution.branches.2.bias f4 [15]
00000000: 3234 413c 1e67 e83c 9577 1d3c 557d 1c3b
00000010: 0ad8 19bc 6faa a03b b880 31bb 2e36 993a
00000020: 62c7 39bc f647 2dbb a9ef 4abc 58c9 883b
00000030: f9b2 22bc 3d92 cdba 4327 0b3c
0.0117922295 0.028369483 0.00961103 0.0023878415 -0.009389887 0.00490313 -0.002708478 0.001168912
-0.0113390405 -0.0026440597 -0.012386241 0.0041743927 -0.009930366 -0.0015683841 0.008493247
