results/AgentRankingsAndAcceptedRankingsNameOnlyChecked/AgentBehavior/AgentBehavior-1499988.onnx (onnx, 333671 bytes, 11 tensors)

discrete_act_size_vector f4 [1, 3]
00000000: 0000 8040 0000 7041 0000 7041
4.0 15.0 15.0

network_body._body_endoder.seq_layers.0.weight f4 [256, 30]
00000000: 9158 403e 12ca 9cbe 9f9e 4abc dc6b 9a3d
00000010: 9753 833d 8dbd 9e3d 169b 943e e15a bdbd
00000020: af55 a5bc 6fba 753e d92b b53d d704 0cbd
00000030: b411 a43e 97dc eb3d 6b5c 1f3e 1001 9d3e
00000040: a1ac 60bc 6bdd 0dbc 676c 283e be21 8ebd
00000050: 9447 823e 6703 dbbd bd39 6e3e f1d0 f03c
00000060: 5d3d 4b3e c2d2 03be fb3b 1ebd 9297 17be
00000070: 04f1 813e 1a19 21be 38a2 86bd 0cc6 fcbc
00000080: 0fc1 3b3e dd44 31be e981 543e 1c08 553c
00000090: 4125 4e3d 7c0d 36be 0692 a3bd 340f b03d
000000a0: 6b47 87be 41b7 c8bd 4239 993d ca4f 743e
000000b0: 2482 4fbe 13da a93d ac22 bbbc 0f96 bc3e
000000c0: 3fa9 5e3d 9017 4c3e 7b53 99be 0b47 983e
000000d0: c982 64be 4a78 523e 3c2c 3dbe 42ec 5cbe
000000e0: ff36 343e 9e51 80be f80c f9bd 7a57 a73d
000000f0: f09a abbd daaf 01be 2aa7 62be ffe1 b5be
00000100: 59d0 a13d 6ad9 53ba 8928 183e df4a d13e
00000110: b438 18bd 9581 dbbc 4df3 a73e 0f03 ff3c
00000120: 7ebf 6dbd 8fd7 3f3d 225b 02bf a1a3 1b3d
00000130: d110 103e c1ad 13be 7ccf 663e 9c1f 293e
00000140: 180c df3d 60a0 11be 3e6b 06be 91d7 b13c
00000150: 3498 ad3e e718 aa3d 635e b33c 9b7f afbd
00000160: 973d 5f3d a07b 91be 90e3 b5bd 541d 4d3e
00000170: 7d85 2a3e d729 c8bc ca98 cfbc 098e 573d
00000180: e1dd 11be 683b 39be d1dc 303e 7f5a 173d
00000190: 81bb 2ebe 4997 553e 9731 5dbe c45b 36be
000001a0: 15ba 8c3e 895d 3b3d f1b8 d53b 06a9 d63e
000001b0: 37f3 803e 4c58 893e a759 c73d 36bb a4be
000001c0: 7d0b 1c3d f752 22bd 221d 943d 472a 393e
000001d0: b1f5 a1be c00a b3bd c029 d93b 0c46 7e3e
000001e0: 26f9 cdbd 799b 813d 2225 e43d cb6c a83e
000001f0: 4313 df3b 602d 813e cd20 f4bc 839b 583e
00000200: 8da8 eb3d 4ba3 e6bc 84ed cabd 9f0c a43d
00000210: 5613 9cbe 8220 34bd f00e acbd 64da c03d
00000220: 8542 22be a5c5 eb3e 5a92 a1bd d675 0cbe
00000230: b902 253c 2450 b1be 9edb 883a 7796 7d3e
00000240: 43b8 803c 7596 023d 2031 b83d 8fef b5be
00000250: f417 f7bd 93c9 a0bd fbed 1a3e 317a 2cbd
00000260: 6842 303e 2c9b 41be 96d6 d33c 9dca b0bd
00000270: da60 34be 537f 2cbe 376f cb3c c282 67be
00000280: 9382 f73b ec02 98bd d253 433d 36d5 a3be
00000290: d86b febd 71e4 cd3d 08b9 cebd 053f 323e
000002a0: e840 11be 6012 0f3e 4255 c6bd 0408 ef3c
000002b0: efff c5be 9ad4 873d 1e26 a43c 9bdd 91bc
000002c0: fc2d 9e3e c539 4c3e cfef 0ebd 73c2 93be
000002d0: 5109 d23d 23e1 c43d 83dc e2bd c9e9 f2bd
000002e0: 7043 69be 4642 92be 4a03 8a3e 8d13 6d3d
000002f0: db4a a33d 008e babe c99b f1bd 1115 47bd
00000300: 6f33 d9bd b2da f7bd dfb1 b6bd fa96 103e
00000310: 3626 94bd 0eb0 de3d c5ab 563e 61fd babd
00000320: 5f1a 95bd 8dc6 5a3e ef82 c73c 035b edbd
00000330: 3eaa 1b3f 983e f83d 790f 4b3e 44a9 303e
00000340: f568 8f3e 9bd0 1dbe 3f26 ab3d 970f 56bd
00000350: aac3 b73d 0d78 1a3e 9187 00be 8995 c33d
00000360: f768 debd 4a03 bd3c 7713 b93d 85e8 d03d
00000370: c906 263e a7b2 a2bd b6d5 8ebe 6345 7abd
00000380: a4bb f13e 18e3 8f3e 4945 b5bd 699d 9dbd
00000390: 2326 78bb 365a eabd fa24 873d 6fde 383a
000003a0: 323c b53d 1861 cf3d 363c d7bc 945f 163f
000003b0: dbbc b6be 0643 5b3d f4a6 0e3e 12e8 63bd
000003c0: 5efb 9b3e a322 5a3e 6dad 43bc 65c2 803e
000003d0: 5e40 4b3e 4faa 21bd 3eeb 8e3e 1872 c73c
000003e0: 08d8 70be e3b3 10bd e406 e7bd 5cb0 8d3e
000003f0: d017 fe3d e540 793e 7f4d 57bd a691 bf3d
0.18783785 -0.30622917 -0.01236692 0.07540104 0.06412428 0.07750998 0.2902457 -0.092458494
-0.020182459 0.239969 0.08846254 -0.034184303 0.32044756 0.115166835 0.15562598 0.30664873
-0.013713033 -0.008658747 0.16447602 -0.069400296 0.25445235 -0.10694008 0.23264213 0.029396506
0.19847627 -0.12873366 -0.03863142 -0.14803913 0.25379193 -0.15732232 -0.065739095 -0.030856155
0.18335365 -0.17311426 0.20752682 0.013002422 0.050328497 -0.17778581 -0.07986836 0.0859665
-0.26421675 -0.09800578 0.07481624 0.23858562 -0.20264488 0.082935475 -0.022843681 0.36833236
0.054360624 0.19930863 -0.29946503 0.297417 -0.22315516 0.20553699 -0.18473905 -0.215745
0.17599104 -0.2506227 -0.12160677 0.08170982 -0.08379161 -0.12664738 -0.2213408 -0.35523984
0.07901067 -0.00080814085 0.14859213 0.40877435 -0.03716345 -0.026795188 0.3280281 0.031129388
-0.05804395 0.046836432 -0.5092031 0.037997846 0.14068915 -0.1442175 0.22540087 0.16515964
0.108909786 -0.14221334 -0.13126847 0.021709235 0.33905184 0.08305531 0.021895593 -0.08569261
0.054502096 -0.2841463 -0.08881295 0.20030719 0.16652484 -0.024434013 -0.02534141 0.05262569
-0.14244796 -0.18089068 0.17271735 0.03695154 -0.17063715 0.20858492 -0.21600948 -0.17808443
0.2748572 0.0457435 0.006522291 0.4192583 0.25185558 0.26825178 0.09733897 -0.3217408
0.038096894 -0.039629903 0.07232119 0.18082534 -0.3163276 -0.08742285 0.0066272914 0.24831408
-0.10057287 0.06328482 0.11139895 0.32895502 0.006807716 0.2522993 -0.029800797 0.21153073
0.11506758 -0.028154036 -0.09908584 0.0801022 -0.30483502 -0.043976314 -0.084012866 0.09416655
-0.15845688 0.46049228 -0.078892425 -0.13716826 0.01007145 -0.34631455 0.0010441428 0.24764429
0.015712863 0.03188177 0.08993745 -0.3553433 -0.120651156 -0.07850947 0.15129845 -0.04210872
0.17212832 -0.1890685 0.025859158 -0.086323954 -0.17615071 -0.16845445 0.024833305 -0.22608474
0.0075534075 -0.07422432 0.04768736 -0.31998605 -0.12422913 0.10053337 -0.10093886 0.17406853
-0.14184916 0.13971853 -0.096842304 0.029178627 -0.38671824 0.066323474 0.020037707 -0.017805865
0.30894458 0.19943912 -0.034896668 -0.2885929 0.10255683 0.09613254 -0.110772155 -0.11860997
-0.22779632 -0.28566188 0.26955634 0.057879973 0.07973262 -0.36436462 -0.11797292 -0.048604075
-0.10605513 -0.1210226 -0.08920645 0.14120093 -0.07233851 0.108734235 0.20963962 -0.091303594
-0.072804205 0.21364804 0.024354426 -0.11589625 0.60806644 0.12121314 0.19830121 0.1725207
0.28009763 -0.15411608 0.08356904 -0.05226096 0.08972867 0.15084858 -0.12551714 0.09550006
-0.10859864 0.023072857 0.09036916 0.102005996 0.16213526 -0.079442315 -0.27897424 -0.06110133
0.4721347 0.28102946 -0.08851106 -0.07696039 -0.0037864528 -0.114429876 0.065988496 0.0007052188
0.08849372 0.10125941 -0.026273828 0.5873959 -0.3569096 0.053530715 0.13930875 -0.05564124
0.30465215 0.21302275 -0.011943203 0.2514831 0.19848773 -0.03946906 0.2791385 0.024346396
-0.2351991 -0.035327803 -0.11280611 0.27673614 0.124068856 0.24341162 -0.05256414 0.09353952

network_body._body_endoder.seq_layers.0.bias f4 [256]
00000000: e72a dd3d da49 1f3e bf62 e2bc 9b15 3d3d
00000010: 38fb 563e 9db2 34be 63ef 20bd fe1d 79bc
00000020: 4a97 273d c86b c4bd b69e f1bd 2b7c d7bc
00000030: 20cf 0abd 57e0 20bd 9958 133e 3fb2 8cbe
00000040: 5eb4 093e 2ef6 4e3d 21f6 b9bd bef9 d9bd
00000050: 7dbf 353d e45b fb3b 1154 dd3d d17d 063e
00000060: 66e0 4d3e 6a98 553e ece0 2d3e 04f6 b6bd
00000070: 561e 9f3d ba7b d03d b4b7 643d 5c69 183e
00000080: cba9 353e 0672 d8bd ec6e 863d 2238 ffbb
00000090: 9d25 7bbd b4d7 bf3d 3c0a cbbd b634 a23d
000000a0: 9b26 43be d7a1 4e3e 8445 babd 7766 75be
000000b0: 991c ccbb 8f55 0d3e 624a 243e ccd9 5a3d
000000c0: 6afe 863c ffdd 16bd 5049 2c3e 269f fb3d
000000d0: 7df0 89bd 8821 3fbe 0922 2dbe 810e ebba
000000e0: 39a2 bebd 3eb9 223e 65fd 4e3e db30 143d
000000f0: ab7e 953d 5a17 05bc c149 b73c 62a9 e03d
00000100: 8a94 d93d 362e 953d 8330 4e3d 51bd 433e
00000110: f5b2 fd3c c3bf 2e3c 2ae3 b63d 0388 3fbe
00000120: 03b0 b23c 1ff3 0bbd c5fd c5bd d5ac 92bd
00000130: eb25 b1bd 9783 eebb ef42 1c3e 92a3 1b3c
00000140: b534 613e e8d3 1fbd 32cd ffbc 6ffa 023d
00000150: d940 3c3e 26fc 53bd db19 383e 0208 e5bc
00000160: 1e52 a63d 3744 6d3d c930 113d dbcb 0dbd
00000170: b56e d13d 25f2 3b3e 7fee 5e3d e15d 45bc
00000180: 6138 01bc 42a2 4ebe 2b1c f43c 1535 563d
00000190: 6992 563c 5478 af3d 3c39 26be 9a57 b63d
000001a0: 6fd4 783d 227b 213c 49f6 353e b2fd 463e
000001b0: 23a3 d93d 493b 163b 1fe2 243e 1645 923d
000001c0: 9a53 c73c 8c1e 993c 8747 103e 0eae 47bd
000001d0: edc8 34bd 97fc 083d 368f 2fbc 8b9c 0d3e
000001e0: 9b8f 053e e9a5 43bd 7df8 f23d 5c43 173e
000001f0: 5b3a bc3d f458 233d fb10 4fbd 6294 283e
00000200: 43b3 df3c 1dc7 ef3d de53 023e 0491 dc3c
00000210: f57c 323d 2391 453e d993 133e 215d 27be
00000220: 3f92 fd3d 5052 1a3b 284a 9c3d 6bf0 6fbc
00000230: 1e2c e13d 3877 f63c 721e c73d 72bb a2bd
00000240: 7bae 403e 78d4 133e 8a65 013d da5c e53d
00000250: c138 0e3e 66cb e03c 5d6b f73d 0ce6 2b3e
00000260: 8a1c 2f3e d99d b83d 8313 cf3c bbd3 5ebd
00000270: 5783 9a3d c1a1 4e3e 2875 3a3e 3bf1 84bb
00000280: 12ac a2bd 2c31 5a3d aacf 543e 77e5 b83d
00000290: e318 b33d 5118 b33d 0358 943d ed4b 483e
000002a0: 1325 613e 1a7b a73c 5c50 513d 8a82 2a3e
000002b0: a595 af3d 617f 5b3d dbc8 5cbb 6e86 ea3c
000002c0: 2446 033e 347f ac3d 1c51 c9bd c2cd 703d
000002d0: b0dc 0fbd 245f 593d 4fe0 663d b7b3 89bd
000002e0: 1e89 bb3d 8219 a03d 9315 0abd 778d c63d
000002f0: 454b 243c f3bd 9a3d c3c3 843e 4ca3 c33d
00000300: a3bd 333d 13ad 05bd 5d38 20be 4062 3dbb
00000310: 57d3 953d e727 e93d 236c a23c a7dd 56be
00000320: 9481 d7bd afe5 d33d 413c b93d 4add 353d
00000330: 9a67 803d 593f 083e f95d d13d 6015 9e3d
00000340: 4f0c f1bd d324 b83c 9403 553e abeb c23d
00000350: 5152 cb3d 0a93 1b3e aa13 3cbd 0163 37be
00000360: 5626 123e 666c 28be a743 313e 461d 793d
00000370: 5520 8ebc 6c7b a93d 11a5 94bd bf24 0cbc
00000380: 67cc 9a3d 7419 f03d e3ef 243e c452 4a3c
00000390: a2f5 b1bc 2d63 503e d274 21be 6b7f e4bd
000003a0: 63af 8d3d 38e4 0c3d 86d7 263d a6a9 bb3c
000003b0: f7f7 a1bd 4464 e7bd e966 5a3e c977 64be
000003c0: afcf ccbd bd8b 233e e6b7 21ba a641 b9bc
000003d0: f6ca d53d f9c2 f53d 6d25 d43d 0109 e13c
000003e0: c3d7 8abd 0196 8ebd 4817 d43d 98de f9bd
000003f0: 53b5 053d 777d 43be 7146 5cbe 0b25 4d3e
0.107991986 0.15555516 -0.027634976 0.046163183 0.2099427 -0.1764626 -0.039290797 -0.015204905
0.040915765 -0.0959087 -0.1179785 -0.026304325 -0.033888936 -0.039276447 0.14389266 -0.2747974
0.13447711 0.050527744 -0.090801485 -0.10643338 0.04437207 0.0076708663 0.1080705 0.13133933
0.20105132 0.20858923 0.16980332 -0.089336425 0.07769458 0.10179849 0.055839255 0.14883941
0.17740552 -0.10568623 0.065641254 -0.007788674 -0.061315168 0.09367314 -0.099140614 0.0792021
-0.19057696 0.20178925 -0.0909529 -0.23964868 -0.006228995 0.1380217 0.16044 0.053430364
0.016478736 -0.036832806 0.16824841 0.122862145 -0.067353226 -0.18665135 -0.16907515 -0.00179334
-0.09308285 0.15890977 0.2021385 0.036179405 0.072995506 -0.008123243 0.022374036 0.10969807
0.10624035 0.07284205 0.050339233 0.19115187 0.030969122 0.010665837 0.08930047 -0.18704228
0.021812445 -0.034167405 -0.09667543 -0.07161871 -0.086498104 -0.0072788703 0.15259908 0.009499447
0.21992762 -0.03902045 -0.031225774 0.031977113 0.18384112 -0.05175414 0.17978613 -0.02795792
0.08121131 0.057926383 0.035446916 -0.03461824 0.10226194 0.1835409 0.054426666 -0.012046308
-0.007886977 -0.20179084 0.029798588 0.052296717 0.01309643 0.08567873 -0.1623277 0.089034274
0.060749467 0.009856017 0.17769732 0.19432715 0.10626819 0.002292352 0.16101883 0.07142083
0.024331857 0.018691324 0.14089786 -0.048749976 -0.04413693 0.033444013 -0.0107152965 0.13829248
0.13043062 -0.047765646 0.11863802 0.1477179 0.09190818 0.039879754 -0.050553303 0.16462854
0.027307158 0.117079 0.12727305 0.026924618 0.0435762 0.19293647 0.14411868 -0.1634412
0.1238141 0.0023547597 0.07631332 -0.014644722 0.10994743 0.030086145 0.09722604 -0.079459086
0.18816559 0.14436519 0.031590976 0.11199351 0.13888837 0.027440738 0.12081025 0.16786975
0.1710073 0.09014482 0.025277859 -0.05440114 0.07544582 0.20178892 0.18208754 -0.004057077
-0.07942976 0.05326955 0.20782343 0.09028142 0.08744981 0.08744872 0.072433494 0.19560213
0.21986799 0.020444442 0.051102027 0.16651359 0.08573464 0.053588275 -0.0033689055 0.028628554
0.12819725 0.084226996 -0.098299235 0.058789976 -0.035122573 0.05306925 0.05636626 -0.06723731
0.091570124 0.07817365 -0.03371198 0.09694951 0.010027711 0.07555761 0.25930604 0.09552631
0.043882024 -0.03263576 -0.15646501 -0.0028897673 0.073157005 0.11384564 0.019826954 -0.20982991
-0.10522762 0.10346543 0.09044696 0.04440049 0.062697604 0.13305415 0.10223002 0.07718921
-0.11769926 0.022478497 0.20802146 0.09517606 0.0992781 0.1519281 -0.04591719 -0.1790886
0.14272436 -0.164476 0.17310964 0.060818933 -0.017349401 0.08275494 -0.072580464 -0.008553683
0.07558518 0.11723605 0.16107135 0.012348834 -0.021723572 0.20350333 -0.1576722 -0.111571155
0.06918218 0.034397334 0.040732883 0.022908043 -0.07908624 -0.11298421 0.2132832 -0.2231132
-0.1000055 0.15971275 -0.00061690656 -0.022614311 0.10439102 0.12000079 0.10358701 0.027470114
-0.067794345 -0.06962205 0.10356003 -0.122006595 0.032643627 -0.1909083 -0.21511246 0.20033662

network_body._body_endoder.seq_layers.2.weight f4 [256, 256]
00000000: 9771 44be f3b5 ff3c 5eb6 1fbc ab45 113d
00000010: ad8b 953c 99fb e13b 5162 50bd cc25 693d
00000020: 6779 183d 55eb b13c 1bc4 92bd d345 643c
00000030: db92 393d 2ae1 aa3c 707d e13d ac99 933d
00000040: c208 893d d06b 51bd 55de 82bc 7e1d cb3d
00000050: 8e8d 8c3d 428c 8b3d 258b f73d d7b9 243d
00000060: 2797 0fbe 84d6 e9bd c0e7 c8bd 9047 383e
00000070: 5dac 9bbd dd36 1a3d 063a be3b 56de 023e
00000080: bfab 8dbd a2e0 68bd 0b78 52bd bc90 2d3d
00000090: 1801 a9bc 99af 553c 9732 9c3b 77bd b33d
000000a0: 64d6 b1bd 55b9 3abd 9ba0 9ebc 230c 143c
000000b0: 1515 db3c 2865 96bb eeef eebd f28a b7bd
000000c0: eec6 9abd 103a 833d ad6f d3bd 25b3 833c
000000d0: e1eb 243d a6e2 c63d d0df 1cbd fc6e c7bd
000000e0: 8da2 243e b0eb 98bd fd15 75bc 1f0c 58bd
000000f0: a44d 10be 668e 2e3d b31c ec3c db56 8a3c
00000100: 09f9 1b3e 5ead f4bd 7da9 cbbd 0a8d 87bc
00000110: 5e5f ee3d dc32 0ebe dcee a1bd fd26 9abd
00000120: 6e20 353d d97a dc3c 6f8f 81bd e98d 153e
00000130: c923 c4bd 218d d0bc 7078 36bd 299d 77bd
00000140: e24c 62bd 660a c43d 38b3 573e 5118 723c
00000150: a408 cb3d 3113 903c aa36 c5bc 3e13 e83d
00000160: 47be 0abd 7be2 dd3c 39b4 5c3d 533d 0dbe
00000170: cecd 3a3d 924c 403c e6af a93d dfe8 4b3d
00000180: f88c 333d 202a ebbd fdbf 75bd f445 193e
00000190: a275 af3d db36 e9bd f139 123e 469f 553d
000001a0: 5445 6dbd dcdc 6fbc a796 0c3d c5e4 53be
000001b0: 3ff0 963b 77e3 f8bd 3a75 c9bd d8b4 093d
000001c0: 8ad3 273d 56ae e6bd b858 b2bd db7a c4bd
000001d0: 5701 1cbe fba5 e13b d6be 343d 726c 91bd
000001e0: ecc0 a9bd 6888 d53d 917d 90bd c4f5 0bbe
000001f0: c5db 1a3e 2d4e f73d 8f64 6bbd 7a3a 5d3d
00000200: ed21 60bc cbc9 85bd d6f2 bfbd 7c37 723d
00000210: a6dc 05bd 246a 97bd 172a 6dbd b499 80bd
00000220: 94ff c43c 4e7e 123e c9d7 40bd 5e1c 513d
00000230: e452 30bd b8b7 a13d 1ecf 0dbe 0322 623d
00000240: 0c23 73bd f638 7c3b 4b99 b2bd e9cb 0b3d
00000250: 3d94 273e 70a7 8dbc 9973 9bbc c635 f33d
00000260: 28a1 87bd 0433 c0bd 61d1 93bc 7c1b d0bd
00000270: 156c efbd 2670 1cbe dfd7 acbd 7d6f 133e
00000280: 7de0 2abc cde4 8abd 563f a1bd f7d9 6cbd
00000290: 8a82 09be 8349 e7bd 8044 aa3c faac f9bd
000002a0: a72f 58be 0dbe 95bd 2103 c8bd 55a5 b0bd
000002b0: 767b 3abb dce0 ebbd 9745 ff3d 15f7 f5bd
000002c0: b024 afbd d3f2 8d3d 0f5e 05bc 8828 07bd
000002d0: cc2e 263c 5d89 193e e238 823c c59a 113d
000002e0: 7238 cebc f103 cbbd 1b0e a7bd 5e4f b43d
000002f0: 3d78 283c 332e 90bd f656 03be e44d 43bc
00000300: fee9 093d 9f4d 0bbd b9b0 ebbc 85ac 93bd
00000310: 1ffa 2a3e 1b36 99bc d537 37bc 1427 c33c
00000320: 26aa e33d 1301 6abd 03af 963d de77 4ebd
00000330: 2b5f 503c 3118 c9bd 9413 f4bc bad8 bc3d
00000340: 6477 183e 0806 1b3d 9d99 cebd b4c5 febc
00000350: 72e5 25bd c132 a6bc b40b 7e3d ece6 21bd
00000360: 5426 ddbd 00fe a7bc 141e a13d b7bb 483d
00000370: 20f2 613c 074a e6bc 857a 813d 6568 a9bc
00000380: 1612 353e 322e b5bd 87a0 9bbd ff09 9d3b
00000390: 6a30 813b 012e 5bbd 1bdb 683c bdd4 b63c
000003a0: 5707 9d3d 5983 173d e48d b73c a55e d339
000003b0: 0b7a dc3c 14ab 5aba 48ca f23c 4ee0 de3d
000003c0: 0b77 8eba 7e58 e2bd 3f93 16bc e965 db3d
000003d0: 4377 bebd 930c f73c 9a6f b63c d554 03be
000003e0: 8e89 923d b32d 77bd 86b5 ba3d 616e 953c
000003f0: 33cb 653d ba00 e2bb 1e94 a53d 63e0 223c
-0.19183956 0.03121469 -0.00974807 0.03546683 0.01825508 0.006896448 -0.05087501 0.05692081
0.037225153 0.02171866 -0.071663104 0.013932663 0.045306068 0.02085932 0.110102534 0.07207045
0.066911235 -0.05112821 -0.015975157 0.099177346 0.06862937 0.068138614 0.120870866 0.040216293
-0.14022504 -0.11417869 -0.09809828 0.17996049 -0.07601235 0.037649978 0.005805257 0.12780127
-0.069175236 -0.05685485 -0.051384013 0.042374358 -0.020630404 0.013042354 0.004766773 0.08776372
-0.0868347 -0.045586903 -0.019363692 0.009036097 0.026743451 -0.0045896955 -0.11666857 -0.089620486
-0.07557474 0.06407559 -0.10324035 0.016076634 0.040264014 0.097111985 -0.03829938 -0.097379655
0.16077633 -0.07466829 -0.014958856 -0.052745935 -0.14092118 0.04261627 0.028822279 0.016887119
0.15231718 -0.1194713 -0.09944437 -0.016546745 0.116392836 -0.13886589 -0.07906887 -0.07526968
0.04422038 0.026914047 -0.06326186 0.14604916 -0.09577138 -0.02545792 -0.044548452 -0.060452614
-0.055249102 0.09572296 0.2106446 0.014776305 0.099137574 0.017587276 -0.024073917 0.11331795
-0.03387287 0.027085533 0.05388281 -0.13792925 0.045606427 0.011737006 0.08285503 0.04978263
0.04383561 -0.11482644 -0.059997547 0.14968091 0.085673586 -0.11387416 0.14279915 0.052153848
-0.057927445 -0.014640059 0.03432336 -0.20692737 0.0046062763 -0.121527605 -0.09836812 0.03361973
0.040973224 -0.11263721 -0.08708328 -0.09593745 -0.15234886 0.0068862415 0.044127308 -0.071007624
-0.0828875 0.10426408 -0.070552 -0.13667971 0.15122898 0.12075458 -0.057468947 0.054010846
-0.013679964 -0.065326296 -0.09372489 0.059134945 -0.03268113 -0.073932916 -0.057901468 -0.062793165
0.02404765 0.14305994 -0.04708079 0.051052444 -0.0430478 0.0789637 -0.1384854 0.055208217
-0.059359595 0.00384861 -0.087206446 0.03413001 0.16365142 -0.017291754 -0.01897602 0.11875491
-0.06622535 -0.093847305 -0.018044176 -0.10161492 -0.11690537 -0.15277156 -0.08439612 0.14397998
-0.010429499 -0.067819215 -0.078734085 -0.057825055 -0.13428703 -0.11293318 0.020784616 -0.12191196
-0.21111928 -0.0731164 -0.09766222 -0.086252846 -0.0028454936 -0.11517498 0.12464445 -0.12010018
-0.085519195 0.06931081 -0.008140101 -0.032997638 0.010142993 0.14993806 0.015896264 0.03554799
-0.0251734 -0.09912861 -0.08156987 0.088042006 0.010282573 -0.07040062 -0.12826142 -0.011920426
0.033670418 -0.034009572 -0.028770791 -0.0721064 0.16696976 -0.018702557 -0.011182745 0.023822345
0.111164376 -0.05712993 0.073575996 -0.050407283 0.012718002 -0.09819067 -0.029794492 0.09221025
0.14889294 0.03784755 -0.10087893 -0.031100132 -0.04050202 -0.020287873 0.06202288 -0.039526865
-0.10798326 -0.020506859 0.07867065 0.049007144 0.013790637 -0.02811147 0.06322197 -0.020679662
0.1768268 -0.08846702 -0.075989775 0.0047924514 0.003942539 -0.05351067 0.014212395 0.022318238
0.076674156 0.036990497 0.022406526 0.00040315572 0.026913663 -0.00083415327 0.02963747 0.108826265
-0.0010869218 -0.11052035 -0.00919038 0.10712797 -0.09300091 0.030157363 0.022270013 -0.1282533
0.07155143 -0.060346317 0.09116654 0.01824111 0.05610199 -0.0068970593 0.08084892 0.009941193

network_body._body_endoder.seq_layers.2.bias f4 [256]
00000000: 1a4e e9bd 05d2 873d 0b81 7bbd 85bf 403c
00000010: 84b9 b4bb aa32 513c a717 8e3c 4376 13be
00000020: 0b53 20bd 8fe2 21bd 1090 6abd d01d 0f3e
00000030: 716c 933d a3b5 dd3d 5057 19be cbfa 093e
00000040: 03bd 13be 771c c1bd f6f3 893d cfc0 bb3c
00000050: b1ed 8cbd 4980 67bd 751f 363c 57d7 08bd
00000060: ff3d 393d 1831 743d bc20 543d ae24 33be
00000070: b7a0 a93d 496b a73c 7d66 ce3c bea7 833c
00000080: 017e dc3d cf5f 77bd 947e c9bc e897 d9bd
00000090: e003 1a3e 8566 a93d e036 08bd b8cb 9abd
000000a0: 6344 8f3d 4697 1ebe 4796 163e 0935 f2bc
000000b0: 411d 6f3d 98b3 2fbd ca15 ef3d c7e6 323d
000000c0: 4a46 55bd be3c 45bc 102a a5bd aa3d 81bd
000000d0: d85f b33d f181 773d 1e89 8f3d 75df bdbd
000000e0: baac 533d 9b16 553b 2aee 20bd b78f 853d
000000f0: 960a 2bbe ec53 b9bc db08 bf3d b948 a1bd
00000100: e58f 963d 306a 753d b65b dbbd 5c75 cebd
00000110: fe50 993d 7c85 2c3d 9793 1ebe fb8c 21be
00000120: 66dc 31bd f8b5 e33c ba2e e83d 76e0 0cbe
00000130: 453e 803d ecfd 843c 4227 2ebc 52d1 87bd
00000140: 9a03 9e3d ce21 e33c 7020 aebd 8637 4c3d
00000150: fde7 4d3d d8d3 d53b f2bd 603d 5ba6 c43d
00000160: 870d 453c d26a 0c3e e1d4 bc3c fa68 27be
00000170: 7b41 21bc f575 a0bd bf69 2bbe 062f a23d
00000180: 51e2 d4bd 51e8 5d3d efa4 f3bc 682c 39be
00000190: 6ec3 bdbd 271b 56bd 05b6 f5bd 138e 6e3d
000001a0: fa9a 2dbe a6fd b6bd d56f 95bd 8cea 8bbc
000001b0: 8f6e a9bd f874 a23d 6e14 6bbd d801 3dbc
000001c0: 049e 22be 4bf8 eebc bc8c cc3d 1f40 a03c
000001d0: e928 a83d f9d9 823d 292e bfbd 32ef f13d
000001e0: 51a4 283d ec2f cc3c a772 8cbd e9f8 653d
000001f0: d261 0a3d 1870 dc3d 0162 fb3d 68f5 1ebd
00000200: 9fc8 b13d 7126 af3d 6a41 23be e572 adbd
00000210: c395 2fbc 0e29 16be f094 a63d 6763 13be
00000220: 75c4 06bd 2c32 35be 3b93 633d 6b02 b83d
00000230: 1fc2 20bd ccfc ee3d 5ecd 95bc d00a 8c3c
00000240: 9a28 8fbc c165 d4ba f3b5 34be fb9d fbbd
00000250: c872 2dbe 85a7 f63d 1edd 92bd 23cd 05be
00000260: 578d e5bd 9062 af3d 648e 753c 7186 b03d
00000270: 1d0e bb3c 2f5b 1dbe e580 323d 39aa 29be
00000280: 6fd1 d53d abd3 053d 26d6 b83c 7e30 d6bd
00000290: c93e 723d d02a 7dbd efe3 ee3c 0c6b a43c
000002a0: afe7 da3d ae91 20be 08f0 1bbe 5f68 c43b
000002b0: 4b88 2bbe 49a2 8d3d 514f 043d b96d 4ebd
000002c0: 9551 01bd a53d 383d da82 a2bc fd14 343d
000002d0: f5fc 14bc 8ac8 c53d 2914 30bc 3819 9f3d
000002e0: 45dc 19be bebf 833d 71ca 4dbc 7588 b33d
000002f0: 7c71 213e 9c46 ac39 6454 25be d74b 743a
00000300: c74b 503d 4340 043e 1c3c 20be b3ef 18be
00000310: c044 e23d 5e49 233d e030 05be 9fc5 eabd
00000320: 6165 01be 2983 84bb 14db 7a3d 6287 973d
00000330: 32f7 84bd b37f 4e3d 3b21 23be dc86 83bd
00000340: 618f e43d 3601 903c 6ab2 30be 7474 183d
00000350: 4de0 29be c6ea 25bd f8a6 163e 5666 08bd
00000360: 7b24 eabc cdde 03be 34b5 0f3e 4668 cc3c
00000370: 388c 803d 6b29 ca3d b9cc bfbc a796 273d
00000380: b8b2 ffbd 0227 c03d 6aac 26bd ca8d 25be
00000390: c774 c53d 560e a83d e7a7 03be 1be4 973d
000003a0: fb56 1fbe 7df9 6c3d 12e4 703d b0dc 64bd
000003b0: 2972 483c 7db3 e8bd edfb d63c 787d 823d
000003c0: 8ec1 313c 7ceb 863d 414c 16be 9098 e93c
000003d0: df4c fdbc d6e0 ca3c 3889 9b3d 5c25 39bc
000003e0: a5a6 72bd 0e75 1cbd a550 a43c ee5b 10bd
000003f0: 7263 3b3d ab30 3b3c 880f 23be 6a1e 86bd
-0.1139185 0.06631855 -0.06140236 0.011764412 -0.0055152792 0.012768427 0.017345263 -0.14400582
-0.039141696 -0.039522704 -0.057266295 0.13976216 0.07198418 0.1082566 -0.14974713 0.13474576
-0.14427571 -0.09429257 0.06735985 0.022919087 -0.068812735 -0.056518827 0.011115898 -0.03340849
0.04522514 0.059617132 0.05178903 -0.17494461 0.08282607 0.0204369 0.025195355 0.016071197
0.10766221 -0.060394105 -0.02459649 -0.10624677 0.1504054 0.08271507 -0.033255458 -0.075583875
0.069954656 -0.15487394 0.14705764 -0.029566305 0.058377508 -0.042895883 0.11674078 0.043677118
-0.052068986 -0.012038408 -0.080646634 -0.063105896 0.08758515 0.060426656 0.07008575 -0.09271137
0.051678397 0.0032514695 -0.03928963 0.06521552 -0.16703257 -0.022623025 0.09327861 -0.07875199
0.073516645 0.05991572 -0.10710852 -0.10080978 0.07486151 0.042119488 -0.15485989 -0.15776436
-0.04342308 0.02779673 0.113370374 -0.137575 0.06261877 0.01623436 -0.010629477 -0.066317216
0.07715531 0.02772608 -0.08502281 0.04985764 0.05027007 0.006525498 0.054868646 0.09602042
0.012027151 0.13712624 0.023050727 -0.16348639 -0.009842272 -0.078349985 -0.16739558 0.07919125
-0.10394729 0.054176632 -0.029741732 -0.18083346 -0.09265791 -0.05227199 -0.11997608 0.05824096
-0.1695365 -0.08935098 -0.07296721 -0.017079614 -0.082730405 0.07932466 -0.05739253 -0.011536084
-0.1588059 -0.02917113 0.099877805 0.019561825 0.08210928 0.06389231 -0.09334976 0.11813201
0.04117233 0.024925195 -0.06857806 0.056145582 0.033784695 0.10763568 0.12274552 -0.038808256
0.086808436 0.08552254 -0.15942922 -0.0846918 -0.010716858 -0.14664099 0.08133876 -0.14393388
-0.0329022 -0.1769492 0.05556033 0.08984836 -0.03924763 0.11669311 -0.018286403 0.017095
-0.017475415 -0.0016204641 -0.17647533 -0.12285992 -0.16938317 0.120436706 -0.07171081 -0.13066535
-0.11208599 0.08563721 0.014987562 0.08619393 0.022833878 -0.15366815 0.043579955 -0.16568841
0.10440337 0.032672565 0.022563051 -0.10458468 0.059141908 -0.061808407 0.029161422 0.020070575
0.106887214 -0.15680572 -0.15228283 0.0059938873 -0.1675121 0.06915719 0.032302205 -0.05039761
-0.031571943 0.044980664 -0.019837786 0.04396533 -0.009093513 0.096573904 -0.010746994 0.07768482
-0.15025432 0.06433056 -0.012560473 0.087662615 0.15765947 0.00032859005 -0.16145474 0.00093191623
0.050853517 0.12915139 -0.1564793 -0.14935188 0.11048269 0.03986489 -0.13006926 -0.114634745
-0.12636329 -0.004043956 0.061244085 0.07398869 -0.06492461 0.050414752 -0.15930645 -0.06422207
0.1116016 0.017578702 -0.1725556 0.037220433 -0.1658947 -0.0405071 0.14712131 -0.03330072
-0.028581848 -0.1287796 0.14033967 0.024952065 0.062767446 0.09871181 -0.023413049 0.040915158
-0.1248526 0.0938244 -0.04069177 -0.1616737 0.09641414 0.08205859 -0.12857018 0.074165545
-0.15560524 0.057855118 0.058811255 -0.055874527 0.012234249 -0.1136236 0.026243174 0.063715875
0.01084937 0.06587884 -0.14677526 0.02851513 -0.030920444 0.024765413 0.07594532 -0.011300411
-0.059240956 -0.03819757 0.020057986 -0.03524392 0.045749135 0.011425178 -0.15923893 -0.0654877

action_model._discrete_distribution.branches.0.weight f4 [4, 256]
00000000: cbd2 373c e62b a0bc c15c f93a 33df 74bc
00000010: 582f 233c 82f3 9abc de14 8bbc 9ac0 193d
00000020: aec3 83bc 1ade 61bc c01e 943b 1fba 50bd
00000030: 2c19 423c 97cf f6bc f21b 463d 216f 65bd
00000040: 98c3 473d 596f 9dbb 6d2b 03bd 5a7e 65bc
00000050: e04d dfbc 9fae 433b 8d38 d8bc ca8a 103c
00000060: 5901 8bbc ee9a f9bc 7df2 d5b9 6f15 803d
00000070: 5e4c 86bc 431b 21bd 6934 23bc f5b2 67bc
00000080: 92fe cabc e2a4 1d3c 8306 19bd 2057 043d
00000090: 8166 37bd adae ebbc 3ab3 84bc f943 1cbc
000000a0: eed4 04bd 2e99 583d 0a6a 1abd 57e0 173d
000000b0: 280e 80bc 1859 34bc 941d 84bc 7010 d9bc
000000c0: 4411 1ebb 7af5 83bc 35af 283c 2380 653b
000000d0: 2e7f bcbc fdce 6cbc 7cb8 a0bc 2f1f e2bb
000000e0: d123 b2bc 32f2 e1bc 76a4 42bb a409 09bd
000000f0: 990e 723d 382f 00bd 43e7 31bd 9f4d 4a3c
00000100: aea8 0cbd c1e3 b1bc fc2e 4fbc dec3 dd3c
00000110: 1549 8c3b 202d 37bd c284 333d d4bb 613d
00000120: 1d46 403b ccb1 f0bc ec02 3fbd 4f8d 583d
00000130: de25 6cbc afb8 10bc b0ea a6bc 28ae 15bc
00000140: 6940 b9bb 0956 cebb c93b cf3c 4561 c6bc
00000150: 6cf7 bdbc 1a83 8bbc 8837 79bc 2038 3abd
00000160: cf7a 1db9 f919 b5bd edc1 c839 1596 ac3d
00000170: 190d dbbc 81c0 293d e513 763d e22d bfbc
00000180: 31a1 82bc d525 ddbb bdfc 2dbc 9a55 633d
00000190: d308 233d 89af f33b 5154 a03b 9b7e 3bbc
000001a0: faa3 403d a163 1abc 7bd7 023d 75ec 213c
000001b0: 43f7 f23b b229 babc fb70 1b3b 56bc 2cbc
000001c0: 02e5 6f3d 99cb 55bc 1320 8abc a786 91bc
000001d0: b598 06bd 7deb d5bc 966b 433b fb77 8abb
000001e0: 8ebc a8bc baea 483c 5eb8 b63c b2eb 6c3b
000001f0: 3eab 20bd 441b 25bd 1205 9abc 2c97 7c39
00000200: 5251 d4bc 7bbf 25bd 2c0c 803d 5659 97ba
00000210: 7c0b 4bbc ca0a 0c3d 135b 21bd 4b61 843d
00000220: 39f2 673b 95ce 413d 7420 96bc f0c8 4dbc
00000230: 0ef1 0d3d 5634 2bbd 4a9b 47bc e155 1ebc
00000240: 61a4 083d cc42 e7bc a436 873d 0d34 ec3c
00000250: 6ac4 2d3d 2ac8 57bd ab3f 873a 6573 593d
00000260: 193f 573d 6d4c 0abd 4177 00bd dbeb 663a
00000270: cffc 34bc 0de2 613d 6e89 1ebc ae9e 823d
00000280: 8fb6 f2bc 1263 753c 9d58 bfbc 3f94 073d
00000290: 1113 fbbc 55f9 5a3c 407c 413c fddb 593c
000002a0: d0af e3bc 0db9 753d 620b 213d 285e a5bc
000002b0: bf45 753d d0ba 5e3c 899e 30bd dc8b cfbc
000002c0: 2961 d1bb 081d a7bc bffc 443c c865 b5bc
000002d0: 845f 0cbd 5338 49bd c7a6 ffba 9772 1dbd
000002e0: 6978 4a3d 5701 0dbd fb88 f43b ea38 e5bc
000002f0: 50de d6bb f7ba 2fbc 6ffa 4a3d 8393 13bd
00000300: e9b3 273a 5e8f 17bc 9c43 783d 913d 8c3d
00000310: 3273 cebc c87f e1bc 4f2f 763d 47da f13b
00000320: de67 58bc f041 82bc 32b2 f6bb eff5 94bc
00000330: 9bd0 95bc 26c5 71bc 776e 3e3d 8046 f0bb
00000340: 0f22 50bd 0e19 863c d2fc 823d 4f9f f6bc
00000350: 91a8 683d 5cec 703a b575 59bd 02e6 0cbd
00000360: d59f 69bc f6e7 70ba a7db 6bbd 186f cebc
00000370: ac39 d4bc 7aa2 91bd 1ade b0bc 32dc e3bc
00000380: 54df a83c 602e d2bc 0d4e 87bc 1315 823d
00000390: fa31 05bd adae 2cbc d25a 353c 633b 03bd
000003a0: 46b7 2b3d 3be3 683c f643 12bd b33a 64ba
000003b0: 1a33 173c a77f 1e3d c89a 10bd e470 a2bc
000003c0: 75a8 04ba fc1f 69bc db22 3a3d 9076 b83c
000003d0: 26ce a8bc a51b cbbb 7163 4bbc 7127 98bc
000003e0: 2d0d d3bc 4059 6bbc 5af1 9cbb a459 9fbc
000003f0: 0b0f a3bc d53e 9dbc 3746 163d 268d 8a3c
0.011219691 -0.019552182 0.0019024835 -0.014945793 0.009960018 -0.018914942 -0.016977724 0.037537195
-0.016084518 -0.013785863 0.0045202672 -0.05095875 0.011846822 -0.030128283 0.048366494 -0.056014184
0.048770517 -0.0048045334 -0.032023836 -0.014007175 -0.027258813 0.002985872 -0.026394153 0.008822152
-0.016968416 -0.030469384 -0.00040807194 0.06254088 -0.016393837 -0.03933264 -0.009961226 -0.014141788
-0.024779592 0.009621831 -0.037359726 0.03230965 -0.04477549 -0.028769815 -0.016198743 -0.00953769
-0.032429628 0.05288046 -0.037698783 0.03707918 -0.01563175 -0.01100757 -0.016127385 -0.026497096
-0.0024119178 -0.016108263 0.010295679 0.0035019002 -0.023009863 -0.014453647 -0.019619219 -0.00690069
-0.021745594 -0.027581308 -0.0029700077 -0.03345646 0.059095953 -0.03129503 -0.04343344 0.012347608
-0.034340553 -0.021715047 -0.012645479 0.027070936 0.004281173 -0.04472077 0.04382778 0.055110767
0.0029338666 -0.029381655 -0.046633646 0.052869137 -0.014413325 -0.0088330945 -0.02037558 -0.00913576
-0.0056534302 -0.0062968773 0.025297062 -0.024216304 -0.023189269 -0.017030288 -0.015210994 -0.04546368
-0.00015018437 -0.088428445 0.0003829146 0.084270634 -0.026739644 0.04144335 0.060077567 -0.023337308
-0.015946003 -0.0067488947 -0.0106193395 0.055501558 0.039803337 0.007436697 0.004892864 -0.011443759
0.04703138 -0.009423167 0.03194378 0.009883036 0.00741473 -0.02272496 0.0023718465 -0.01054295
0.05856801 -0.01304903 -0.016860997 -0.017764403 -0.032860477 -0.026113266 0.0029818765 -0.0042257286
-0.020597722 0.012262994 0.02230471 0.0036151228 -0.03922581 -0.040309206 -0.018801246 0.00024088909
-0.025917683 -0.040465813 0.062523216 -0.001154701 -0.012392875 0.034189977 -0.039393496 0.0646387
0.0035392179 0.047316153 -0.018326022 -0.012560114 0.034653716 -0.04179796 -0.01218302 -0.00966403
0.03335989 -0.028230093 0.06602219 0.028833413 0.042423643 -0.052681126 0.0010318657 0.053088564
0.05255041 -0.03376429 -0.03136373 0.0008808949 -0.011046602 0.05514722 -0.0096763205 0.06377922
-0.029628066 0.0149772335 -0.023357684 0.033100363 -0.03064874 0.013365109 0.011809409 0.013297078
-0.027793795 0.05999093 0.039317496 -0.020186499 0.05988097 0.013594344 -0.04311994 -0.025335245
-0.006389756 -0.020399585 0.01202315 -0.02214326 -0.03427078 -0.04912598 -0.001950466 -0.03843936
0.04943124 -0.034425106 0.0074626184 -0.02798124 -0.0065572634 -0.010725728 0.04955524 -0.03602935
0.0006397353 -0.00925049 0.060611352 0.0684768 -0.025201414 -0.027526751 0.06010371 0.007380757
-0.013208358 -0.015900582 -0.0075285668 -0.018183677 -0.018287947 -0.0147564765 0.046492066 -0.007332623
-0.05081373 0.016369369 0.06395878 -0.030105261 0.056801382 0.0009190494 -0.05309077 -0.03439904
-0.014259298 -0.00091898383 -0.057582524 -0.025199458 -0.025906406 -0.07111068 -0.021590281 -0.027814958
0.020614304 -0.025656879 -0.01651671 0.06351676 -0.032518364 -0.010539693 0.0110690165 -0.032039057
0.04192283 0.014214332 -0.035709344 -0.00087062566 0.009228492 0.038695958 -0.03530386 -0.019829221
-0.00050605024 -0.014228817 0.045443397 0.022517473 -0.020606112 -0.006198364 -0.012413845 -0.018573495
-0.025763119 -0.014364541 -0.0047895135 -0.019451924 -0.019904634 -0.019195 0.036688056 0.016913008

action_model._discrete_distribution.branches.0.bias f4 [4]
00000000: 4a2b 85bd 68ce 103e 6333 54bd 3c89 9dbd
-0.06502397 0.14141238 -0.05180682 -0.07692191

action_model._discrete_distribution.branches.1.weight f4 [15, 256]
00000000: 0ac3 15bd 7408 d33c 93a7 403b 7c27 c63c
00000010: cb23 babd 6f81 30bd 4baa 9f3c dc65 0f3a
00000020: 38d0 86bb 43e9 d33c 5810 b13d ddfe 52bc
00000030: e979 90bd c834 e23c c40f 8dbc 7db9 d2bc
00000040: b7ee b1bc b64f 203d e83f 0ebb 04a1 dfbc
00000050: d0e1 efbc 5b30 6abd be4e 9a3c aa42 39bd
00000060: 3d78 e7bc bd8f 8abb ca75 7ebb cec3 98bc
00000070: 0e7b 33bd 330a c6bc 44bb 20bd bd56 3dbd
00000080: d4d5 2b3b 3b69 423d 027a df3c 26bc a9bd
00000090: 0150 c6bb 5abd 99bc dd02 72bc bb87 7cbd
000000a0: 9b58 8ebb 2a1d acba 35b3 63bd bd87 503d
000000b0: e79f 31bd 7ce5 843d c86b c2bb 7728 a63c
000000c0: 0019 84bb 1b6d 0a3b 6bc5 00bd 9ae7 8bbd
000000d0: 5341 5cbd 8c6d a5bb 7043 4f3c a4c7 563c
000000e0: 57ce 4fbc 6956 8dbd e82f eb3b 7bd8 e7bb
000000f0: 5015 04bd c943 6e3c fade 3dbd 5bca 02bc
00000100: 63ab 4a3d d3d5 8d3c f4e2 f13b 45fa aa3b
00000110: 82eb e3bd fca1 b43b 6941 cebc 42c2 66bc
00000120: 99d9 8b3b 71be 633d 1cc1 cc3c 2621 a0bb
00000130: aa71 65bb ffe7 703b 73cf e53a ea45 1bbb
00000140: e479 223c da80 54bd a302 813d 912f 823c
00000150: c902 163c 320e 04bd 6136 393b 72f4 0dbd
00000160: 6ce6 b63c caf7 8a3b 4065 82bd abbc 1e3c
00000170: 161f 2b3b 0018 ffbb c0bd 22bc 9a02 423d
00000180: 30b7 983d aa81 04bb 8c03 2abd 1953 9cbc
00000190: 29be 9bbd e0c5 ad3d 09b4 103d afe1 83bc
000001a0: 2180 1bbc 7b22 8a3d 1f49 b2bc f094 1f3d
000001b0: 8350 12bd 9ddb d23d bd9c 17bd 8c93 043b
000001c0: c97e cfbc 252c 66bb c8f5 e73d bdfd 823d
000001d0: 1a18 13bc d787 b1bc 1208 b63c f365 85bb
000001e0: a722 26bd 56d5 083d 132b 93bb 1974 5abd
000001f0: 71e9 053d 75ce 16bd d513 c53c 4bf8 3a3d
00000200: 0273 193d a788 07bd a0fb b3bc 0626 c9ba
00000210: 2bb1 3fbd 400e c63b a40d 6f3a acd7 1abc
00000220: 266e e2ba 3d9a f5bc 3af8 433c b783 d1bc
00000230: cf49 453d 460a 123d 8ff4 81bb b189 a2bc
00000240: 9b24 f8bd 807b db3d eabb 81bc 2a53 283c
00000250: a59d f1bb fc1f 983c b7b7 ce3d ca8b 8cbb
00000260: 5f6f f83c 9bae efbb 6fd3 84bc 93d5 593a
00000270: f51e a73d d27d b3bc 5e98 9fbd 0aac b4bc
00000280: d134 11bd faab 523d f9e6 a1bc c185 a9bb
00000290: 88e0 4cbc 1831 b9bd 4db2 203d e053 af3d
000002a0: 903c e4bc f6bb bebc b0ec e6bc b885 e4bb
000002b0: a457 03bd 7aaf 123d bea7 98bd 3aa3 363d
000002c0: 5e49 cdbc 1173 a73b eaf7 453c b309 823c
000002d0: 70da b43c b176 623d 79b3 b13c d106 5c3d
000002e0: 2274 8fbc 686c a3bc ffc5 953c b6dd c6bc
000002f0: 5602 54bd 627d 8bbc 59a2 4cbc 46f2 d43d
00000300: 2de1 a1bc 99b2 2cbd 4285 203b 941b ddbc
00000310: af53 383c 0631 493a 534a b6bd 1720 ddbc
00000320: 4cf8 36bc 3f4f 32bc 01fb 073d 3fde d93b
00000330: d783 043c 368d dabc 24f9 6d3b e49a 543c
00000340: 395f 763d b6d2 d9bc a063 e9bb cff8 c63c
00000350: 782d b5bb 423f 18bd c92f c1bc 0c19 b5bc
00000360: 282b 23bd 6120 0abd d7a7 a9bc 44a3 a5bb
00000370: 8997 833c 7332 633c 7ae3 95bd 51c3 983c
00000380: 112e 56bd 9ffd c73b 2181 9fba 54f0 45bc
00000390: efa4 9ebd 69f2 2d3c f834 93bd bfad 2e3d
000003a0: 2b1e 1bbc 225e 8c3d d37f ac3d 4c48 7c3d
000003b0: 40a2 313d 5c4c d1bc 60fa 3f3c 3d3f f7bb
000003c0: aa91 7fbc 9ad7 b13c e981 373c b970 273d
000003d0: 5797 72bc 5809 a23c 646e bd3c fcd9 a33c
000003e0: b97d acbc 395d e6bc b12d 82bc 96e1 11bd
000003f0: aae4 07bd 1965 10ba 4b63 e8bb 6d38 2a3c
-0.036562957 0.025760867 0.0029396757 0.02418875 -0.09088858 -0.043092187 0.019490382 0.00054701953
-0.004114177 0.025868064 0.086456954 -0.012878147 -0.070545025 0.027613059 -0.017219432 -0.025723213
-0.021720273 0.03913852 -0.0021705572 -0.027298458 -0.02928248 -0.05717502 0.018836375 -0.04522959
-0.028255576 -0.0042285607 -0.0038827532 -0.018648054 -0.043818526 -0.024174785 -0.03924109 -0.0462253
0.002621998 0.047463637 0.027279858 -0.082878396 -0.0060520177 -0.018767048 -0.0147711905 -0.06165288
-0.0043440587 -0.001313125 -0.055590827 0.0509107 -0.043365385 0.06489083 -0.0059332587 0.020282967
-0.0040313005 0.002112216 -0.031438272 -0.06831284 -0.053773236 -0.0050484594 0.012650356 0.0131091215
-0.012683473 -0.06901247 0.0071773417 -0.007075367 -0.032246888 0.014542528 -0.046355225 -0.007982816
0.049479853 0.017313873 0.0073817912 0.0052178227 -0.11128904 0.005512474 -0.025177674 -0.014084401
0.004267883 0.05560154 0.024994425 -0.004886764 -0.0035010376 0.0036759374 0.0017533138 -0.0023692795
0.009916756 -0.051880695 0.06299331 0.015891822 0.0091559375 -0.0322401 0.0028261172 -0.03465695
0.02232667 0.0042409645 -0.06366968 0.009688537 0.0026111058 -0.0077848434 -0.009932935 0.047365762
0.07456815 -0.0020218887 -0.04150729 -0.019082593 -0.076046295 0.08485007 0.035327945 -0.016098825
-0.0094909975 0.06744858 -0.021763382 0.038960397 -0.035721313 0.10295794 -0.03701471 0.0020229546
-0.02532901 -0.0035121527 0.11326176 0.06396053 -0.008977914 -0.021671219 0.022220645 -0.004070991
-0.04056039 0.033406578 -0.004491219 -0.053333376 0.03269333 -0.036817987 0.024057308 0.045646947
0.037463196 -0.033089306 -0.02197057 -0.0015346415 -0.04679982 0.006044179 0.0009119159 -0.009450834
-0.0017275258 -0.029980773 0.011961037 -0.025575502 0.048166092 0.03565433 -0.0039659212 -0.019841047
-0.12116357 0.10716915 -0.015836675 0.010273734 -0.007373529 0.018569939 0.100936346 -0.004289125
0.030326543 -0.0073145158 -0.0162141 0.0008309718 0.081602015 -0.021910582 -0.077927336 -0.02205469
-0.03545076 0.05143354 -0.019763457 -0.0051734154 -0.012504704 -0.09042567 0.03923254 0.0856092
-0.02786091 -0.023282986 -0.028189033 -0.0069739483 -0.032066002 0.03581188 -0.07453869 0.04458926
-0.025059398 0.0051101525 0.012083033 0.015873766 0.022076815 0.055288974 0.021692025 0.053717438
-0.017511431 -0.019949153 0.018282888 -0.024275642 -0.05176004 -0.01702756 -0.012489879 0.103977725
-0.019760692 -0.04216251 0.002449349 -0.02699069 0.0112504205 0.00076748466 -0.08900895 -0.02699284
-0.011167597 -0.010883152 0.03319836 0.0066488083 0.008088074 -0.026678663 0.003631183 0.012976382
0.060149405 -0.026589733 -0.007122472 0.024288563 -0.005529102 -0.037169702 -0.023582356 -0.02210667
-0.03983608 -0.033722285 -0.020709915 -0.005054863 0.016063469 0.0138670085 -0.07318778 0.018647822
-0.052290026 0.006103232 -0.0012169221 -0.0120812245 -0.07746302 0.010616877 -0.07187837 0.042646166
-0.009467642 0.06853892 0.08422818 0.061592385 0.043367624 -0.025549106 0.011717409 -0.0075453804
-0.015598694 0.021709252 0.011200407 0.040878985 -0.01480659 0.019779846 0.023123927 0.020001404
-0.021056043 -0.028120624 -0.015890928 -0.035615526 -0.033177055 -0.0005508229 -0.007091915 0.0103894295

action_model._discrete_distribution.branches.1.bias f4 [15]
00000000: 30f0 6f3c 756b 4abb 6cd0 e4bb c261 dd3b
00000010: f63f 273c 2581 e53a 4784 bdbc a940 703c
00000020: c0ff 433c a61b 373b d6e2 c839 7f0f d0bc
00000030: 1b37 a9bc 5a8c 983c acfd 3a3b
0.0146446675 -0.0030886803 -0.0069828536 0.0067560384 0.010208121 0.0017509802 -0.023134364 0.014663854
0.011962831 0.0027940064 0.0003831598 -0.025398014 -0.02065616 0.018621612 0.0028532548

action_model._discrete_distribution.branches.2.weight f4 [15, 256]
00000000: fe77 943c f4a4 b2bc f830 94bc 1c6d 80bb
00000010: b9bd a23c c363 d03a 9c88 94bc 34a0 ea3b
00000020: c779 a2bc c5ee 34bd 76b9 dd3c 49de 203c
00000030: 4087 873a ad8d 023c 92cc 163c 269d 023c
00000040: 165b eb3b 3ed7 183d bb40 b63b 5dbe 30bd
00000050: f351 29bd 961e 053d ba6e 95bc df00 ebbc
00000060: ef39 20bc d7e6 b13c 2b56 74bb 952b 48bb
00000070: 8da1 7c3c 0389 d7bb fb70 f2bc efca 85bc
00000080: 0a11 98ba d4eb f0bc 4ae2 1fbd f928 913c
00000090: 7331 febb d183 23bd 014b e9bc c468 b1bb
000000a0: f417 4dbd dce2 0d3c 2ed6 98bc 3759 253c
000000b0: 2fbe 3dbd 2d4e cabc ef6e 4abc 586e 713a
000000c0: c2c2 dfba 3af5 0dbd e21b eebc 7dd7 483c
000000d0: 3cd8 393c 0a35 8abc deba 46bd 6110 68bd
000000e0: e026 01bd 6282 683c f973 2ebc d3d4 06bc
000000f0: 9ec4 62bc 7575 d6bc bcb6 62bb 1c35 57bd
00000100: 12dc 51bc cfcf ffbc 23cc fb3c d1c3 b23c
00000110: 6a90 de3b b40e a5bb d032 7b3c c2b0 12bc
00000120: 8658 efba b729 61bc 961d 61bc 8265 06bb
00000130: 772f 0ebd a3c6 81bc 2976 85bc 0dc9 ddbc
00000140: e9c6 cabc dd0d 42bc 8763 003d b0ce 373c
00000150: 9efa 50bc 06cf ce3c c5a4 29bd 4290 f0bc
00000160: 8dfe f0b9 863d f338 124e aabc 2530 e7bb
00000170: a948 363c 45c1 f13b dcc0 42bc 990e 25bd
00000180: 4e58 113d b2c6 56bc 9b18 1fbd c8d0 83ba
00000190: a77b 0c3c b60c 3a3d bbf9 9839 d75f adbb
000001a0: 69b9 6aba 39fa 493d 08b6 373c 9f83 3f3b
000001b0: 7fc4 603c 52f3 ef3a c284 86bc fff9 4dbd
000001c0: bcf2 d7bb e1fc 03bd 5122 533c d9c9 1b3d
000001d0: 62b6 30bc 936b d9bc a2c5 023c bd8d 5b3c
000001e0: b447 303c a288 04bd 556c 833c f67b 8f3c
000001f0: 5a0a ba39 bb1c 0dbd 00a3 cdbc ade3 96bd
00000200: 082d 30bd 2ab7 71bc 0250 1dba 548c 92bc
00000210: d842 6d3c 44f9 f73b be2f 5f3c fc77 803b
00000220: 6295 3bbc 8db4 36bc 760e be3c 25b4 4cbc
00000230: 7174 9f3c 033e 12bc c092 b6bc 3510 46bd
00000240: afed dbbb 88aa 15bd 63b6 8e3b d11c 163d
00000250: 6dc3 8bba e8b1 be3a 1351 4d3c a60b 2a3d
00000260: 98a3 c53b f102 cb3b f348 4dbc 8d3e 8b3c
00000270: 9378 8a3b c50c 4bbc 8079 dfbc 10d5 97bc
00000280: 2308 0a3b a0de e73b dc41 233b fadc 3cbc
00000290: d44c f73c 7114 1cbd f499 1abc e316 273d
000002a0: cc49 50bc 1276 0ebc 7047 8e3b af86 c8bc
000002b0: f8e7 20bb 3d60 8f3a dc81 b93c 67a8 01bd
000002c0: 5ab0 963a ec1c f6bc be84 cabc 8dac a7bc
000002d0: 6602 083c 27c8 38bd 4445 e6bb 00cc 1bbd
000002e0: 781f cfbb 74bf 5dbd 813f de3c 271b a3bc
000002f0: 0c97 2e3c 2925 25bb 6087 413c 0dc2 8a3c
00000300: de85 e93a b698 23bd 7ebf fabc f06e 36bb
00000310: 1230 e6bb cf6d 6d3b 421f 0fbc 49b6 a6ba
00000320: 9db4 233d 5ab3 14bc be21 cabc 77db 16bd
00000330: c9f2 6cbc fc35 ac3b 412c 98bc 82f9 41bd
00000340: 4ce7 09bd 0357 94bc d8c4 87bc 8069 20bd
00000350: 5943 8cbc 491d 36bd e27e 09bd 9e62 d0bb
00000360: a66e febc 1130 783c 9592 bdbc 90dd 8cbc
00000370: 563d 50bb 650a ebbb 5165 7bbc d13f 13bd
00000380: 290f 99bc 3b1c f33c ce58 b8bb e2cc 30bc
00000390: 8809 1a3c dac7 54ba 12cd 1ebd 2733 2dbd
000003a0: 78da 82bb 13d6 48bb cf63 0f3d 63c5 4dbd
000003b0: 8623 56bc 943c b8bb 04b1 3bbc b20b ba3c
000003c0: 93e2 e6bc c395 15bd 4274 333c b4d9 273d
000003d0: 406b 08bd 3da0 c6bc 140d b83c 430e 163c
000003e0: 65af 023c 4012 b9bc 180a d73c f632 8abc
000003f0: 8576 1abc 28a0 73bb 743f 113c 2018 9c3a
0.018123623 -0.021807171 -0.018089756 -0.003919257 0.019865857 0.0015898872 -0.018131547 0.007160211
-0.019833459 -0.04417302 0.027065974 0.009818622 0.001033999 0.007968348 0.009204047 0.007972037
0.007182489 0.037314646 0.0055619157 -0.043150295 -0.04133792 0.032499872 -0.018241275 -0.028686939
-0.009779437 0.021716518 -0.0037282805 -0.0030543555 0.015419376 -0.0065776124 -0.029594889 -0.016332118
-0.0011601758 -0.029409327 -0.039034165 0.017719733 -0.0077573596 -0.03992063 -0.028478147 -0.0054141004
-0.05007167 0.0086600445 -0.018656816 0.010092071 -0.04632395 -0.02469548 -0.01235555 0.0009209863
-0.0017071592 -0.034657694 -0.02906603 0.012258408 0.011343058 -0.016870994 -0.048518054 -0.056656245
-0.031531215 0.014191242 -0.010647767 -0.008229452 -0.0138408225 -0.026179055 -0.0034593781 -0.052540883
-0.0128088165 -0.03122702 0.030736988 0.021821888 0.006792118 -0.005037153 0.015331939 -0.008953275
-0.0018260635 -0.013742856 -0.013739964 -0.002050728 -0.034713235 -0.015841788 -0.016291695 -0.027073408
-0.02475305 -0.011844126 0.031344917 0.011218712 -0.012755064 0.0252452 -0.041416902 -0.029365662
-0.00045966022 0.000115986026 -0.02078918 -0.0070553 0.011125722 0.007377776 -0.011886802 -0.040297125
0.035484605 -0.013108896 -0.038841825 -0.0010056728 0.008574403 0.04542228 0.00029177763 -0.005290966
-0.000895402 0.049310897 0.011212833 0.002922274 0.013718723 0.0018306768 -0.016420726 -0.050287243
-0.0065902155 -0.032223586 0.0128866 0.038034294 -0.010785671 -0.026540553 0.00798169 0.013400492
0.010759283 -0.032356866 0.016042868 0.017515164 0.00035484397 -0.034451228 -0.025102139 -0.073676445
-0.043011695 -0.014753142 -0.0006000997 -0.01788918 0.014481269 0.0075675566 0.0136222225 0.0039205533
-0.01144919 -0.011151445 0.023200255 -0.012494122 0.019464703 -0.008925918 -0.022286773 -0.0483553
-0.0067116837 -0.036539584 0.0043552383 0.036648575 -0.00106631 0.001454887 0.012531537 0.041515015
0.006031465 0.006195419 -0.0125295995 0.0169976 0.0042257993 -0.012393181 -0.027279615 -0.018534213
0.0021061979 0.0070760995 0.0024911081 -0.011527294 0.030188002 -0.038105432 -0.009436119 0.04079331
-0.012712907 -0.008695142 0.004342012 -0.024478285 -0.0024552327 0.0010938715 0.02264493 -0.03165474
0.0011496649 -0.030043088 -0.0247215 -0.02046802 0.008301353 -0.045112755 -0.0070273 -0.038036346
-0.00632089 -0.054137662 0.02712989 -0.019910408 0.01065613 -0.002519915 0.011812061 0.016938234
0.0017816385 -0.03994056 -0.030608889 -0.002783712 -0.0070247734 0.003622878 -0.00873548 -0.001271912
0.039967168 -0.009075964 -0.024674293 -0.03683039 -0.014462181 0.005255459 -0.01857579 -0.04735709
-0.033667848 -0.018107897 -0.016573355 -0.039163113 -0.017121958 -0.044461522 -0.03356827 -0.0063594123
-0.03105862 0.015148179 -0.023141185 -0.017195493 -0.003177484 -0.00717287 -0.01534398 -0.035949532
-0.018683987 0.029676547 -0.0056258207 -0.010791035 0.0094016865 -0.00081169384 -0.03876979 -0.04228511
-0.0039933287 -0.0030645176 0.035007294 -0.05023707 -0.013069993 -0.005622456 -0.011455778 0.022710655
-0.02818421 -0.036519777 0.010953011 0.040979102 -0.033305407 -0.02424633 0.022467174 0.009158674
0.007976388 -0.02259171 0.02624993 -0.016870003 -0.009427671 -0.0037174318 0.008865226 0.0011909045

action_model._discrete_distribution.branches.2.bias f4 [15]
00000000: 5dfb d4bb dfbd 4e3c e25c efbb f197 65bc
00000010: b73c 5a3c 419c 5cbb 8a25 643b 42a4 743c
00000020: b52c 9f3c ddaa bebb 80f4 2b3a 94d6 b13a
00000030: 2557 09bc 98cc 753b af61 a7bb
-0.0064996914 0.012618511 -0.0073047737 -0.014013276 0.01332014 -0.003366247 0.0034812414 0.01493174
0.019430498 -0.0058187083 0.00065595657 0.0013567978 -0.008382593 0.003750598 -0.0051080803
