results/AgentRankingsAndAcceptedRankingsNameOnlyChecked/AgentBehavior/AgentBehavior-499970.onnx (onnx, 333671 bytes, 11 tensors)

discrete_act_size_vector f4 [1, 3]
4.0 15.0 15.0
00000000: 0000 8040 0000 7041 0000 7041

network_body._body_endoder.seq_layers.0.weight f4 [256, 30]
0.1445771 -0.30455634 -0.022011267 0.03898505 0.08497012 0.024441151 0.26098216 -0.056754407
-0.023857042 0.22989215 0.09851871 0.004429049 0.31534654 0.12735395 0.18052457 0.3051349
-0.014888177 -0.024204623 0.15558903 -0.061088596 0.23504615 -0.09747856 0.21005543 0.0020334164
0.20347677 -0.13554433 -0.05687764 -0.1421252 0.22958374 -0.15801811 -0.054561287 -0.01762921
0.19618085 -0.15676181 0.16409202 -0.00733275 0.053814802 -0.18169235 -0.058218017 0.103849076
-0.24438174 -0.08917925 0.08285867 0.25185776 -0.20344537 0.07325711 -0.040872313 0.33738515
0.03210117 0.1882809 -0.28543562 0.25322008 -0.21875931 0.18110965 -0.19348243 -0.2087257
0.16302492 -0.24179797 -0.11752971 0.078541756 -0.14945644 -0.15704256 -0.25056592 -0.35310522
0.083329 -0.00046168437 0.13035867 0.46430674 -0.028691983 -0.03517601 0.30618167 0.068855174
-0.053676423 0.039562494 -0.49195403 0.04307299 0.13559273 -0.1203924 0.21005592 0.15025876
0.119200915 -0.12999238 -0.13314655 -0.0042782486 0.3193514 0.08858089 0.004351475 -0.08913092
0.057429146 -0.2453993 -0.083679706 0.17581268 0.1989137 -0.01573563 -0.01248654 0.06213822
-0.14503287 -0.26176277 0.1478919 0.0503915 -0.12888716 0.18986505 -0.1984684 -0.17081963
0.25687674 0.071336806 0.011753752 0.41294605 0.24862325 0.24892877 0.119541295 -0.2887914
0.04010104 0.010409886 0.104067884 0.19106185 -0.26688987 -0.093887255 0.02077356 0.20727038
-0.0794737 0.08682963 0.08962995 0.33979058 0.0023452393 0.23397562 -0.01854765 0.20020252
0.13646615 -0.03336812 -0.09656672 0.059799206 -0.2554127 -0.050145578 -0.06310407 0.07475922
-0.16492741 0.4373282 -0.08814688 -0.12531708 -0.01188505 -0.33884013 -0.009728115 0.24763054
0.0041716415 0.0064369123 0.09527073 -0.35623807 -0.10944082 -0.05946736 0.13346322 -0.063922256
0.14021572 -0.20662417 0.010074391 -0.14833882 -0.20895165 -0.2021235 -0.037384354 -0.26761183
-0.019679483 -0.13123952 0.06304305 -0.32441726 -0.14521015 0.06727639 -0.1161279 0.14494549
-0.1543251 0.11321249 -0.09140957 -0.011689646 -0.4007628 0.03245092 -0.019947331 -0.033040676
0.27447394 0.1672911 -0.05403852 -0.30317146 0.09506427 0.095680945 -0.1417779 -0.1334787
-0.20852128 -0.3248159 0.29405016 0.05975871 0.07276657 -0.34612662 -0.07071631 -0.055017047
-0.059644762 -0.10880905 -0.12696463 0.11828166 -0.090472125 0.108055584 0.21576862 -0.08116423
-0.052799396 0.19907941 0.007868798 -0.11943682 0.53778416 0.07547377 0.18820703 0.16300586
0.25452486 -0.13978904 0.100162186 -0.0633261 0.056840297 0.11349892 -0.08996123 0.093364514
-0.08037122 -0.004673147 0.053551156 0.090064 0.1898985 -0.12645805 -0.29523855 -0.1006947
0.45675653 0.23659208 -0.08801042 -0.07803243 0.0035192394 -0.12539753 0.03714006 -0.030464068
0.051422264 0.088096805 -0.066157945 0.5272293 -0.34042653 0.016176315 0.09389561 -0.09076024
0.30006102 0.19666946 -0.02530251 0.24950127 0.19398776 -0.071845576 0.23041885 0.034321368
-0.24332988 -0.02317724 -0.116599634 0.29315248 0.07087905 0.2412675 -0.04539603 0.08292378
00000000: 050c 143e cfee 9bbe f950 b4bc caae 1f3d
00000010: d004 ae3d cf38 c83c 749f 853e 4f77 68bd
00000020: d86f c3bc d968 6b3e 2dc4 c93d 8e21 913b
00000030: 1a75 a13e 1369 023e 6fdb 383e a43a 9c3e
00000040: 8aed 73bc c648 c6bc bb52 1f3e 0938 7abd
00000050: f0af 703e d7a2 c7bd c518 573e 1143 053b
00000060: 375c 503e 22cc 0abe 87f8 68bd 4589 11be
00000070: 0018 6b3e 80cf 21be a87b 5fbd 226b 90bc
00000080: a2e3 483e 2b86 20be bd07 283e 9147 f0bb
00000090: e96c 5c3d 8f0d 3abe 0476 6ebd d3ae d43d
000000a0: 353f 7abe 9ca3 b6bd ceb1 a93d 80f3 803e
000000b0: fc53 50be d307 963d ba69 27bd bfbd ac3e
000000c0: 847c 033d b5cc 403e 9e24 92be 10a6 813e
000000d0: 7102 60be cf74 393e 4220 46be 31bc 55be
000000e0: 01f0 263e e399 77be 6bb3 f0bd 80da a03d
000000f0: 1c0b 19be c4cf 20be 2d4a 80be 35ca b4be
00000100: 65a8 aa3d 3a0e f2b9 be7c 053e 9db9 ed3e
00000110: 730b ebbc b814 10bd d8c3 9c3e f103 8d3d
00000120: cfdb 5bbd 480c 223d 66e1 fbbe 4e6d 303d
00000130: d2d8 0a3e 4a90 f6bd e618 573e 6fdd 193e
00000140: 9c1f f43d b91c 05be 9257 08be 8d30 8cbb
00000150: 0782 a33e e669 b53d d196 8e3b 468a b6bd
00000160: d33a 6b3d f449 7bbe 4460 abbd 3d08 343e
00000170: 08b0 4b3e 02e8 80bc 5894 4cbc a584 7e3d
00000180: 7f83 14be c505 86be f970 173e 5167 4e3d
00000190: fffa 03be fc6b 423e 4d3b 4bbe 57eb 2ebe
000001a0: 5985 833e 0819 923d cf92 403c aa6d d33e
000001b0: 1897 7e3e 2fe7 7e3e 11d2 f43d 77dc 93be
000001c0: fd40 243d 3a8e 2a3c 8b21 d53d b8a5 433e
000001d0: caa5 88be f647 c0bd 502d aa3c b03e 543e
000001e0: 1bc3 a2bd bcd3 b13d e88f b73d 08f9 ad3e
000001f0: 96b2 193b 4e97 6f3e 3ef1 97bc e401 4d3e
00000200: c8bd 0b3e 03ad 08bd c6c4 c5bd 03f0 743d
00000210: 74c5 82be 7365 4dbd b53c 81bd 5d1b 993d
00000220: bbe2 28be 7be9 df3e 5a86 b4bd 1f53 00be
00000230: 83b9 42bc 747c adbe ac62 1fbc dc92 7d3e
00000240: 44b2 883b bcec d23b 4d1d c33d d664 b6be
00000250: 8222 e0bd 0c94 73bd 95aa 083e ace9 82bd
00000260: b694 0f3e 4995 53be 0f0f 253c 22e6 17be
00000270: 6cf7 55be 76f9 4ebe 5620 19bd 6b04 89be
00000280: de36 a1bc a763 06be b71c 813d 051a a6be
00000290: f8b1 14be 34c8 893d 77d4 edbd 976c 143e
000002a0: 6607 1ebe f3db e73d f134 bbbd ee85 3fbc
000002b0: c830 cdbe 42eb 043d 9668 a3bc a955 07bd
000002c0: d987 8c3e 5c4e 2b3e 7f57 5dbd 4a39 9bbe
000002d0: 0eb1 c23d 5ff4 c33d 3a2e 11be a4ae 08be
000002e0: 9a86 55be 454e a6be be8d 963e 8dc5 743d
000002f0: a406 953d 8237 b1be b6d3 90bd 8e59 61bd
00000300: 114e 74bd 47d7 debd 0403 02be a83d f23d
00000310: 7349 b9bd 3f4c dd3d 73f2 5c3e 6f39 a6bd
00000320: 2e44 58bd 79db 4b3e 22ec 003c 4b9b f4bd
00000330: 39ac 093f fe91 9a3d 58b9 403e 02eb 263e
00000340: 1551 823e dc24 0fbe d521 cd3d 1db1 81bd
00000350: 5fd1 683d 1f72 e83d 983d b8bd e535 bf3d
00000360: ab99 a4bd 3321 99bb 7558 5b3d 7973 b83d
00000370: c174 423e 387e 01be 8229 97be 0639 cebd
00000380: fedb e93e 3245 723e cf3e b4bd 77cf 9fbd
00000390: 0aa3 663b 3668 00be 2d20 183d c88f f9bc
000003a0: 27a0 523d 196c b43d d17d 87bd 80f8 063f
000003b0: 634c aebe 3184 843c 574c c03d 81e0 b9bd
000003c0: 99a1 993e b863 493e 3647 cfbc 437d 7f3e
000003d0: baa4 463e c623 93bd ebf2 6b3e 9094 0c3d
000003e0: 782b 79be 32de bdbc cacb eebd 1518 963e
000003f0: 0929 913d d40e 773e 30f1 39bd f1d3 a93d

network_body._body_endoder.seq_layers.0.bias f4 [256]
0.10692376 0.10699999 -0.021651667 0.046270758 0.15873218 -0.17500682 -0.039323106 -0.013079569
0.046932835 -0.07312234 -0.124589704 -0.026634246 -0.0292863 -0.027568894 0.10150072 -0.20813279
0.07774216 0.044882298 -0.0840851 -0.08328973 -0.00885759 0.00044924908 0.09544272 0.112589054
0.1543329 0.1538588 0.14024992 -0.11268107 0.06945841 0.10164287 0.0440078 0.12730384
0.14340904 -0.11151307 0.02155282 0.0067092204 -0.085755855 0.07285828 -0.11074342 0.04290962
-0.16936326 0.14889944 -0.07807878 -0.19097866 -0.0010659546 0.12073012 0.13343064 0.06313608
0.01570012 -0.022823604 0.1177391 0.06718291 -0.072303236 -0.17962436 -0.14416063 -0.008501183
-0.09609489 0.13887997 0.1658744 0.044263165 0.047838736 -0.0078222705 0.023840807 0.08622435
0.104627915 0.03429266 0.060849868 0.16353564 0.050373074 0.009509052 0.08883053 -0.15812568
0.039539374 -0.023367723 -0.081717096 -0.110846415 -0.098515905 0.0022943644 0.123915344 0.026134115
0.15791775 -0.028297454 -0.039137 0.032387644 0.15028565 -0.08461258 0.119288236 -0.025984816
0.072472 0.033246025 0.03800361 -0.064439125 0.069164194 0.13886368 0.041439176 0.004337227
0.00042604614 -0.16417597 0.008742181 0.05604305 0.0067701847 0.08716768 -0.14667764 0.081916824
0.06296162 0.02887742 0.1433724 0.16354524 0.09652936 -0.015492939 0.13655066 0.07360646
0.021392554 0.023602603 0.10052226 -0.055569254 -0.025354238 0.042439237 -0.022585278 0.0838504
0.10592199 -0.04276473 0.11551595 0.093770474 0.052828144 0.04018542 -0.050465595 0.13869396
0.026985832 0.107842766 0.11055938 -0.0013606724 0.008308561 0.15272474 0.1274414 -0.14080477
0.07820611 -0.023053763 0.08472816 -0.03739297 0.08536651 0.020883126 0.081721894 -0.07166771
0.1466406 0.083609305 0.0324543 0.08713124 0.090990715 0.0028837773 0.09183657 0.114630304
0.13636342 0.08300738 0.017651357 -0.05200724 0.07044617 0.15117745 0.14961803 -0.0035760528
-0.07257481 0.040099792 0.15460028 0.08853273 0.044346377 0.073434986 0.07425842 0.14042348
0.16144593 0.026178112 0.061750717 0.1364032 0.08531082 0.061066996 -0.003379326 0.009439465
0.11260966 0.066737875 -0.08484034 0.054798376 -0.024629202 0.05736691 0.048054036 -0.082446545
0.07483715 0.052068893 -0.01967173 0.07042577 0.022369232 0.04928141 0.19329578 0.07516649
0.043549787 -0.08917272 -0.14604828 -0.04378544 0.07703742 0.07541613 0.028850514 -0.17165491
-0.12041315 0.034545302 0.07176585 0.05091451 0.05631861 0.12318285 0.08588442 0.027151788
-0.107652985 0.014601668 0.16280727 0.088877425 0.08675701 0.13050434 -0.054346878 -0.15761515
0.11904739 -0.15567741 0.13523656 0.034302868 0.00036607267 0.06136721 -0.057784453 -0.023886204
0.04584601 0.07076425 0.11754208 0.02728124 -0.04159045 0.15401438 -0.12942941 -0.08789644
0.027819728 0.0063119386 0.047052544 -0.0037076734 -0.077299036 -0.13180104 0.16425116 -0.17612372
-0.101266034 0.12157749 -0.028125603 -0.06360788 0.10321844 0.09438043 0.06110322 0.01722268
-0.09807121 -0.06907399 0.09952461 -0.14475955 0.02870481 -0.16248336 -0.16743493 0.16116892
00000000: d8fa da3d d022 db3d d65e b1bc 6886 3d3d
00000010: b08a 223e fd34 33be 4411 21bd b04b 56bc
00000020: a53c 403d 2ac1 95bd e328 ffbd 1030 dabc
00000030: d3e9 efbc 29d8 e1bc 9cdf cf3d c320 55be
00000040: 4837 9f3d 80d6 373d cf34 acbd ce93 aabd
00000050: 6d1f 11bc 3189 eb39 7977 c33d 1795 e63d
00000060: 7209 1e3e 298d 1d3e ad9d 0f3e 55c5 e6bd
00000070: 3640 8e3d 232a d03d 8641 343d f05b 023e
00000080: d2d9 123e f760 e4bd 8a8f b03c 05d9 db3b
00000090: c4a0 afbd b936 953d 72cd e2bd ffc1 2f3d
000000a0: 906d 2dbe 1879 183e c4e7 9fbd e98f 43be
000000b0: 80b7 8bba 5a41 f73d 0ba2 083e 7d4d 813d
000000c0: 8a9d 803c 91f8 babc 3221 f13d 3297 893d
000000d0: b813 94bd 73ef 37be d89e 13be 8c48 0bbc
000000e0: 66cd c4bd 8d36 0e3e fbda 293e 4b4d 353d
000000f0: 8df2 433d fb28 00bc cc4d c33c 6496 b03d
00000100: 2947 d63d 7676 0c3d b63d 793d e375 273e
00000110: ff53 4e3d dbcb 1b3c c8ec b53d b3eb 21be
00000120: 0af4 213d ab6d bfbc 4b5b a7bd 7203 e3bd
00000130: b5c2 c9bd 0c5d 163b 54c7 fd3d 3617 d63c
00000140: 31b5 213e 10d0 e7bc 1e4e 20bd e8a8 043d
00000150: 7be4 193e 5c49 adbd 644d f43d 1cde d4bc
00000160: 336c 943d fc2c 083d aca9 1b3d a9f8 83bd
00000170: f5a5 8d3d 4832 0e3e 20bc 293d 4c1f 8e3b
00000180: f25e df39 bf1d 28be 5d3b 0f3c 668d 653d
00000190: 6dd8 dd3b f884 b23d aa32 16be 02c4 a73d
000001a0: 06f2 803d 5790 ec3c 37d0 123e 6778 273e
000001b0: 2fb1 c53d 19d6 7dbc f0d3 0b3e fcbe 963d
000001c0: 703f af3c 3f5a c13c 9dde cd3d 969c 63bd
000001d0: b1b3 cfbc c4d4 2d3d c304 b9bc c2b9 ab3d
000001e0: a1ed d83d 122a 2fbd a093 ec3d bc0a c03d
000001f0: 5362 583d 7899 243d 03b5 4ebd ca05 0e3e
00000200: 6411 dd3c abdc dc3d f56c e23d 9758 b2ba
00000210: a120 083c e063 1c3e 0080 023e 202f 10be
00000220: 862a a03d 3fdb bcbc f585 ad3d 5f29 19bd
00000230: a3d4 ae3d 1713 ab3c cf5d a73d 85c6 92bd
00000240: f428 163e 5b3b ab3d cdee 043d dd71 b23d
00000250: 5759 ba3d c1fd 3c3b d014 bc3d 4bc3 ea3d
00000260: daa2 0b3e c6ff a93d 9499 903c 8b05 55bd
00000270: 1546 903d 43ce 1a3e 7835 193e 365c 6abb
00000280: 1aa2 94bd ae3f 243d 894f 1e3e a650 b53d
00000290: 8ca4 353d 1565 963d cc14 983d 2ccb 0f3e
000002a0: 1552 253e 7b73 d63c 52ee 7c3d 48ad 0b3e
000002b0: 70b7 ae3d 6321 7a3d af77 5dbb fca7 1a3c
000002c0: e59f e63d dead 883d c6c0 adbd 4374 603d
000002d0: 2ec3 c9bc 91f9 6a3d 4fd4 443d bcd9 a8bd
000002e0: 3844 993d 3146 553d 9c26 a1bc 633b 903d
000002f0: ae3f b73c 4edb 493d 54ef 453e e4f0 993d
00000300: 4361 323d 30a0 b6bd ae8d 15be 5d58 33bd
00000310: cbc5 9d3d c673 9a3d ea57 ec3c 4ec6 2fbe
00000320: 2b9b f6bd 607f 0d3d f9f9 923d bc8b 503d
00000330: 58ae 663d 4a47 fc3d 2ce4 af3d 6d6d de3c
00000340: 2b79 dcbd d63b 6f3c f3b6 263e 5e05 b63d
00000350: a9ad b13d eea2 053e d59a 5ebd de65 21be
00000360: 1ecf f33d e669 1fbe 747b 0a3e 2a81 0c3d
00000370: 71ed bf39 2f5c 7b3d 64af 6cbd 00ad c3bc
00000380: 07c9 3b3d d9ec 903d e7b9 f03d e87c df3c
00000390: bf5a 2abd f2b5 1d3e 2589 04be 0c03 b4bd
000003a0: 33e6 e33c 61d4 ce3b 2bba 403d 70fc 72bb
000003b0: f54e 9ebd daf6 06be 7531 283e c759 34be
000003c0: 9164 cfbd 9efd f83d aa67 e6bc d944 82bd
000003d0: 3164 d33d 874a c13d 5f47 7a3d 9416 8d3c
000003e0: 8fd9 c8bd aa76 8dbd 8fd3 cb3d d93b 14be
000003f0: 5a26 eb3c 0a62 26be 1074 2bbe 7709 253e

network_body._body_endoder.seq_layers.2.weight f4 [256, 256]
-0.19993015 -0.010868983 0.030271737 0.043295443 0.05902605 0.016394466 -0.040736884 0.070087604
0.028919352 -0.00807753 -0.09192041 -0.0122566745 0.02141455 0.010544081 0.015746348 0.056141086
0.051412918 -0.043359518 0.005710655 0.08625934 0.077949084 0.04670784 0.12857474 0.0063975337
-0.10490184 -0.08224647 -0.03390234 0.13523686 -0.073884204 0.0645112 -0.028724784 0.09536858
-0.050151765 -0.016719874 -0.060154095 0.041728284 0.0016011242 0.00024752662 0.042430118 0.081713155
-0.108619906 -0.03373579 -0.014543355 0.008122102 0.020603923 -0.025888173 -0.14565994 -0.07859139
-0.05881649 0.06904909 -0.09153221 -0.06017811 0.04160494 0.074775055 -0.03960818 -0.06848462
0.1620542 -0.066039495 -0.00516492 -0.05063307 -0.10814496 0.057583213 0.003865183 -0.0061551565
0.09974203 -0.050426327 -0.09189204 -0.0077502094 0.09529283 -0.08678855 -0.11482325 -0.06996226
0.018500894 0.0147135155 -0.02581591 0.11344506 -0.04482157 -0.041693434 -0.082853265 -0.068400234
-0.032672316 0.09946879 0.17821234 0.015944263 0.11797188 -0.045424968 -0.04608641 0.11653962
-0.05077178 0.012599399 0.013343203 -0.077673644 0.0432861 -0.0042692064 0.06803746 0.042900834
0.048963375 -0.13039261 -0.052458327 0.13478816 0.039444894 -0.0938505 0.12829188 0.031526234
-0.08958575 -0.04256068 -0.007508853 -0.11405457 0.0005322156 -0.067480415 -0.023910493 0.023883589
0.028694013 -0.10372513 -0.048040062 -0.08998981 -0.13351871 0.0015129454 0.01736161 -0.032309078
-0.10507733 0.08833259 -0.061240587 -0.12573749 0.1115829 0.11203997 -0.0644214 0.00907646
-0.025353145 -0.095611244 -0.1279604 0.017672418 -0.052603547 -0.057593167 -0.051912896 -0.06541989
0.024618978 0.14122833 -0.018769868 0.046140168 -0.012123904 0.06523147 -0.14029539 0.055257805
-0.019938586 0.031575598 -0.092194736 0.07359521 0.111439176 -0.036531568 -0.005954125 0.084964894
-0.055282254 -0.08787858 -0.021472815 -0.09163272 -0.098193556 -0.10983583 -0.04450937 0.11142775
-0.03241187 -0.04469201 -0.025705542 -0.09067892 -0.094041154 -0.08354962 0.009375551 -0.06990025
-0.1306502 -0.09316292 -0.11006105 -0.06559817 -0.011724115 -0.10605527 0.085767254 -0.089056075
-0.11121481 0.05109827 -0.0476807 -0.042808346 0.017632822 0.13520157 0.04269925 0.019852396
-0.006650629 -0.1312396 -0.08661394 0.061581794 -0.014555363 -0.07417176 -0.047210656 -0.029618956
-0.0022062897 -0.03527198 -0.012134726 -0.056932703 0.11394344 -0.009164372 -0.04985193 -0.031735606
0.09992582 -0.065501265 0.041422833 -0.056687582 -0.033395387 -0.08708504 -0.031487476 0.05977091
0.13303033 0.017546173 -0.0867539 -0.032829113 -0.05776707 -0.025104905 0.08403968 -0.03893605
-0.08205821 -0.039348684 0.08756119 0.03342021 0.01027517 -0.020947658 0.06763266 -0.01694066
0.13489693 -0.0019734718 -0.037604418 -0.022765586 0.061579928 -0.062797 0.007994638 0.008009291
0.12415865 0.014952678 0.034533232 0.02109316 0.006214968 0.0668074 0.037291314 0.103520855
0.0026899958 -0.09627953 0.05928443 0.058241177 -0.1430909 0.0007868751 -0.0069710785 -0.10367807
0.069945045 -0.08295185 0.08778668 0.09092288 0.037844904 0.006430432 0.083432235 0.03504081
00000000: 7dba 4cbe d213 32bc 6ffc f73c 9056 313d
00000010: 4dc5 713d b04d 863c b8db 26bd 178a 8f3d
00000020: 47e8 ec3c 9e57 04bc c540 bcbd 38d0 48bc
00000030: 916d af3c 15c1 2c3c 7cfe 803c 32f4 653d
00000040: 5a96 523d c099 31bd 7220 bb3b bda8 b03d
00000050: c5a3 9f3d b850 3f3d 19a9 033e 67a2 d13b
00000060: c7d6 d6bd d670 a8bd 2edd 0abd 887b 0a3e
00000070: 9a50 97bd 731e 843d 3d50 ebbc 9a50 c33d
00000080: f06b 4dbd 1ef8 88bc 2464 76bd 47eb 2a3d
00000090: d0dc d13a 76c6 8139 34cb 2d3d 3a59 a73d
000000a0: 1d74 debd 8a2e 0abd 4147 6ebc 9112 053c
000000b0: 8fc9 a83c 6f13 d4bc e127 15be 86f4 a0bd
000000c0: 8fe9 70bd 9c69 8d3d 3d75 bbbd 527d 76bd
000000d0: f169 2a3d aa23 993d 303c 22bd aa41 8cbd
000000e0: 89f1 253e b73f 87bd 7d3e a9bb 9f64 4fbd
000000f0: 1b7b ddbd 60dc 6b3d 034f 7d3b 32b1 c9bb
00000100: 8d45 cc3d d68b 4ebd e531 bcbd 78f5 fdbb
00000110: e328 c33d 32be b1bd 7428 ebbd 6048 8fbd
00000120: 308f 973c f510 713c e37b d3bc e255 e83d
00000130: d396 37bd bcc6 2abd f9ae a9bd 6c15 8cbd
00000140: 68d3 05bd 4bb6 cb3d 4c7d 363e 8b9d 823c
00000150: 3e9b f13d 880f 3abd 1ac5 3cbd 53ac ee3d
00000160: 12f6 4fbd b66d 4e3c 739d 5a3c 5c13 9fbd
00000170: c44c 313d b3e4 8bbb 3957 8b3d c9b8 2f3d
00000180: d28d 483d a485 05be 8bde 56bd e805 0a3e
00000190: f890 213d b134 c0bd f25e 033e a721 013d
000001a0: bc78 b7bd 1c54 2ebd d30c f6bb 7195 e9bd
000001b0: 6284 0b3a 2c33 8abd f0df c3bc 84a7 c33c
000001c0: b50f eb3c d76d d4bd a8c5 44bd 944c b8bd
000001d0: 21b9 08be 064e c63a ef39 8e3c 8656 04bd
000001e0: c832 d7bd b8e7 b43d 69d7 7abd 54c1 00be
000001f0: 9385 e43d 3675 e53d 5eef 83bd 6fb5 143c
00000200: 66b1 cfbc d4cf c3bd 0d08 03be bfc5 903c
00000210: d176 57bd d0e6 6bbd 9ea2 54bd ddfa 85bd
00000220: bdad c93c 299e 103e 44c3 99bc 79fd 3c3d
00000230: 57a3 46bc 1498 853d 98a9 0fbe 0256 623d
00000240: 3f56 a3bc 6a55 013d 98d0 bcbd 16b9 963d
00000250: 393a e43d 20a2 15bd d21a c3bb 1302 ae3d
00000260: a56f 62bd aff9 b3bd c2e7 afbc efa9 bbbd
00000270: b419 c9bd 9cf1 e0bd 754f 36bd 3b34 e43d
00000280: 4fc2 04bd f80e 37bd 6e94 d2bc dfb5 b9bd
00000290: a698 c0bd 101c abbd e99b 193c dd27 8fbd
000002a0: 2bc9 05be 33cc bebd b067 e1bd 5558 86bd
000002b0: 8116 40bc 8133 d9bd bea6 af3d 0863 b6bd
000002c0: 97c4 e3bd 6b4c 513d d64c 43bd ce57 2fbd
000002d0: b572 903c 4872 0a3e 69e5 2e3d 7ea1 a23c
000002e0: 85ed d9bb ac63 06be a662 b1bd 313d 7c3d
000002f0: 9e79 6ebc 5de7 97bd f65f 41bd 74a3 f2bc
00000300: 6697 10bb 5a79 10bd bbd0 46bc 4432 69bd
00000310: 2e5b e93d 2a26 16bc 8a31 4cbd 32fd 01bd
00000320: e9a5 cc3d 8725 86bd fdaa 293d 3d31 68bd
00000330: 9ac9 08bd a459 b2bd 03f9 00bd 57d2 743d
00000340: 1a39 083e febc 8f3c 07ac b1bd d277 06bd
00000350: 2a9d 6cbd cda8 cdbc ff1c ac3d 687b 1fbd
00000360: 230e a8bd 162c 21bd 4853 b33d a1e3 083d
00000370: 3059 283c 6c9a abbc fe82 8a3d 24c7 8abc
00000380: 6c22 0a3e 5d55 01bb 1707 1abd e57e babc
00000390: 3c3b 7c3d b79b 80bd f1fb 023c 6739 033c
000003a0: e446 fe3d 14fc 743c b872 0d3d 90cb ac3c
000003b0: eea6 cb3b 51d2 883d c7be 183d be02 d43d
000003c0: a44a 303b 342e c5bd 3bd4 723d 4d8e 6e3d
000003d0: 6c86 12be 4b46 4e3a a56d e4bb 2b55 d4bd
000003e0: 593f 8f3d a9e2 a9bd 81c9 b33d c635 ba3d
000003f0: 4203 1b3d 60b6 d23b 85de aa3d f486 0f3d

network_body._body_endoder.seq_layers.2.bias f4 [256]
-0.10001178 0.058249492 -0.04732709 0.0057610655 0.01652631 0.0123045975 0.004149978 -0.0905399
-0.03191643 -0.018218974 -0.031328555 0.10387677 0.05341376 0.08378285 -0.11394524 0.10454897
-0.08904253 -0.08116166 0.06105151 0.027544744 -0.050512932 -0.050389174 0.032211456 -0.04120892
0.053511526 0.066139676 0.048707526 -0.15489815 0.0714701 0.0420467 0.032565165 0.0010321031
0.07446754 -0.056143086 -0.006412984 -0.085735336 0.12584016 0.07976826 -0.020727204 -0.053766944
0.082588755 -0.09567959 0.12463011 -0.029900376 0.05216171 -0.021059072 0.08638819 0.033003245
-0.035112925 -0.021620322 -0.07346589 -0.04763102 0.07906904 0.058910124 0.06175257 -0.08274874
0.06994267 0.016826602 -0.022304932 0.062942915 -0.13903743 -0.0064320103 0.07931083 -0.06846574
0.076344796 0.06634732 -0.0932459 -0.09232759 0.05087929 0.03549442 -0.11135839 -0.14641842
-0.02912775 0.03486969 0.11026193 -0.093425706 0.05687957 -0.0007717363 0.011038774 -0.042992156
0.076431595 0.045373835 -0.07078641 0.048553303 0.06046628 0.022109542 0.06546272 0.08585192
0.016789638 0.11561674 0.014012002 -0.11641945 -0.0017896144 -0.061753374 -0.14588827 0.0615111
-0.10158358 0.034173083 -0.015817916 -0.14484276 -0.06888978 -0.0449878 -0.102997914 0.04340078
-0.12778947 -0.08517425 -0.05276387 -0.018320017 -0.053522587 0.051024552 -0.046996817 0.0042231367
-0.14383055 -0.01840851 0.08235454 -0.0032020558 0.08016681 0.072920695 -0.07490634 0.08237626
0.02275306 0.013852969 -0.063077204 0.05229808 0.025911879 0.110009305 0.10541892 -0.029050343
0.06865478 0.0807165 -0.13357581 -0.062455628 -0.014724145 -0.11966669 0.063319035 -0.101217516
-0.019612832 -0.14079334 0.05338911 0.07497819 -0.051440053 0.0950609 -0.0062479917 0.029103043
-0.012020293 -0.002450026 -0.13118844 -0.10863399 -0.12266962 0.10696339 -0.071720175 -0.11379912
-0.10125069 0.084605284 0.020720815 0.071009554 -0.009375357 -0.13467 0.035050467 -0.14643283
0.07311255 0.00751913 0.032318674 -0.08682667 0.040295806 -0.033954825 0.042112254 0.010217863
0.11338761 -0.145413 -0.12896208 0.00538609 -0.1382727 0.038052365 0.036895566 -0.03277345
-0.039270993 0.0505759 -0.018714044 0.03460243 -0.0047151656 0.08129976 -0.004985712 0.0692286
-0.13299492 0.06522539 -0.003353217 0.09027111 0.12711006 0.01092763 -0.1378238 -0.008084035
0.04840475 0.10376919 -0.117346846 -0.13312629 0.090061575 0.04378845 -0.11227937 -0.08922698
-0.109618686 0.012156647 0.046168298 0.08205099 -0.04668084 0.05281269 -0.1318368 -0.049114052
0.09229983 0.00066965166 -0.13113151 0.05431268 -0.13517925 -0.052974813 0.116891585 -0.04158677
-0.008186356 -0.0943734 0.116239645 0.049100265 0.052617993 0.09136764 0.0025116215 0.051758457
-0.1012841 0.06815826 -0.025275014 -0.14289421 0.06606785 0.07123534 -0.10339257 0.06109112
-0.11724964 0.03355879 0.024127822 -0.05450504 0.020668922 -0.098694645 0.03174892 0.06059412
0.002153771 0.051933836 -0.09516156 -0.0003109762 -0.0060444814 0.030725364 0.05362305 0.016059669
-0.05029991 -0.022900464 -9.2558505e-05 -0.032647494 0.05047091 -0.00064928 -0.13207766 -0.053632155
00000000: fad2 ccbd 0597 6e3d 0dda 41bd 52c7 bc3b
00000010: 2f62 873c 3999 493c 8afc 873b fc6c b9bd
00000020: cdba 02bd f53f 95bc 5f52 00bd 58bd d43d
00000030: 63c8 5a3d 5896 ab3d 1f5c e9bd c51d d63d
00000040: ee5b b6bd 1638 a6bd 2611 7a3d 84a5 e13c
00000050: a6e6 4ebd e164 4ebd 29f0 033d afca 28bd
00000060: e72e 5b3d 3d74 873d 8b81 473d 9f9d 1ebe
00000070: ea5e 923d 2939 2c3d 0d63 053d a247 873a
00000080: 7082 983d 4bf6 65bd 0224 d2bb 0296 afbd
00000090: 3edc 003e 8b5d a33d 19cc a9bc ba3a 5cbd
000000a0: 4b24 a93d a9f3 c3bd 123e ff3d a2f1 f4bc
000000b0: 84a7 553d 1384 acbc 4bec b03d 692e 073d
000000c0: 92d2 0fbd 1a1d b1bc 4975 96bd bf18 43bd
000000d0: f3ee a13d be4b 713d 43f0 7c3d 2c78 a9bd
000000e0: 1a3e 8f3d f1d7 893c d5b8 b6bc 37e8 803d
000000f0: d45f 0ebe 9dc3 d2bb b76d a23d c437 8cbd
00000100: a95a 9c3d 1be1 873d b5f7 bebd 3f16 bdbd
00000110: cd66 503d 9962 113d de0f e4bd b6ee 15be
00000120: 529d eebc 85d3 0e3d 02d1 e13d fa55 bfbd
00000130: 8dfa 683d 594e 4aba f9db 343c 8b18 30bd
00000140: 2b88 9c3d ead9 393d 77f8 90bd d4df 463d
00000150: 7dab 773d 121f b53c 5211 863d 22d3 af3d
00000160: 6c8a 893c 78c8 ec3d 9992 653c 526d eebd
00000170: 7f91 eaba 1bf1 7cbd bc63 15be 10f3 7b3d
00000180: 0d0b d0bd 13f9 0b3d 9394 81bc a951 14be
00000190: 1616 8dbd 2145 38bd 92f0 d2bd 04c5 313d
000001a0: 3edb 02be d66f aebd ee1e 58bd dc13 96bc
000001b0: 803a 5bbd 1fff 503d bc7f 40bd 3d62 8a3b
000001c0: 5148 13be 72cd 96bc 7fa9 a83d 95d9 51bb
000001d0: 7f2e a43d 7257 953d 7f68 99bd e2b4 a83d
000001e0: a064 ba3c 90f7 623c 9f2e 81bd 8336 563d
000001f0: 2645 d43c 8f4c e13d e0e5 d73d fcfa edbc
00000200: e19a 8c3d b14e a53d 19c8 08be 79d1 7fbd
00000210: 8a3d 71bc cf13 f5bd 69ad 813d 214b cfbd
00000220: 17ab a0bc 212c 10be 8aae 5a3d 2a8e 993d
00000230: ceb2 52bd 4aaf c23d f4bb ccbb 8169 ee3c
00000240: c3f0 44bc 9e90 20bb 4356 06be 7f7b debd
00000250: 363a fbbd 9f0f db3d 07e2 92bd 830f e9bd
00000260: 865c cfbd 8945 ad3d b3be a93c 756d 913d
00000270: 199b 19bc efe6 09be 1491 0f3d 7df2 15be
00000280: 08bc 953d 0963 f63b 9660 043d 2ed2 b1bd
00000290: 370d 253d 3714 0bbd e67d 2c3d d368 273c
000002a0: c337 e83d 25e7 14be a30e 04be cc7d b03b
000002b0: 5c97 0dbe ccdc 1b3d ce1f 173d 743d 06bd
000002c0: 9fda 20bd ad28 4f3d 324e 99bc 47bb 0d3d
000002d0: ad81 9abb 7d80 a63d 2f5f a3bb b9c7 8d3d
000002e0: d22f 08be e494 853d a5c1 5bbb 0fe0 b83d
000002f0: 2429 023e cd09 333c af21 0dbe e672 04bc
00000300: 0f44 463d f184 d43d 8b53 f0bd 4252 08be
00000310: 3472 b83d 855b 333d baf2 e5bd a3bc b6bd
00000320: c37f e0bd ac2c 473c f81a 3d3d 590a a83d
00000330: 6934 3fbd 1f52 583d 3a00 07be d12b 49bd
00000340: b107 bd3d 908b 2f3a 5747 06be f976 5e3d
00000350: 6e6c 0abe 1efc 58bd db64 ef3d e456 2abd
00000360: 1120 06bc d746 c1bd 0d0f ee3d 5c1d 493d
00000370: f785 573d f51e bb3d 049a 243b ad00 543d
00000380: 0a6e cfbd 8f96 8b3d 8c0d cfbc dc52 12be
00000390: 954e 873d d5e3 913d 7cbf d3bd af3a 7a3d
000003a0: 9420 f0bd f174 093d b6a7 c53c ad40 5fbd
000003b0: df51 a93c 6b20 cabd 280b 023d 8a31 783d
000003c0: 4826 0d3b 93b8 543d 10e4 c2bd 850a a3b9
000003d0: c910 c6bb c2b3 fb3c d8a3 5b3d 918f 833c
000003e0: 4707 4ebd c199 bbbc f81b c2b8 61b9 05bd
000003f0: 96ba 4e3d 7134 2aba 5e3f 07be 64ad 5bbd

action_model._discrete_distribution.branches.0.weight f4 [4, 256]
0.019333541 -0.013679892 0.0038462663 -0.010028548 0.0143511435 -0.013756989 -0.008769071 0.014943739
-0.017666304 -0.021451045 0.004124748 -0.005544072 -0.0039042386 -0.015473408 0.023333862 -0.02867262
0.02327302 0.009095205 -0.005941417 -0.0068309517 -4.859778e-05 0.022694623 -0.017222572 0.0014952045
0.00208494 -0.02419338 -0.027569741 0.03372715 -0.0038956418 -0.015801415 -0.010098088 -0.0039955187
-0.02103289 0.021090226 -0.015455409 0.025255714 -0.022336163 -0.027073825 0.01041375 0.00031399398
-0.02300244 0.026845738 -0.019938247 0.039583612 0.004386954 -0.0004683809 -0.021500895 -0.0017863854
0.0035574632 -0.008287621 0.007363961 0.009858123 -0.013853837 -0.03090112 -0.02293539 0.011698218
-0.015609805 -0.00014552093 0.015625104 -0.016413175 0.033482894 -0.022715906 -0.031999066 0.014076917
-0.019692643 -0.021831583 0.0060654967 0.020974584 -0.01175211 -5.290196e-05 0.022800134 0.03167476
0.0034775916 -0.024063507 -0.033368472 0.030256677 -0.027616799 -0.019192733 -0.014762485 -0.0034558058
-0.002423891 -0.01469003 0.020400565 -0.032592036 -0.029779734 0.0036781777 -0.01701999 -0.020939855
-0.008404444 -0.040358905 0.0170898 0.054997638 -0.028005283 0.038423657 0.03465287 -0.016069777
0.012147317 -0.0011804642 0.004438818 0.03061624 0.04815754 0.008121029 0.029075066 -0.019599982
0.02385021 0.027122583 0.030806543 0.0016420245 0.02721381 -0.014205701 0.022089446 -0.00054070435
0.031234886 -0.02635479 -0.020169 -0.007890974 -0.018246181 -0.01519906 0.02507249 -0.007860608
-0.020927085 -0.007955558 0.03434845 0.0016434836 -0.015231761 -0.028656239 -0.01596746 -0.002109728
-0.012394172 -0.023181334 0.037601754 0.0131240105 0.018049087 0.02633527 -0.006060948 0.041434024
-0.0016041886 0.023398735 0.003130079 0.004160717 -0.0040685125 -0.022377018 0.0074236845 -0.016244343
0.033775315 -0.0024615582 0.043298118 0.013673866 0.017765358 -0.017975822 0.03144243 0.05247619
0.04327999 -0.011971777 -0.014328585 -0.028984534 -0.015710255 0.026087916 0.032651626 0.03682888
-0.016262392 0.008603076 -0.017494269 0.04666189 0.0036928745 0.027003957 0.0014446009 -0.0033112513
-0.025785364 0.03437833 0.016379206 -0.020828912 0.037619308 -0.0049692374 -0.0012275992 -0.018711798
0.007096859 -0.013909178 -0.00066807744 -0.023310866 -0.019968707 -0.022579473 -0.027610054 -0.023971343
0.023075897 -0.037495 0.016172081 -0.027852207 -0.0114334645 -0.00065372715 0.025913907 -0.030724145
-0.0066019404 0.0062203566 0.03875387 0.040043633 -0.026172418 -0.024755046 0.030847482 0.021758776
0.027648047 0.00404777 -0.0028231686 -0.023222582 -0.02019634 -0.019901399 0.023357768 0.022312637
-0.036973186 0.022606047 0.040980794 -0.0146365035 0.034955744 0.016282061 -0.023287496 0.0035680584
-0.009542354 0.024738822 -0.02487228 -0.019589296 -0.008062404 -0.035069395 -0.002040781 -0.018419141
0.025881063 0.0024671322 -0.004007207 0.036064073 -0.0031734912 -0.010761327 0.013143945 -0.011199369
0.019517256 -0.012642349 0.0071380096 0.017868593 -0.004526706 0.013375239 -0.017424246 -0.017421005
-0.006871254 -0.00074920943 0.020209923 0.020080663 -0.0033628105 -0.0117849875 -0.0161764 -0.005625731
0.005054967 -0.004212431 -0.005171942 -0.0005920885 -0.013124903 0.0006861951 0.012129059 -0.000964453
00000000: 6061 9e3c a021 60bc a411 7c3b c74e 24bc
00000010: 0f21 6b3c fe64 61bc 26ac 0fbc 96d6 743c
00000020: edb8 90bc 1aba afbc e528 873b 0cab b5bb
00000030: 41de 7fbb 2d84 7dbc a826 bf3c d8e2 eabc
00000040: 0fa7 be3c 0e04 153c 38b0 c2bb 2dd6 dfbb
00000050: 78d5 4bb8 13ea b93c 5a16 8dbc bdfa c33a
00000060: 7da3 083b 3231 c6bc f0d9 e1bc 7b25 0a3d
00000070: 064e 7fbb f871 81bc 7372 25bc d7ec 82bb
00000080: 2b4d acbc 69c5 ac3c af38 7dbc 12e5 ce3c
00000090: 54fa b6bc edc9 ddbc 6f9e 2a3c 8f9f a439
000000a0: 9d6f bcbc 98eb db3c 8955 a3bc 6d22 223d
000000b0: 70c0 8f3b 0591 f5b9 a522 b0bc 2625 eaba
000000c0: 5424 693b cdc8 07bc 624d f13b f783 213c
000000d0: 34fb 62bc 5824 fdbc 00e3 bbbc e2a9 3f3c
000000e0: 44c0 7fbc fa96 18b9 3800 803c ec74 86bc
000000f0: 5c25 093d b516 babc 7411 03bd dfa2 663c
00000100: 7752 a1bc 26d8 b2bc 13c1 c63b e4d2 ab3c
00000110: ec8b 40bc 0ce3 5db8 59c7 ba3c 65bd 013d
00000120: 4ee8 633b d520 c5bc 61ad 08bd dadc f73c
00000130: a03c e2bc 143a 9dbc 5ade 71bc cd7a 62bb
00000140: 25da 1ebb 74ae 70bc 161f a73c 3a7f 05bd
00000150: a1f4 f3bc 950d 713b 826d 8bbc 0f8a abbc
00000160: cbb2 09bc 614f 25bd e9ff 8b3c 3445 613d
00000170: 566b e5bc 2062 1d3d 2bf0 0d3d c4a4 83bc
00000180: 8a05 473c ceb9 9aba 8173 913b e9ce fa3c
00000190: d740 453d 100e 053c d52e ee3c 2490 a0bc
000001a0: 8461 c33c 2e30 de3c 015e fc3c 3339 d73a
000001b0: 7fef de3c 07bf 68bc edf4 b43c 0ebe 0dba
000001c0: 4ee0 ff3c 00e6 d7bc 7539 a5bc 2549 01bc
000001d0: 0479 95bc 7a05 79bc d364 cd3c c8c9 00bc
000001e0: 476f abbc 0758 02bc f6b0 0c3d 296a d73a
000001f0: a38e 79bc 7dc0 eabc 31ce 82bc 5d43 0abb
00000200: ed10 4bbc c8e6 bdbc 4c04 1a3d 1706 573c
00000210: aedb 933c 10bd d73c eb9a c6bb b9b6 293d
00000220: a343 d2ba b4ae bf3c 0322 4d3b a056 883b
00000230: 2851 85bb 0250 b7bc 6142 f33b db12 85bc
00000240: fc57 0a3d 1852 21bb 5e59 313d 5a08 603c
00000250: a888 913c 0842 93bc c7c9 003d 46f1 563d
00000260: 5c46 313d 4625 44bc 71c2 6abc f970 edbc
00000270: cbb2 80bc 53b6 d53c b6bd 053d e1d9 163d
00000280: b538 85bc ebf3 0c3c 2450 8fbc 8a20 3f3d
00000290: 2704 723b 6737 dd3c c358 bd3a 9401 59bb
000002a0: d43b d3bc 4bd0 0c3d af2d 863c 65a1 aabc
000002b0: b416 1a3d fcd4 a2bb 65e7 a0ba 7c49 99bc
000002c0: c58c e83b 52e3 63bc eb21 2fba 6ef6 bebc
000002d0: 6a95 a3bc 96f8 b8bc 7b2e e2bc 8d5f c4bc
000002e0: aa09 bd3c 5b94 19bd 507b 843c 502a e4bc
000002f0: 6d53 3bbc e35e 2bba 6749 d43c 34b1 fbbc
00000300: 1755 d8bb 22d4 cb3b 61bc 1e3d cb04 243d
00000310: 8a67 d6bc 18cb cabc dcb3 fc3c 763f b23c
00000320: 287e e23c 28a3 843b e904 39bb 493d bebc
00000330: cb72 a5bc 4208 a3bc ca58 bf3c fec8 b63c
00000340: 3271 17bd 5130 b93c 7adb 273d f2cd 6fbc
00000350: c12d 0f3d f561 853c 6bc5 bebc 16d6 693b
00000360: 8957 1cbc 12a9 ca3c f4c0 cbbc bb79 a0bc
00000370: 2c18 04bc eda4 0fbd a0be 05bb bde3 96bc
00000380: 8604 d43c 9caf 213b e44e 83bb ecb7 133d
00000390: 59fa 4fbb 4750 30bc b359 573c 8f7d 37bc
000003a0: a7e2 9f3c db21 4fbc f7e5 e93b 2861 923c
000003b0: c354 94bb d223 5b3c 4bbd 8ebc 7fb6 8ebc
000003c0: 4228 e1bb 9866 44ba 488f a53c 3480 a43c
000003d0: 9962 5cbb d215 41bc 5f84 84bc 0d58 b8bb
000003e0: 23a4 a53b 6f08 8abb 6579 a9bb 6336 1bba
000003f0: d509 57bc c6e1 333a f6b8 463c 58d3 7cba

action_model._discrete_distribution.branches.0.bias f4 [4]
-0.042253252 0.109109886 -0.03666649 -0.061790973
00000000: bf11 2dbd 0175 df3d 9a2f 16bd 8818 7dbd

action_model._discrete_distribution.branches.1.weight f4 [15, 256]
-0.006189808 0.0002147721 0.0010638575 0.016119728 -0.034704264 -0.036443356 0.021776054 0.0054599587
-0.0066454085 0.021615852 0.05182849 0.013503107 -0.038787063 0.038447812 -0.001016036 -0.0059081363
-0.018265033 0.030855648 0.0035885691 -0.025972225 -0.032174613 -0.019168863 0.010710634 -0.019762052
-0.012950573 -0.0020387254 -0.0072559733 0.00031057603 -0.03412117 -0.011579204 -0.021999018 -0.019282658
-0.0053096986 0.037868995 0.015049172 -0.019761397 -0.009281645 -0.010767086 0.0010852594 -0.040695265
-0.013203568 0.003662503 -0.031779762 0.040433034 0.0017544315 0.044604603 -0.005911395 0.015004519
-0.00527177 -0.0013316758 -0.027353529 -0.05215289 -0.023493323 -0.008252803 -0.0027509087 -0.0074916845
-0.016021764 -0.010410229 0.022536773 -0.013298656 -0.021170048 0.0037842845 -0.012040638 0.0031549826
0.032111228 0.016932044 0.019706516 0.019045705 -0.04796885 0.023619631 -0.015986733 -0.0011844634
-0.013018559 0.0117814895 -0.0042723916 0.009192254 -0.0034584545 -0.0036514394 0.0067571644 0.0011659737
0.008927508 -0.019982316 0.03572233 0.009177903 0.010443769 -0.008327717 -0.008027753 -0.027520554
0.025065908 0.008456677 -0.014691415 0.011095604 -0.004912111 0.004117729 0.0048238444 0.013074319
0.041009497 -0.0022945795 -0.014930224 -0.012174294 -0.011043568 0.052428927 0.020847352 0.017329697
-0.0024205418 0.04704296 0.006656026 0.028765509 0.00062301086 0.033791274 -0.01743525 -0.0066874526
-0.0076392596 -0.0098310625 0.067208484 0.023976369 0.00100885 -0.0023707787 0.0063923583 -0.00023677488
-0.008793788 0.025753368 0.011901496 -0.01308944 0.0209199 -0.0022569462 0.0041308124 0.02227246
0.0034519723 -0.021245988 -0.009165106 0.02027786 0.008444576 0.018388912 -0.0018286748 -0.00406727
-0.011567787 -0.022604473 0.017074324 -0.012974981 0.021423042 -0.00096804346 -0.008739498 -0.002417839
-0.07302549 0.037890006 -0.009239023 0.012255276 0.0008632011 -0.0069422824 0.058057535 0.014368835
0.022212742 0.012001491 -0.019292561 -0.0052504493 0.022929449 -0.010086699 -0.042543717 -0.010475758
-0.0047992077 0.02213332 -0.016641997 0.015828772 0.0012749626 -0.056281313 0.031865712 0.039701413
-0.0032797074 -0.010838009 -0.018117346 -0.027663184 -0.019501837 0.012968806 -0.050379176 0.028102314
-0.02998513 -0.00029329958 0.006776039 0.002922236 0.0079543125 0.024169942 0.00143264 0.020528568
-0.0076328726 -0.01696997 0.011842523 -0.029913321 -0.01613733 0.0036511603 -0.002570371 0.048957407
-0.010363023 -0.020555606 0.009437461 -0.019623734 0.007793182 0.00017500485 -0.026164394 0.0055676913
0.003605717 -0.004451432 0.029230915 0.0023576776 0.0003581953 -0.010649771 0.00768065 0.0029648358
0.019331543 -0.004235945 -0.0014989909 0.0023164072 0.008887752 -0.023139507 -0.0059467317 0.013005239
-0.044776905 -0.015836503 -0.0026456765 -0.0058664414 0.020552108 0.013032499 -0.03059786 -0.0042588483
-0.011835667 0.024975695 -0.007063082 0.00057466433 -0.02150307 0.015356417 -0.027120192 0.012857236
-0.006848078 0.04125663 0.035320796 0.0407901 0.038061164 0.0029569054 -0.0009184355 0.008960201
-0.013674613 0.0075019286 0.018302843 0.025047446 -0.010007723 0.0025956607 -0.00081547734 0.025299823
-0.004344143 -0.016859446 0.004362875 -0.020074625 -0.0014013438 -0.008230897 0.003478238 0.00743923
00000000: dfd3 cabb 7234 6139 2271 8b3a 850d 843c
00000010: 0f26 0ebd a145 15bd b263 b23c 74e9 b23b
00000020: bac1 d9bb ba13 b13c 1c4a 543d 233c 5d3c
00000030: 2fdf 1ebd 747b 1d3d 832c 85ba 0a99 c1bb
00000040: 8da0 95bc fcc4 fc3c 332e 6b3b b4c3 d4bc
00000050: 87c9 03bd 0508 9dbc a87b 2f3c 07e4 a1bc
00000060: a42e 54bc 239c 05bb 84c3 edbb cfd4 a239
00000070: a4c2 0bbd b4b6 3dbc 4937 b4bc aaf6 9dbc
00000080: fbfc adbb 851c 1b3d cd90 763c a7e2 a1bc
00000090: 0a12 18bc 6f68 30bc 433f 8e3a 14b0 26bd
000000a0: c753 58bc 9b06 703b 7f2b 02bd 1c9d 253d
000000b0: f4f4 e53a 51b3 363d 60b4 c1bb 84d5 753c
000000c0: d0be acbb a08b aeba 8214 e0bc 459e 55bd
000000d0: 1275 c0bc c436 07bc 9748 34bb ce7c f5bb
000000e0: 1340 83bc aa8f 2abc 0a9f b83c 9be2 59bc
000000f0: cf6c adbc c201 783b 1946 45bc d3c3 4e3b
00000100: 1087 033d 12b5 8a3c 8f6f a13c bd05 9c3c
00000110: fc7a 44bd f57d c13c 9cf6 82bc ff3f 9bba
00000120: cb4b 55bc 2607 413c 6bff 8bbb 1c9b 163c
00000130: 3da7 62bb fd4c 6fbb 346b dd3b 96d3 983a
00000140: af44 123c f4b1 a3bc 9451 123d ea5e 163c
00000150: 581c 2b3c fa70 08bc d686 03bc c972 e1bc
00000160: 0557 cd3c e08d 0a3c 43b4 70bc 56ca 353c
00000170: c6f5 a0bb 04ee 863b 5711 9e3b ab35 563c
00000180: 93f9 273d a860 16bb e69d 74bc b176 47bc
00000190: 15f0 34bc b7bf 563d 11c8 aa3c 02f7 8d3c
000001a0: f4a1 1ebb 1eb0 403d cb1a da3b a5a5 eb3c
000001b0: 8d51 233a b868 0a3d 5fd4 8ebc 6b22 dbbb
000001c0: c152 fabb 7712 21bc 9aa4 893d 176a c43c
000001d0: 643b 843a 115f 1bbb fd76 d13b c646 78b9
000001e0: d213 10bc baf8 d23c 7efe 423c 1775 56bc
000001f0: 3660 ab3c 46e9 13bb c45b 873b bc74 b63c
00000200: 7c3a 623b 110c aebc 3e29 16bc c11d a63c
00000210: 1e5b 0a3c 58a4 963c 25b0 efba bc46 85bb
00000220: d186 3dbc 042d b9bc 74df 8b3c 0495 54bc
00000230: 607f af3c 4cc4 7dba 1d30 0fbc 9b74 1ebb
00000240: 638e 95bd 8d32 1b3d 455f 17bc 5aca 483c
00000250: 7248 623a 167c e3bb bdcd 6d3d 436b 6b3c
00000260: 7ff7 b53c e7a1 443c 6f0b 9ebc f60b acbb
00000270: 8ad6 bb3c af42 25bc 5242 2ebd 84a2 2bbc
00000280: ac42 9dbb f050 b53c cc54 88bc 57ab 813c
00000290: a51c a73a 3c87 66bd 9f85 023d f39d 223d
000002a0: 5cf0 56bb e891 31bc d46a 94bc e79d e2bc
000002b0: 51c2 9fbc 1d7b 543c 655a 4ebd d336 e63c
000002c0: 60a3 f5bc 01c6 99b9 8909 de3b fc82 3f3b
000002d0: ce52 023c 0b00 c63c 6cc7 bb3a 872b a83c
000002e0: 2d1d fabb 9b04 8bbc 2407 423c c80c f5bc
000002f0: 6f32 84bc 4e48 6f3b ab73 28bb 9087 483d
00000300: abc9 29bc 3b64 a8bc 959f 1a3c f4c1 a0bc
00000310: f35d ff3b 8281 3739 b656 d6bc 2e71 b63b
00000320: e54d 6c3b 51dd 91bb ac75 ef3c 4483 1a3b
00000330: 29cc bb39 617c 2ebc f6ad fb3b b14d 423b
00000340: 2f5d 9e3c afcd 8abb ca79 c4ba ddce 173b
00000350: ef9d 113c 108f bdbc cddc c2bb ed13 553c
00000360: fd67 37bd 8ebb 81bc 1663 2dbb 473b c0bb
00000370: e55c a83c 4386 553c 5da8 fabc cf8d 8bbb
00000380: 63ea 41bc d499 cc3c 6d71 e7bb 12a5 163a
00000390: 3527 b0bc 7b99 7b3c 2a2b debc 28a7 523c
000003a0: d865 e0bb b6fc 283d 8aac 103d 8513 273d
000003b0: 06e6 1b3d a4c8 413b 2ac3 70ba cfcd 123c
000003c0: 7c0b 60bc bdd2 f53b d8ef 953c 4d30 cd3c
000003d0: 6ff7 23bc f61b 2a3b c2c5 55ba 9341 cf3c
000003e0: 5059 8ebb d21c 8abc 73f6 8e3b 8a73 a4bc
000003f0: 4cad b7ba e2da 06bc 26f3 633b c9c4 f33b

action_model._discrete_distribution.branches.1.bias f4 [15]
0.0074714585 0.0018595946 -0.001381885 0.012431815 0.0042795734 0.001752495 -0.010259787 0.010378852
-0.0020795797 -0.014582798 -0.0011712142 -0.003052025 -0.0074994857 0.0025430003 -0.0010272923
00000000: 23d3 f43b a4bd f33a 5e20 b5ba d0ae 4b3c
00000010: aa3b 8c3b f9b3 e53a aa18 28bc 0f0c 2a3c
00000020: 8f49 08bb b0ec 6ebc 6d83 99ba 7c04 48bb
00000030: 3fbe f5bb 77a8 263b 36a6 86ba

action_model._discrete_distribution.branches.2.weight f4 [15, 256]
0.01756826 -0.02472605 -0.021110846 -0.026491225 0.006368836 -0.005849873 -0.023354039 0.0090620555
-0.027325967 -0.025285674 0.023093624 0.010656496 -0.0016918759 -0.0046889437 0.015202453 0.010386289
0.013901787 0.022752523 0.0056020543 -0.028897615 -0.02123129 0.017613474 -0.0061422223 0.007073852
0.0010012994 0.0040614335 -0.014275847 0.0028934362 0.0214842 -0.0185889 -0.03198447 0.0052701193
-0.0035653492 -0.016803497 -0.016969621 -0.0026738672 0.01127251 -0.015821042 0.00023303018 0.004312936
-0.029311247 0.013438962 -0.017607348 0.0033946515 -0.003344646 -0.016136918 0.0111815855 0.00239576
-0.0054926192 -0.01250085 -0.018986877 0.022232214 0.0041337856 0.00015544752 -0.022607569 -0.031864002
-0.011093461 0.017631058 0.0035362013 0.0016820799 -0.008067642 -0.030190356 -0.012689608 -0.027182821
0.0054036668 -0.012119474 -0.0044967625 0.0027198275 -0.0028657343 0.0042612283 0.016541883 -0.0053100153
-0.006414847 -0.013691457 -0.004559259 -0.0014731331 -0.006467892 -0.023011476 -0.009490969 -0.016802426
-0.018356012 0.0037078285 0.013242755 0.0077991257 -0.0038885449 -0.00088929874 -0.01987031 -0.019433776
-0.007253052 0.011585528 -0.0026172376 -0.0051801484 -0.008797854 0.008690823 -0.0056122923 -0.026498152
0.0019640087 -0.0111329025 -0.03511179 0.0027436502 0.0033036282 0.0089181205 0.006129534 0.00031791293
0.0019335955 0.004130975 0.0015504534 0.017058138 0.005426432 -0.016932258 -0.0011024628 -0.016992945
-0.002994179 -0.020326588 0.002024945 -0.00022405897 -0.012769914 -0.0068596634 0.007293706 0.0005761031
-0.007099702 -0.020525783 -0.005673104 0.028538527 -0.02105368 -0.015647396 -9.536104e-05 -0.049242817
-0.010718968 -0.017820787 0.0030735903 -0.0005884885 0.018141383 0.00024776408 -0.0055875913 0.0056695407
-0.014199586 -0.008556214 -0.0010652811 -0.0006234425 -0.010764694 0.0068092467 -0.029709004 -0.024266066
0.021253616 -0.022857917 0.008054172 0.00601976 0.002293659 0.010059632 -0.010733317 0.009221424
0.0023423922 0.0020925326 -0.0052933954 0.0003124499 -0.0023069577 -0.006580377 -0.005456735 -0.0137939025
0.010556243 -0.015376684 -0.003999136 -0.004377102 0.012831431 0.002374712 -0.012959155 0.004566899
-0.00226438 -0.0034279882 0.0061579095 -0.016531132 0.0036697877 -0.014237546 0.022341708 -0.04397489
-0.007860622 -0.004820377 -0.030031178 -0.0117941955 0.0034149608 -0.020319369 -0.02125994 -0.014551975
-0.00056085084 -0.022044681 0.02790302 -0.00053900294 0.022032851 -0.014737423 0.012912143 -0.006821015
0.0071260473 -0.024501162 -0.026510471 0.0010609354 0.0010801144 -0.001085566 0.013104951 0.00028724552
0.0034510386 -0.0102351345 -0.021882325 -0.022476863 -0.003616161 -0.002846741 -0.013525519 -0.03253338
-0.017202182 -0.017264709 -0.008708891 -0.039391626 -0.009392465 -0.028934846 -0.0148765035 0.0041431296
-0.017441642 0.023934865 -0.023617504 -0.011235651 -0.019951154 -0.015138578 -0.018803928 -0.0045481743
0.0072277426 0.001451229 -0.010288411 -0.0033014663 0.025106153 -0.014162287 -0.016920455 -0.023835981
-0.0043065734 -0.018905666 0.02237354 -0.039265502 -0.021070499 -0.006790495 -0.020678848 0.0038907207
-0.010827243 -0.020897208 0.013314779 0.011622289 -0.012335715 -0.01855877 0.0009076336 -0.0032057029
0.011384417 -0.023172528 0.015678007 -0.0077651273 0.0006478228 -0.023646794 0.012115187 -0.008393255
00000000: 50eb 8f3c 498e cabc a7f0 acbc 2004 d9bc
00000010: abb1 d03b 4bb0 bfbb f850 bfbc 0479 143c
00000020: b5da dfbc e723 cfbc d72e bd3c 9598 2e3c
00000030: efc1 ddba b6a5 99bb b613 793c 412b 2a3c
00000040: 52c4 633c 8063 ba3c 7091 b73b b1ba ecbc
00000050: 3eed adbc 224a 903c b244 c9bb c5cb e73b
00000060: 083e 833a c615 853b 3ee5 69bc ce9f 3d3b
00000070: a2ff af3c c047 98bc 2602 03bd f7b0 ac3b
00000080: a2a8 69bb 7da7 89bc e003 8bbc 0c3c 2fbb
00000090: 55b0 383c 219b 81bc 9059 7439 8853 8d3b
000000a0: 241e f0bc 182f 5c3c 493d 90bc cd78 5e3b
000000b0: d931 5bbb 9231 84bc f832 373c 2f02 1d3b
000000c0: 6efb b3bb 5dd0 4cbc 5e8a 9bbc 5520 b63c
000000d0: b574 873b a0ff 2239 8233 b9bc d483 02bd
000000e0: 59c1 35bc 026f 903c 9dbf 673b 3c79 dc3a
000000f0: 252e 04bc c451 f7bc 13e8 4fbc 82ae debc
00000100: 3e11 b13b c290 46bc 9459 93bb 223f 323b
00000110: 0bcf 3bbb c6a1 8b3b d882 873c a3ff adbb
00000120: a333 d2bb 2252 60bc d665 95bb 2516 c1ba
00000130: 9cf0 d3bb 9082 bcbc 0280 1bbc 3ea5 89bc
00000140: 595f 96bc 0aff 723b 24f8 583c cf8f ff3b
00000150: f5d6 7ebb d41f 69ba 0fc7 a2bc 9533 9fbc
00000160: 03ab edbb 3ad1 3d3c f685 2bbb 3cbe a9bb
00000170: e024 10bc f463 0e3c 52e7 b7bb a712 d9bc
00000180: 99b6 003b c766 36bc 61d1 0fbd d0ce 333b
00000190: af81 583b 4f1d 123c 42da c83b 8dad a639
000001a0: b370 fd3a 215d 873b 9538 cb3a 82bd 8b3c
000001b0: 36d0 b13b 85b5 8abc 8380 90ba ca34 8bbc
000001c0: fd39 44bb f283 a6bc f1b4 043b 5ff1 6ab9
000001d0: e738 51bc 07c7 e0bb 0a00 ef3b a005 173a
000001e0: 9ea4 e8bb b025 a8bc 72e5 b9bb a1c9 e93c
000001f0: c478 acbc f82e 80bc 92fc c7b8 d6b2 49bd
00000200: 9c9e 2fbc e6fc 91bc 4a6e 493b cb44 1aba
00000210: 3d9d 943c 55e6 8139 1d18 b7bb 8ec7 b93b
00000220: 61a5 68bc 5d2f 0cbc e7a0 8bba 856e 23ba
00000230: 665e 30bc 1a20 df3b 4c60 f3bc a1c9 c6bc
00000240: 101c ae3c 8740 bbbc a5f5 033c 6841 c53b
00000250: 3651 163b 28d1 243c cbda 2fbc 7515 173c
00000260: d282 193b df22 093b 3874 adbb 51d0 a339
00000270: 5430 17bb 34a0 d7bb 69ce b2bb d2ff 61bc
00000280: 18f4 2c3c 7dee 7bbc 2f0b 83bb cb6d 8fbb
00000290: ec3a 523c 0ea1 1b3b a352 54bc eda5 953b
000002a0: fe65 14bb 19a8 60bb 4ac8 c93b 4c6c 87bc
000002b0: d280 703b 9944 69bc f505 b73c 041f 34bd
000002c0: d7c9 00bc 41f4 9dbb f203 f6bc 713c 41bc
000002d0: 89cd 5f3b ce74 a6bc 5329 aebc 686b 6ebc
000002e0: 1006 13ba 0c97 b4bc e094 e43c e04b 0dba
000002f0: 3d7e b43c 3b75 71bc 748d 533c d282 dfbb
00000300: 9e81 e93b a9b6 c8bc 7d2c d9bc 160f 8b3a
00000310: a092 8d3a 8d49 8eba 26b6 563c 7199 9639
00000320: d22a 623b 44b1 27bc 9042 b3bc 6621 b8bc
00000330: 1dfd 6cbb 6390 3abb 239a 5dbc b941 05bd
00000340: 97eb 8cbc b86e 8dbc bdaf 0ebc 1d59 21bd
00000350: dbe2 19bc c508 edbc 94bc 73bc 17c3 873b
00000360: c6e1 8ebc 0d13 c43c 7f79 c1bc bc15 38bc
00000370: 9a70 a3bc cc07 78bc b20a 9abc da08 95bb
00000380: b3d6 ec3b 2a37 be3a b990 28bc 6a5d 58bb
00000390: 6bab cd3c f008 68bc c49c 8abc ad43 c3bc
000003a0: 281e 8dbb 0ee0 9abc b748 b73c ddd4 20bd
000003b0: 0a9c acbc cd82 debb b066 a9bc 76fb 7e3b
000003c0: c064 31bc 9f30 abbc 3b26 5a3c 6a6b 3e3c
000003d0: bd1b 4abc 9008 98bc 43ee 6d3a c516 52bb
000003e0: b585 3a3c 50d4 bdbc 2a6f 803c 9c72 febb
000003f0: a7d2 293a ecb6 c1bc c77e 463c dd83 09bc

action_model._discrete_distribution.branches.2.bias f4 [15]
-0.0036395926 0.0031303875 -0.010422662 0.005951415 -0.005840307 0.007828206 -0.0044681234 -0.0011574607
0.016821144 0.00245377 0.0044837175 0.009433146 -0.009965417 0.005763046 -0.019286241
00000000: 3b86 6ebb 3027 4d3b d0c3 2abc 1604 c33b
00000010: 0c60 bfbb e041 003c 5669 92bb f0b5 97ba
00000020: 7fcc 893c 6ecf 203b 26ec 923b 7b8d 1a3c
00000030: fd45 23bc efd7 bc3b 2efe 9dbc
