results/AgentRankingsAndAcceptedRankingsNameOnlyChecked/AgentBehavior/AgentBehavior-999990.onnx (onnx, 333671 bytes, 11 tensors)

discrete_act_size_vector f4 [1, 3]
4.0 15.0 15.0
00000000: 0000 8040 0000 7041 0000 7041

network_body._body_endoder.seq_layers.0.weight f4 [256, 30]
0.16382135 -0.3137326 -0.016022183 0.059286002 0.07332857 0.033820964 0.2737173 -0.05467563
-0.026584338 0.2163802 0.09192034 -0.0017926437 0.32318577 0.10836779 0.16894121 0.31471783
-0.016337734 -0.0011658939 0.16813014 -0.061912637 0.24503449 -0.09256977 0.22513388 0.02397401
0.21040443 -0.12870993 -0.04543414 -0.13379952 0.25404862 -0.150192 -0.07578588 -0.02090996
0.16370583 -0.17735583 0.20294563 0.0001121897 0.025420427 -0.16637443 -0.099028155 0.08741488
-0.266212 -0.11919773 0.06775801 0.22884825 -0.20883389 0.07730915 -0.026944771 0.35723287
0.048065398 0.18942739 -0.29289207 0.28028676 -0.22890513 0.20396054 -0.17867802 -0.20754488
0.18436897 -0.25008315 -0.120439716 0.08450783 -0.113505796 -0.13308223 -0.22542441 -0.36533305
0.06550122 -0.0056218365 0.13987486 0.4306211 -0.04059661 -0.03362701 0.32185966 0.016278388
-0.0480391 0.033896655 -0.48873496 0.04774653 0.13379288 -0.14159495 0.22630852 0.16486222
0.111156695 -0.14272511 -0.13584213 0.015651574 0.33551827 0.0874212 0.027547633 -0.091162466
0.056569375 -0.26936668 -0.06533677 0.19028373 0.14934844 -0.012465096 -0.02715815 0.06697647
-0.12890017 -0.22020294 0.15198399 0.055210512 -0.15633348 0.21422794 -0.20921582 -0.19049414
0.25760928 0.044435162 0.010863089 0.42416584 0.23875992 0.26544973 0.10187574 -0.31285274
0.043579683 -0.016260117 0.07144463 0.17947519 -0.3124587 -0.10667667 0.018674737 0.2319891
-0.09993406 0.07602091 0.08430178 0.32980734 0.031735975 0.2535459 -0.03546 0.2014986
0.121178605 -0.036222264 -0.10902415 0.061019182 -0.28644955 -0.058781493 -0.07882986 0.093314126
-0.15975064 0.46222734 -0.08967795 -0.12997611 0.011098646 -0.3302082 0.0056483513 0.2544211
0.018100597 0.028300205 0.111104205 -0.35750416 -0.10175549 -0.059126273 0.1500149 -0.05559854
0.15444721 -0.18945093 0.010560685 -0.11581964 -0.17375124 -0.18281852 0.013594344 -0.24603648
0.014709966 -0.0959398 0.05818903 -0.31254402 -0.1191479 0.085500516 -0.10865208 0.16130276
-0.14263763 0.13475631 -0.08515155 0.0016673241 -0.39945233 0.041270263 -0.0019239793 -0.026674595
0.29297698 0.18518773 -0.040527444 -0.29828694 0.11676189 0.107451394 -0.1101978 -0.10192375
-0.21848315 -0.27910793 0.30475703 0.06608165 0.094957374 -0.37282047 -0.107867755 -0.027734669
-0.058331817 -0.12414368 -0.094173454 0.12383434 -0.089660384 0.112672925 0.20528358 -0.08280679
-0.067999944 0.20529631 0.020506525 -0.12402827 0.57791495 0.10750413 0.18954468 0.16659074
0.27673113 -0.14798222 0.111654244 -0.05089771 0.10267471 0.15392838 -0.10167405 0.091631666
-0.06345239 0.029884113 0.0680035 0.10941446 0.16191824 -0.07137404 -0.26602733 -0.07750572
0.46587098 0.26067248 -0.088974915 -0.07007509 -0.008208611 -0.12577297 0.055500124 -0.007458435
0.07262352 0.099879965 -0.054189984 0.5727459 -0.37307695 0.044056665 0.13006328 -0.06892962
0.30281603 0.19689566 -0.02892162 0.24798013 0.20298663 -0.07210536 0.26110536 0.03710625
-0.23791169 -0.03131768 -0.10364785 0.28289768 0.10848976 0.25639364 -0.04903519 0.10027071
00000000: c9c0 273e 8fa1 a0be f440 83bc e1d5 723d
00000010: 4a2d 963d da87 0a3d ad24 8c3e 8ef3 5fbd
00000020: 66c7 d9bc c592 5d3e bb40 bc3d 24f7 eaba
00000030: 9b78 a53e efef dd3d edfe 2c3e b222 a13e
00000040: b6d6 85bc e8d0 98ba 4f2a 2c3e 1b98 7dbd
00000050: 52ea 7a3e 3895 bdbd 7f89 663e 2565 c43c
00000060: 4274 573e 89cc 03be 2619 3abd be02 09be
00000070: a912 823e efcb 19be a135 9bbd 5d4b abbc
00000080: 80a2 273e c49c 35be fbd0 4f3e 6347 eb38
00000090: 803e d03c 0f5e 2abe 46cf cabd 9306 b33d
000000a0: f04c 88be f11d f4bd b6c4 8a3d 3257 6a3e
000000b0: 8dd8 55be 4254 9e3d 48bb dcbc 3ae7 b63e
000000c0: 39e0 443d 41f9 413e f3f5 95be bf81 8f3e
000000d0: 1b66 6abe 08db 503e 5ff7 36be a586 54be
000000e0: 38cb 3c3e e60a 80be 19a9 f6bd 7112 ad3d
000000f0: ba75 e8bd b546 08be a8d5 66be ef0c bbbe
00000100: 8125 863d 6237 b8bb 5b3b 0f3e 5e7a dc3e
00000110: a248 26bd 7abc 09bd caca a43e 415a 853c
00000120: a6c4 44bd 38d7 0a3d 783b fabe de91 433d
00000130: 0001 093e 44fe 10be 6cbd 673e a4d1 283e
00000140: 1fa6 e33d 8826 12be 331a 0bbe bb37 803c
00000150: 0dc9 ab3e e309 b33d 93ab e13c 63b3 babd
00000160: 4ab5 673d 6eea 89be 49cf 85bd bdd9 423e
00000170: ccee 183e 673a 4cbc c57a debc f62a 893d
00000180: 68fe 03be e17c 61be b1a1 1b3e 6b24 623d
00000190: e215 20be 925e 5b3e ac3c 56be e510 43be
000001a0: 5de5 833e a501 363d 19fb 313c 442c d93e
000001b0: 7b7d 743e 07e9 873e 3aa4 d03d 3c2e a0be
000001c0: 9c80 323d f033 85bc 9051 923d 58c8 373e
000001d0: 96fa 9fbe 4c79 dabd c3fb 983c 8d8e 6d3e
000001e0: 3aaa ccbd dab0 9b3d 69a6 ac3d 82dc a83e
000001f0: 95fd 013d c5d0 813e 813e 11bd a655 4e3e
00000200: 7d2c f83d cc5d 14bd 0e48 dfbd 40ef 793d
00000210: 84a9 92be ddc4 70bd 8d71 a1bd 7a1b bf3d
00000220: ac95 23be 10a9 ec3e 13a9 b7bd 7518 05be
00000230: 18d7 353c 0d11 a9be ce15 b93b 7b43 823e
00000240: b447 943c d5d5 e73c 9a8a e33d c90a b7be
00000250: 2f65 d0bd 642e 72bd 829d 193e 4bbb 63bd
00000260: 6927 1e3e 6dff 41be b906 2d3c d932 edbd
00000270: d8eb 31be c734 3bbe d0ba 5e3c fdf0 7bbe
00000280: 1202 713c 167c c4bd 9f57 6e3d c505 a0be
00000290: d003 f4bd e51a af3d fb84 debd 8d2c 253e
000002a0: 990f 12be 8ffd 093e f063 aebd 1d8a da3a
000002b0: 0485 ccbe 020b 293d 082e fcba ae84 dabc
000002c0: 1401 963e daa1 3d3e 1b00 26bd 11b9 98be
000002d0: dc20 ef3d 7a0f dc3d 62af e1bd 66bd d0bd
000002e0: 0cba 5fbe 3ce7 8ebe 1d09 9c3e d155 873d
000002f0: 0379 c23d 53e2 bebe c5e9 dcbd d133 e3bc
00000300: 58ed 6ebd 0b3f febd 03de c0bd dc9c fd3d
00000310: dd9f b7bd 10c1 e63d dc35 523e 9b96 a9bd
00000320: 8e43 8bbd 3239 523e 4dfd a73c 8902 febd
00000330: 3cf2 133f 202b dc3d 0018 423e c396 2a3e
00000340: b4af 8d3e a788 17be fbaa e43d 1e7a 50bd
00000350: 1e47 d23d 679f 1d3e 7c3a d0bd 62a9 bb3d
00000360: 54f3 81bd 87cf f43c 6b45 8b3d b014 e03d
00000370: e5cd 253e 8d2c 92bd bc34 88be 52bb 9ebd
00000380: a486 ee3e dd76 853e 7b38 b6bd 8783 8fbd
00000390: 697d 06bc a1ca 00be 1954 633d e365 f4bb
000003a0: a4bb 943d de8d cc3d 51f6 5dbd 7a9f 123f
000003b0: f103 bfbe c374 343d 4f2f 053e f92a 8dbd
000003c0: b40a 9b3e 049f 493e 09ed ecbc 81ee 7d3e
000003d0: badb 4f3e faab 93bd 9aaf 853e b9fc 173d
000003e0: 1f9f 73be f846 00bd 5345 d4bd f7d7 903e
000003f0: e12f de3d 0746 833e 20d9 48bd bb5a cd3d

network_body._body_endoder.seq_layers.0.bias f4 [256]
0.11300293 0.13479838 -0.029899092 0.04735485 0.18887249 -0.18611641 -0.03298736 -0.009488161
0.041157573 -0.09437376 -0.12745814 -0.022648994 -0.028965354 -0.029624077 0.1341536 -0.26353475
0.11304005 0.063603744 -0.08665066 -0.10150882 -0.0027259777 0.009963115 0.11169892 0.12607658
0.17634308 0.16556612 0.16023614 -0.09782588 0.08247553 0.10991587 0.06171249 0.14910074
0.16460244 -0.12311091 0.058185294 0.0030347393 -0.06784092 0.09009038 -0.11857897 0.06305919
-0.19338182 0.19248307 -0.09229899 -0.226828 -0.0007678216 0.13800165 0.15177219 0.05875567
0.021578584 -0.033304706 0.14929685 0.10615632 -0.06889399 -0.19099511 -0.17224413 -0.0114112515
-0.10366081 0.15978728 0.19011143 0.047092177 0.07086962 -0.009226603 0.024359776 0.10926952
0.10762099 0.059448488 0.06027701 0.18038759 0.047651127 0.0070258104 0.10396919 -0.18781564
0.031558447 -0.029963452 -0.09160658 -0.08061931 -0.09933373 -0.0026214956 0.13610783 0.021888193
0.20451945 -0.031086689 -0.029355323 0.03639303 0.18216647 -0.06116425 0.16750132 -0.033390567
0.081159964 0.068425976 0.04064179 -0.049286105 0.084914975 0.17266883 0.052384276 -0.004912608
-0.009170551 -0.20046154 0.025181556 0.05984457 0.02035108 0.09743843 -0.16241544 0.0881339
0.06651691 0.017971259 0.17784919 0.1877344 0.10846627 -0.004143204 0.1612065 0.07903112
0.029350204 0.021772187 0.1293919 -0.049640935 -0.033209275 0.044390492 -0.015188115 0.13289617
0.12658381 -0.046215422 0.12543263 0.1391218 0.09167256 0.04293478 -0.048080437 0.1647406
0.034482233 0.11782881 0.1283604 0.024951227 0.03975794 0.17705812 0.14149056 -0.16227439
0.11070419 -0.003704033 0.0815652 -0.02966985 0.098057754 0.02651858 0.09432457 -0.07632874
0.18594174 0.11875919 0.036807373 0.095086955 0.13125445 0.02541477 0.11485622 0.15472919
0.1657268 0.09578344 0.029784659 -0.052328598 0.07766272 0.1828233 0.16882312 0.006435151
-0.07134888 0.04893089 0.18545355 0.09371845 0.06820782 0.09584148 0.08144582 0.18032914
0.19184764 0.027197747 0.05630739 0.15152492 0.0882988 0.061807174 0.0015774202 0.016991781
0.12198936 0.07495635 -0.098219045 0.06311025 -0.032576356 0.057005703 0.066904165 -0.08236624
0.087281 0.07072856 -0.02589899 0.09633022 0.014443235 0.06648894 0.23047046 0.09646456
0.056205038 -0.05840092 -0.15191191 -0.01844946 0.0840948 0.11169489 0.025214938 -0.19640855
-0.1322593 0.09069362 0.09228151 0.05210647 0.06901447 0.13245675 0.10477686 0.06549228
-0.10973122 0.022670686 0.19087529 0.10113239 0.10321586 0.15185036 -0.05289644 -0.17662442
0.13713618 -0.16360201 0.16610233 0.0519881 -0.005569267 0.07390314 -0.061698884 -0.012711884
0.072715 0.09749274 0.1561601 0.017896766 -0.029632134 0.18530683 -0.15971142 -0.10090374
0.053304564 0.023462942 0.04476441 0.01421629 -0.07978221 -0.1301786 0.19872037 -0.20665587
-0.10498837 0.14917606 -0.008578094 -0.039493524 0.10666047 0.1242584 0.092783816 0.020623129
-0.09312136 -0.072371304 0.10149638 -0.130869 0.042143334 -0.18364419 -0.19984788 0.19433585
00000000: 156e e73d 9608 0a3e f1ee f4bc 29f7 413d
00000010: ca67 413e 4d95 3ebe c11d 07bd 3b74 1bbc
00000020: d894 283d 0847 c1bd 6384 02be 628a b9bc
00000030: c048 edbc 31ae f2bc 905f 093e 07ee 86be
00000040: 8b81 e73d ae42 823d e775 b1bd dbe3 cfbd
00000050: 51a6 32bb 553c 233c 67c2 e43d 381a 013e
00000060: 4893 343e 2a8a 293e f114 243e ef58 c8bd
00000070: eee8 a83d 921b e13d 3cc6 7c3d ddad 183e
00000080: 8b8d 283e 9321 fcbd b453 6e3d 7ae2 463b
00000090: 2ef0 8abd 4e81 b83d 88d9 f2bd 2d25 813d
000000a0: e205 46be 481a 453e 4107 bdbd 9945 68be
000000b0: a347 49ba 4e50 0d3e 2b6a 1b3e c9a9 703d
000000c0: 92c5 b03c 846a 08bd 46e1 183e 7c68 d93d
000000d0: 4b18 8dbd 3994 43be c460 30be 42f6 3abc
000000e0: 1e4c d4bd 479f 233e 92ac 423e bae3 403d
000000f0: 1724 913d 2e2b 17bc 278e c73c b3c8 df3d
00000100: 6568 dc3d 4280 733d 07e5 763d 86b7 383e
00000110: d42d 433d c538 e63b cced d43d be52 40be
00000120: 6e43 013d ea75 f5bc 3b9c bbbd bd1b a5bd
00000130: 7c6f cbbd 66cd 2bbb da5f 0b3e de4e b33c
00000140: 8c6d 513e 83a9 febc 937a f0bc dc10 153d
00000150: d989 3a3e 5d87 7abd 7785 2b3e 8cc4 08bd
00000160: 3237 a63d eb22 8c3d 0178 263d 3ae0 49bd
00000170: e7e7 ad3d 19d0 303e e590 563d f1f9 a0bb
00000180: 1440 16bc ca45 4dbe 8d49 ce3c 941f 753d
00000190: 4fb7 a63c cd8d c73d 3c50 26be 8c7f b43d
000001a0: 053a 883d 7638 933c 191e 363e 723d 403e
000001b0: 9023 de3d b7c3 87bb 5113 253e 11db a13d
000001c0: d76f f03c 965b b23c 4f7f 043e 4b54 4bbd
000001d0: 7306 08bd ced2 353d 92d7 78bc ef15 083e
000001e0: 309f 013e 624c 3dbd 6971 003e f275 0e3e
000001f0: d3be bb3d 61dc 2f3d feef 44bd c3b1 283e
00000200: 3e3d 0d3d 3b50 f13d e970 033e 8466 cc3c
00000210: 39d9 223d b94e 353e e7e2 103e 422b 26be
00000220: e1b8 e23d 5dbf 72bb a80b a73d 2f0e f3bc
00000230: 81d2 c83d 7e3d d93c 3d2d c13d 3e52 9cbd
00000240: 8367 3e3e 0538 f33d 54c3 163d f3bc c23d
00000250: 9167 063e a332 d03c bd39 eb3d 5471 1e3e
00000260: 49b4 293e 1c2a c43d f5fe f33c 8356 56bd
00000270: a20d 9f3d 0836 3b3e f8df 2c3e f6dd d23b
00000280: 5d1f 92bd c26b 483d 89e7 3d3e 75ef bf3d
00000290: 8bb0 8b3d 8a48 c43d 11cd a63d 34a8 383e
000002a0: b573 443e cfcd de3c 94a2 663d 5929 1b3e
000002b0: 00d6 b43d 8529 7d3d 70c1 ce3a 5932 8b3c
000002c0: 8fd5 f93d b782 993d 1127 c9bd f23f 813d
000002d0: c96e 05bd d07e 693d 0d05 893d a2af a8bd
000002e0: 62c0 b23d 23da 903d 1e2a d4bc c748 c53d
000002f0: 51a3 6c3c 5a2b 883d 7300 6c3e 368f c53d
00000300: 4137 663d ce35 6fbd cc8e 1bbe 5223 97bc
00000310: e539 ac3d 4ac0 e43d 8f8f ce3c 531f 49be
00000320: fb6e 07be 94bd b93d 17fe bc3d 986d 553d
00000330: 7557 8d3d bea2 073e 4095 d63d d120 863d
00000340: c3ba e0bd e0b7 b93c d074 433e 801e cf3d
00000350: d662 d33d a97e 1b3e f0a9 58bd 08dd 34be
00000360: 6d6d 0c3e 4987 27be bb16 2a3e 79f1 543d
00000370: 667e b6bb 885a 973d f8b7 7cbd 8245 50bc
00000380: 9aeb 943d 46aa c73d 6fe8 1f3e 3d9c 923c
00000390: 17bf f2bc 13c1 3d3e 648b 23be 9fa6 cebd
000003a0: e355 5a3d 5b35 c03c e35a 373d 71eb 683c
000003b0: db64 a3bd 8a4d 05be 5a7d 4b3e 999d 53be
000003c0: 2404 d7bd 9cc1 183e 228b 0cbc f6c3 21bd
000003d0: ce70 da3d 307b fe3d 7105 be3d d6f1 a83c
000003e0: 69b6 bebd 6837 94bd 56dd cf3d 8602 06be
000003f0: 7d9e 2c3d 390d 3cbe eca4 4cbe faff 463e

network_body._body_endoder.seq_layers.2.weight f4 [256, 256]
-0.18562691 0.016762149 0.024709867 0.037890077 0.024613656 0.009605317 -0.0471823 0.0632292
0.03329032 0.0036322798 -0.11032261 0.007699997 0.035287157 0.023265442 0.073519066 0.066474654
0.05689342 -0.045575406 -0.011489062 0.09549373 0.076960474 0.063885376 0.121069714 0.039298534
-0.12513244 -0.10118622 -0.047559746 0.15767328 -0.07845155 0.040616192 -0.0065350453 0.10759728
-0.06938399 -0.030709552 -0.080594435 0.026136482 -0.019044235 0.003511391 0.010509 0.08045513
-0.0980649 -0.03449914 -0.022280646 0.0066499137 0.024196709 -0.019295854 -0.12703976 -0.08228543
-0.06583708 0.049266502 -0.12988733 -0.007747438 0.03322719 0.085594885 -0.038289417 -0.08984616
0.17534944 -0.07691833 -0.04605015 -0.04586928 -0.11369697 0.047258344 0.034348715 0.013615087
0.13641225 -0.10227822 -0.08383738 -0.012561004 0.10271094 -0.12331446 -0.09790006 -0.068948366
0.04014067 0.018528381 -0.068467595 0.13979384 -0.07712074 -0.041113563 -0.05892749 -0.061653942
-0.05262307 0.09073396 0.21131368 0.009740288 0.1060995 -0.022635194 -0.05710091 0.10526525
-0.024096988 0.02103717 0.0356851 -0.10721331 0.0070323832 0.014458139 0.08335453 0.051887006
0.062398843 -0.121010296 -0.043067593 0.12843308 0.07238037 -0.10525216 0.14101756 0.04550485
-0.064091295 -0.013249403 0.0036987714 -0.14703305 -0.012250773 -0.089112855 -0.048104692 0.021789348
0.037684385 -0.11179769 -0.092261344 -0.11256709 -0.15353812 0.00028280314 0.030472694 -0.042626344
-0.08472337 0.089093946 -0.081341594 -0.1460102 0.1362441 0.12315291 -0.05941349 0.02537609
-0.0047022984 -0.08537645 -0.09831881 0.05862815 -0.025047127 -0.04285155 -0.05414777 -0.060017884
0.02852264 0.14500672 -0.021945404 0.057003405 -0.019856581 0.057838798 -0.15692334 0.06786993
-0.034417357 0.033274002 -0.09293848 0.054464914 0.15452662 -0.0085407905 -0.0005975182 0.0830239
-0.07365981 -0.096678816 -0.025090137 -0.09450557 -0.11008253 -0.15495893 -0.05634775 0.13216779
0.00082715054 -0.05236658 -0.06424103 -0.06715123 -0.109032206 -0.107322335 0.008937649 -0.119556084
-0.18577002 -0.07095071 -0.09868331 -0.09446351 -0.0136564 -0.11238336 0.11314873 -0.12035539
-0.09083317 0.0716934 -0.044511817 -0.042881202 0.0059585976 0.14154074 0.02841221 0.016844373
-0.008711405 -0.1256772 -0.084113955 0.065515436 -0.0039325664 -0.088229276 -0.085500345 -0.04754181
0.02549596 -0.033394787 -0.027681079 -0.072605394 0.14564721 -0.012758818 -0.028741283 -0.0043883813
0.106475905 -0.05093363 0.08111373 -0.07009622 -0.0013005468 -0.1045666 -0.029532 0.09221522
0.14305113 0.054342397 -0.09675753 -0.037801165 -0.044313893 -0.00045250013 0.06601312 -0.041936986
-0.0854233 -0.008977156 0.10872787 0.05530562 0.032686118 -0.02376948 0.07104137 -0.020642499
0.17025529 -0.05331912 -0.06925951 0.006024329 0.009525104 -0.06002804 0.012705599 0.004063422
0.09341256 0.023785472 0.024041915 0.029947327 0.02718621 0.02450802 0.041252222 0.10321215
0.0046411864 -0.11704552 0.012928193 0.085635714 -0.100321084 0.026670614 0.01038693 -0.117878884
0.07699903 -0.0771574 0.09472571 0.06903934 0.05695861 0.003077536 0.07445035 0.008491161
00000000: fb14 3ebe c650 893c 596c ca3c a032 1b3d
00000010: 94a2 c93c 9f5f 1d3c 3a42 41bd 507e 813d
00000020: 6e5b 083d 8b0b 6e3b d2f0 e1bd 4250 fc3b
00000030: 4489 103d 2b97 be3c 2a91 963d dd23 883d
00000040: 1309 693d 47ad 3abd 9e3c 3cbc 3792 c33d
00000050: 749d 9d3d 56d6 823d 66f3 f73d 80f7 203d
00000060: b822 00be b93a cfbd 02ce 42bd 1b75 213e
00000070: 35ab a0bd 2a5d 263d ef23 d6bb f65b dc3d
00000080: 3119 8ebd 9992 fbbc b20e a5bd 2d1c d63c
00000090: a802 9cbc 5e1f 663b f12d 2c3c a9c5 a43d
000000a0: 40d6 c8bd f84e 0dbd e785 b6bc 85e7 d93b
000000b0: 2d38 c63c 5712 9ebc b616 02be 4385 a8bd
000000c0: 97d5 86bd accb 493d 2f01 05be 38de fdbb
000000d0: 3c19 083d 5f4c af3d 5dd5 1cbd 4301 b8bd
000000e0: ce8e 333e 5b87 9dbd 159f 3cbd 6de1 3bbd
000000f0: f5d9 e8bd f791 413d 3db1 0c3d d011 5f3c
00000100: a7af 0b3e 3e77 d1bd efb2 abbd abcc 4dbc
00000110: 1d5a d23d 4b8c fcbd d47f c8bd cd34 8dbd
00000120: 8b6a 243d d5c8 973c bd38 8cbd 1e26 0f3e
00000130: 7bf1 9dbd b266 28bd f45d 71bd d888 7cbd
00000140: 4a8b 57bd bad2 b93d 9d62 583e bb95 1f3c
00000150: b24a d93d 716d b9bc a5e2 69bd 4f95 d73d
00000160: 0c67 c5bc 2556 ac3c 8a2a 123d a792 dbbd
00000170: e86f e63b d5e1 6c3c c8b5 aa3d 7887 543d
00000180: ee95 7f3d 3fd4 f7bd a567 30bd f683 033e
00000190: 293c 943d 728e d7bd e866 103e 4b63 3a3d
000001a0: 4c42 83bd 0614 59bc 1667 723b d58f 16be
000001b0: 77b7 48bc cd80 b6bd 6d09 45bd 937f b23c
000001c0: f15a 1a3d 30f6 e4bd 84f3 bcbd 9389 e6bd
000001d0: 1939 1dbe 3245 9439 dfa1 f93c f698 2ebd
000001e0: 7283 adbd e376 b63d 6c96 a6bd b383 15be
000001f0: 9383 0b3e 9837 fc3d 8f5b 73bd 85e1 cf3c
00000200: bd15 9abb d9d9 aebd 5f5b c9bd 1224 703d
00000210: a22f cdbc 1b85 2fbd 0dca 5dbd 50d5 75bd
00000220: 50a8 e93c a47c 143e d9c6 b3bc 677c 693d
00000230: 45aa a2bc 60e8 6c3d 83b0 20be 64ff 8a3d
00000240: 37f9 0cbd 524a 083d 8856 bebd 9a16 5f3d
00000250: 3a3c 1e3e acee 0bbc c5a2 1cba 6f08 aa3d
00000260: f4da 96bd 8bff c5bd d589 cdbc 238c c1bd
00000270: f372 e1bd 8ead 1ebe e6cc 66bd fe56 073e
00000280: 22d5 583a 577e 56bd cd90 83bd 9686 89bd
00000290: 474c dfbd d0cb dbbd 386f 123c d2d9 f4bd
000002a0: 7f3a 3ebe 9b4e 91bd 7a1a cabd 1676 c1bd
000002b0: 18bf 5fbc 3f29 e6bd 85ba e73d e37c f6bd
000002c0: be06 babd fdd3 923d 0652 36bd 33a4 2fbd
000002d0: 5740 c33b 0ef0 103e b9c0 e83c 36fd 893c
000002e0: 48ba 0ebc 86b1 00be f043 acbd f52c 863d
000002f0: c2dc 80bb 8db1 b4bd ce1a afbd 33bb 42bd
00000300: e7dc d03c f9c8 08bd 6ec3 e2bc 23b2 94bd
00000310: 8b24 153e 5d0a 51bc d772 ebbc 69cc 8fbb
00000320: 0a10 da3d c89f 50bd f51e a63d 9b8e 8fbd
00000330: 1c77 aaba 0327 d6bd 18ed f1bc 55db bc3d
00000340: ff7b 123e 2296 5e3d d028 c6bd 65d5 1abd
00000350: 7c82 35bd 8a3d edb9 e331 873d 1ec6 2bbd
00000360: 69f2 aebd ec14 13bc b8ac de3d 2588 623d
00000370: e1e1 053d 36b8 c2bc 237e 913d 751a a9bc
00000380: 6757 2e3e 2665 5abd eed7 8dbd bc67 c53b
00000390: 2f0f 1c3c f6df 75bd 252b 503c 7426 853b
000003a0: 164f bf3d c0d9 c23c 8df3 c43c 1954 f53c
000003b0: 9db5 de3c 0bc5 c83c 17f8 283d e460 d33d
000003c0: 1815 983b 90b5 efbd c6d0 533c c761 af3d
000003d0: 2475 cdbd 557c da3c f12d 2a3c 7c6a f1bd
000003e0: abb1 9d3d b304 9ebd 8eff c13d 7f64 8d3d
000003f0: 6e4d 693d 7cb0 493b 6d79 983d 831e 0b3c

network_body._body_endoder.seq_layers.2.bias f4 [256]
-0.11307912 0.07017555 -0.052657668 0.0145062255 0.0040336503 0.013463305 0.016694175 -0.13296898
-0.029872801 -0.027654963 -0.043044176 0.12433476 0.06584877 0.11123803 -0.14185263 0.13093357
-0.13432433 -0.08777812 0.066909395 0.02374974 -0.058496565 -0.050332073 0.025515797 -0.034898903
0.053036198 0.069095135 0.05566958 -0.16956474 0.07764568 0.03162812 0.028922284 0.01673387
0.09665155 -0.05076114 -0.015169358 -0.10188303 0.14039874 0.07942344 -0.015323939 -0.067506686
0.07571718 -0.14143986 0.13649231 -0.024211118 0.055552904 -0.031313486 0.10715118 0.049698304
-0.046747997 -0.011684649 -0.07895828 -0.060773503 0.08746139 0.05792588 0.06620615 -0.09386602
0.05680813 0.018283043 -0.028612275 0.06569596 -0.1605229 -0.013899938 0.090658404 -0.07173965
0.079041064 0.06498337 -0.10020023 -0.09547355 0.06989775 0.051274512 -0.14897482 -0.15517782
-0.037576962 0.03659639 0.117956474 -0.117924765 0.055979002 0.007332674 0.00018088198 -0.057991356
0.08416492 0.03796256 -0.08071322 0.059684623 0.05963954 0.026101565 0.05967941 0.09479431
0.027491005 0.1337366 0.03257971 -0.1492723 0.0043203435 -0.072164275 -0.16501853 0.06585286
-0.10907372 0.05047223 -0.01918611 -0.17303345 -0.08629732 -0.047304988 -0.11761448 0.059095066
-0.16188438 -0.087781 -0.0627511 -0.014331488 -0.06676381 0.07817024 -0.054644383 -0.007255392
-0.15378417 -0.024528902 0.102572076 0.017290656 0.085841544 0.067038976 -0.07749494 0.10603839
0.03947421 0.02399647 -0.06589696 0.05646029 0.036448747 0.11669051 0.10803943 -0.03587204
0.08225215 0.09345477 -0.15679081 -0.06823834 -0.0032664787 -0.13708447 0.07887282 -0.13376209
-0.026886633 -0.17162824 0.06270082 0.08356633 -0.045952067 0.10856634 -0.008781646 0.026485583
-0.022428568 -0.000953327 -0.16541238 -0.11662023 -0.1595321 0.12069459 -0.06839211 -0.12363736
-0.10669646 0.10177828 0.021497322 0.087463506 0.018104255 -0.15013075 0.038207117 -0.16075632
0.09152955 0.015425026 0.03005353 -0.09827902 0.061423734 -0.059588615 0.044426072 0.023490759
0.11797158 -0.15513319 -0.14769675 0.0025031918 -0.16243386 0.057623316 0.04050304 -0.03702614
-0.04727079 0.04546526 -0.023435224 0.041000925 0.00036663903 0.09873113 -0.0016820206 0.07388513
-0.14454554 0.06277053 -0.008882905 0.08971257 0.14051868 0.011976797 -0.1575123 0.004319631
0.04799725 0.121379174 -0.14654845 -0.14682484 0.10378224 0.043854665 -0.13370794 -0.1060621
-0.120566525 0.0069097048 0.06409075 0.07674058 -0.061425798 0.056525517 -0.15563652 -0.05804053
0.1031405 0.012915329 -0.16309482 0.05566834 -0.15917832 -0.03935289 0.13378255 -0.026278563
-0.023647102 -0.11192052 0.1359542 0.039693646 0.06964106 0.104947254 -0.0010023686 0.04367425
-0.11629847 0.089223355 -0.04013832 -0.1583867 0.09510796 0.09191035 -0.120128386 0.07211563
-0.15227738 0.05421252 0.045812514 -0.051209737 0.028659504 -0.10811096 0.03231452 0.07226116
0.0035841314 0.063299835 -0.13224845 0.01524941 -0.02024042 0.027754128 0.065613165 0.0042692716
-0.053135827 -0.029387001 0.014073617 -0.030784559 0.05870354 0.0032483754 -0.15212737 -0.060739417
00000000: 0796 e7bd 33b8 8f3d 91af 57bd 85ab 6d3c
00000010: b62c 843b 3295 5c3c 39c2 883c 0529 08be
00000020: ceb7 f4bc a98c e2bc 174f 30bd 39a3 fe3d
00000030: b8db 863d c4d0 e33d d141 11be 7313 063e
00000040: 518c 09be 04c5 b3bd cb07 893d d18e c23c
00000050: 189a 6fbd 0129 4ebd 8106 d13c 27f2 0ebd
00000060: 7c3c 593d c081 8d3d c905 643d 61a2 2dbe
00000070: b304 9f3d 7d8c 013d 6dee ec3c 7815 893c
00000080: 3ff1 c53d eaea 4fbd e688 78bc 0da8 d0bd
00000090: b0c4 0f3e c2a8 a23d 4211 7bbc f240 8abd
000000a0: 9c11 9b3d 9cd5 10be a4c4 0b3e 6556 c6bc
000000b0: 718b 633d 9242 00bd 1472 db3d 7390 4b3d
000000c0: d47a 3fbd f870 3fbc e1b4 a1bd a3ed 78bd
000000d0: f51e b33d b043 6d3d 1797 873d d43c c0bd
000000e0: a4af 683d 52c6 953c 4a64 eabc 9a8b 863d
000000f0: 1d60 24be 91bc 63bc 1dab b93d 3dec 92bd
00000100: 48e0 a13d 0016 853d c735 cdbd a387 c3bd
00000110: 8d26 8f3d 3905 523d db8c 18be efe6 1ebe
00000120: 4dea 19bd 19e6 153d 2a93 f13d 8a82 f1bd
00000130: 3d4a 653d ee46 f03b 23ab 3d39 5888 6dbd
00000140: a85e ac3d a17e 1b3d f94c a5bd dd77 743d
00000150: 9748 743d f3d2 d53c 6672 743d 8523 c23d
00000160: d134 e13c 3ff2 083e 4d72 053d d6da 18be
00000170: ab91 8d3b ddca 93bd 9efa 28be dddd 863d
00000180: 0b62 dfbd f8bb 4e3d 302c 9dbc ae2f 31be
00000190: a6bc b0bd e0c2 41bd dcdf f0bd ab0d 723d
000001a0: 05c5 25be 86c6 b3bd a683 80bd 9ece 6abc
000001b0: 77bb 88bd b817 a03d cad2 5fbd a4be edbb
000001c0: 9979 1dbe d6f0 c8bc 4f11 d23d 22a5 8d3c
000001d0: b1cd af3d bb4b 893d abb5 9ebd a82a d93d
000001e0: b6af 213d 3f94 c43c fcf4 86bd e842 673d
000001f0: 484b 153d 6ffb ee3d c743 dd3d 8fee 12bd
00000200: d173 a83d 3765 bf3d c58d 20be 8bc0 8bbd
00000210: 6b12 56bb df5f 0cbe 1388 a13d eef8 08be
00000220: 5b41 dcbc 50bf 2fbe 4a69 803d d324 ab3d
00000230: 3c38 3cbd 0758 de3d e5e0 0fbc 4bf8 d83c
00000240: 1ebc b7bc b1e8 79ba dd61 29be 96d6 eebd
00000250: 625c 23be ba2e f73d 2a11 8cbd 9635 fdbd
00000260: ac83 dabd 2271 d03d 271b b03c 1120 b33d
00000270: 604f 943c e0bb 19be 117f 1c3d 4e9d 24be
00000280: d873 bb3d 40b9 7c3c d232 f63c 8346 c9bd
00000290: 7497 7b3d 3113 74bd 1df8 353d b16f c03c
000002a0: 159b f13d 3cdb 1ebe d13d 17be 970c 243b
000002b0: 1055 26be 6d06 6c3d 84e6 253d b9a8 17bd
000002c0: 049f 41bd c839 3a3d 3afb bfbc 96f0 273d
000002d0: 7539 c039 8c33 ca3d 3f77 dcba 1651 973d
000002e0: bf03 14be d68d 803d 9b89 11bc 39bb b73d
000002f0: 21e4 0f3e 543a 443c e84a 21be b18b 8d3b
00000300: c498 443d a595 f83d cc10 16be 4059 16be
00000310: c88b d43d f3a0 333d bcea 08be 1637 d9bd
00000320: 95eb f6bd ce6a e23b 0342 833d 2a2a 9d3d
00000330: 9e99 7bbd 4d87 673d 2e5f 1fbe e8bb 6dbd
00000340: 543b d33d d19a 533c 5402 27be 7c04 643d
00000350: a4ff 22be 7f30 21bd 4bfe 083e 2446 d7bc
00000360: 91b7 c1bc 9636 e5bd 9437 0b3e ce95 223d
00000370: f99f 8e3d 96ee d63d e961 83ba c5e3 323d
00000380: e42d eebd bcba b63d 1468 24bd 2030 22be
00000390: f6c7 c23d 7e3b bc3d df05 f6bd 5cb1 933d
000003a0: 9aee 1bbe f30d 5e3d e7a5 3b3d 4dc1 51bd
000003b0: 56c7 ea3c 4769 ddbd 3b5c 043d a9fd 933d
000003c0: bfe3 6a3b 58a3 813d 236c 07be a9d8 793c
000003d0: 3dcf a5bc a05c e33c 3260 863d 3fe5 8b3b
000003e0: f4a4 59bd 02bd f0bc 0795 663c e62f fcbc
000003f0: 2073 703d b2e2 543b 47c7 1bbe e5c9 78bd

action_model._discrete_distribution.branches.0.weight f4 [4, 256]
0.026478842 -0.012789319 0.00980623 -0.0045892415 0.020241337 -0.015181667 -0.009068361 0.026545102
-0.015707301 -0.01836039 0.003892539 -0.025697967 0.0060468484 -0.0003756088 0.036025878 -0.029503642
0.034948755 0.004186745 -0.019087307 -0.01116993 -0.010810457 0.015997984 -0.01726008 -0.010204217
-0.0034779517 -0.029547093 -0.004377651 0.04909595 -0.020434577 -0.014545022 -0.0075295474 0.0060623246
-0.020818816 0.013306591 -0.027322816 0.038286638 -0.033098396 -0.03860235 0.012584665 -0.00064067
-0.028372215 0.037440725 -0.02623168 0.036040794 -0.005289699 -0.0019408715 -0.011585581 -0.010272392
-0.0034788665 -0.014081049 0.0038534875 -0.00647431 -0.007167187 -0.024913266 -0.034942932 -0.006490437
-0.02292853 -0.008809287 0.010403949 -0.02555149 0.046186 -0.031376023 -0.025912866 0.011206474
-0.025071794 -0.017283741 0.0026086336 0.022631729 0.0021380507 -0.013212639 0.03479651 0.045898695
0.0056371833 -0.027415544 -0.044355866 0.04083415 -0.038725596 -0.012430023 -0.008934173 -0.0028691809
-0.0014122104 -0.0010549246 0.026575284 -0.024588414 -0.023483671 0.0044541606 -0.0154704135 -0.03698085
0.0054220986 -0.060495038 0.019177372 0.068389006 -0.023804938 0.031233307 0.048442747 -0.030215418
-0.009158864 0.0014920749 0.0063319183 0.043440945 0.04503827 0.012462884 0.017483145 -0.01704462
0.035338458 0.012327414 0.025881376 0.005787956 0.016408175 -0.020426752 0.007375957 -0.018308586
0.04631987 -0.025714971 -0.008815228 -0.00946303 -0.013807516 -0.023376383 0.013302675 0.0024753239
-0.009168301 0.0021562504 0.035186294 0.0008008303 -0.026633603 -0.027054667 -0.01285849 -0.0026499485
-0.035239317 -0.036860198 0.050857436 0.0029805587 0.00402606 0.027780784 -0.022773316 0.05206622
0.0015032837 0.0361821 -0.0047021345 -0.0013526725 0.016507868 -0.05174603 -0.002894286 -0.010382194
0.014478407 -0.029754937 0.054643765 0.027038665 0.029488849 -0.038871624 0.013654457 0.056866854
0.04506037 -0.020662503 -0.028414007 -0.008569742 -0.023909269 0.041885875 -0.00014989283 0.051404
-0.027433109 0.0054052332 -0.010222292 0.029972319 -0.011019237 0.012302845 0.017331 0.018527683
-0.025952823 0.050401274 0.029529048 -0.028027857 0.04895988 0.00029332502 -0.024992917 -0.020203168
-0.010294057 -0.02020476 0.005678245 -0.026465727 -0.029152842 -0.03893769 -0.016160395 -0.035215247
0.035664376 -0.03861235 0.0038344578 -0.039884396 -0.023311606 0.008181301 0.04033186 -0.033661965
-0.0023801934 -0.008756442 0.049142018 0.052697953 -0.032601573 -0.014789399 0.02591862 0.016532844
0.0063929874 -0.006351436 -0.008237913 -0.021568257 -0.02638247 -0.0065738345 0.035758905 0.0035357254
-0.046572987 0.034183588 0.051355526 -0.015868694 0.04469418 0.0033878 -0.049199354 -0.008183699
-0.01572137 0.013945305 -0.03332901 -0.020229368 -0.0034938352 -0.04703238 -0.008729602 -0.030467724
0.013250666 0.00042309996 -0.004152392 0.04982906 -0.024670528 0.0035489078 0.01127122 -0.03258143
0.029431889 -0.0016823057 -0.020883532 0.005059056 0.010285722 0.026865136 -0.014438719 -0.002622122
0.0015292091 -0.0062118513 0.033334553 0.02358183 -0.011631242 -0.002701926 -0.017107232 0.0059383693
-0.0038302585 0.0017497527 -0.0014880957 -0.012520502 -0.009419023 -0.011107587 0.024084747 0.015823616
00000000: 28ea d83c 4b8a 51bc 4faa 203c 5961 96bb
00000010: 29d1 a53c 87bc 78bc 7693 14bc 1d75 d93c
00000020: 99ac 80bc 8768 96bc f819 7f3b 8b84 d2bc
00000030: a424 c63b 5ced c4b9 df8f 133d 9fb1 f1bc
00000040: 6d26 0f3d f630 893b fc5c 9cbc 1502 37bc
00000050: 581e 31bc 340e 833c 0365 8dbc 972f 27bc
00000060: 59ee 63bb bf0c f2bc 6672 8fbb d618 493d
00000070: 6a66 a7bc 3e4e 6ebc 6cba f6bb 77a6 c63b
00000080: 398c aabc e303 5a3c 19d4 dfbc 73d2 1c3d
00000090: 2f92 07bd 7f1d 1ebd e92f 4e3c a3f2 27ba
000000a0: d96c e8bc 725b 193d d2e3 d6bc 839f 133d
000000b0: 3655 adbb d764 feba 73d1 3dbc 894d 28bc
000000c0: b2fd 63bb 33b4 66bc cb8a 7c3b 7326 d4bb
000000d0: b9da eabb e816 ccbc 5220 0fbd bbad d4bb
000000e0: 9dd4 bbbc d454 10bc 5375 2a3c 5c51 d1bc
000000f0: 882d 3d3d 2584 00bd 3847 d4bc 5c9b 373c
00000100: 5d63 cdbc a296 8dbc 9cf5 2a3b 2d66 b93c
00000110: 8a1e 0c3b d379 58bc c986 0e3d 4500 3c3d
00000120: 1fb8 b83b 9096 e0bc 7fae 35bd b641 273d
00000130: bb9e 1ebd 4ca7 4bbc a360 12bc de08 3cbb
00000140: eb19 b9ba 6545 8aba 69b4 d93c a46d c9bc
00000150: d460 c0bc 35f4 913b 9e77 7dbc 3b79 17bd
00000160: dcab b13b a5c9 77bd dd19 9d3c 890f 8c3d
00000170: 9302 c3bc fedc ff3c e76b 463d 5386 f7bc
00000180: 0f0f 16bc ba91 c33a fb7b cf3b 22ef 313d
00000190: 0d7a 383d 2031 4c3c d038 8f3c 29a1 8bbc
000001a0: 0fbf 103d ecf8 493c 2e05 d43c e5a8 bd3b
000001b0: 706a 863c 0156 a7bc 03b2 f13b e3fb 95bc
000001c0: e7b9 3d3d 34a8 d2bc bf6d 10bc d30a 1bbc
000001d0: eb38 62bc d47f bfbc 77f3 593c 0b39 223b
000001e0: a436 16bc e14f 0d3b 811f 103d d0ee 513a
000001f0: b72e dabc c0a1 ddbc 6bac 52bc c2aa 2dbb
00000200: 1a57 10bd b8fa 16bd e34f 503d 7a55 433b
00000210: 0aed 833b 8794 e33c 1b8f babc 6443 553d
00000220: d509 c53a af33 143d 5d14 9abb 284c b1ba
00000230: 823b 873c a5f3 53bd 10ae 3dbb 141a 2abc
00000240: d736 6d3c a0c0 f3bc 24d2 5f3d 3180 dd3c
00000250: 9992 f13c da37 1fbd f2b6 5f3c 38ed 683d
00000260: 3991 383d 6944 a9bc 7ec4 e8bc 1a68 0cbc
00000270: 5fdd c3bc 8690 2b3d 8d2c 1db9 008d 523d
00000280: 66bb e0bc 621e b13b 667b 27bc 8288 f53c
00000290: 088a 34bc df91 493c bef9 8d3c 5ec7 973c
000002a0: 049b d4bc 9171 4e3d e7e6 f13c ad9a e5bc
000002b0: 288a 483d 6bc9 9939 f2bd ccbc 1d81 a5bc
000002c0: 68a8 28bc 7484 a5bc 9210 ba3b a7ce d8bc
000002d0: f1d1 eebc 217d 1fbd ce62 84bc dd3d 10bd
000002e0: cf14 123d fc27 1ebd 874b 7b3b d25d 23bd
000002f0: fbf7 bebc dd0a 063c 0533 253d 21e1 09bd
00000300: 05fd 1bbb 2e77 0fbc 2449 493d cfd9 573d
00000310: 3a89 05bd 3c4f 72bc 4953 d43c e36f 873c
00000320: 447c d13b b51f d0bb 50f8 06bc eaaf b0bc
00000330: 0d20 d8bc 5269 d7bb ee77 123d a1b7 673b
00000340: 51c3 3ebd 1704 0c3d 2c5a 523d 10ff 81bc
00000350: 3f11 373d da05 5e3b 4385 49bd ec14 06bc
00000360: 1aca 80bc d97a 643c 0084 08bd 0fb8 a5bc
00000370: d4f8 64bb 06a5 40bd 9b06 0fbc 7397 f9bc
00000380: 5219 593c 84d3 dd39 ca10 88bb 8e19 4c3d
00000390: d919 cabc cb94 683b ecaa 383c 1b74 05bd
000003a0: 251b f13c d080 dcba f113 abbc 70c6 a53b
000003b0: 7285 283c 4614 dc3c 6090 6cbc e8d7 2bbb
000003c0: be6f c83a c98c cbbb d089 083d af2e c13c
000003d0: f790 3ebc cc12 31bb 7724 8cbc a796 c23b
000003e0: 1305 7bbb f557 e53a 350c c3ba cb22 4dbc
000003f0: 3f52 1abc 99fc 35bc 604d c53c 87a0 813c

action_model._discrete_distribution.branches.0.bias f4 [4]
-0.05344459 0.13155797 -0.049206063 -0.07086408
00000000: b7e8 5abd 22b7 063e 4c8c 49bd 3021 91bd

action_model._discrete_distribution.branches.1.weight f4 [15, 256]
-0.025164172 0.025863577 -0.0060005295 0.029742805 -0.063717276 -0.049089428 0.020338342 -0.007847162
0.0034304417 0.023794122 0.06671097 0.00067860604 -0.06057438 0.05271399 -0.022458162 -0.035753895
-0.02657371 0.045341134 -0.018432654 -0.032586366 -0.0137794865 -0.059269994 0.009739266 -0.038079064
-0.04391007 0.012366505 -0.003936299 -0.024580324 -0.0539628 -0.018298686 -0.028924303 -0.04932148
-0.006500803 0.037655614 0.024654549 -0.05663979 -0.014714528 -0.010175519 -0.0061684763 -0.061893683
-0.00758733 -0.009376498 -0.041148007 0.03822323 -0.04864183 0.052235294 -0.0053047193 0.00693606
-0.026345024 0.0074487594 -0.005322399 -0.0900469 -0.043212485 -0.009108676 0.0124117965 0.008351721
-0.020051584 -0.07098604 -0.01759986 -0.025313724 -0.03891169 0.0042988444 -0.029361177 -0.0058223363
0.040769536 0.013644972 0.0052832537 0.009655097 -0.08676363 0.008180845 -0.028141046 -0.020551514
0.01417193 0.040415086 0.008215539 -0.004755254 -0.006215909 -0.0031359287 0.00039133005 0.00028131515
0.0074367523 -0.046123996 0.060663052 0.001062106 0.015958065 -0.014374591 -0.0015993953 -0.029888872
0.03625581 0.009353407 -0.056966487 -0.0029795999 -0.005640465 -0.0071530226 -0.016512332 0.026153794
0.07048111 0.011443794 -0.033990324 -0.027539056 -0.04845694 0.0905071 0.0070566717 -0.001914827
-0.014989691 0.06971952 -0.0029394643 0.018971605 -0.038137753 0.099064656 -0.03592134 -0.0070205852
-0.029981984 0.002746396 0.10055945 0.06310759 -0.005174181 -0.023622565 0.013875464 0.017576786
-0.029881023 0.040071208 -0.008092364 -0.06698549 0.052192185 -0.02215815 0.0008982964 0.030876704
0.029748008 -0.02539966 -0.027745245 -0.0011511245 -0.052103654 0.016406342 -0.02085329 -0.014247884
-0.009487876 -0.036852613 0.015677644 -0.038806174 0.040179424 0.011534123 -0.0033867408 -0.015869938
-0.1125685 0.089534365 -0.02288169 0.029452484 -0.016398871 -0.008092309 0.08349887 -0.00020344007
0.014433473 -0.0012859373 -0.0021363527 -0.006384831 0.07554241 -0.02794625 -0.08639945 -0.029181046
-0.02549712 0.039242007 -0.026721276 0.005013983 -0.014290001 -0.10050582 0.039871857 0.07152337
-0.01610203 -0.028506342 -0.034599047 -0.014154982 -0.036367625 0.039135806 -0.08312138 0.046674386
-0.038337134 0.0010512053 0.0005449333 0.0036146268 0.0036839806 0.04575593 0.010492915 0.02975479
-0.027308123 -0.017922789 0.01629386 -0.017378086 -0.032335814 -0.0022393495 -0.019323962 0.08458386
-0.023679066 -0.042142414 -0.0062473714 -0.038525537 -0.0012382305 -0.009160556 -0.059056144 -0.020180007
-0.013372817 -0.011395625 0.04199079 -0.0001770264 -0.0032136212 -0.029796103 -0.0055962936 -0.004148169
0.051821202 -0.016557217 -0.0151012335 0.019188575 -0.013483104 -0.032910164 -0.022740189 -0.028351411
-0.041320268 -0.035619505 0.0012830251 -0.0035237733 0.031805757 0.007222902 -0.0750918 0.004843548
-0.05267588 0.033110805 -0.02676615 -0.019508569 -0.07348499 0.03432324 -0.05784517 0.031484414
-0.01722001 0.058537796 0.06685733 0.052989323 0.042446986 0.0034193406 0.009937797 -0.01978394
-0.021673784 0.023893766 0.0053908085 0.047017876 -0.011357282 0.00089278136 0.024404066 0.020137487
-0.021019347 -0.0146002835 -0.016443828 -0.012547798 -0.012054763 -0.013566306 -0.013019564 0.007786888
00000000: 1825 cebc dadf d33c 17a0 c4bb 2fa7 f33c
00000010: 347e 82bd ff11 49bd 989c a63c 6291 00bc
00000020: 43d1 603b e4eb c23c c39f 883d 7be4 313a
00000030: d71c 78bd a0ea 573d 2efa b7bc ad72 12bd
00000040: 1cb1 d9bc a0b7 393d 1400 97bc 4879 05bd
00000050: 5bc3 61bc 18c5 72bd 7191 1f3c cbf8 1bbd
00000060: 0cdb 33bd e29c 4a3c 12fc 80bb ad5c c9bc
00000070: 1908 5dbd 20e7 95bc a9f2 ecbc 5205 4abd
00000080: b004 d5bb c63c 1a3d 56f8 c93c 20ff 67bd
00000090: 3415 71bc 38b7 26bc ee20 cabb 3b84 7dbd
000000a0: 239f f8bb e29f 19bc d08a 28bd f68f 1c3d
000000b0: a83c 47bd adf4 553d 36d3 adbb e347 e33b
000000c0: 85d1 d7bc b914 f43b 8567 aebb 826a b8bd
000000d0: 93ff 30bd 8e3c 15bc d95a 4b3c a8d5 083c
000000e0: 3843 a4bc 2161 91bd 952d 90bc ba5e cfbc
000000f0: dd61 1fbd 52dd 8c3b da86 f0bc 4cc9 bebb
00000100: f5fd 263d 298f 5f3c 251f ad3b 6930 1e3c
00000110: 21b1 b1bd f308 063c 0d88 e6bc a65b a8bc
00000120: 6231 683c 4a8a 253d 789a 063c f6d1 9bbb
00000130: d3ae cbbb 2784 4dbb 6e2b cd39 7b7d 9339
00000140: 00b0 f33b 84ec 3cbd d279 783d 5d36 8b3a
00000150: 7dba 823c 6883 6bbc cda2 d1ba 82d9 f4bc
00000160: f980 143d 083f 193c b155 69bd 6445 43bb
00000170: a6d3 b8bb e763 eabb df44 87bc 7b40 d63c
00000180: 6658 903d c07e 3b3c 7039 0bbd 9699 e1bc
00000190: c97a 46bd c95b b93d a73b e73b effa faba
000001a0: 5297 75bc 1cc9 8e3d 07a4 40bb 576a 9b3c
000001b0: 5536 1cbd 69e2 ca3d 4122 13bd f00c e6bb
000001c0: c79c f5bc e1fc 333b 1df2 cd3d 8d3e 813d
000001d0: 2d8c a9bb 1c84 c1bc ea55 633c 31fd 8f3c
000001e0: 0cc9 f4bc b521 243d d695 04bc b02f 89bd
000001f0: 79c7 553d 0285 b5bc a77b 6b3a 24f1 fc3c
00000200: 18b2 f33c f312 d0bc ff49 e3bc 54e1 96ba
00000210: a46a 55bd 9866 863c 85d4 aabc f56f 69bc
00000220: 0973 1bbc c4f2 16bd 676e 803c 39f3 1ebd
00000230: 2e93 243d 9ef9 3c3c 15f4 5dbb ac01 82bc
00000240: 508a e6bd cb5d b73d 6272 bbbc 5646 f13c
00000250: ed56 86bc 9b95 04bc 7501 ab3d 8752 55b9
00000260: 607a 6c3c e58c a8ba 0d02 0cbb d837 d1bb
00000270: fbb5 9a3d 89ef e4bc 32f2 b0bd 170d efbc
00000280: 56df d0bc 3abc 203d 94e6 dabc 574c a43b
00000290: 9c20 6abc ffd5 cdbd ac50 233d d87a 923d
000002a0: 68e8 83bc 2286 e9bc bbb7 0dbd 4cea 67bc
000002b0: 38f6 14bd de4c 203d 8b3b aabd a42d 3f3d
000002c0: 6607 1dbd 99c8 893a dbd9 0e3a 60e3 6c3b
000002d0: f06e 713b 926a 3b3d 7aea 2b3c 51c0 f33c
000002e0: 49b5 dfbc d0d2 92bc b37a 853c 7d5c 8ebc
000002f0: 8f72 04bd 0dc2 12bb 494d 9ebc 4e3a ad3d
00000300: 9afa c1bc 869d 2cbd c0b6 ccbb f4cc 1dbd
00000310: 1f4c a2ba 2816 16bc dbe4 71bd 8b50 a5bc
00000320: a919 5bbc b7b4 3abc 89fe 2b3d 2aa0 39b9
00000330: 9e9b 52bb f516 f4bc 1d61 b7bb 5ded 87bb
00000340: 7842 543d 00a3 87bc 2a6b 77bc 5c31 9d3c
00000350: 3de8 5cbc cfcc 06bd a249 babc 3841 e8bc
00000360: 713f 29bd c2e5 11bd 2e2b a83a 1bef 66bb
00000370: c146 023d 18ae ec3b bbc9 99bd a0b6 9e3b
00000380: aac2 57bd 329f 073d af44 dbbc 6fd0 9fbc
00000390: 4c7f 96bd 8796 0c3d 0fef 6cbd cdf5 003d
000003a0: fa10 8dbc 54c5 6f3d 7fec 883d 550b 593d
000003b0: e4dc 2d3d 0417 603b 24d2 223c ee11 a2bc
000003c0: 388d b1bc dcbc c33c 61a5 b03b d195 403d
000003d0: e513 3abc 8b09 6a3a 09eb c73c 5ff7 a43c
000003e0: c430 acbc 0736 6fbc 35b5 86bc 4895 4dbc
000003f0: 5781 45bc 3645 5ebc 0250 55bc 2729 ff3b

action_model._discrete_distribution.branches.1.bias f4 [15]
0.01705987 -0.0033189391 0.0007357169 0.008815428 -0.00092013605 0.0035597435 -0.017475983 0.018989628
0.010715457 -0.011364867 0.002281566 -0.0125528155 -0.02686346 0.007494791 0.00561995
00000000: 24c1 8b3c 8f82 59bb 20dd 403a 966e 103c
00000010: 4935 71ba 964a 693b cb29 8fbc 2390 9b3c
00000020: e28f 2f3c b533 3abc 5386 153b 53aa 4dbc
00000030: c210 dcbc dd96 f53b 8f27 b83b

action_model._discrete_distribution.branches.2.weight f4 [15, 256]
0.023611773 -0.043899965 -0.020880932 -0.018681122 0.0052048285 -0.002940968 -0.020872585 0.009077844
-0.011619829 -0.031234596 0.019112067 0.02534868 0.0071251444 -0.0077502113 0.015684403 0.010147394
0.014644087 0.040891934 0.006824649 -0.032042485 -0.060375836 0.013266585 -0.02429474 -0.0136037795
-0.014371733 0.023691667 -0.008646811 0.0025490306 0.022290803 -0.023536954 -0.033244595 -0.01567931
-0.0033923278 -0.02214322 -0.031118147 -0.00029803568 0.012206373 -0.014922829 -0.024153832 -0.0120972935
-0.039743558 0.0140851205 -0.011571687 -4.5024506e-05 -0.014458786 -0.02527131 -0.012448971 -0.0063740024
0.009368973 -0.019043494 -0.027721304 0.011943758 -0.010269261 -0.009835237 -0.0442274 -0.030548964
-0.027649114 0.021319592 -0.0056547746 0.004060842 -0.007941036 -0.01836882 -0.008457766 -0.040906746
-0.0078009726 -0.034160104 -0.0016448748 0.015786383 0.01856973 -0.02044342 0.017741267 -0.0055668475
-0.027364986 -0.01434331 -0.020852422 -0.0015274318 -0.017996076 -0.022681357 -0.01955002 -0.03322761
-0.03889674 -0.011390724 0.01632628 0.009683971 -0.009788446 0.0022079486 -0.030230256 -0.015483662
0.0003587968 0.0089253485 -0.02585983 -0.0024122496 0.026244927 0.006977563 -0.006522997 -0.03531633
0.032973617 -0.006805227 -0.04511434 0.003373373 -0.0019250021 0.020385766 0.005211254 0.019382447
0.0017448054 0.026173377 0.007683788 0.015589368 0.0015556366 -0.009960994 -0.008180175 -0.028262759
-0.0028017787 -0.025543984 -0.0030422544 0.013599011 -0.0041932515 -0.011945824 -0.009018772 0.014229636
-0.003343713 -0.015629945 0.0055921245 0.035565753 -0.016484175 -0.030311242 -0.014623709 -0.05356905
-0.02746473 -0.0019257051 0.0042982353 0.0020641482 0.009831252 0.010769183 -0.0019220483 0.00825022
-0.000859526 -0.008169242 0.015604123 0.0019312103 0.0039996793 -0.008432978 -0.03933862 -0.037387706
-0.014315817 -0.034677174 0.008519063 0.018788053 0.0007122949 0.0010990817 -0.0017595633 0.010456525
-0.0043710787 -0.0030360094 -0.018853012 0.008473996 0.0130917085 -0.008972924 -0.026414987 -0.015256722
0.024146836 0.0033532253 -0.016852261 -0.009040122 0.014028047 -0.018932609 -0.008108731 0.010201504
-0.006765333 -0.0034214647 0.008746462 -0.03240253 0.0040517715 -0.00047542423 0.017369071 -0.03386494
-0.011681286 -0.017863845 -0.023582155 -0.008379848 0.017816313 -0.036473054 -0.0051291822 -0.034255028
-0.00034165967 -0.034993593 0.024805317 -0.011303474 0.025016123 -0.021762285 0.016799947 0.0010614878
0.0024901964 -0.028763821 -0.02773058 0.0007025193 0.013755897 -0.012933564 -0.0068846657 -0.0025161006
0.011452986 -0.006313876 -0.03476201 -0.026832048 -0.011227555 0.006866758 -0.015990892 -0.039880008
-0.02025223 -0.01232849 -0.009897502 -0.049459916 -0.013186748 -0.036136687 -0.01933038 0.0012523804
-0.024458362 0.013400037 -0.026209686 -0.017046573 -0.018531315 -0.018525831 0.0038246932 -0.035480917
-0.0062950593 0.029366802 -0.016723018 -0.0065011336 0.014990044 -0.009595606 -0.013173573 -0.03862811
-0.004710269 0.010795994 0.031427525 -0.052269448 -0.022713825 -0.019019533 -0.016655121 0.011488255
-0.01783251 -0.03400061 0.015345971 0.02480615 -0.031382117 -0.024336416 -0.011507422 -0.00020856177
0.008534194 -0.029006446 0.0149088465 -0.017934207 -0.009646015 -0.021881094 0.011673307 -0.014132237
00000000: 7a6d c13c 73d0 33bd 7d0e abbc 2709 99bc
00000010: 448d aa3b 41bd 40bb fcfc aabc 3dbb 143c
00000020: 1861 3ebc b2df ffbc e990 9c3c 09a8 cf3c
00000030: 0b7a e93b 7cf5 fdbb 947c 803c 4141 263c
00000040: c1ed 6f3c 4d7e 273d 4ea1 df3b fb3e 03bd
00000050: a74c 77bd 175c 593c c305 c7bc 63e2 5ebc
00000060: 6b77 6bbc 0715 c23c 5bab 0dbc a30d 273b
00000070: 349b b63c 92d0 c0bc 7c2b 08bd e571 80bc
00000080: d151 5ebb b365 b5bc 7ceb febc ac41 9cb9
00000090: 3dfd 473c e27e 74bc 42de c5bc ba33 46bc
000000a0: 24ca 22bd 47c5 663c 2c97 3dbc b2d8 3cb8
000000b0: 8be4 6cbc c705 cfbc c5f6 4bbc 02dd d0bb
000000c0: 5280 193c 1a01 9cbc ca17 e3bc c1af 433c
000000d0: 6740 28bc f923 21bc ca27 35bd d241 fabc
000000e0: 6580 e2bc 6da6 ae3c b04b b9bb d010 853b
000000f0: 1e1b 02bc 357a 96bc 7192 0abc d58d 27bd
00000100: 4d9f ffbb 77eb 0bbd d798 d7ba 7252 813c
00000110: 8c1f 983c f678 a7bc 2256 913c 1a6a b6bb
00000120: 892c e0bc 3400 6bbc b3d2 aabc 1b34 c8ba
00000130: 826c 93bc 41ce b9bc 5d27 a0bc ad19 08bd
00000140: 3052 1fbd 29a0 3abc b1be 853c 85a9 1e3c
00000150: b85f 20bc 3bb3 103b 71a5 f7bc 2faf 7dbc
00000160: e41c bc39 a03b 123c ffd7 d3bc d516 1ebb
00000170: 9aff d63c 0aa4 e43b ddbe d5bb dba7 10bd
00000180: 580f 073d 62fe debb d0c9 38bd cf13 5d3b
00000190: 5a50 fcba 0d00 a73c 2bc3 aa3b f0c7 9e3c
000001a0: f4b1 e43a 8d69 d63c 49c8 fb3b 8c6a 7f3c
000001b0: 81e6 cb3a 7033 23bc 2406 06bc 4d87 e7bc
000001c0: 0c9e 37bb 9e41 d1bc 8f60 47bb 63ce 5e3c
000001d0: 8b67 89bb 6bb8 43bc 79c3 13bc 6b23 693c
000001e0: 3222 5bbb 5f0a 80bc 243e b73b 65ad 113d
000001f0: d209 87bc 484f f8bc 4898 6fbc 386b 5bbd
00000200: b7fd e0bc f167 fcba 36d8 8c3b a946 073b
00000210: 4213 213c 3a71 303c 3ded fbba ee2b 073c
00000220: d051 61ba 49d8 05bc 6fa8 7f3c aa20 fd3a
00000230: be0f 833b 792a 0abc 8821 21bd da23 19bd
00000240: e38c 6abc a709 0ebd 8a93 0b3c 67e9 993c
00000250: 4db9 3a3a 100f 903a 26a1 e6ba d851 2b3c
00000260: 443b 8fbb c9f7 46bb a271 9abc 84d6 0a3c
00000270: 9b7e 563c 2c03 13bc 3e64 d8bc 55f7 79bc
00000280: 96cf c53c c9c1 5b3b c10d 8abc 051d 14bc
00000290: e5d5 653c 8f18 9bbc 7cda 04bc 3624 273c
000002a0: baaf ddbb a73a 60bb 524d 0f3c 84b8 04bd
000002b0: b9c4 843b 5c42 f9b9 9549 8e3c f7b5 0abd
000002c0: dd62 3fbc 3357 92bc 5d2f c1bc a14b 09bc
000002d0: 84f3 913c c564 15bd b312 a8bb 004f 0cbd
000002e0: c920 b3b9 7155 0fbd 8534 cb3c 3532 39bc
000002f0: 9dee cc3c d246 b2bc 0ba0 893c 9f21 8b3a
00000300: 9032 233b 1ba2 ebbc 3e2b e3bc 4629 383a
00000310: 6a60 613c 4de7 53bc c398 e1bb 2ae5 24bb
00000320: 4ea5 3b3c a1e4 cebb 9c62 0ebd e2ce dbbc
00000330: c7f3 37bc 8b02 e13b 55ff 82bc 3859 23bd
00000340: 01e8 a5bc 6ffd 49bc 2229 22bc 7b96 4abd
00000350: 3b0d 58bc 1004 14bd bf5a 9ebc ea26 a43a
00000360: e75c c8bc d48b 5b3c b2b5 d6bc 41a5 8bbc
00000370: fcce 97bc 7cc3 97bc b4a7 7a3b 7054 11bd
00000380: c946 cebb a692 f03c b6fe 88bc 7607 d5bb
00000390: cd98 753c e336 1dbc f8d5 57bc 8238 1ebd
000003a0: 9a58 9abb aee1 303c 26ba 003d 7d18 56bd
000003b0: 5812 babc dace 9bbc 5270 88bc 3c39 3c3c
000003c0: 7c15 92bc 3944 0bbd ab6d 7b3c 4436 cb3c
000003d0: 898a 00bd 2a5d c7bc a089 3cbc 60b1 5ab9
000003e0: 01d3 0b3c ed9e edbc 3c44 743c c2ea 92bc
000003f0: 520a 1ebc fb3f b3bc 6641 3f3c e68a 67bc

action_model._discrete_distribution.branches.2.bias f4 [15]
-0.007241206 0.004167531 -0.011792148 -0.0055726063 0.004835503 0.006665791 0.0025821691 0.013617922
0.014685083 0.003886967 8.350683e-05 -0.0012941873 -0.00744173 0.0064425175 -0.018339066
00000000: a347 edbb c98f 883b db33 41bc 699a b6bb
00000010: 2473 9e3b b56c da3b 9c39 293b b41d 5f3c
00000020: b499 703c 7cbc 7e3b 6320 af38 b8a1 a9ba
00000030: c1d9 f3bb c11b d33b cf3b 96bc
