results/ParticipantRankingsAndProposedRanking/AgentBehavior/AgentBehavior-999994.onnx (onnx, 333671 bytes, 11 tensors)

discrete_act_size_vector f4 [1, 3]
4.0 15.0 15.0
00000000: 0000 8040 0000 7041 0000 7041

network_body._body_endoder.seq_layers.0.weight f4 [256, 30]
-0.11248629 0.3208342 0.09120242 0.056711633 -0.011482252 -0.08287096 -0.1608335 0.1245167
-0.18741249 -0.19495286 0.38572365 0.11504601 -0.06617476 -0.21195218 0.014544667 -0.20175661
-0.10425089 -0.2642984 0.22656678 -0.12860152 -0.035028446 0.05685351 0.33113798 0.27442876
-0.06489877 0.08542735 -0.031338573 -0.029365674 -0.12660311 0.3409381 0.31278044 -0.18419154
0.07761775 0.41966674 -0.12913002 0.13190825 -0.09975093 0.13269016 -0.110212184 -0.41179752
-0.10642577 -0.22035198 -0.0080675995 0.046657737 -0.22598211 0.09723064 -0.0076071783 0.19678786
0.01384611 -0.016441474 -0.027104614 -0.12339253 -0.16670342 0.42132944 -0.02998165 -0.17839418
-0.0010439567 -0.1342877 0.15267904 -0.13851574 0.436198 0.033450387 0.06982421 0.35716084
-0.010433676 0.03186478 -0.21990734 -0.23134035 0.13321956 -0.19685893 0.10847052 -0.263247
0.14213957 -0.064811274 0.032634724 -0.15565506 0.13169271 -0.2739376 0.07088415 -0.23946466
-0.011891581 0.11533902 0.09723976 -0.039015498 -0.020573605 0.23124926 0.31181982 -0.020607559
0.47529644 -0.31896174 -0.05484228 0.26938984 0.21222872 0.28148496 0.41600707 0.019817315
0.3256835 -0.13601013 0.0037593762 -0.18837185 -0.08409201 0.033983443 0.19091287 0.01869603
0.13974991 0.18339431 0.3297504 -0.032235242 0.199653 -0.15362406 0.3138002 -0.12041842
-0.30118874 0.23057371 -0.088631816 -0.0025899333 -0.023761945 0.0046188245 -0.17128092 0.033625837
-0.010683933 -0.38205183 -0.27003735 -0.03526877 -0.2733444 0.16792695 0.26138943 0.22893234
-0.07443751 0.056115046 -0.15307719 0.09265335 0.054148216 -0.05345963 0.12693529 -0.011422191
-0.07997087 0.11106984 -0.16145529 -0.07212239 -0.055506777 -0.034016717 0.11542319 0.14460076
-0.18963851 -0.013905835 0.2546297 -0.18821298 0.19070351 0.026244849 0.052299894 -0.08642873
-0.14945576 0.06508648 0.40604776 0.0136620235 0.05857645 -0.020868072 0.11064699 -0.30449656
-0.010403115 -0.06245171 0.26989534 0.002911153 0.09360175 0.15858774 0.08689096 0.112339795
-0.037458 -0.015208698 0.029626966 0.025287418 -0.06065941 -0.10975941 -0.08810906 0.07088744
-0.15764359 0.26696685 0.08111845 0.11068399 -0.043362964 -0.05876069 0.28690177 0.060421553
0.06357314 0.24986906 -0.14627548 0.012635424 -0.4326057 0.0977264 0.23804204 0.23139912
0.24470332 -0.06316904 -0.07877826 -0.03566469 -0.026791884 -0.3061916 -0.13001952 -0.5244675
0.010222754 -0.0043269317 -0.22788186 -0.21507142 -0.24287151 -0.2869406 -0.19477192 0.06014882
-0.057241756 0.050630935 -0.089485854 -0.19167826 0.24940468 -0.19950762 0.19306272 0.24885052
-0.1418088 0.011879402 0.29299632 -0.120414965 -0.092838034 -0.16737464 0.07402536 -0.055179793
0.10120922 0.028019188 -0.008332586 -0.061484873 -0.08611796 -0.058378153 -0.34387067 -0.06057096
0.008532246 -0.01055286 -0.069328375 0.14417934 0.3945237 -0.041577514 0.13029632 -0.2881666
0.05449712 0.14357576 -0.56471705 -0.098219775 0.024450852 0.021358723 -0.23442283 -0.097721696
-0.29552728 -0.08845342 0.1836177 0.18694222 -0.117213756 0.15777871 -0.40882134 0.12488199
00000000: 365f e6bd 6144 a43e 56c8 ba3d 754a 683d
00000010: 0e20 3cbc 40b8 a9bd 89b1 24be 9d02 ff3d
00000020: 0fe9 3fbe b9a1 47be 927d c53e 3e9d eb3d
00000030: a286 87bd fe09 59be c14c 6e3c 4999 4ebe
00000040: 7e81 d5bd 1f52 87be 1f01 683e 1eb0 03be
00000050: fd79 0fbd 3adf 683d eb8a a93e ed81 8c3e
00000060: a5e9 84bd 89f4 ae3d e05c 00bd 4890 f0bc
00000070: 3fa4 01be 708f ae3e c224 a03e b59c 3cbe
00000080: 0ef6 9e3d 8fde d63e a93a 04be f512 073e
00000090: 374a ccbd eedf 073e edb6 e1bd 20d7 d2be
000000a0: c1f5 d9bd f3a3 61be f72d 04bc 2f1c 3f3d
000000b0: db67 67be dc20 c73d a345 f9bb c282 493e
000000c0: cbda 623c 45b0 86bc 7f0a debc 39b5 fcbd
000000d0: 4db4 2abe 7eb8 d73e 149c f5bc f7ac 36be
000000e0: 60d5 88ba b782 09be e557 1c3e 12d7 0dbe
000000f0: 5855 df3e 4603 093d ffff 8e3d c9dd b63e
00000100: 02f2 2abc a584 023d 642f 61be 7ce4 6cbe
00000110: b56a 083e 6395 49be cb25 de3d 50c8 86be
00000120: 098d 113e c6bb 84bd fdab 053d 0a64 1fbe
00000130: 74da 063e 8d41 8cbe b62b 913d 3936 75be
00000140: e8d4 42bc dd36 ec3d a425 c73d b7ce 1fbd
00000150: fa89 a8bc 9bcc 6c3e d9a6 9f3e 2fd1 a8bc
00000160: 0e5a f33e f44e a3be 4ca2 60bd 77ed 893e
00000170: 7c52 593e cc1e 903e e1fe d43e ec57 a23c
00000180: fdbf a63e 3d46 0bbe de5f 763b 8de4 40be
00000190: 6f38 acbd 3932 0b3d aa7e 433e 6b28 993c
000001a0: 9a1a 0f3e b8cb 3b3e 0bd5 a83e 1a09 04bd
000001b0: d671 4c3e a04f 1dbe 6baa a03e ef9d f6bd
000001c0: 6935 9abe 841b 6c3e 9984 b5bd dfbb 29bb
000001d0: 69a8 c2bc 8259 973b 4464 2fbe 3fbb 093d
000001e0: aa0b 2fbc 4c9c c3be 5642 8abe fc75 10bd
000001f0: ccf3 8bbe 0bf5 2b3e d6d4 853e 3d6d 6a3e
00000200: b172 98bd e4d8 653d 44c0 1cbe 0ac1 bd3d
00000210: 85ca 5d3d 7cf8 5abd 53fb 013e 2424 3bbc
00000220: c4c7 a3bd 9678 e33d 8954 25be e7b4 93bd
00000230: 135b 63bd 1d55 0bbd fe62 ec3d 3912 143e
00000240: 9930 42be 4dd5 63bc d35e 823e e7ba 40be
00000250: c847 433e 70ff d63c 6a38 563d 8c01 b1bd
00000260: ee0a 19be 0f4c 853d 7ee5 cf3e aed6 5f3c
00000270: dced 6f3d 85f3 aabc e49a e23d f9e6 9bbe
00000280: d471 2abc 5dcd 7fbd b92f 8a3e 0bc9 3e3b
00000290: 46b2 bf3d d364 223e e3f3 b13d 6812 e63d
000002a0: 8f6d 19bd e72d 79bc 40b4 f23c 8f27 cf3c
000002b0: 0076 78bd 8bc9 e0bd 8672 b4bd 6f2d 913d
000002c0: 526d 21be e1af 883e 6e21 a63d 4aae e23d
000002d0: 5d9d 31bd 0daf 70bd cae4 923e 977c 773d
000002e0: a232 823d addd 7f3e 3dc9 15be cf04 4f3c
000002f0: 7f7e ddbe c724 c83d 4bc1 733e e4f3 6c3e
00000300: 8293 7a3e c55e 81bd 7f56 a1bd 2315 12bd
00000310: a77a dbbc 25c5 9cbe d623 05be 8143 06bf
00000320: 577d 273c efc8 8dbb dd59 69be af3b 5cbe
00000330: 4fb3 78be e1e9 92be 4a72 47be 9c5e 763d
00000340: 5576 6abd 6262 4f3d 5c44 b7bd 4e47 44be
00000350: f163 7f3e ba4b 4cbe 3cb2 453e acd2 7e3e
00000360: 5336 11be d3a1 423c 9d03 963e 1f9c f6bd
00000370: de21 bebd 4264 2bbe 9c9a 973d 3504 62bd
00000380: c846 cf3d 7f88 e53c 6685 08bc 90d7 7bbd
00000390: 9d5e b0bd ee1d 6fbd d10f b0be 4119 78bd
000003a0: d5ca 0b3c e7e5 2cbc 09fc 8dbd c0a3 133e
000003b0: 03ff c93e 2f4d 2abd 666c 053e 938a 93be
000003c0: 5f38 5f3d 8605 133e 4c91 10bf 7327 c9bd
000003d0: 274d c83c 7df8 ae3c 8a0c 70be 5022 c8bd
000003e0: 5a4f 97be 1127 b5bd 4706 3c3e c86d 3f3e
000003f0: c40d f0bd be90 213e 0851 d1be 21c2 ff3d

network_body._body_endoder.seq_layers.0.bias f4 [256]
-0.014595204 0.022418654 -0.0075048693 0.0018284612 0.03755006 -0.011788858 -0.0020853395 0.04909679
0.0031851504 -0.05204693 -0.035598468 0.02048527 -0.005106366 -0.021996453 -0.008443974 0.011178888
-0.022364534 -0.027710449 0.019402705 -0.027181897 -0.0004930347 0.06710773 0.0048961537 -0.036726747
-0.058652464 0.004794486 0.070043355 -0.012506524 -0.023263618 -0.0061319717 0.068535954 0.074251175
0.019017737 0.057112552 0.037947427 0.06523508 -0.015121557 -0.03658794 0.0025995132 -0.01028619
-0.004938973 0.045631576 0.0017648248 0.024455508 -0.028223643 -0.006553669 -0.0027506833 0.009931585
-0.0012225632 0.033455536 -0.0065427935 0.00028864783 -0.0050619203 -0.004691379 -0.021624533 -0.020643743
-0.015466605 0.035669122 -0.06027045 -0.0006940743 0.008919551 0.010412028 -0.051429752 -0.026411753
0.06928508 0.023294743 0.03449277 -0.0046933014 0.019914912 0.052071117 -0.0057540806 0.02224871
0.028103417 0.009269984 -0.019692428 -0.033677973 0.046389632 -0.017769521 -0.027968608 -0.0111814365
0.036267996 -0.043898728 0.052310858 -0.0010722444 0.044726957 -0.005904094 -0.0013428511 -0.004638852
0.03943125 0.049817774 -0.0032920798 0.0073330514 0.00669891 0.00407197 -0.024117986 0.024101451
0.072733805 0.04337328 0.02103826 -0.05716066 0.04931641 -0.018148607 0.020648554 0.044288006
0.06382099 0.017093055 0.03639103 0.007023163 0.031240411 -0.0007647341 -0.010531569 -0.059735756
0.035787474 -0.0024424272 -0.02420491 0.046399746 0.046342354 -0.00034867678 -0.007402448 0.021682935
-0.032769646 -0.005582518 0.014565263 0.019737335 0.0050880997 -0.016424878 0.029069822 0.008574143
-0.026584592 0.024132606 -0.024868924 -0.007952719 0.019019524 -0.0032264364 0.01775868 -0.006632602
0.0105375415 0.037952986 0.0014179066 0.05905159 0.01770744 -0.017826566 -0.0017130452 0.012088814
0.03216807 -0.02184779 -0.010224317 -0.004296714 -0.028499262 0.06860532 0.038084045 -0.017161347
0.009687303 -0.030244585 -0.02514419 0.04682753 0.056501623 0.033361975 0.014807616 0.027348412
0.02879 0.006963034 0.008913133 0.0018818157 0.01828512 -0.017556464 -0.00593468 0.0115570575
0.009674499 0.007551693 -0.015622675 -0.01734966 0.045838296 -0.00842601 -0.020404154 0.008076329
0.015250424 0.024395602 -0.0024731958 -0.016927427 -0.006957777 0.017958848 0.022012675 0.053965505
-0.0017211869 0.0048052804 0.010724085 -0.0046808803 -0.014643536 -0.028803812 -0.030038053 0.062050376
0.059182025 0.0136380615 -0.0047976486 -0.0031009275 -0.008313781 0.05727393 0.013240661 0.016653853
-0.02900238 -0.0152165545 -0.0030572684 0.041459464 -0.00039439835 0.0041615753 0.0055569676 -0.017080493
-0.012232483 -0.011664559 0.0046093585 -0.02544635 -0.024814194 -0.0090353545 0.029468697 0.026568975
0.031845797 0.0014751076 -0.015320303 -0.033832096 -0.008448307 0.03465199 -0.0055039567 -0.0117658395
0.025682755 0.09173997 -0.029843042 -0.0036473125 0.022953518 0.02248238 0.0434246 0.0021924796
0.013078101 0.005652401 0.015307309 -0.009618371 -0.019185709 0.02585388 -0.013562943 -0.0183352
-0.007230162 0.009126002 -0.0030190134 0.033386156 0.036328796 -0.009295443 0.032964032 -0.036743704
-0.041428514 0.009386932 0.051931433 -0.045477368 -0.0027496486 0.011729059 -0.00056288746 0.0016186823
00000000: b920 6fbc 53a7 b73c 68eb f5bb faa8 ef3a
00000010: 17ce 193d 0e26 41bc 31aa 08bb b719 493d
00000020: f5bd 503b 292f 55bd b3cf 11bd bad0 a73c
00000030: 4d53 a7bb e831 b4bc 9858 0abc a827 373c
00000040: d435 b7bc 0601 e3bc 6cf2 9e3c 92ac debc
00000050: 003f 01ba c76f 893d ea6f a03b c96e 16bd
00000060: 913d 70bd 101b 9d3b e472 8f3d 2ae8 4cbc
00000070: 5893 bebc b5ee c8bb 945c 8c3d 0011 983d
00000080: 16cb 9b3c daee 693d c36e 1b3d f899 853d
00000090: 68c0 77bc 3cdd 15bd 985c 2a3b 6887 28bc
000000a0: 1cd7 a1bb 2de8 3a3d b251 e73a eb56 c83c
000000b0: 4535 e7bc 29c0 d6bb cf44 34bb 16b8 223c
000000c0: 6a3e a0ba ac08 093d ee64 d6bb a855 9739
000000d0: 77de a5bb 24ba 99bb ef25 b1bc 111d a9bc
000000e0: a567 7dbc c919 123d 26de 76bd 8af2 35ba
000000f0: 4f23 123c 3697 2a3c 01a8 52bd 765d d8bc
00000100: 56e5 8d3d 9ed4 be3c 4a48 0d3d 44ca 99bb
00000110: 9924 a33c 8648 553d ba8c bcbb ed42 b63c
00000120: 2339 e63c 22e1 173c 0452 a1bc eaf1 09bd
00000130: 0e03 3e3d 6391 91bc 6c1e e5bc 5832 37bc
00000140: c08d 143d 27cf 33bd e943 563d 8d8a 8cba
00000150: 9d33 373d 2177 c1bb 9b02 b0ba 8301 98bb
00000160: aa82 213d b90d 4c3d efbf 57bb 184a f03b
00000170: 8882 db3b 296e 853b 1593 c5bc 6870 c53c
00000180: 76f5 943d 2ea8 313d 6e58 ac3c 4c21 6abd
00000190: 0100 4a3d 63ac 94bc 2827 a93c 5767 353d
000001a0: 94b4 823d bc06 8c3c c30e 153d 9022 e63b
000001b0: e4eb ff3c 7078 48ba 9a8c 2cbc 7bad 74bd
000001c0: e395 123d 2111 20bb 6049 c6bc a90d 3e3d
000001d0: 7bd1 3d3d 9bce b6b9 3c90 f2bb 69a0 b13c
000001e0: 7739 06bd 8eed b6bb 24a3 6e3c 31b0 a13c
000001f0: 13ba a63b 778d 86bc d623 ee3c 907a 0c3c
00000200: eec7 d9bc beb1 c53c eab9 cbbc 1f4c 02bc
00000210: d5ce 9b3c 9f72 53bb a77a 913c 4c56 d9bb
00000220: a7a5 2c3c 9774 1b3d 0dd9 b93a 14e0 713d
00000230: 310f 913c 0509 92bc 4288 e0ba 2910 463c
00000240: abc2 033d 23fa b2bc e583 27bc 73cb 8cbb
00000250: 4977 e9bc f280 8c3d 04fe 1b3d f495 8cbc
00000260: 7eb7 1e3c 7ec3 f7bc 30fb cdbc 39ce 3f3d
00000270: 3f6e 673d 91a6 083d a59b 723c c709 e03c
00000280: 02d9 eb3c 2a2a e43b 6408 123c 42a7 f63a
00000290: adca 953c 93d2 8fbc b477 c2bb d059 3d3c
000002a0: ca81 1e3c 3174 f73b 40f6 7fbc e020 8ebc
000002b0: f0c0 3b3d 3f0d 0abc 9d26 a7bc 9452 043c
000002c0: eadc 793c 49d9 c73c 5715 22bb 63ab 8abc
000002d0: 10fe e3bb 6f1e 933c ed53 b43c ef0a 5d3d
000002e0: 7399 e1ba 9d75 9d3b 13b4 2f3c 1262 99bb
000002f0: 71eb 6fbc f9f5 ebbc 5d12 f6bc 8928 7e3d
00000300: da68 723d 2d72 5f3c 9835 9dbb ee38 4bbb
00000310: 8636 08bc 1298 6a3d 5bef 583c a96d 883c
00000320: 6696 edbc db4e 79bc 745c 48bb 66d1 293d
00000330: 40c7 ceb9 d35d 883b 3917 b63b 64ec 8bbc
00000340: c16a 48bc b51c 3fbc 1a0a 973b dd74 d0bc
00000350: 2347 cbbc 0609 14bc 5668 f13c 2ea7 d93c
00000360: bd70 023d 6658 c13a 0202 7bbc 8693 0abd
00000370: c56a 0abc 3fef 0d3d 895a b4bb 82c5 40bc
00000380: a464 d23c 2ae2 bb3d 6579 f4bc c007 6fbb
00000390: 0409 bc3c f82c b83c fedd 313d b4af 0f3b
000003a0: 8845 563c c737 b93b 82cb 7a3c 5f96 1dbc
000003b0: 592b 9dbc 84cb d33c 1b37 5ebc b433 96bc
000003c0: ffea ecbb 3a85 153c a4da 45bb ecbf 083d
000003d0: 81cd 143d ea4b 18bc 4b05 073d 9180 16bd
000003e0: f2b0 29bd a5cb 193c 0eb6 543d 7a46 3abd
000003f0: 7333 34bb 3d2b 403c bd8e 13ba f729 d43a

network_body._body_endoder.seq_layers.2.weight f4 [256, 256]
0.11227385 0.0777653 0.10046744 0.023214571 0.12567775 0.017891869 -0.055739038 -0.030710625
0.007816975 0.021726325 0.06100749 0.01411167 0.026252052 0.019192483 0.0012565866 0.042714898
0.09351181 -0.04719933 -0.10171052 0.03395689 0.061530054 0.037342235 -0.082608685 0.10613659
-0.11459535 -0.087191254 0.07153655 -0.24511588 0.057794493 0.039749026 -0.13291933 -0.01640645
0.045614965 0.021135313 0.028405342 0.0785712 -0.04511353 -0.0577964 -0.13736388 -0.042601652
0.08339465 0.012150413 -0.005176493 -0.06454183 -0.05579245 -0.079252705 -0.024254596 0.13142724
0.11382124 -0.079712614 -0.104061425 -0.061731644 -0.014202211 0.13751738 -0.021974986 0.017448258
-0.06444936 0.05821747 0.040298156 0.069744304 0.016787268 0.01521677 0.12318124 -0.007932129
0.012345304 0.03590606 0.04738989 -0.034480676 0.09141674 0.00492114 -0.2258293 -0.043947633
-0.015249858 0.016402487 0.026095387 0.006663043 -0.06377497 -0.020521745 -0.047744233 -0.06744992
-0.020389732 -0.09556697 -0.0619555 0.10560523 0.0049259965 0.06707062 -0.016741622 0.0647766
-0.09357826 -0.044902742 -0.056929037 -0.0740697 -0.027632456 0.031776104 -0.007436998 -0.097350925
-0.011100054 -0.0007125335 2.6135602e-05 0.066701606 0.0008472916 0.026091587 0.048165128 0.1410839
-0.029839816 -0.0006734132 0.0941218 0.004041463 0.025636138 -0.05990605 -0.02690734 0.011852794
-0.083332404 -0.036016706 0.017503934 0.041488275 0.060423106 0.052784435 0.085213095 -0.038411643
0.027763283 -0.03247754 -0.017544018 0.017785804 0.05485949 0.095407166 -0.042870667 0.030275641
-0.004669759 -0.0058199307 0.058839984 -0.029854858 -0.060688116 0.010731062 0.0053523877 -0.09970083
-0.037674263 -0.07278995 0.018457945 -0.0728206 0.015408374 0.007017005 0.056350153 0.017890448
-0.08652715 0.058581058 0.08825455 -0.033909004 -0.04063919 0.0748808 0.11294698 -0.025673838
-0.06834286 -0.057773694 -0.02346862 -0.04955302 -0.040703297 0.07714281 -0.10821871 0.052735057
-0.039916333 -0.10733814 -0.039208177 -0.091056906 -0.09370395 -0.015049733 0.014395085 0.04684304
0.021448 0.023796903 -0.0232975 0.09637262 -0.027366092 -0.014557685 -0.043636337 0.010956898
0.05054092 -0.057996523 -0.00947304 0.109371066 0.071238294 0.0506062 0.041532572 -0.0036245463
0.048288535 0.018144384 -0.027658194 0.019841239 -0.015530201 0.037475005 0.08020334 0.06431447
0.016844057 0.069447815 -0.0061264653 0.07027045 0.020722149 -0.034596443 0.044094574 0.02215011
-0.0011353397 -0.0269174 -0.0871288 -0.036481578 -0.11381809 0.013390438 0.045955047 0.05568502
0.10305832 -0.045601998 -0.06620144 0.0074429982 0.051708862 0.007976319 -0.054694857 0.058619943
-0.0623346 0.05517726 -0.063189894 -0.039036125 -0.011162022 -0.0664372 0.016729958 0.08090661
-0.02450703 0.049287885 0.09018618 0.03953246 0.0196557 0.010929717 -0.012844781 0.012038021
-0.032684322 -0.079210274 0.013765217 0.06180095 0.062226765 0.012575459 -0.03338904 0.045919035
-0.12792242 -0.037956905 0.05340605 0.024713516 0.09095501 -0.0063043344 0.066277735 0.017571751
-0.04317582 0.030155756 -0.030076059 -0.09573208 -0.034346852 0.12886511 0.06545295 0.03980909
00000000: d5ef e53d 6a43 9f3d e0c1 cd3d 7c2c be3c
00000010: abb1 003e f891 923c 9e4e 64bd d994 fbbc
00000020: c512 003c 68fb b13c fde2 793d a234 673c
00000030: 8b0e d73c 8e39 9d3c 0db4 a43a d1f5 2e3d
00000040: 1f83 bf3d 1654 41bd 9b4d d0bd 6116 0b3d
00000050: f006 7c3d 2cf4 183d be2e a9bd 245e d93d
00000060: f8b0 eabd 5491 b2bd c181 923d a8ff 7abe
00000070: ebb9 6c3d e0cf 223d 011c 08be d266 86bc
00000080: c2d6 3a3d f723 ad3c 52b2 e83c f0e9 a03d
00000090: f7c8 38bd ebbb 6cbd 1ea9 0cbe 127f 2ebd
000000a0: d0ca aa3d 8712 473c 929f a9bb 822e 84bd
000000b0: a086 64bd 3e4f a2bd 93b1 c6bc dd94 063e
000000c0: 1c1b e93d 5e40 a3bd 281e d5bd 52da 7cbd
000000d0: 64b0 68bc 5bd1 0c3e e304 b4bc a6ef 8e3c
000000e0: 07fe 83bd 7175 6e3d ae0f 253d 1ad6 8e3d
000000f0: 7485 893c c24f 793c 7246 fc3d c3f5 01bc
00000100: f543 4a3c 3c12 133d e71b 423d 9c3b 0dbd
00000110: b338 bb3d 8441 a13b cc3f 67be 6f02 34bd
00000120: 8ada 79bc 825e 863c fec5 d53c a855 da3b
00000130: 749c 82bd 381d a8bc 758f 43bd 2f23 8abd
00000140: 5e08 a7bc 9eb8 c3bd 0dc5 7dbd 8e47 d83d
00000150: 416a a13b 525c 893d ba25 89bc 98a9 843d
00000160: f5a5 bfbd f0eb 37bd 6c2e 69bd dbb1 97bd
00000170: 765d e2bc a927 023d 10b2 f3bb ec5f c7bd
00000180: 00dd 35bc 50c9 3aba c73d db37 da9a 883d
00000190: c71c 5e3a 06be d53c cc48 453d 4c78 103e
000001a0: a172 f4bc ff87 30ba eec2 c03d 406e 843b
000001b0: e102 d23c 0c60 75bd c86c dcbc 3932 423c
000001c0: 2eaa aabd 4186 13bd 6964 8f3c 9cef 293d
000001d0: 387e 773d 7e34 583d 3484 ae3d 8755 1dbd
000001e0: d36f e33c 2b07 05bd 79b8 8fbc 89b3 913c
000001f0: 58b4 603d d564 c33d 2799 2fbd 9f04 f83c
00000200: c704 99bb 1eb5 bebb 3202 713d 2d92 f4bc
00000210: 1a94 78bd 56d1 2f3c 1563 af3b f32f ccbd
00000220: 5450 1abd e612 95bd 1e35 973c f722 95bd
00000230: 6873 7c3c e7ee e53b 6bcf 663d fd8e 923c
00000240: 2535 b1bd b1f2 6f3d cdbe b43d 2be4 0abd
00000250: 4775 26bd 1b5b 993d bf50 e73d f151 d2bc
00000260: 57f7 8bbd 1ca4 6cbd 4341 c0bc 1cf8 4abd
00000270: 80b8 26bd 0dfd 9d3d c5a1 ddbd b700 583d
00000280: 4f7f 23bd 19d4 dbbd c198 20bd 0b7c babd
00000290: dbe7 bfbd 2893 76bc 5dd9 6b3c 7dde 3f3d
000002a0: b7b3 af3c b9f1 c23c 66da bebc 025f c53d
000002b0: db2e e0bc 5b83 6ebc 04bc 32bd 9084 333c
000002c0: ff03 4f3d c38d 6dbd cf34 1bbc f0fd df3d
000002d0: 62e5 913d 7248 4f3d 0f1e 2a3d cc89 6dbb
000002e0: 33ca 453d 88a3 943c 7093 e2bc 188a a23c
000002f0: 6272 7ebc 647f 193d a641 a43d 4eb7 833d
00000300: 8cfc 893c a83a 8e3d 84c0 c8bb f4e9 8f3d
00000310: 7fc1 a93c 00b5 0dbd 839c 343d 2674 b53c
00000320: aecf 94ba e181 dcbc 9670 b2bd b56d 15bd
00000330: 7519 e9bd 9163 5b3c 5c3b 3c3d fa15 643d
00000340: 3e10 d33d 29c9 3abd 9f94 87bd 65e4 f33b
00000350: accc 533d 1baf 023c b707 60bd 771b 703d
00000360: 9152 7fbd 8d01 623d b469 81bd 58e4 1fbd
00000370: eae0 36bc 3a10 88bd 440d 893c 5db2 a53d
00000380: f8c2 c8bc 18e2 493d 88b3 b83d caec 213d
00000390: fe04 a13c 8e12 333c eb72 52bc 1f3b 453c
000003a0: ffdf 05bd ff38 a2bd 8187 613c fe22 7d3d
000003b0: 7ee1 7e3d 4c09 4e3c f2c2 08bd 9915 3c3d
000003c0: 18fe 02be b378 1bbd 4dc0 5a3d 0074 ca3c
000003d0: 9f46 ba3d 9794 cebb 9fbc 873d a2f2 8f3c
000003e0: 21d9 30bd 3409 f73c 1162 f6bc 2e0f c4bd
000003f0: 49af 0cbd 37f5 033e 320c 863d db0e 233d

network_body._body_endoder.seq_layers.2.bias f4 [256]
0.009597951 0.0071305027 0.021393726 0.0022536062 -0.0069391914 0.016355174 0.024424376 -0.0019332367
0.0029136695 0.010335315 0.017562503 -0.009524124 0.008914556 0.0074388366 -0.02727435 -0.0004402852
0.005631964 0.0053000622 0.0071193515 9.215267e-05 0.020307232 -0.0017592836 -0.02141779 0.0019183164
-0.014075668 -0.010901846 0.0056558377 -0.0075349454 0.020022126 0.027924573 -0.0066633155 -0.012143093
0.0013603765 0.0057431096 -0.018016733 -0.005756329 0.016076237 0.011082314 0.018001834 0.007884956
0.0018033073 0.016572883 -6.331607e-06 0.026489241 -0.01936324 -0.008130134 -0.0038438966 0.00048448273
-0.015429414 0.0072209677 -0.009973459 0.00026584722 0.002599404 -0.006657621 0.009102322 -0.010848714
-0.0075481893 -0.015268851 -0.011369387 -0.011716932 -0.00402188 0.013313497 0.004206911 -0.010918817
0.005517027 -0.011096996 -0.0010687405 -0.0066506863 0.018317925 -0.02110457 -0.0016827488 -0.018761236
0.018273534 -0.0066944687 -0.007888415 0.003275991 0.034648772 0.01414696 0.0040526683 0.01891834
-0.001976954 -0.00688445 0.0046132565 0.019455077 0.014681377 0.004446025 0.0019752078 -0.0075698746
0.0036654933 -0.00249749 -0.006649109 -0.016679069 -0.0026105912 -0.003036969 0.007797803 0.025357163
-0.003030998 -0.018088482 0.02952363 -0.00087465486 0.0041699717 -0.0044994117 0.031137206 -0.010170144
-0.013997249 0.00057725713 0.0072001824 -0.0054403753 -0.004095417 -0.02733857 0.02724017 -0.0019603595
-0.0140177915 -0.009525311 0.017922744 -0.0028048307 0.005410754 -0.014563697 -8.52474e-05 0.010170019
-0.011204294 -0.011613732 -0.014091886 -0.020491932 0.0020741052 -0.013446419 -0.022419473 0.00032302938
-0.0059255464 -0.025232187 -0.02768685 0.0014270582 -0.0053285984 -0.0015929469 -7.578075e-05 -0.015575882
0.026824385 0.008303956 0.024498496 0.021362228 0.019846326 0.0019356088 0.017137082 -0.020437788
0.025586378 -0.009649704 -0.022854362 0.013741931 -0.00016942824 0.008386829 -0.0024082472 0.003822892
0.021719918 -0.0038124758 -0.024459442 -0.014949591 0.0022848176 -0.0147183295 0.013877746 0.020055098
-0.008318151 0.0025079614 -0.013178442 0.037875332 0.010669911 0.000507072 -0.00258533 0.0055623245
0.0037162188 -0.025405874 -0.0026631334 -0.0031715767 0.0044193515 -0.0037279718 0.005442551 -0.010416237
-0.01185079 0.014672514 -0.011387492 0.016198423 -0.0009830645 0.032549098 -0.0015181951 -0.018120615
0.021479234 -0.0075426367 -0.007956616 0.03180621 -0.019066744 0.005102455 -0.016728472 -0.007220572
0.01329324 0.008724316 0.0262885 -0.0068518748 0.029523157 -0.0034573143 -0.0063042524 -0.0051783756
0.0005136422 -0.0029632004 0.011133755 -0.01256394 0.0020775476 0.014662729 -0.022509048 -0.018401759
0.009838065 -0.012839624 -0.016372992 0.010554085 -0.020893762 0.00019802897 0.00341027 0.0065165595
0.0066439556 0.0048157116 0.0101853125 0.010452457 0.012328611 0.012858121 0.023042554 -0.007132711
-0.008707213 0.018237717 0.0025952829 0.012588674 -0.0036104608 0.01497935 -0.007844221 0.0013561151
-0.0003494043 -0.0051140343 -0.008598704 0.01647114 -0.00012502198 -0.0044559934 0.011433565 -0.014432111
0.012578511 0.0057554343 -0.004189055 0.010212902 -0.00037947795 -0.0033776884 -0.0062721213 0.012363748
-0.0155806225 -0.009753745 0.008720826 0.0072831223 0.0036032314 0.041518427 0.037255775 -0.011717274
00000000: b940 1d3c fea6 e93b e541 af3c 3db1 133b
00000010: 2862 e3bb 49fb 853c a115 c83c a964 fdba
00000020: 43f3 3e3b 7455 293c 3ddf 8f3c 120b 1cbc
00000030: 5c0e 123c 7cc1 f33b 756e dfbc 14d6 e6b9
00000040: 578c b83b 25ac ad3b 7349 e93b 1742 c138
00000050: 5a5b a63c c397 e6ba 5c74 afbc 0470 fb3a
00000060: a19d 66bc a89d 32bc 9b54 b93b b4e7 f6bb
00000070: 7105 a43c 13c2 e43c f157 dabb d3f3 46bc
00000080: a94e b23a b230 bc3b d497 93bc 969f bcbb
00000090: 50b2 833c 9892 353c 9578 933c e72f 013c
000000a0: f45c ec3a dbc3 873c 1774 d4b6 f7ff d83c
000000b0: a89f 9ebc 4134 05bc e2e9 7bbb 2c02 fe39
000000c0: a7cb 7cbc de9d ec3b b867 23bc 6961 8b39
000000d0: c35a 2a3b 2c28 dabb e821 153c cebe 31bc
000000e0: cd56 f7bb 342a 7abc aa46 3abc 60f8 3fbc
000000f0: fac9 83bb db20 5a3c 21da 893b d6e4 32bc
00000100: 2dc8 b43b 2dd0 35bc fb14 8cba 00ee d9bb
00000110: 790f 963c 7ee3 acbc ae8f dcba 2ab1 99bc
00000120: 61b2 953c 465d dbbb 693e 01bc 02b2 563b
00000130: dfeb 0d3d a7c8 673c 3fcc 843b a2fa 9a3c
00000140: c98f 01bb f496 e1bb cd2a 973b 4160 9f3c
00000150: 298a 703c f6af 913b 7d72 013b b60c f8bb
00000160: c638 703b eeac 23bb c5e0 d9bb 8ba2 88bc
00000170: 7416 2bbb e307 47bb b684 ff3b d3b9 cf3c
00000180: b5a3 46bb 4c2e 94bc 8adb f13c 1849 65ba
00000190: 42a4 883b cd6f 93bb 7413 ff3c ada0 26bc
000001a0: b854 65bc 1253 173a 82ef eb3b 2d45 b2bb
000001b0: d932 86bb 23f5 dfbc c726 df3c 6079 00bb
000001c0: e1aa 65bc 0d10 1cbc b8d2 923c 40d1 37bb
000001d0: b24c b13b 939c 6ebc d9c6 b2b8 27a0 263c
000001e0: 3792 37bc 8647 3ebc a7e1 66bc b2de a7bc
000001f0: b6ed 073b 5e4e 5cbc 0ba9 b7bc 455c a939
00000200: 162b c2bb bbb3 cebc 88cf e2bc 210c bb3a
00000210: 869b aebb 6eca d0ba 7bec 9eb8 fc31 7fbc
00000220: d0be db3c 510d 083c 12b1 c83c d7ff ae3c
00000230: c394 a23c 41b4 fd3a 1163 8c3c 266d a7bc
00000240: 869a d13c cb19 1ebc 1239 bbbc d625 613c
00000250: 8ca8 31b9 e968 093c afd3 1dbb 7c89 7a3b
00000260: f8ed b13c bbda 79bb 2b5f c8bc 21ef 74bc
00000270: e1bc 153b 2625 71bc 7c5f 633c 974a a43c
00000280: db48 08bc 9c5c 243b 64ea 57bc 2a23 1b3d
00000290: dad0 2e3c 07ed 043a a46e 29bb 2944 b63b
000002a0: ce8b 733b fb1f d0bc f787 2ebb 3ada 4fbb
000002b0: 35d0 903b fd50 74bb 6d57 b23b dda8 2abc
000002c0: d129 42bc fc64 703c 9a92 3abc 8eb2 843c
000002d0: 2cda 80ba 3452 053d 2dfe c6ba af71 94bc
000002e0: 38f5 af3c 3928 f7bb 775c 02bc 3a47 023d
000002f0: dc31 9cbc 7f32 a73b 260a 89bc 8c9a ecbb
00000300: e4cb 593c 6ff0 0e3c fb5a d73c b185 e0bb
00000310: 8cda f13c 1c94 62bb e793 cebb 5daf a9bb
00000320: f2a5 063a 4132 42bb 5a6a 363c fcd8 4dbc
00000330: 7727 083b f13b 703c e564 b8bc 49bf 96bc
00000340: d62f 213c 495d 52bc a720 86bc 0aeb 2c3c
00000350: 6529 abbc ffa5 4f39 d67e 5f3b dd88 d53b
00000360: 8ab5 d93b 1ecd 9d3b 4ce0 263c c840 2b3c
00000370: f1fd 493c deaa 523c bdc3 bc3c 84b9 e9bb
00000380: b3a8 0ebc 4467 953c 9f15 2a3b ba40 4e3c
00000390: 7b9d 6cbb f36b 753c 0c85 00bc acbf b13a
000003a0: 4030 b7b9 a193 a7bb 94e1 0cbc 7cee 863c
000003b0: 5518 03b9 9503 92bb d953 3b3c a974 6cbc
000003c0: 1916 4e3c 1598 bc3b 5744 89bb 0454 273c
000003d0: abf4 c6b9 355c 5dbb 5e86 cdbb 5191 4a3c
000003e0: de45 7fbc 2cce 1fbc cce1 0e3c 42a7 ee3b
000003f0: 3124 6c3b 3a0f 2a3d 8399 183d cff9 3fbc

action_model._discrete_distribution.branches.0.weight f4 [4, 256]
-0.0005884345 -0.008320061 -0.005833374 0.0029278737 -0.020080911 0.029990545 0.005341202 0.020308258
0.0007661704 0.00175574 -0.0028494096 0.0126351 -0.004711727 0.005917971 0.015407223 0.011026694
-0.012889886 0.0071554794 0.008601213 0.002782691 0.0007127152 0.0015781281 -0.008325953 0.01637701
-0.011237266 0.029788181 0.014926836 0.019097216 -0.00021188326 -0.020472165 -0.002433605 -0.0018384805
-0.004039451 -0.003820708 -0.010495132 0.017890753 0.004847573 0.04119524 0.027798362 -0.0072380137
-0.0067932215 0.018694416 0.014285874 0.008792625 -0.005820001 -0.0045354553 0.0017980331 -0.033480477
0.018949615 -0.009005372 -0.008269212 0.018564362 -0.015224999 -0.009037541 -0.00645309 0.019082641
-0.029122846 0.018559635 0.0030833485 0.0016126513 0.005267669 0.003963167 -0.002537712 -0.014419531
0.009121548 0.006061923 0.009830848 0.015609604 -0.0013148589 0.015249619 -0.0029052205 -0.006030591
0.008457082 -0.005056566 -0.02263836 0.00075679284 0.016776362 0.00921552 0.005589118 0.019664822
-0.019390432 0.00276868 0.005800493 0.0013385162 0.032460086 -0.016931737 0.0062111923 0.0012000771
0.00034212178 0.0021769935 -0.004281402 0.007523949 0.023396116 -0.0039169625 -0.01743591 0.010202378
-0.004831335 -0.01668917 0.007038459 -0.00012588823 0.0041437787 0.010413403 0.0060479185 -0.0041144188
-0.006441563 0.0004461282 0.0116516985 0.0061977133 0.0234848 -0.008935729 0.022558289 0.0044893343
0.026064323 0.011001083 0.009214507 -0.0010124831 0.017637594 0.005592006 0.024265768 -0.007776253
-0.013248588 0.0018063053 0.014990894 0.0061605973 0.015067657 0.011186949 0.003024198 0.019818814
0.026075998 -0.00095142296 0.005235337 -0.012980484 -0.017760636 0.010256721 0.00369673 -0.008070622
-0.0015566213 0.016902775 0.009276576 0.016583564 -0.008799097 0.0018431902 -0.0033296056 -0.0063994247
0.0006559789 0.0077119763 -0.013050683 -0.0013351259 -0.00908523 0.013589823 0.015038309 -0.004936598
0.028186211 0.0050991676 0.010443123 -0.0032847554 0.0072706435 -0.010008677 -0.012013929 0.0025593587
0.004175495 -0.015410774 0.012224167 0.007841039 -0.004033574 0.0016207668 0.005161724 0.011294655
-0.0008709587 -0.009021025 -0.003670369 0.00038653836 0.007663351 0.008646304 0.006419071 -0.013287187
-0.01183716 0.03097564 -0.013057737 0.011627719 0.00092838926 0.00765376 -0.004443718 -0.005978928
-0.007932005 0.0041433736 0.014903996 0.004668364 0.0024932288 0.013027994 0.0016244535 0.021511925
0.019660506 -0.015557756 0.011056166 0.0172302 0.020532291 -0.0033912102 -0.030484123 0.023689466
0.013739356 0.0010460353 -0.009867279 0.0037189983 0.010079003 0.020705052 0.006341802 0.011318184
-0.008380067 0.0058389003 0.0041405195 0.015528228 0.0121159945 -0.008772363 0.003533905 0.023849402
0.005723348 0.02766876 0.00021837073 -0.007001698 0.011659566 0.01602472 0.0059131915 -0.0012561606
0.008091722 0.017357979 0.016897112 -0.014544422 -0.008597825 0.014166693 -0.004224829 0.009403752
-0.016940778 0.0066690394 0.01152642 0.0036454338 0.01987589 -0.007945644 0.008970104 0.016128981
-0.01971549 0.012866738 -0.009365071 0.0010203527 -0.0009401632 0.014100034 -0.0035844874 0.010768421
0.018511167 -0.009545435 0.006277847 0.0034870254 -0.011182373 -0.0020462694 0.01999572 -0.018739777
00000000: 2c41 1aba dd50 08bc e325 bfbb 92e1 3f3b
00000010: b980 a4bc bbae f53c 4005 af3b 815d a63c
00000020: d3d8 483a dc20 e63a 29bd 3abb 7303 4f3c
00000030: d564 9abb 8aeb c13b 946e 7c3c 4fa9 343c
00000040: 1a30 53bc 8378 ea3b 1aec 0c3c cf5d 363b
00000050: 82d5 3a3a 31d9 ce3a 9469 08bc 1429 863c
00000060: 821c 38bc 5806 f43c b08f 743c c471 9c3c
00000070: fb2c 5eb9 3eb5 a7bc 1e7d 1fbb 2bf9 f0ba
00000080: 5f5d 84bb d864 7abb c6f3 2bbc a18f 923c
00000090: 64d8 9e3b 57bc 283d 64b9 e33c dc2c edbb
000000a0: ac99 debb 0825 993c 4c0f 6a3c f10e 103c
000000b0: b5b5 bebb 289e 94bb fbab eb3a d322 09bd
000000c0: 393c 9b3c 458b 13bc 977b 07bc 4a14 983c
000000d0: 4672 79bc 3212 14bc 7174 d3bb 3353 9c3c
000000e0: 0993 eebc 600a 983c 0112 4a3b 995f d33a
000000f0: 699c ac3b 74dd 813b be4f 26bb e63f 6cbc
00000100: 8c72 153c 19a3 c63b 9111 213c 6dbf 7f3c
00000110: 5857 acba 8ad9 793c 8365 3ebb 449c c5bb
00000120: 938f 0a3c 8db1 a5bb 1574 b9bc 8263 463a
00000130: 956e 893c b1fc 163c ec24 b73b 1f18 a13c
00000140: afd8 9ebc be72 353b 1012 be3b 2771 af3a
00000150: def4 043d 6db4 8abc 4287 cb3b e84b 9d3a
00000160: cf5e b339 e4ab 0e3b 014b 8cbb 758b f63b
00000170: 36a9 bf3c dd59 80bb c1d5 8ebc e027 273c
00000180: 2d50 9ebb bab7 88bc e0a2 e63b dd00 04b9
00000190: 89c8 873b fa9c 2a3c 9e2d c63b 3fd2 86bb
000001a0: bf13 d3bb 50e6 e939 c4e6 3e3c 3016 cb3b
000001b0: 3263 c03c 2a67 12bc 29cc b83c 441b 933b
000001c0: d984 d53c e33d 343c 72f8 163c 4cb5 84ba
000001d0: b77c 903c 253d b73b 01c9 c63c f0cf febb
000001e0: 9b10 59bc 8cc1 ec3a 5e9c 753c d6de c93b
000001f0: 56de 763c 7749 373c a031 463b 115b a23c
00000200: 559d d53c ea68 79ba 318d ab3b 19ac 54bc
00000210: c17e 91bc ce0b 283c d644 723b a43a 04bc
00000220: 8b07 ccba b077 8a3c c8fc 173c 41da 873c
00000230: 162a 10bc 3397 f13a 8335 5abb 44b2 d1bb
00000240: 00f6 2b3a bfb4 fc3b 88d2 55bc 64ff aeba
00000250: 37da 14bc d9a7 5e3c 3d63 763c 2fc3 a1bb
00000260: c5e6 e63c eb16 a73b a219 2b3c 0d45 57bb
00000270: 943e ee3b 6ffb 23bc 12d6 44bc eaba 273b
00000280: 97d2 883b 797d 7cbc df47 483c b477 003c
00000290: 122c 84bb e96f d43a ae23 a93b 370d 393c
000002a0: 0d51 64ba eccc 13bc 938a 70bb 4da8 ca39
000002b0: d91c fb3b 3aa9 0d3c 1257 d23b 80b2 59bc
000002c0: a6f0 41bc a0c0 fd3c 1ef0 55bc 3082 3e3c
000002d0: 265f 733a 64cc fa3b 9c9c 91bb e2ea c3bb
000002e0: 3ef5 01bc 23c5 873b e42f 743c 13f9 983b
000002f0: 7065 233b 5e73 553c 9deb d43a c739 b03c
00000300: 120f a13c f5e5 7ebc ec24 353c 5926 8d3c
00000310: 5633 a83c 113f 5ebb d7b9 f9bc 6910 c23c
00000320: 091b 613c 1f1b 893a 5eaa 21bc 70ba 733b
00000330: 6722 253c a49d a93c e4ce cf3b e86f 393c
00000340: 8c4c 09bc 3f54 bf3b 32ad 873b 1c6a 7e3c
00000350: 2a82 463c f5b9 0fbc 1699 673b d25f c33c
00000360: ec8a bb3b 98a9 e23c 72fa 6439 806e e5bb
00000370: c407 3f3c 4646 833c 72c3 c13b c1a5 a4ba
00000380: 2493 043c 5232 8e3c d06b 8a3c ba4b 6ebc
00000390: e4dd 0cbc 6b1b 683c 6f70 8abb 3212 1a3c
000003a0: 63c7 8abc f587 da3b 4fd9 3c3c 3be8 6e3b
000003b0: c3d2 a23c 722e 02bc 58f7 123c ed20 843c
000003c0: 6182 a1bc 03cf 523c f46f 19bc 5bbd 853a
000003d0: 4975 76ba d403 673c b8e9 6abb 086e 303c
000003e0: bba4 973c 7564 1cbc 66b6 cd3b 9486 643b
000003f0: 4636 37bc b41a 06bb 10ce a33c 2984 99bc

action_model._discrete_distribution.branches.0.bias f4 [4]
0.007752587 0.02027672 -9.994238e-05 -0.026806612
00000000: 6a09 fe3b 5d1b a63c 2898 d1b8 8a99 dbbc

action_model._discrete_distribution.branches.1.weight f4 [15, 256]
-0.00012600207 -0.0015520852 0.008468399 0.006428836 0.003392699 0.007545165 0.017959572 0.02193898
0.014975196 -0.0051380484 0.022162994 -0.03545469 0.011963488 -0.012403852 -0.011155597 0.017636525
-0.0318004 0.025415536 0.011772675 -0.020119647 0.016761955 -0.033300184 -0.0068653347 -0.015616293
-0.032879483 0.0036186257 -0.0035970446 0.023826713 0.01217724 -0.009581654 0.0058676945 0.005109575
0.027812464 0.0100661535 -0.0052431333 0.011246438 0.025957974 -0.015384436 0.021077072 0.0059306244
0.0019206784 0.009567994 -0.0013631583 0.010109542 0.008605433 0.026701972 0.016283484 -0.009643223
-0.01080962 -0.0056014434 0.024405448 0.00911836 -0.0008349337 0.037754618 0.016555406 0.012639836
-0.011161055 0.0035376686 0.026265945 -0.001641018 0.008393571 -0.011316729 -0.003242452 -0.01927214
0.028255153 0.013182137 0.017406229 -0.013897999 0.004260751 0.02644626 0.012324133 -0.013389173
0.014746224 -0.018600268 -0.006532429 0.0021440936 0.009646711 -0.027069129 -0.0010095156 0.00254437
0.006869114 0.007013365 -0.002725955 0.009731686 0.010799225 -0.008962693 0.030778494 -0.00990807
0.0021222257 -0.0062113404 0.01592163 -0.019024763 0.009933088 -0.021668604 -0.00050686335 0.0016172192
0.008220556 0.00079942396 -0.016574638 -0.017852152 0.036127873 0.018083718 -0.006019752 -0.003735486
0.0071598017 -0.0184363 -0.007789872 -0.013168456 0.00085760065 -0.013406928 0.012423071 -0.007744751
0.008936101 -0.037557196 0.00051815325 0.001576326 -0.015247578 0.021546198 0.024607787 -0.012284194
-0.030953636 -0.0015618776 0.005917272 0.019862419 0.014507717 -0.0104927905 0.0025801798 0.01778571
0.025573632 0.010489975 -0.0018911154 -0.035015855 -0.01023286 -0.023857694 0.02661748 0.028115543
0.0014768984 -0.01813559 0.020655397 0.0037314876 0.010756045 -0.009702513 0.02697344 -0.0024592169
0.019206358 -0.0049369074 -0.0065646195 0.036322188 -0.011427397 0.013347991 0.00026245063 -0.023823394
0.0017728481 -0.033158462 0.0050696107 0.014961658 -0.023818359 -0.0074529923 -0.0092286775 0.006681477
0.008398609 -0.007644815 -0.02413908 -0.014710255 0.007816612 -0.028085439 0.019137284 -0.021736486
0.01061621 0.001049878 -0.012047646 -0.011392863 0.011804975 -0.008742069 0.010054785 -0.006772543
-0.027091525 -0.0011232842 -0.019270942 -0.008398691 -0.003902213 0.019299857 -0.010437977 -0.01398796
-0.021583932 0.015683271 -0.014176424 0.019304262 -0.0073632863 0.016815713 -0.005789945 0.020229654
0.019742709 -0.02272857 -0.002423967 -0.0072452994 0.0022119402 0.004539022 -0.018940052 0.018863674
0.011290505 -0.0013853539 -0.026618337 0.0050262855 0.014547116 0.0044157887 -0.029109688 0.01724602
-0.011149414 0.0011841434 -0.016906934 -0.003107436 -0.011202999 0.0049645444 -0.0002538838 -0.033864435
-0.0225617 0.010625723 -0.017054373 -0.014598259 -0.026549108 0.011676943 -0.0094289435 -0.010078367
-0.009424871 0.0024492797 -0.008097517 0.00854216 -0.014705375 0.0033123163 -0.01239314 0.016198127
-0.023030182 0.00530804 -0.013713892 0.007949159 -0.003274816 -0.019590532 0.010107104 0.011848855
0.006565809 0.009403018 -0.017823504 0.005076407 -0.014057994 -0.013924404 0.013302296 -0.00064253726
0.0016696564 0.027203739 0.0033813145 -0.02606009 0.00556537 -0.021971669 -0.007920859 -0.013238837
00000000: 6c1f 04b9 566f cbba 0abf 0a3c fca8 d23b
00000010: 0b58 5e3b 6e3d f73b f41f 933c 60b9 b33c
00000020: 865a 753c 135d a8bb 2b8f b53c f038 11bd
00000030: 8102 443c 8739 4bbc f7c5 36bc 797a 903c
00000040: 2341 02bd 3e34 d03c 2ee2 403c f5d1 a4bc
00000050: 5e50 893c c665 08bd 9af6 e0bb 7bdb 7fbc
00000060: a3ac 06bd 7726 6d3b 65bc 6bbb 3d30 c33c
00000070: 0c83 473c 5ffc 1cbc ca45 c03b 396e a73b
00000080: f7d6 e33c 82ec 243c 97ce abbb fb42 383c
00000090: d1a5 d43c 000f 7cbc d3a9 ac3c af55 c23b
000000a0: 46bf fb3a 13c3 1c3c 01ac b2ba 7ea2 253c
000000b0: cdfd 0c3c 18be da3c f164 853c 9cfe 1dbc
000000c0: d51a 31bc 508c b7bb efed c73c 2c65 153c
000000d0: 74df 5aba 96a4 1a3d 349f 873c 5117 4f3c
000000e0: dcdc 36bc 3bd8 673b ae2b d73c 6d17 d7ba
000000f0: 3085 093c cd69 39bc 517f 54bb 9be0 9dbc
00000100: 5a77 e73c e4f9 573c 8297 8e3c 6fb4 63bc
00000110: c59d 8b3b d4a5 d83c 29eb 493c 435e 5bbc
00000120: 259a 713c 975f 98bc fc0d d6bb ec83 0c3b
00000130: 3d0d 1e3c 14c0 ddbc b951 84ba 72bf 263b
00000140: 4e16 e13b 5fd0 e53b f0a5 32bb a671 1f3c
00000150: 3cef 303c 42d8 12bc 2e23 fc3c 7555 22bc
00000160: 0a15 0b3b 8088 cbbb 146e 823c d2d9 9bbc
00000170: 64be 223c 5b82 b1bc 06df 04ba dff8 d33a
00000180: 83af 063c 6f90 513a 89c7 87bc ad3e 92bc
00000190: d2fa 133d 4e24 943c 5741 c5bb 0ecf 74bb
000001a0: c59c ea3b b907 97bc 2f42 ffbb 82c0 57bc
000001b0: 9bd0 603a bba8 5bbc 238a 4b3c aec7 fdbb
000001c0: b968 123c 93d5 19bd add4 073a b99c ce3a
000001d0: fad0 79bc a781 b03c 4596 c93c a543 49bc
000001e0: 7b92 fdbc eab7 ccba ade5 c13b 83b6 a23c
000001f0: c7b1 6d3c f4e9 2bbc 3c18 293b 56b3 913c
00000200: cb7f d13c 25de 2b3c 4edf f7ba c96c 0fbd
00000210: baa7 27bc 3671 c3bc e70c da3c 9152 e63c
00000220: 7d94 c13a 1791 94bc 8235 a93c f98b 743b
00000230: 1f3a 303c 4af7 1ebc 67f7 dc3c d02a 21bb
00000240: a756 9d3c c8c5 a1bb 051c d7bb 93c6 143d
00000250: fa39 3bbc 88b1 5a3c 8799 8939 4729 c3bc
00000260: e95e e83a 2bd1 07bd fa1e a63b be21 753c
00000270: b81e c3bc 3b38 f4bb e133 17bc 4bf0 da3b
00000280: 529a 093c 5b81 fabb 52bf c5bc 4803 71bc
00000290: 3f11 003c 6f13 e6bc cbc5 9c3c b710 b2bc
000002a0: 9def 2d3c 0f9c 893a 7d63 45bc 21a9 3abc
000002b0: a769 413c e53a 0fbc d3bc 243c 35ec ddbb
000002c0: 0cef ddbc 2a3b 93ba 18de 9dbc aa9a 09bc
000002d0: 45bc 7fbb bc1a 9e3c 0c04 2bbc c22d 65bc
000002e0: c9d0 b0bc 347a 803c 3b44 68bc f923 9e3c
000002f0: b947 f1bb 1bc1 893c 94b9 bdbb a9b8 a53c
00000300: 76bb a13c 4431 babc 6bdb 1ebb fa69 edbb
00000310: 33f6 103b 14bc 943b 2b28 9bbc fe87 9a3c
00000320: cffb 383c c394 b5ba b30e dabc 8ab3 a43b
00000330: 0757 6e3c 52b2 903b 7177 eebc 8647 8d3c
00000340: 08ac 36bc 4235 9b3a 6980 8abc 20a6 4bbb
00000350: c98c 37bc 9ead a23b b51b 85b9 6fb5 0abd
00000360: 50d3 b8bc 8317 2e3c 9db5 8bbc 892d 6fbc
00000370: 847d d9bc a650 3f3c db7b 1abc bc1f 25bc
00000380: c66a 1abc 1884 203b 73ab 04bc 6af4 0b3c
00000390: d0ee 70bc 7213 593b 990c 4bbc efb1 843c
000003a0: cba9 bcbc 11ef ad3b 3bb0 60bc 303d 023c
000003b0: 4c9e 56bb 537c a0bc 4498 253c b321 423c
000003c0: ff25 d73b 1e0f 1a3c 9902 92bc fd57 a63b
000003d0: 8053 66bc 2f23 64bc e0f1 593c f26f 28ba
000003e0: 5fd8 da3a 60da de3c 0b99 5d3b f87b d5bc
000003f0: b55d b63b eefd b3bc 7ec6 01bc b5e7 58bc

action_model._discrete_distribution.branches.1.bias f4 [15]
-0.009898366 0.005802734 0.006784749 0.0023208621 0.008304318 0.022327835 -0.0316419 0.009609913
0.020882402 -0.00597838 0.012387695 -0.010087026 0.0019844547 -0.02584711 -0.0068320986
00000000: c22c 22bc dc24 be3b 9a52 de3b 9b19 183b
00000010: d60e 083c dde8 b63c f09a 01bd e672 1d3c
00000020: 9211 ab3c 49e6 c3bb c2f5 4a3c 0e44 25bc
00000030: a00d 023b 52bd d3bc ccdf dfbb

action_model._discrete_distribution.branches.2.weight f4 [15, 256]
-0.01372253 -0.003089045 0.030400079 0.020422032 0.009133895 0.045154992 0.025966976 -0.0065812226
-0.0021940737 -0.012992218 -0.021728147 0.014084154 -0.013236077 0.024799779 0.012762157 0.0018615385
0.0019658168 -0.008981426 0.016072512 0.0060638255 -0.0069673867 0.024152497 0.028113222 0.0058610057
0.01427905 0.0148506295 -0.003217808 -0.0055547617 0.0067072883 -0.00067699864 0.034345932 0.0118454695
0.0048353234 0.0047050393 0.0053479783 -0.00049410603 0.0013586527 -0.014451374 -0.0024808068 0.04199806
-0.008720897 -0.002339537 0.008648256 -0.0096294675 0.005508558 0.011127027 0.01226479 0.005555997
0.016349731 -0.017674616 0.020350728 -0.009865099 -0.003467417 -0.016954072 0.00366666 -0.022693425
0.009787908 -0.0012801145 -0.008890509 0.008093617 0.0036351753 0.022820624 0.022333499 -0.008963382
-0.0234977 0.005179129 0.015737407 -0.007171318 -0.0028507048 0.012772481 -0.0047733174 0.01162561
0.004704624 0.0003186342 0.007874561 -0.0013231038 -0.023673505 0.024877712 0.020067383 -0.027111106
0.001498967 -0.0024728428 0.02334546 -0.013994536 -0.028913964 0.009597425 0.008445005 0.010798656
0.034135837 0.0065339617 0.008629107 -0.0035935694 0.010857547 0.0021555417 -0.0025829168 0.02971484
0.0024313563 -6.0183935e-05 -0.0072918134 0.005198494 0.0036589825 0.0038928213 -0.016014148 0.00065858825
-0.0030931355 0.004416668 0.019219238 -0.010022301 -0.00842753 0.031578608 0.006509972 -0.022747522
0.0044781994 0.028502826 -0.023352953 0.005166046 -0.01453674 0.018136855 0.003600456 -0.01153137
0.02856509 0.00069438334 -0.009498671 0.007397852 -0.0045124986 0.017052876 -0.0009487586 -0.012090927
-0.036017902 0.02605876 0.00800219 0.0020681403 -0.0045845173 0.01240254 0.0059359386 -0.00052979006
0.008439952 -0.021244673 0.010424562 -0.023383593 -0.019671207 0.02561821 0.03600929 0.01871042
-0.015903285 -0.008843117 0.00084716314 -0.007952333 0.028052295 0.005903259 -0.0029289054 0.020765252
-0.026684294 -0.006637748 -0.0024660463 0.014304102 0.003447447 0.008970669 -0.01868683 0.008085453
0.036036715 -0.00028036235 0.023290627 0.010109988 0.00038862426 -0.01963357 -0.0030233392 -0.029503934
0.012615348 0.014723431 -0.007071413 -0.013674079 -0.009573826 -0.0052459734 0.03318431 0.016786367
0.017292332 -0.008767938 0.020201545 -0.011235071 -0.016140437 -0.02172825 0.012691924 0.0018344537
-0.014819735 -0.006165937 0.029131971 -0.01462903 0.021380058 0.0016030378 -0.021699153 0.005079598
0.013542615 0.03972664 -0.014058097 -9.411702e-05 -0.00014518114 0.019887734 0.01759488 0.006717404
-0.0018159194 0.0018476492 -0.011421451 0.028697014 0.0073785125 0.010035828 -0.0062434794 0.016653905
0.011197519 0.011401054 0.030230174 0.01814046 0.0020798559 0.033690356 0.015425997 -0.008198575
0.023551444 0.0019876242 -0.011348138 0.011689643 -0.043520473 0.005580305 0.025720771 -0.011889606
0.013865234 -0.00070453587 0.0023614455 0.041784536 0.0036329275 0.013067225 0.008169932 -0.036362585
0.012828073 -0.019262852 0.023884935 0.003974668 0.0046239286 0.0027181448 0.01618966 -0.001877134
0.0052533797 0.00059379777 0.031729314 -0.01490773 0.008352144 0.013847491 -0.005351638 0.017037269
0.010512673 0.0010727728 -0.00542966 -0.004224505 -0.005008183 0.01785421 0.011792239 0.028814405
00000000: 76d4 60bc 9371 4abb 9609 f93c 1b4c a73c
00000010: 55a6 153c 71f4 383d b2b8 d43c 4ca7 d7bb
00000020: 73ca 0fbb 50dd 54bc 3aff b1bc 39c1 663c
00000030: 21dc 58bc e828 cb3c 5e18 513c defe f33a
00000040: efd4 003b d526 13bc 80aa 833c 0eb3 c63b
00000050: ad4e e4bb 75db c53c b34d e63c ae0d c03b
00000060: adf2 693c 0e50 733c dce1 52bb b804 b6bb
00000070: d0c8 db3b 9c78 31ba 52ae 0c3d 8013 423c
00000080: a271 9e3b bb2c 9a3b 183e af3b e586 01ba
00000090: d214 b23a 75c5 6cbc 0895 22bb 2806 2c3d
000000a0: 18e2 0ebc eb52 19bb 6ab1 0d3c eac4 1dbc
000000b0: 2281 b43b 224e 363c 42f2 483c 150f b63b
000000c0: dfef 853c 5bca 90bc 92b6 a63c 39a1 21bc
000000d0: 9b3d 63bb 44e3 8abc 594c 703b 90e7 b9bc
000000e0: 765d 203c 84c9 a7ba 7fa9 11bc 179b 043c
000000f0: 1f3c 6e3b 51f2 ba3c bef4 b63c 26db 12bc
00000100: 407e c0bc afb5 a93b bceb 803c 60fd eabb
00000110: e4d2 3abb ab43 513c 7d69 9cbb 5879 3e3c
00000120: 3f29 9a3b 5c0e a739 4d04 013c ff6b adba
00000130: f0ee c1bc 58cc cb3c 5a64 a43c 1c18 debc
00000140: fc78 c43a 6b0f 22bb fa3e bf3c 5749 65bc
00000150: fadc ecbc 853e 1d3c eb5c 0a3c d9ec 303c
00000160: 05d2 0b3d d81a d63b 1961 0d3c 1782 6bbb
00000170: dae3 313c fd43 0d3b 2746 29bb 896c f33c
00000180: 6457 1f3b 026e 7cb8 2af0 eebb 2158 aa3b
00000190: 8acb 6f3b b41e 7f3b 1a30 83bc 1ca5 2c3a
000001a0: 34b6 4abb b2b9 903b aa71 9d3c 9434 24bc
000001b0: 9f13 0abc 9258 013d 9a51 d53b 0359 babc
000001c0: dcbd 923b c27e e93c b14e bfbc ef47 a93b
000001d0: 822b 6ebc be93 943c a1f5 6b3b 12ee 3cbc
000001e0: 5601 ea3c 4707 363a 50a0 1bbc ae69 f23b
000001f0: 95dd 93bb 79b2 8b3c 1db6 78ba 0619 46bc
00000200: 8287 13bd 2e79 d53c 9e1b 033c a389 073b
00000210: b839 96bb 0634 4b3c 4382 c23b 9ce1 0aba
00000220: b947 0a3c 4f09 aebc c8cb 2a3c f38e bfbc
00000230: 8325 a1bc 48dd d13c 7a7e 133d 9846 993c
00000240: 9b47 82bc b9e2 10bc 2814 5e3a 814a 02bc
00000250: edcd e53c 2070 c13b e1f2 3fbb e41b aa3c
00000260: 0599 dabc 7781 d9bb 649d 21bb c15b 6a3c
00000270: 90ee 613b b6f9 123c 1f15 99bc d978 043c
00000280: 3c9b 133d 99fd 92b9 fccb be3c 5da4 253c
00000290: 44c0 cb39 95d6 a0bc 3723 46bb 3cb2 f1bc
000002a0: 9bb0 4e3c 8c3a 713c 50b7 e7bb 3f09 60bc
000002b0: 89db 1cbc 6ae6 abbb 45ec 073d 9083 893c
000002c0: a6a8 8d3c 66a7 0fbc b67d a53c 4e13 38bc
000002d0: f338 84bc 71ff b1bc caf1 4f3c 0d72 f03a
000002e0: 79ce 72bc a10b cabb 2ca6 ee3c 99ae 6fbc
000002f0: 3b25 af3c 061d d23a 6cc2 b1bc c272 a63b
00000300: d8e1 5d3c 67b8 223d ef53 66bc b160 c5b8
00000310: c43b 18b9 9aeb a23c 2323 903c ab1d dc3b
00000320: 2504 eeba d22c f23a 0a21 3bbc 0016 eb3c
00000330: 73c7 f13b 506d 243c 1a96 ccbb c56d 883c
00000340: cc75 373c 7dcb 3a3c 45a5 f73c 4d9b 943c
00000350: 314e 083b e6fe 093d 52bd 7c3c 5153 06bc
00000360: f5ee c03c cd42 023b 8aed 39bc eb85 3f3c
00000370: 8642 32bd feda b63b 5eb4 d23c 9fcc 42bc
00000380: 022b 633c 9ab0 38ba 7bc2 1a3b 4326 2b3d
00000390: 6916 6e3b ea17 563c 2edb 053c eff0 14bd
000003a0: d72c 523c 21cd 9dbc 57aa c33c ef3d 823b
000003b0: 5384 973b e722 323b 2ea0 843c 2a0a f6ba
000003c0: 8b24 ac3b 18a9 1b3a 99f6 013d 8d3f 74bc
000003d0: 6ed7 083c 96e0 623c cb5c afbb be91 8b3c
000003e0: 593d 2c3c 489c 8c3a 4aeb b1bb b76d 8abb
000003f0: af1b a4bb fe42 923c 3c34 413c 300c ec3c

action_model._discrete_distribution.branches.2.bias f4 [15]
0.010700936 -0.0017226334 0.013100965 -0.004904694 0.004216084 -0.007507328 0.009895615 0.0016087967
-0.0141875725 -0.007704226 0.0040407744 0.02112249 0.0059302906 -0.018571528 -0.017222766
00000000: fb52 2f3c fcc9 e1ba 6ea5 563c 8eb7 a0bb
00000010: 1327 8a3b 0800 f6bb 3821 223c 42de d23a
00000020: fe72 68bc bb73 fcbb 7968 843b 1209 ad3c
00000030: e252 c23b 5123 98bc c216 8dbc
