results/ParticipantRankingsAndProposedRanking/AgentBehavior/AgentBehavior-499990.onnx (onnx, 333671 bytes, 11 tensors)

discrete_act_size_vector f4 [1, 3]
000000 00 00 80 40 00 00 70 41 00 00 70 41
       4.0 15.0 15.0

network_body._body_endoder.seq_layers.0.weight f4 [256, 30]
000000 ab 47 ef bd ea 80 a5 3e 08 cf 99 3d ad 91 2f 3d
       -0.116835915 0.32324916 0.07510191 0.042863537
000010 c9 a5 bd bc f6 91 89 bd e5 ea 2d be 7b c6 0c 3e
       -0.023150342 -0.06717293 -0.16984136 0.1374759
000020 0e d5 2e be 9e 08 3c be 94 7f c9 3e cd a1 cd 3d
       -0.17073461 -0.18362662 0.39355147 0.10040627
000030 22 31 96 bd d7 90 45 be de bd 78 bc b9 d2 41 be
       -0.0733359 -0.19293533 -0.015181987 -0.1892804
000040 9e 25 cc bd 29 3c 87 be 74 d6 6c 3e a8 f6 ef bd
       -0.099681124 -0.26413086 0.23128682 -0.11716968
000050 3b 22 f6 bc cc e6 88 3d 84 5c ab 3e a1 34 91 3e
       -0.03004562 0.06684646 0.3346902 0.28360465
000060 17 00 7b bd 25 1b b5 3d 81 da 06 bd 96 01 fa bc
       -0.061279383 0.08843068 -0.032923225 -0.030518334
000070 2f 3b e5 bd 1c 5f af 3e e2 0d 9f 3e 56 5f 3d be
       -0.11192929 0.3425225 0.3106528 -0.18493399
000080 3a ec 9c 3d fd ac d5 3e b0 34 0a be 62 42 ef 3d
       0.07662244 0.41733542 -0.13496661 0.116825834
000090 2d e6 d8 bd 6f 54 00 3e 9f cb c4 bd 5d a0 c9 be
       -0.105907775 0.12532209 -0.0960915 -0.3938016
0000a0 69 49 be bd 1b 0c 7a be 51 97 f8 bc e5 53 63 3d
       -0.092913456 -0.2441868 -0.03034559 0.05549993
0000b0 ef f8 80 be 2d c9 b1 3d 4a 5c 0a bd 4c e9 3c 3e
       -0.2518992 0.08680949 -0.03377942 0.1844837
0000c0 35 d1 03 3c c6 a7 0d bd 92 e2 44 bd 53 b8 04 be
       0.008045484 -0.03458383 -0.048067637 -0.12960939
0000d0 a1 99 37 be 48 37 cb 3e 75 ed 2d bd ed 1d 48 be
       -0.17929699 0.39690614 -0.042462785 -0.19542666
0000e0 a1 1d 6d bc ff d0 16 be fc 62 0b 3e 99 60 29 be
       -0.014472396 -0.14728163 0.13611978 -0.16540755
0000f0 1b 97 e7 3e a2 0f 0a 3d ab 70 97 3d 79 d0 cd 3e
       0.45232472 0.033706315 0.073945366 0.40198115
000100 f2 d9 d1 3b d0 32 ad 3c fd 59 60 be 63 1d 7e be
       0.006404155 0.021142393 -0.21909328 -0.24815898
000110 fa 43 09 3e 27 dc 49 be b3 70 e8 3d 52 db 88 be
       0.13404837 -0.19712888 0.11349621 -0.26729828
000120 40 a4 0c 3e ea 58 7c bd 00 df 14 3d 97 d4 1e be
       0.13734531 -0.061608233 0.036345482 -0.15510784
000130 2b 4e f8 3d 43 15 86 be 03 4e 99 3d 6d c6 7b be
       0.12124284 -0.26188096 0.07485583 -0.24587412
000140 65 0a a1 bc 67 c5 f2 3d 97 a0 cf 3d c9 11 3d bd
       -0.019658277 0.11854058 0.10138052 -0.04615954
000150 f5 72 83 bc 9c 3d 69 3e a9 c4 a3 3e 20 b5 e9 39
       -0.016046027 0.22777408 0.31985977 0.00044576172
000160 4e 26 f8 3e 5d 86 a0 be ae 63 80 bd 6a dd 84 3e
       0.48466724 -0.3135251 -0.062690124 0.25950176
000170 4d 22 47 3e d6 f5 80 3e 83 2d cc 3e b2 2f 03 3d
       0.19446678 0.25187558 0.39878473 0.032027908
000180 fa ef 96 3e 6d 03 01 be 9c 92 df 3b 89 ea 37 be
       0.29479963 -0.12598963 0.006822897 -0.17960562
000190 8b d4 c8 bd 73 09 50 3c f8 79 30 3e e9 f0 6e 3c
       -0.09806164 0.012697565 0.17234027 0.014583805
0001a0 25 8b d5 3d f5 93 4b 3e c4 69 ac 3e ff 73 e7 bc
       0.1042693 0.1988066 0.33674443 -0.028253553
0001b0 ca c4 59 3e 89 18 12 be 2c 96 a6 3e 31 09 da bd
       0.21266475 -0.14267172 0.32536447 -0.10646284
0001c0 a1 87 94 be 0e 6e 79 3e f5 1a ac bd d9 0c bf 3b
       -0.29009727 0.24358389 -0.08403579 0.005830389
0001d0 36 e2 98 bc 4f 3e a9 3b 2d f8 1e be cc c0 2e 3d
       -0.018662553 0.0051648985 -0.15524359 0.042664334
0001e0 38 60 96 3c 58 3a c7 be b0 4d 8a be 42 ca 2f bb
       0.018356428 -0.389117 -0.27012396 -0.0026823436
0001f0 71 c8 84 be 7f 02 24 3e 61 83 8c 3e 59 2b 59 3e
       -0.25934175 0.16016577 0.27443984 0.21207942
000200 e3 b8 9d bd cf ff 86 3d b8 d2 0e be 36 eb ba 3d
       -0.0770128 0.0659176 -0.1394757 0.09126894
000210 35 ea a8 3d 16 a2 73 bd c5 d7 15 3e 82 1f 71 bc
       0.082477964 -0.05948075 0.14633091 -0.014716985
000220 cb 7d bf bd 73 22 eb 3d c2 c5 32 be fe 9a a4 bd
       -0.09350165 0.1148118 -0.17458251 -0.08037375
000230 78 38 88 bd 23 b6 26 bd 29 6b e6 3d d0 af 0a 3e
       -0.066513956 -0.040701043 0.11250908 0.1354363
000240 92 b7 3e be 70 60 b3 bc 09 f6 82 3e 6e c6 34 be
       -0.18624714 -0.02189657 0.25578335 -0.1765382
000250 86 15 43 3e 38 f2 cb 3c 19 b8 3f 3d 8e 12 bc bd
       0.1905118 0.024895772 0.04680643 -0.091832265
000260 b7 d6 19 be bb 9c d7 3c df 9a cd 3e 76 fa 92 3c
       -0.15023313 0.026319852 0.4015722 0.017941695
000270 67 5c f7 3c a7 4c 81 bc d0 a1 ca 3d 77 4d 9d be
       0.030195428 -0.015783621 0.098941445 -0.30723163
000280 61 47 d7 bc 5c 22 b2 bd b8 5f 7e 3e 77 26 77 bc
       -0.026279153 -0.0869796 0.24841201 -0.015084854
000290 fa 28 55 3d e1 11 2f 3e 8e c8 ca 3d d4 d5 01 3e
       0.05204103 0.17096664 0.09901534 0.12679225
0002a0 4d c6 66 bc 4c 4e b5 ba ec 6d 2c 3d d0 32 17 3d
       -0.0140853645 -0.0013832538 0.042097017 0.036913693
0002b0 a8 83 55 bd 1a f3 bd bd 36 89 a0 bd 3e 42 a6 3d
       -0.05212751 -0.092748836 -0.07838671 0.081181034
0002c0 75 dd 10 be f3 9d 8c 3e 68 b7 d5 3d 4b 2c 04 3e
       -0.14146979 0.27464256 0.104353726 0.12907521
0002d0 c8 7a 56 bd db 98 41 bd 68 4b 92 3e 3e da 8d 3d
       -0.052363187 -0.047264915 0.28573155 0.06926392
0002e0 29 ea 69 3d 30 89 81 3e b4 2a 24 be 45 18 7f 3c
       0.05710808 0.25299978 -0.16031915 0.015569751
0002f0 70 78 dc be e0 f7 ce 3d 29 70 61 3e 00 6f 81 3e
       -0.43060637 0.10105872 0.22015442 0.2528
000300 a4 0c 84 3e 1b d2 7c bd 17 57 98 bd 3d e7 2c bd
       0.25790894 -0.06172381 -0.07438486 -0.042212714
000310 d2 82 c4 bc 4e 6c 9a be 12 a3 0f be cf a7 07 bf
       -0.023988161 -0.30160755 -0.1402705 -0.5299043
000320 c7 34 dc ba 27 62 72 bb ab 96 69 be 97 4c 6a be
       -0.0016800397 -0.0036984773 -0.22811382 -0.22880779
000330 9e 25 80 be c8 a1 93 be 10 d6 54 be 38 c4 25 3d
       -0.250287 -0.28834367 -0.20784783 0.040470332
000340 94 ae 84 bd 7c fa 56 3d ad 90 c1 bd a3 30 4b be
       -0.06478611 0.052484974 -0.09451423 -0.19842772
000350 18 83 70 3e e6 51 34 be d7 7a 3c 3e dd 04 79 3e
       0.23487508 -0.17609367 0.18406235 0.24318261
000360 f4 db 0d be 52 da af ba 30 45 8b 3e c3 18 02 be
       -0.13853437 -0.0013416505 0.27201223 -0.12704758
000370 98 27 d7 bd 8e 7f 06 be ce 50 98 3d f0 41 94 bd
       -0.10505599 -0.13134596 0.07437287 -0.07239139
000380 4b 71 d9 3d a5 d1 ad 3c 33 72 fa bb 76 8b 8b bd
       0.10617312 0.02121813 -0.007643008 -0.068137094
000390 a2 cf d4 bd c2 e5 76 bd 2c b7 ad be a6 b5 8b bd
       -0.10391165 -0.060277708 -0.33928812 -0.06821756
0003a0 6d 38 cc 3b 30 53 b5 bb 9a a4 9f bd f0 ee 08 3e
       0.0062323124 -0.0055335984 -0.07795067 0.13372397
0003b0 26 ae c6 3e e0 ea 2c bd e0 19 f4 3d 7f e7 95 be
       0.3880474 -0.04221618 0.11918998 -0.2927818
0003c0 30 5b 91 3d 20 d3 18 3e 7a 5c 0f bf 9c 5b 95 bd
       0.07097471 0.14924288 -0.56000483 -0.07292864
0003d0 26 ca f2 3c f8 7a c8 3c b7 0e 5f be f0 91 d6 bd
       0.029637408 0.024472699 -0.21782957 -0.10477054
0003e0 bf 4e 8c be 55 22 93 bd 90 bf 4a 3e c1 54 2f 3e
       -0.27403829 -0.07184283 0.19799638 0.17122175
0003f0 ea 82 cd bd c3 71 25 3e 13 0d c8 be b2 f3 04 3e
       -0.100347355 0.16156678 -0.39072475 0.12983587

network_body._body_endoder.seq_layers.0.bias f4 [256]
000000 e3 00 55 bc 68 e4 ec 3a 51 16 4d ba 59 bb 73 3b
       -0.0130007 0.0018073441 -0.0007823455 0.0037190525
000010 40 ca 25 3d 70 56 c9 bb 0e c9 2e bc fb 21 37 3d
       0.040476084 -0.0061443374 -0.010668052 0.04471014
000020 d4 45 d6 3b 30 cf 02 bd 75 f5 6d bc a5 3c da 3b
       0.006539086 -0.03193587 -0.014523854 0.0066600614
000030 ad b9 22 3b c5 1c 67 bc 52 47 d4 39 36 41 34 3c
       0.002482991 -0.01410598 0.0004048893 0.011001876
000040 e8 3b e8 bb c5 ef 29 bc d7 7a 35 3c 97 90 7f bc
       -0.0070872195 -0.010372107 0.011076651 -0.015598438
000050 e5 a8 b6 3b 97 64 96 3c ed a3 8a ba 71 8a c1 bc
       0.005574333 0.018358512 -0.0010577418 -0.023625584
000060 78 64 0e bd 54 c3 99 3b 2f 6b 0d 3d 62 95 d6 bb
       -0.034763783 0.0046924744 0.034526046 -0.0065485695
000070 c9 e8 a0 bc 04 c6 35 3b 83 3d 0b 3d 88 a6 48 3d
       -0.01964225 0.0027736435 0.03399421 0.04898694
000080 83 7a 3a 3c 07 1c 18 3d 25 39 a1 3c e1 e4 25 3c
       0.011381748 0.037136104 0.019680569 0.01012537
000090 18 ac 1e 39 34 c4 95 bc a7 f1 ad 3b c7 69 a7 3a
       0.00015132164 -0.018282034 0.005308348 0.0012772613
0000a0 21 1b dd 3a 43 0e 16 3d d7 83 9b 3b f0 5e f6 3b
       0.0016869047 0.036634695 0.004745941 0.0075186417
0000b0 77 d5 c6 bc c1 89 1e bb d7 5a c5 bb 43 c8 0b 3c
       -0.02427171 -0.0024190994 -0.006022792 0.008531633
0000c0 e9 30 0c bb 1e 10 bb 3b f8 7e 1e 3b f5 2a 31 3c
       -0.0021391457 0.0057087084 0.0024184566 0.010813464
0000d0 40 9c 8a bb d5 57 d6 bb 1c 60 52 bc 25 ed 21 bc
       -0.004230052 -0.006541232 -0.012840297 -0.0098832
0000e0 c9 09 29 bc 3a b9 51 3c 9f 8c 1d bd 94 f2 cf bb
       -0.010317274 0.012800509 -0.038464185 -0.0063460562
0000f0 a5 b5 21 3b b0 64 c2 bb 99 da ad bc e3 2f c9 bb
       0.002467492 -0.005932413 -0.0212224 -0.0061397417
000100 45 ab d9 3c b1 e1 d0 3c bf 9d 90 3c 76 a8 b3 3b
       0.026570925 0.025498243 0.017653344 0.0054827286
000110 0a 8a 6b 3b b8 d5 0d 3d 49 87 ec 39 04 84 8b 3c
       0.0035940432 0.034627646 0.00045114223 0.017030723
000120 22 f6 3f 3c 60 07 c4 3a ef 91 c6 bb f3 b9 bb bc
       0.0117163975 0.0014955811 -0.006059877 -0.022915816
000130 97 1b 92 3c 24 85 a2 bb 02 e0 87 bc 7c 81 9a bb
       0.017835421 -0.0049597193 -0.016586307 -0.004715143
000140 5e 46 46 3c 5b 1a f0 bc 67 ff 38 3b 1f 80 b9 3b
       0.012101738 -0.029309442 0.0028228404 0.005661025
000150 88 0a f9 3c f2 31 a7 3b fb 1e 6d ba a2 44 ee ba
       0.03040053 0.0051023895 -0.0009045449 -0.0018178413
000160 f7 d5 83 3c 83 d9 57 3d 62 35 c8 bb c3 7f 7d 3c
       0.016093237 0.05269767 -0.0061098794 0.015472355
000170 3c 20 5a 3b ea 2b 37 3c 20 8e 02 bc f5 87 7e 3c
       0.0033283373 0.0111799035 -0.007968456 0.015535344
000180 d0 6c 51 3d 2e 4e 93 3c c7 53 c4 3c a5 f8 ac bc
       0.051129162 0.017981615 0.02396573 -0.021114657
000190 68 8a b2 3c 8b 88 0b bb 80 25 6f 3c e7 a2 92 3c
       0.021794513 -0.0021291103 0.014596343 0.017899944
0001a0 24 61 d6 3c 57 72 2b 3c eb 7a 1c 3d 2a 72 8f bb
       0.026169367 0.010464272 0.03820316 -0.004377623
0001b0 55 4f 7a 3c b3 1b dd 3a 7b 09 bd 3a cc 20 3b bd
       0.015277703 0.0016869217 0.0014422381 -0.045685574
0001c0 77 b1 5e 3c 9b 46 21 3b 33 81 95 bb 31 fa 90 3c
       0.013592116 0.0024608735 -0.004562521 0.017697426
0001d0 74 11 11 3d c3 78 77 3c 89 90 2b bc 1c 16 b2 bb
       0.035417035 0.015104475 -0.010471472 -0.0054347645
0001e0 ae 98 9c bc 0f 42 22 bb df 9f 07 3c 8f f5 69 3a
       -0.019115772 -0.0024758612 0.008277862 0.0008924836
0001f0 89 f5 3e 3c f5 c8 09 bc 9c a7 ef 3c e7 88 a2 3b
       0.01165522 -0.008409728 0.029254727 0.0049601677
000200 fe f0 99 bc c2 c1 f4 bb ba ab 8f bb 52 88 e7 3b
       -0.018791672 -0.007469387 -0.004384485 0.007065811
000210 56 bf 67 3c 49 1d 67 bb 6b 25 f2 3c 9c c7 2b 3b
       0.014144739 -0.0035265258 0.029558858 0.0026211506
000220 ca a1 39 3c d4 78 27 3d b0 89 7b 3c 2c d5 e1 3c
       0.011330077 0.040886715 0.0153526515 0.027567469
000230 3d bd 9d 3c d3 7a 84 3a fd e1 05 bc fd 77 e9 bb
       0.019255275 0.0010107405 -0.008171556 -0.0071248994
000240 74 ef a5 3c 34 01 76 bc 6d 11 c8 bb a5 f5 d8 ba
       0.020255782 -0.015014935 -0.006105593 -0.00165527
000250 09 6a 99 bc 74 82 22 3d 2a f3 06 3a e5 5a 16 bb
       -0.01872732 0.03967519 0.00051479286 -0.002294236
000260 9f 1a 34 bb 7c 5f 90 bc 3d 60 3b bc f8 3c 01 3d
       -0.0027481688 -0.017623655 -0.011436519 0.031552285
000270 1b eb 36 3d 67 76 19 3d f3 48 c7 3c 97 20 c8 3c
       0.044657808 0.037466433 0.024326777 0.024429603
000280 d3 9e 65 3c b5 c3 f0 3b 07 b8 32 3c d9 5e 87 3b
       0.014014917 0.007347549 0.010908133 0.00413118
000290 ea 4c 5f 3c 3b 10 ff bb 78 52 04 3c 73 03 a8 3b
       0.013629178 -0.0077839172 0.008076303 0.0051273643
0002a0 99 98 83 ba 91 6f ce 3b ed f7 aa bb 68 49 9f ba
       -0.0010039984 0.006299921 -0.0052175433 -0.0012152614
0002b0 74 99 b3 3c a6 d8 b2 3b f1 18 44 bc 73 05 2d 3c
       0.021923758 0.0054579554 -0.011968837 0.010560381
0002c0 4e 75 87 3c 96 d6 ee 3c 47 8e a3 3b e6 d9 4a bc
       0.016535427 0.029155057 0.004991326 -0.012381053
0002d0 7d 42 28 bc 86 d1 0b 3c 3c ef 93 3c 50 fb d0 3c
       -0.010269758 0.008533841 0.018058412 0.02551046
0002e0 b0 b0 8f bc 41 b6 9e 3c 9e ee af 3a 9b cf 2a 3a
       -0.017540306 0.019374015 0.0013422554 0.0006515921
0002f0 42 3d 68 bb b3 5c 7e bc f3 a2 61 bc 84 31 23 3d
       -0.0035436903 -0.015525031 -0.01377176 0.039842144
000300 43 52 34 3d fd 06 04 3c aa 5f 2e 3c a2 c7 3d bb
       0.044023763 0.008058307 0.010642925 -0.0028958102
000310 a9 eb 63 3b be 81 01 3d 12 31 85 3c cc f3 3c 3c
       0.0034777916 0.031617872 0.01625875 0.011532735
000320 73 c1 47 bc cc 75 1d bc 44 d0 1b 3b ea b1 13 3d
       -0.012192118 -0.0096106045 0.002377526 0.036058344
000330 85 1b 90 3a 26 dc 4b 3c 90 7c 37 3c 67 7a 50 bc
       0.001099453 0.012442624 0.011199132 -0.0127244955
000340 09 6d 97 bb c4 10 23 bc 0e 3b 0a 3c 30 3f 20 bc
       -0.0046211523 -0.009952728 0.008436931 -0.00978069
000350 70 ba 5f bc e4 ff 31 3c 23 c5 4f 3c ca d7 3e 3c
       -0.01365529 0.010864232 0.012681278 0.011648128
000360 60 ee 16 3c 01 49 b7 bb 98 cd ca bb ed 74 8e bc
       0.0092121065 -0.0055934195 -0.0061890595 -0.017389739
000370 bb 8b 31 bc 07 42 86 3c f1 9a 8b bc 06 a1 22 bc
       -0.010836537 0.016388906 -0.017041655 -0.009926086
000380 ad 5b 85 3b 46 63 6c 3d ae 28 cd b7 2c 63 0f 3c
       0.0040697665 0.057711862 -2.4456847e-05 0.008751672
000390 06 23 85 3c 70 72 10 3c b5 28 16 3d 41 bf bb 3b
       0.016252052 0.0088163465 0.036659915 0.0057295864
0003a0 6b b9 04 3c db 45 94 3b 83 cf 5c 3c 7b c1 6e bb
       0.008100848 0.004524929 0.013477209 -0.0036431241
0003b0 d3 5e 94 bc 73 25 df 3c 27 e7 08 bc a9 ff 91 b9
       -0.018111622 0.027239537 -0.008355892 -0.00027847037
0003c0 41 09 84 ba 19 12 5d 3c 5c b5 a5 bb c2 e2 38 3c
       -0.0010073559 0.013493084 -0.00505702 0.011284532
0003d0 f4 1a 09 3c 0c 3d 1a bc b9 bf 85 3c c5 c2 a4 bc
       0.0083682425 -0.009413969 0.016326772 -0.020112405
0003e0 32 05 a3 bc ce fb 66 3b db 6d ab 3c f0 5e 1c bd
       -0.019899938 0.0035245302 0.020926407 -0.038176477
0003f0 fc 19 0f bb 8b 71 ae 3b f5 ae 3d bc 7a 7a 0f 3c
       -0.0021835556 0.005323594 -0.011577358 0.008757228

network_body._body_endoder.seq_layers.2.weight f4 [256, 256]
000000 a2 2f e3 3d 7e d7 a3 3d 2b 8e b4 3d 1c a4 26 3c
       0.110930696 0.08000086 0.08816179 0.010170963
000010 c8 d3 e1 3d 98 33 e3 3b 1c 75 24 bd 9b 91 c0 bc
       0.11026722 0.0069336407 -0.040150747 -0.02350693
000020 54 eb 52 ba 74 f3 15 3d 1e eb 40 3d 69 b7 c8 3c
       -0.0008045931 0.036609128 0.047099225 0.02450152
000030 75 38 99 3c a3 91 59 3b 0d 14 08 3b f1 d2 e6 3c
       0.018703679 0.0033198379 0.0020763904 0.028176757
000040 d7 96 7a 3d 44 2d 4d bd 6b 0e a5 bd 04 38 bc 3c
       0.06117901 -0.050091997 -0.08059391 0.02297593
000050 77 1d 54 3d 52 e6 5e 3d 5b c8 b0 bd 45 d9 01 3e
       0.051785912 0.05441887 -0.08631965 0.12680538
000060 39 02 d0 bd 0c d7 c1 bd 37 43 89 3d 3d 09 6d be
       -0.10156674 -0.09464845 0.06702273 -0.23148055
000070 e5 e7 33 3d 6f b3 ab 3c 8a 07 fc bd a7 88 b0 ba
       0.043922324 0.020959584 -0.123061255 -0.001346846
000080 97 5a 29 3d 53 dc 3f 3c 25 cc 30 3d 0e 11 c1 3d
       0.04134616 0.011710244 0.043163437 0.09427081
000090 5e 09 8c bd 46 12 58 bd 06 04 15 be e6 cc 64 bd
       -0.06837724 -0.052751802 -0.14552316 -0.05585947
0000a0 98 e6 b1 3d 7e cc 46 3c d3 40 70 bc 57 25 38 bd
       0.086865604 0.012133716 -0.014663893 -0.044957485
0000b0 1e b6 91 bd b2 0d a2 bd 18 63 a7 bc 2d 6c ed 3d
       -0.07114814 -0.079127684 -0.020432994 0.115928985
0000c0 4c 36 dc 3d 46 30 93 bd c0 df da bd 54 ce 9a bd
       0.10752544 -0.07186942 -0.10687208 -0.07558885
0000d0 e6 3b 9b bc ea 4f 03 3e a9 60 ca bc e5 5e 8c 3b
       -0.01894946 0.12823454 -0.024704294 0.0042837732
0000e0 f5 21 93 bd 0d a5 97 3d c8 af 6d 3d 4a 66 61 3d
       -0.07184211 0.07404528 0.058028966 0.05502919
0000f0 be e4 2e 3c f4 d1 3e 3c 38 a1 0e 3e 43 c0 c5 bc
       0.010674654 0.011646736 0.13928688 -0.02413953
000100 f7 a6 d3 3c 31 ea 3f 3d 05 b4 4c 3d 9e 4a 6c bd
       0.025836451 0.0468542 0.049976368 -0.057688348
000110 57 b7 ce 3d 68 b1 dd 3b f3 65 76 be 8e 00 d4 bc
       0.10093563 0.0067655332 -0.24062328 -0.02587917
000120 6e b2 4c bb 2e 02 72 3c e4 ba 77 3c fe 72 35 bc
       -0.0031234282 0.0147710275 0.015120242 -0.01107478
000130 02 1f 3c bd 1c d1 14 bd ed d5 3c bd 1a a2 8c bd
       -0.04592801 -0.036332235 -0.046102453 -0.06866856
000140 52 7e 20 bc 95 e0 dd bd cf 1d 45 bd c4 d8 c2 3d
       -0.009795742 -0.10833851 -0.04812413 0.09514001
000150 b0 48 97 3c 3e fb 80 3d 43 2a 18 bd 66 85 25 3d
       0.018467277 0.06297921 -0.03714968 0.04041042
000160 d0 a6 b1 bd b8 47 13 bd b6 80 6b bd 82 9e 89 bd
       -0.08674395 -0.03595707 -0.057495795 -0.06719686
000170 45 17 28 bd c6 e0 19 3d dc b1 c3 bc 2e 92 98 bd
       -0.041037817 0.037567876 -0.02388852 -0.074497566
000180 92 85 52 3b f8 29 cb 3c 5b 1a 97 3c b3 c2 59 3d
       0.003212307 0.024800286 0.018445184 0.053164195
000190 7b 1e 84 3c 8a b7 81 3b 46 eb 4c 3d 1d 56 26 3e
       0.016127815 0.003958647 0.05002906 0.16243787
0001a0 6b d3 7a bc 4d 95 8d 3c 06 f8 c1 3d 45 63 5e 3c
       -0.015309195 0.017283106 0.09471135 0.013573472
0001b0 e0 91 16 3d 7f dc 33 bd 58 e7 08 bd 09 4a d2 3c
       0.03676021 -0.043911453 -0.03342375 0.025670068
0001c0 1b ce 9e bd 91 06 65 bd 90 11 bc 3b 61 15 76 3d
       -0.07754155 -0.055914465 0.0057393983 0.060078982
0001d0 d3 f8 80 3d 6c 19 2f 3d ae a4 95 3d 67 39 40 bd
       0.062974595 0.042748854 0.07306801 -0.046929743
0001e0 b3 fd 84 3c 5f 2c 18 bd 12 80 54 bb 19 91 15 3d
       0.016234254 -0.03715169 -0.0032424969 0.03651533
0001f0 37 9d 41 3d 0e ef cd 3d 1c 4a 6d bd bb 3b b3 3c
       0.047269072 0.10055362 -0.057932004 0.021879068
000200 6f e4 56 bc 10 63 07 3c ba 41 1a 3d 1b 10 47 bd
       -0.013115986 0.008263364 0.037660338 -0.048599344
000210 a9 e0 8b bd 32 e6 42 3c 88 88 06 bc 6c 2c dc bd
       -0.0682996 0.011895703 -0.0082112625 -0.1075066
000220 99 9d db bc 68 10 a4 bd 6c ab b1 3b c9 3e 77 bd
       -0.026808547 -0.08010942 0.0054220464 -0.06036261
000230 b3 99 c9 bb 22 8c 89 3a 70 d0 26 3d b7 d9 1c 3d
       -0.0061523556 0.0010494033 0.040726125 0.038293567
000240 ac 0c 92 bd 8c 50 80 3d 34 ca 97 3d a2 0b 96 bc
       -0.07131323 0.06265363 0.07411614 -0.018316094
000250 9f 45 76 bd 04 6c ba 3d 29 32 02 3e e6 f1 3d bd
       -0.06012499 0.091026336 0.12714447 -0.04637327
000260 17 ac 76 bd fa f2 8a bd f0 cd 28 bd 1e c3 0c bd
       -0.06022271 -0.06784625 -0.041212022 -0.034365766
000270 b8 99 c7 bc db eb b5 3d 2e 88 f0 bd b0 6c 85 3d
       -0.024365291 0.088828765 -0.11744724 0.06514871
000280 13 d7 3e bd 00 29 08 be ae cc 14 bd 85 ef a7 bd
       -0.04659183 -0.1329689 -0.03632801 -0.081999816
000290 cd 2d d8 bd 6b 1c e9 bc eb 5a c6 bb e1 cd 46 3d
       -0.10555611 -0.028455934 -0.0060533187 0.048536185
0002a0 dc 1f 2f 3d a9 c6 95 3c 8b bb 13 bd 6f 06 aa 3d
       0.042754993 0.018283205 -0.036067527 0.08302008
0002b0 75 fe 8c bc 2b 59 0c bd f3 38 6c bd bd a1 a6 39
       -0.017211178 -0.034264725 -0.0576715 0.00031782492
0002c0 1d 4b 91 3d 37 79 8c bd ec 2d 12 bd 94 56 d6 3d
       0.07094405 -0.068590574 -0.035688326 0.10465732
0002d0 c9 80 8c 3d ce a5 61 3d 71 64 d8 3c f2 79 ca ba
       0.06860501 0.055089764 0.026415082 -0.001544772
0002e0 02 37 39 3d 8d 5c 10 3d 39 4f 9c bb 10 e4 22 3c
       0.045218475 0.035244513 -0.0047701863 0.00994207
0002f0 d4 e9 15 bd c8 50 60 3d 46 80 79 3d 0e d7 91 3d
       -0.03659995 0.05476454 0.060913347 0.071210966
000300 1b 13 95 3c 0a e0 63 3d 9d d5 8b 3b c0 94 55 3d
       0.018197587 0.055633582 0.004267408 0.052143812
000310 43 59 6a 3b 59 ab 75 bc 01 5a 7b 3d 62 5c d5 3c
       0.003575877 -0.014994466 0.06136513 0.026045028
000320 58 59 3e bc 73 db 59 bc cf c3 d4 bd 07 dc fa bc
       -0.011617981 -0.01329695 -0.1038891 -0.030622495
000330 75 f3 f2 bd 49 2b 41 3b db 2e 7d 3d 1d 88 83 3d
       -0.11862842 0.0029475263 0.061812263 0.06422446
000340 8f 84 a9 3d 17 8d 6e bd 9e ef 89 bd c0 e1 f0 bb
       0.08277237 -0.058240023 -0.067351565 -0.0073511302
000350 05 f8 2b 3d 30 3e 02 bc 4b d8 07 bd 19 a4 92 3d
       0.041984577 -0.007949397 -0.033165257 0.071602054
000360 07 d0 2b bd b1 df 51 3d ab ae 69 bd 19 4a 46 bd
       -0.041946437 0.05123872 -0.057051342 -0.04841051
000370 80 65 3d bc d2 e9 8a bd ad 25 d8 3b af 79 97 3d
       -0.011559844 -0.06782879 0.006596288 0.07396256
000380 b2 20 0e bc f8 81 7f 3d 13 97 8c 3d 8d 7c e1 3c
       -0.008674787 0.062379807 0.068647526 0.02752521
000390 91 6e 22 3d 51 41 09 3d 07 85 b7 bb fd e6 30 ba
       0.039656226 0.033509556 -0.005600575 -0.0006748287
0003a0 a7 48 ea bc b5 54 b2 bd a5 59 df 3b 51 6b 83 3d
       -0.028599096 -0.08707563 0.0068161064 0.06416953
0003b0 e4 76 9f 3d 03 ae 7c 3c f6 d0 3e bd 1d 23 eb 3c
       0.077863485 0.015422347 -0.046586 0.028703267
0003c0 12 67 1b be dd ec 3a bd 22 94 4b 3d fa b4 1f 3d
       -0.15176037 -0.045636047 0.049701817 0.038990952
0003d0 47 65 bb 3d ab 5d 96 bc ad a2 92 3d c7 45 40 3a
       0.091501765 -0.018355211 0.07159934 0.00073346164
0003e0 83 8c ea bc 9c 19 27 3d e6 2b c2 bc 9a e1 a3 bd
       -0.028631454 0.040795907 -0.023702573 -0.080020145
0003f0 7f 2a cd bc 5f 95 09 3e 30 36 6d 3d 10 1b c1 3c
       -0.025044678 0.13435887 0.057913005 0.023572475

network_body._body_endoder.seq_layers.2.bias f4 [256]
000000 98 c4 df bb af 7f d2 bb 30 d2 8e 3c 37 59 09 3c
       -0.0068288557 -0.0064239125 0.01743421 0.008383087
000010 49 3c 5a 3b dd 34 de 3c 62 9c 3c 3c fd f4 89 bb
       0.0033300093 0.027124817 0.011511894 -0.004210113
000020 ff 7c 95 3b 76 08 60 bc 70 b7 5f bb 03 60 1c 3b
       0.00456202 -0.013673892 -0.0034136437 0.0023860938
000030 2b 5a f8 3a f0 9a f5 3b c0 84 2f bc 8c 15 46 bc
       0.0018947771 0.0074952766 -0.010712802 -0.012090098
000040 91 8e bd 3c 34 b3 45 3b c3 8d e9 3b f5 a7 e9 3b
       0.02313927 0.0030166628 0.007127495 0.0071306177
000050 a9 d9 29 3c 5a 41 14 3c e3 11 ba bb b3 d7 16 bb
       0.010366836 0.009048784 -0.005678402 -0.002301675
000060 84 69 a9 3b 94 9e 85 bb 26 27 2c 39 ae b1 08 bc
       0.005170049 -0.004077742 0.00016417782 -0.008343143
000070 bf 86 99 3c d6 ab 8a 3c db 80 6c 3c 3c 27 46 bc
       0.01874101 0.01692764 0.014435018 -0.012094315
000080 38 44 8b 3b 15 9d 9e 3a be 34 f1 bb 75 fa 33 39
       0.0042500757 0.0012101257 -0.0073610237 0.00017164073
000090 02 d7 1c 3c 3d 6b b5 bb 9e cc 1d 3c c8 b0 77 3b
       0.009572746 -0.0055364654 0.009631304 0.0037794579
0000a0 a4 6a 19 bc 12 90 3e 3c 98 09 19 3c e1 78 d3 3b
       -0.009363804 0.011631029 0.009340666 0.006453619
0000b0 8d 27 2c bc 14 be 12 3a 0e 7e 4b 38 ea c5 cd ba
       -0.0105074765 0.0005597782 4.851637e-05 -0.0015699242
0000c0 84 f8 cc bb 27 bd 37 bb ce 8c 31 bc c8 2b 7a 3c
       -0.0062552113 -0.0028036328 -0.010836793 0.015269227
0000d0 59 02 af ba 56 6b 24 bc b2 5e 26 3a bc ea 50 bc
       -0.001335214 -0.0100353565 0.0006346508 -0.012751278
0000e0 3d 34 00 bb c9 42 39 bc 0b 1b e7 bb 7d 1b 5e bc
       -0.0019562386 -0.011307427 -0.0070527843 -0.013556358
0000f0 44 8b e6 bb 67 d8 b8 3c 73 7a ed 3b e7 4f 7d bc
       -0.0070356447 0.022564126 0.007247263 -0.015460945
000100 ba 71 4d bc c9 aa 30 3b de 9d 44 3c 74 93 a0 bb
       -0.012539322 0.0026957265 0.012000529 -0.0049003903
000110 a0 8c 72 3c 43 b5 3b bb 87 ed 88 bb fb 29 a6 bb
       0.014804035 -0.0028641976 -0.004178706 -0.0050709224
000120 c2 ed 74 3c ed ce 79 bc 8d 9e d0 bb 6d 87 b7 ba
       0.014949264 -0.015247089 -0.006366557 -0.0014002152
000130 69 cf 60 3c e6 d6 a9 3c 41 91 80 3b 2e 5d db 3a
       0.013721325 0.020732354 0.0039235656 0.0016736144
000140 27 f3 bb bb c1 bf 03 bc c9 6c 65 3c a1 aa cb 39
       -0.005735773 -0.008041323 0.014002987 0.00038846306
000150 47 e6 ab 39 98 1e 95 3b 4c e0 d1 3b ff 91 ff 3a
       0.00032787232 0.004550766 0.006404912 0.0019498466
000160 6c ca f5 3b 3a 1c db ba cf 0a 6f bb b9 ac 81 bc
       0.007500937 -0.0016716786 -0.0036474948 -0.01582943
000170 4e 91 91 3b 1c d5 b8 3b c2 50 c0 3b 95 ff d2 3c
       0.0044423705 0.005640639 0.005869002 0.025756637
000180 6d 5a 08 bc 56 d0 1d bc 3f 83 f2 3c c5 3f d7 bb
       -0.00832234 -0.009632191 0.029603599 -0.006568881
000190 a9 78 05 3c ed 2b 81 b7 70 e7 03 3c d4 70 f3 b9
       0.008146443 -1.5398453e-05 0.0080507845 -0.00046432635
0001a0 32 5a 21 bc 7c 8c 2a 3c c1 55 ba 3c 26 92 d2 3b
       -0.009848164 0.010409471 0.022745969 0.0064261137
0001b0 72 bb 90 3b 9f 2b c0 bb 56 9f e5 3c 02 ae 32 bc
       0.0044168765 -0.005864575 0.028030079 -0.0109057445
0001c0 f5 c2 b4 3a 0e 37 34 3b ff 0e 25 39 c1 62 81 bb
       0.0013791012 0.0027498635 0.00015741213 -0.00394854
0001d0 20 13 fc 3b 54 bb 63 ba a7 fb 43 bb d9 89 9f bb
       0.0076927096 -0.0008687277 -0.0029904635 -0.0048687276
0001e0 68 b8 81 3b 0e f1 c3 bb d9 4a 2b bc a5 2e 7f bb
       0.0039587505 -0.0059796637 -0.010454857 -0.0038937714
0001f0 e8 60 91 bb e3 0c 1b bb 0b d3 74 bc 96 96 b3 ba
       -0.004436601 -0.0023658804 -0.014942895 -0.0013701494
000200 d2 9d 48 bc 40 b6 0f bc c0 dc 84 bc 00 7a 8d 3c
       -0.012244659 -0.008771479 -0.016218543 0.017270088
000210 6e 0a a6 bb fb a5 9e 3b 7d fe 59 3b b0 22 17 bc
       -0.0050671613 0.0048415638 0.003326326 -0.009224579
000220 98 1f 96 3c 22 0d 7c ba b5 8b 38 3c 52 e2 4c 3b
       0.018325612 -0.0009614994 0.0112637775 0.0031262827
000230 26 f5 fd 3b 3a ec 21 3b 2e 20 a4 3c cd 47 af bb
       0.0077501712 0.0024707452 0.020034876 -0.0053491355
000240 f4 51 9b 3c d5 e3 bc ba 70 b2 62 bc 57 57 f9 3b
       0.018959977 -0.0014411161 -0.013836488 0.0076092887
000250 57 eb f7 b9 0a 25 27 3c 43 3b b1 3b f8 b2 2d 3c
       -0.00047286853 0.010201702 0.005408676 0.0106017515
000260 9d ce 0e 3c 60 2e 7b 3b ef 80 7a bc b8 b9 37 bc
       0.008716253 0.0038327202 -0.015289529 -0.011213712
000270 64 4a 7a 3c d3 72 b4 3b 0b b6 2a 3c 78 c2 da 3b
       0.015276525 0.005506852 0.010419379 0.0066760145
000280 3f e5 4a 3b 18 cf b9 3b 92 9c e8 3a 5c 55 21 3d
       0.0030959395 0.0056704395 0.0017746857 0.039388046
000290 11 13 6b 3c 28 7d 72 3b 58 d0 03 3b 42 d3 be b8
       0.0143478075 0.0037000868 0.0020113196 -9.099256e-05
0002a0 75 15 9b bb d2 3f a9 bb 12 47 5e bb 63 61 7f b6
       -0.0047327825 -0.0051650787 -0.0033916873 -3.8054648e-06
0002b0 58 a2 19 3b c2 51 44 bc 5b 46 83 3c 1d 22 a5 bb
       0.0023442712 -0.011982383 0.016024759 -0.005039467
0002c0 86 99 8c bb 4e 55 a7 3c e6 c6 44 bb 47 5c 4d 39
       -0.0042907624 0.020426419 -0.003002578 0.000195847
0002d0 fd 27 ef 3a 95 bc 7b 3c ec 44 07 3c c2 1c 67 bc
       0.001824617 0.015364786 0.008256178 -0.0141059775
0002e0 cd 2d 7a 3c 1f 2d 66 bc b8 76 1e bc f5 32 65 3c
       0.015269709 -0.014048844 -0.009671859 0.0139892
0002f0 7b aa 0b bc 1a 0d a7 ba 84 89 56 bb 10 8e 6b bb
       -0.008524532 -0.0012744993 -0.0032735774 -0.003594283
000300 1a e3 ad 3b f4 ec 99 3c 6b b3 91 3b 6f f4 36 bb
       0.0053066136 0.018789746 0.004446437 -0.002791669
000310 da eb 6c 3c c6 63 c4 3b 62 40 fd ba ae 93 41 3a
       0.014460528 0.0059933392 -0.0019321556 0.0007384372
000320 be eb 20 ba 70 56 cd 3b dc f1 1a 3c 5f 1f db ba
       -0.0006138644 0.0062664077 0.009457078 -0.0016717723
000330 b5 c7 10 3b c7 28 68 3c 7d 8f 4f bc cf 04 9e ba
       0.002209169 0.014169878 -0.012668488 -0.0012055876
000340 66 9d e6 ba 8c 4a 55 bb c2 c5 49 bb e5 fa 6a 3c
       -0.0017594516 -0.0032545654 -0.003078804 0.0143420445
000350 f2 4e 65 bc e9 44 68 3b ad 24 72 3c c9 10 5e 3c
       -0.013995873 0.0035441464 0.014779252 0.013553807
000360 e7 8d 71 3c 88 37 0a 3c 60 b2 55 3c cd 22 48 3b
       0.014743305 0.008436091 0.013043016 0.003053832
000370 6b f0 d8 3b a6 64 1c 3a c2 a7 b7 3c 29 90 03 bb
       0.006620457 0.00059659255 0.02241886 -0.002007494
000380 d7 ef c3 bb d2 1a 2d 3c e6 91 89 3a e8 7f bd 3c
       -0.005979519 0.0105654765 0.0010495752 0.02313228
000390 91 6a e1 bb e8 cd 50 3c 2f cd 8a bc 09 08 eb ba
       -0.006879159 0.012744404 -0.016943542 -0.0017931472
0003a0 8d ec 1c 3c b9 76 0b bc c4 be 01 bb 38 a9 27 3c
       0.0095778825 -0.008512192 -0.0019797543 0.010233216
0003b0 6f 39 c2 3b 06 38 2b 3c 38 6d bd 3b b5 52 bf bb
       0.005927257 0.010450369 0.005780842 -0.005838717
0003c0 27 16 02 3c c6 be ae 3b af 18 15 3c 72 18 03 bc
       0.007939852 0.0053328006 0.009100123 -0.008001434
0003d0 b5 34 52 b9 ba b0 3a 3b cc fe 8e bc 92 2b b3 3b
       -0.00020046796 0.0028486685 -0.017455481 0.0054678405
0003e0 91 1a 29 3b d5 9e 65 3a d3 b6 e5 3b ad f2 6f 3c
       0.0025803188 0.00087593246 0.0070103197 0.014645261
0003f0 41 48 59 3b 2b c7 03 3d 1f 96 0f 3d 57 13 10 bb
       0.003315464 0.032172363 0.035055276 -0.0021984184

action_model._discrete_distribution.branches.0.weight f4 [4, 256]
000000 34 dc 81 bb 72 fe 4f bc 55 e9 2c 3c 79 0b a1 bb
       -0.003963018 -0.012694942 0.010553678 -0.0049146977
000010 ea da 66 bc 40 b9 ca 3c fc 83 43 3c 1c 9c 17 3c
       -0.014090279 0.024746537 0.011933323 0.009253528
000020 87 1b 5f bb 67 a9 81 3c c2 2d 60 bc a9 cd ad 3a
       -0.0034043507 0.015827848 -0.0136827845 0.0013260144
000030 22 29 e0 3b 39 3e f8 bb 99 e2 09 3c 6d 32 9d bb
       0.006840841 -0.007575777 0.0084158415 -0.004797271
000040 43 3e 88 3a 1d b7 84 3c 3e ba 85 3b 51 e4 6d bc
       0.0010394532 0.016200596 0.0040810397 -0.014519767
000050 c0 18 6f 3c 4d 88 8a 3b ba e9 51 3b 54 34 aa 3b
       0.014593303 0.004227674 0.003203018 0.0051942263
000060 86 d8 5f bc 6f 2c be 3c 03 e2 28 3c ee 9b 17 3c
       -0.013662463 0.023214547 0.010307792 0.009253485
000070 e7 29 4f bb d2 12 15 3c 68 74 f7 bb 72 72 04 bc
       -0.003161067 0.009098725 -0.0075517185 -0.0080839265
000080 82 24 6e bb f9 82 0b 3b 33 62 cc bb 42 23 2d 3c
       -0.0036337678 0.0021287783 -0.006237292 0.010567488
000090 ab fc 1c ba 4d d4 4b 3c 22 f7 96 3c f9 d7 e5 3b
       -0.0005988578 0.012440753 0.018428389 0.0070142713
0000a0 a6 f7 79 3a d4 e5 b9 3b af 29 ba 3c ac 7a 92 3c
       0.00095354987 0.0056731496 0.022724954 0.01788076
0000b0 76 c8 21 bc 84 24 7a bc 20 a0 37 bb 68 e2 0e bc
       -0.009874454 -0.015267495 -0.0028019026 -0.008720972
0000c0 80 3f 24 3c da 7d 83 ba b1 82 cc bb bf 5e 2a 3c
       0.010024905 -0.0010032014 -0.0062411656 0.010398566
0000d0 48 72 ed bb 00 a2 9d bc c8 09 b3 bb 4e b0 5a 3c
       -0.0072462894 -0.019242287 -0.0054638125 0.013347698
0000e0 a5 2c 99 bb a7 d4 1e bc b7 fd 09 bc f5 5b 91 bc
       -0.0046745115 -0.009694255 -0.008422307 -0.017744044
0000f0 69 ed 07 3c f3 b3 35 3b 33 dc 8f ba e6 76 1b bc
       0.008296349 0.0027725666 -0.0010975659 -0.009488797
000100 8e 5a f6 39 0c 8d a1 3b 65 5c 22 3c 5e 63 03 bc
       0.00046988245 0.004930144 0.009909724 -0.008019296
000110 93 8e 7d bb cb 91 9a 3c 70 97 30 bc 36 a2 6e bc
       -0.0038689717 0.018868348 -0.010778293 -0.014565041
000120 b5 0a 99 3b 89 f9 6d bb 5b da a4 bc 41 7d c0 3a
       0.004670466 -0.0036312065 -0.020123651 0.0014685766
000130 b2 b7 91 3a 2d 79 15 3c b5 8d 12 3c 72 5f 59 bb
       0.0011117368 0.009123129 0.008944918 -0.0033168462
000140 29 a4 26 bc 46 32 91 bc 42 a5 88 bb e0 96 88 bc
       -0.010170975 -0.017724168 -0.004170091 -0.016673505
000150 b9 11 cb 3c cb 75 d6 3a fb 4d e8 3a 9e 8e 83 bb
       0.024788724 0.0016362009 0.0017723435 -0.004014804
000160 a7 ff 04 bc c9 e9 24 bc b1 0d 4a bc 92 ad 03 bc
       -0.008117593 -0.010065504 -0.012332366 -0.008036988
000170 57 67 a7 b8 b8 89 e1 3b 4a ae 31 b9 56 7e c1 3b
       -7.982429e-05 0.0068828724 -0.00016944963 0.005904953
000180 76 1f b9 3b 4b c5 af bc db 8f c0 3c 85 76 7a ba
       0.0056495024 -0.021456381 0.023506096 -0.0009554404
000190 13 0d 73 bc 02 b8 dd b9 d7 79 ff 3b 0b 2e 04 3c
       -0.01483466 -0.000422895 0.007796507 0.008067618
0001a0 5f 97 85 bc a8 5b 7b 3b 55 4d 16 3c a2 9d b1 bb
       -0.01630753 0.0038354192 0.009173711 -0.0054204026
0001b0 46 0e 08 3c 07 28 84 bc c8 1d 3c 3c b5 60 f7 3a
       0.008304184 -0.016132368 0.01148171 0.0018873425
0001c0 36 32 b8 3c 21 e8 c4 bb 9a 6a 3b 3c 13 7e 86 3a
       0.02248488 -0.0060091172 0.01143899 0.0010260962
0001d0 5f e9 9b 3b f1 f3 07 3b 45 c1 89 3c 05 a5 69 ba
       0.0047580446 0.0020744766 0.01681579 -0.00089128345
0001e0 8d 4a 24 bb 34 1a a0 3a 4b 19 54 bc d5 34 33 bc
       -0.002506885 0.001221484 -0.012945483 -0.010937889
0001f0 2a 67 11 ba 1f c3 13 3b e5 07 d7 bb e9 6c 98 3c
       -0.00055466837 0.002254672 -0.0065622204 0.01860662
000200 0c 32 fd bb a3 ba bf 3b eb 13 d2 3b 2e 7e b0 bb
       -0.0077269133 0.0058511063 0.006411066 -0.0053861355
000210 5d 45 ac bc 7b 8b d4 ba f7 03 53 bb 2f 23 f6 bb
       -0.021029169 -0.0016215885 -0.0032198408 -0.0075115184
000220 44 0b 6f 3c bf be af 3c 0c 33 1e 3c 42 87 72 3c
       0.014590088 0.02145326 0.009655725 0.014802756
000230 2e 46 61 3a d0 1d dd 3b 0f a8 9a bb eb e6 06 b9
       0.00085935264 0.0067479387 -0.004719741 -0.0001286526
000240 0c e1 67 3a e6 2d 0e 3b 31 15 3d bb 28 38 83 bc
       0.0008845485 0.0021694838 -0.0028851742 -0.016017988
000250 c0 46 bf 3a 68 ab 36 b8 ee cc 2d 3c f3 26 17 bb
       0.0014593229 -4.3551816e-05 0.010607941 -0.0023063987
000260 76 ce 80 3c d8 20 8b 3b c3 18 15 3c 7b 72 51 bc
       0.015723448 0.0042458586 0.009100142 -0.012783642
000270 a9 7f 3e 3b e1 d2 16 bb f9 ba 86 3c 74 61 1c 3b
       0.002906779 -0.0023013877 0.016446577 0.0023861798
000280 e7 74 15 3c 50 d2 b5 bc c1 37 a7 b9 91 8f d7 3c
       0.00912211 -0.022195011 -0.00031894262 0.026313575
000290 0e 2b 0a bc 44 6c ee 3b 13 d0 ec 3b 0b 57 26 bb
       -0.008433117 0.00727609 0.007226953 -0.0025381471
0002a0 c5 97 90 3b 62 07 cd 3a a4 55 dd bb e9 2d 73 bb
       0.0044126236 0.0015642459 -0.006754594 -0.0037106222
0002b0 bc 18 87 3b 99 5d 9d bb e6 ee 7f 3b 0d 33 06 bc
       0.0041228216 -0.0048024175 0.0039052307 -0.008190882
0002c0 4d b2 2c bc 06 ef 3d 3c fc 11 51 bc a6 09 f0 3b
       -0.010540557 0.011592632 -0.012760635 0.007325369
0002d0 70 bb aa bc c3 b6 2b 3c 52 07 08 bc 74 85 1e bc
       -0.02084133 0.0104805855 -0.008302527 -0.009675372
0002e0 b7 bd b6 bb cc ff 7e bb 22 b1 14 bb cb fc dc 3a
       -0.005576815 -0.003890979 -0.0022688587 0.0016860006
0002f0 64 e0 55 bc 67 60 a8 3a 4c ae 7e ba c1 ba 8c 3c
       -0.013053987 0.0012846113 -0.00097153033 0.017178895
000300 2f 96 82 3c 18 15 8c bc c7 ef 2a 3c 70 fd 8a b9
       0.015940754 -0.017099902 0.010433144 -0.00026510237
000310 41 d8 63 3c 16 a0 b4 ba 75 91 72 bc 05 21 e6 bb
       0.013906539 -0.001378062 -0.0148051875 -0.007022979
000320 22 76 b5 3c 5f 63 b5 3b 84 5f a2 bc 5e b6 1b 3b
       0.022151057 0.0055355276 -0.019820936 0.0023759822
000330 f2 0a 4a 3b d4 41 3a 3c 29 a2 d7 bb 46 6e 3e 3c
       0.0030829278 0.011368234 -0.0065806103 0.011622971
000340 60 78 07 3a 78 48 c1 3b 67 5f fc 3b d7 23 48 3b
       0.00051677786 0.0058985315 0.0077018025 0.003053894
000350 72 a1 94 b8 3b c8 a9 bb 56 22 37 3b 2f 04 bf 3c
       -7.0872615e-05 -0.00518134 0.002794405 0.023317425
000360 0c b2 ea bb 7a ef 6e 3c ad 01 0c 3c 4f b1 8b 3b
       -0.007162338 0.014583463 0.008545321 0.00426308
000370 20 f2 ba 3b 73 37 0f 3b f8 56 60 3c b4 f7 ca bb
       0.005705133 0.0021853119 0.01369261 -0.0061940793
000380 6f fd ee 3b 62 0a c7 3b 83 8c 8a bb 9b 09 24 bc
       0.007293395 0.006074236 -0.004228176 -0.010012056
000390 dc 23 b6 3a 0e 82 94 3b 81 33 1f bb 40 2d b6 3a
       0.0013896185 0.0045321053 -0.0024292173 0.0013898984
0003a0 7a cb c5 bc 9e c5 67 bb 87 59 8e bb 4b a2 0e 3c
       -0.024144877 -0.0035365592 -0.0043441686 0.008705686
0003b0 62 88 78 3c 4e d5 57 ba 03 0a 0f 3c 59 31 d5 bb
       0.015169235 -0.0008233384 0.008730414 -0.006506127
0003c0 8f 9e b2 bc 86 2f 31 3c f2 cb a4 bb 64 30 24 bc
       -0.021804122 0.010814553 -0.005029195 -0.010021303
0003d0 99 68 9f bb 55 67 17 3c d8 06 a1 3a b5 b9 81 3c
       -0.004864764 0.009240945 0.0012285365 0.015835622
0003e0 bd 4a 19 3c 01 b4 54 bc c1 4d 12 bc 89 4e 23 3c
       0.009356198 -0.012982369 -0.008929671 0.009967455
0003f0 78 31 35 bc a7 ca 86 3b 5a 2c 52 3c 3e 1e a7 bc
       -0.011059158 0.0041135135 0.012827957 -0.020400163

action_model._discrete_distribution.branches.0.bias f4 [4]
000000 9c 12 ef 3b 59 24 29 3c 76 8d d8 3a 29 5d 98 bc
       0.0072959196 0.010323607 0.0016521651 -0.01859911

action_model._discrete_distribution.branches.1.weight f4 [15, 256]
000000 f2 91 43 3b 59 d4 d5 3b 42 70 1a 3c 53 df 6f 3b
       0.002984163 0.006525558 0.009426178 0.0036601617
000010 6f be ec 3a c0 44 82 bb bc 47 76 3c 7a 87 1b 3c
       0.0018062125 -0.003975481 0.015031751 0.009492749
000020 c5 63 a8 3b de c2 cf 3b 5c 4d 51 3c 5d 4d c1 bc
       0.0051388466 0.0063403687 0.012774792 -0.02359646
000030 9f 62 55 3c 0b 9a c3 bb c2 86 69 bc 15 81 72 3c
       0.013024001 -0.005969291 -0.01425332 0.014801283
000040 dd 0b f6 bc 9a 5a 6b 3a 4b da fa 3b 8a 96 c7 bc
       -0.030034954 0.0008978039 0.007655417 -0.024363775
000050 e8 de 2d 3c 9e 03 75 bc 94 30 a3 3a 48 28 4e bc
       0.010612227 -0.014954476 0.001245039 -0.012582846
000060 5d 69 fb bc 82 0b f3 3b b4 c9 86 3b 75 e5 89 3c
       -0.03068989 0.0074171433 0.0041134004 0.016833046
000070 c6 79 89 ba 00 93 bb ba 4d cf a4 3a fe 42 9f 3b
       -0.0010488562 -0.0014310777 0.0012573987 0.004860281
000080 60 3a 65 3c db 8e fb 3b ed b9 3a bc 9d a4 ca 3b
       0.0139909685 0.007676942 -0.011396867 0.006184174
000090 82 ad 82 3c 69 49 33 bc 8d 8e 91 3b 5d 4c 88 3c
       0.015951876 -0.010942795 0.004442042 0.016637975
0000a0 ab 3e 4f 3b 44 17 44 3c 96 ba d1 ba 23 a5 78 3c
       0.0031623046 0.011968438 -0.0016001042 0.01517609
0000b0 a4 43 8a 3b cd 0f be 3c de a5 a7 3b 57 73 eb ba
       0.004219489 0.023200894 0.0051162085 -0.0017963451
0000c0 7b cd ce bb fd 2e 0b 3c 35 bb a1 3c d5 8d d7 bb
       -0.0063111163 0.00849509 0.019742588 -0.006578187
0000d0 b2 9e 14 3b 6c 0c c5 3c e0 2f 97 3c b2 62 ce ba
       0.0022677598 0.024053775 0.018455446 -0.0015745966
0000e0 81 b5 07 bc f9 12 db 3a 87 e7 a5 3b 6e 62 c3 3b
       -0.00828302 0.0016714028 0.0050630006 0.0059626615
0000f0 97 18 cd 3b dc b0 c8 bb 2d a7 01 3c 33 cf e7 b9
       0.006259035 -0.006124599 0.007913393 -0.0004421413
000100 9f 45 7c 3c 86 67 20 3c 32 e6 93 3c 85 86 2e bc
       0.015397458 0.009790307 0.018054102 -0.010652189
000110 42 94 15 bc e9 78 cf 3c 83 52 18 3c 10 53 c1 bc
       -0.009129586 0.02532621 0.009297016 -0.023599178
000120 d3 2f 06 3c e3 04 2f bc f7 47 9f 3a ea d7 c0 3b
       0.008190113 -0.010682317 0.0012152184 0.005885114
000130 20 c6 22 bb 36 0e b0 bc 9a 9f 96 36 7a 2b 90 bc
       -0.002483733 -0.021491151 4.4889284e-06 -0.017598856
000140 d7 6a 03 39 c6 71 ab 3b c8 2a aa bb 9d 9f b6 3b
       0.00012532934 0.0052320687 -0.005193088 0.0055732266
000150 17 02 a8 3a 17 ca 7f ba 1a aa d1 3c 42 76 5f bb
       0.0012818006 -0.0009757592 0.025593806 -0.0034097587
000160 07 72 99 b9 5d 3c 05 bc 5e b7 4e 38 83 bf 81 bc
       -0.0002926739 -0.0081320675 4.9285e-05 -0.01583839
000170 45 21 bd 3b ef 1d 38 bc 60 b3 26 bb 23 56 5c 3b
       0.0057717883 -0.0112376055 -0.0025436506 0.0033620677
000180 f3 3d e6 3b a2 42 66 bb ef eb 7e bc 90 7b ca bc
       0.007026428 -0.003513493 -0.015559181 -0.024717122
000190 1e ab a8 3c f9 a7 0a 3c f7 fa ed bb a3 8e 8e 3a
       0.020589408 0.008462899 -0.0072625834 0.0010876249
0001a0 c5 3b f6 3a 18 ef 58 bc cb b1 9e bb 0e 98 bb bc
       0.0018786123 -0.013240598 -0.004842972 -0.022899654
0001b0 cf be a4 bb 46 25 4a bc 60 06 9d 3a fa 28 fd 3a
       -0.005027629 -0.012337988 0.0011980049 0.001931458
0001c0 d3 2a be 3b 57 77 9f bc 3d c5 c0 bb d7 0b e6 3b
       0.005803445 -0.019466085 -0.0058828876 0.0070204544
0001d0 7d 98 2d bc 41 94 39 3c c4 b2 0a 3c ea 0e 84 bb
       -0.010595438 0.01132685 0.008465473 -0.004030098
0001e0 9b f0 e9 bc 5c dc e6 3a bc fe 06 3a 5c d9 ec 3b
       -0.028557112 0.001761328 0.0005149653 0.0072280597
0001f0 71 f3 a0 ba 2a 25 22 ba 6e 6c 59 3c a4 cc 0e 3c
       -0.0012279582 -0.00061853474 0.013270481 0.008715782
000200 90 dd c1 39 71 00 37 3c 2f db e3 38 ab 65 f2 bc
       0.00036976906 0.011169539 0.000108650296 -0.029589495
000210 12 b5 6b bc 83 58 f1 bc d3 c9 69 3c f6 3a a2 3c
       -0.014386432 -0.029461151 0.01426931 0.019803505
000220 88 54 72 3a 56 df 62 bb 2a e8 fb 3b 20 94 01 bc
       0.00092441635 -0.0034617982 0.007687588 -0.007908851
000230 29 86 de 3b 30 f0 ed bb 38 f6 a0 3c 5d f4 e9 3b
       0.0067908955 -0.0072612986 0.019648656 0.007139726
000240 03 a9 7c 3c 0e fe 20 bc 9a 89 94 bb 8d 32 9c 3c
       0.015421155 -0.009826196 -0.004533005 0.019067073
000250 7e 75 ac 3b b5 ce 77 3b 6c 0d 3f bb c3 34 1f bc
       0.0052630296 0.0037812416 -0.0029152287 -0.009717169
000260 6b a2 cc bb 53 b6 c7 bc 00 43 4a 3b d5 c3 91 3c
       -0.0062449477 -0.024378931 0.003086269 0.017793575
000270 75 78 9f bc 0d 34 47 bc 2d a5 93 bb c4 2f c2 b9
       -0.019466618 -0.012158406 -0.0045057745 -0.00037038152
000280 89 af b5 3b 6a 02 4f 39 88 d8 48 bc 3e cd 56 bc
       0.005544607 0.00019741958 -0.012258656 -0.013110457
000290 2c ba 33 3b 4f cb 99 bc 0a fc 32 3c d4 31 5c bc
       0.00274242 -0.018773703 0.010924349 -0.013439614
0002a0 5a 62 99 3c 26 99 3c bb dc ce a0 39 06 42 79 bc
       0.018723655 -0.0028777807 0.000306717 -0.015213495
0002b0 1c a1 96 3b 9d d0 7b 3b 12 7d d3 bb 04 b5 31 bc
       0.0045968425 0.0038423904 -0.0064541185 -0.01084638
0002c0 d7 2f 30 bc 88 d3 d6 bb 2c fc 7e 39 46 2e 19 ba
       -0.010753593 -0.006555978 0.00024317269 -0.0005843382
0002d0 bf ca a0 bb 3b a6 b8 3c 71 88 ba bb e3 7d 57 bb
       -0.0049069817 0.022540202 -0.0056925346 -0.003288143
0002e0 84 13 aa bc 3d 93 b4 3b f7 2a b6 b8 2a a4 f3 3b
       -0.020761259 0.0055107162 -8.686439e-05 0.0074353414
0002f0 4b ec e1 bb f5 7e e3 3b 33 90 f9 bb 45 66 83 3c
       -0.0068946234 0.0069426247 -0.007616067 0.016039977
000300 88 83 66 3c 5f 84 3e bc a3 43 c7 bb 16 e1 70 bc
       0.014069445 -0.011628239 -0.006081061 -0.014702102
000310 26 bd d8 ba 13 4b f7 bb d7 8b 49 bc da dc 0e 36
       -0.0016535863 -0.0075467913 -0.012301407 2.1288201e-06
000320 01 77 36 3c 95 22 c8 ba 80 b9 ab bc 07 f2 38 3c
       0.011136771 -0.0015269095 -0.020962477 0.011288173
000330 bf 6e 0a 3c e3 04 36 bc 25 96 cc bc 75 05 8b 3c
       0.0084492555 -0.0111095635 -0.024973938 0.016970376
000340 2b 96 55 bb 75 74 42 3b 6d bf 64 bc 0c 64 26 bc
       -0.0032590728 0.0029671465 -0.013961655 -0.010155689
000350 55 71 9b bc 73 50 4e 3c 4c 85 05 bb 37 0f 0d bd
       -0.01897494 0.012592423 -0.002037364 -0.034438338
000360 09 ea 9e bc c6 c3 82 ba c4 ac 23 bc c0 d2 aa bb
       -0.019398706 -0.0009976558 -0.009989921 -0.0052131116
000370 51 3b 96 bc aa ce 85 3b cf 69 66 bc 05 c7 a1 bc
       -0.018338831 0.004083474 -0.014063313 -0.01974822
000380 5e e8 4a 3b a5 7f 03 bc 57 f2 34 bc 12 69 47 3c
       0.0030961256 -0.008026038 -0.011044106 0.012171047
000390 73 71 e6 3a 9d 5e 2d bc 98 f4 aa bb fe aa a9 3b
       0.0017581418 -0.01058164 -0.005217146 0.0051778546
0003a0 b2 e2 54 bc a6 d0 d0 ba af fe aa bb 15 ec b7 3b
       -0.0129935015 -0.0015931323 -0.005218349 0.00561286
0003b0 0c c4 fb ba 52 1b 8f bc 6c 99 00 3b 37 de 30 3c
       -0.0019208207 -0.017469082 0.0019622697 0.010795168
0003c0 15 8a 49 3c 64 69 34 3c 56 8d 5e bc 91 6c 9d ba
       0.012300988 0.011011455 -0.013583502 -0.0012010505
0003d0 44 f6 ba bb 3a be 2c bb 3c 5e 83 3b 12 5e 15 3b
       -0.0057056267 -0.00263585 0.0040090363 0.0022791666
0003e0 36 ff e7 bb fe c3 4a 3c 45 d1 5e bc 42 41 9c bc
       -0.007079984 0.01237583 -0.013599698 -0.019074086
0003f0 c2 ac cd 3a f1 b6 a4 bc 72 14 a0 bc d1 56 d1 bb
       0.0015691745 -0.020106765 -0.019541 -0.006388523

action_model._discrete_distribution.branches.1.bias f4 [15]
000000 b1 6b bb bb 1a 8a 4f 3c 5c 32 b8 3b 15 5c 21 3c
       -0.005719625 0.012667203 0.0056212377 0.009848614
000010 70 83 13 3c 99 42 30 b9 98 d7 a0 bc 41 b1 8f 3b
       0.009003505 -0.00016809478 -0.019634053 0.004385144
000020 89 82 9d 39 de 5e 41 ba 17 2b 70 3c 97 06 5e bc
       0.0003004263 -0.0007376502 0.014658711 -0.013551376
000030 4d 87 13 3c d1 5d a1 bc 2c b3 3e bc
       0.009004426 -0.019698055 -0.011639398
