results/ParticipantRankingsAndProposedRanking/AgentBehavior/AgentBehavior-1499994.onnx (onnx, 333671 bytes, 11 tensors)

discrete_act_size_vector f4 [1, 3]
00000000: 0000 8040 0000 7041 0000 7041
4.0 15.0 15.0

network_body._body_endoder.seq_layers.0.weight f4 [256, 30]
00000000: acf4 d0bd 28e7 9d3e 8846 e83d e94b 6d3d
00000010: 5847 86bc b2e6 b1bd 72d7 27be de29 ff3d
00000020: e40d 48be ec92 4abe 3308 be3e 6207 ea3d
00000030: 80de 9cbd 644a 54be 4e2c 1c3c 9def 58be
00000040: 5543 dfbd da0b 89be 67c1 5c3e 63eb 15be
00000050: ce06 2ebd 5db3 623d 99bd a73e 3e2e 8b3e
00000060: 28b1 99bd 6da6 a53d 630e 84bd 68e2 1abd
00000070: 2e68 03be 7199 ac3e e789 983e 3a09 46be
00000080: 6aa9 a83d 81d3 cc3e 3daa 14be 2530 163e
00000090: f9b0 95bd 86ee 083e 641d cebd 64cd d4be
000000a0: d30c ffbd cfee 6cbe 6be8 0cbc f527 3d3d
000000b0: 8920 7fbe 0d0f d63d 5e42 f6bb 5b43 483e
000000c0: e1f6 083c 83ed e4bc 87f0 eebc 6971 e1bd
000000d0: 5791 23be 35dc dc3e 1487 09bd 833a 31be
000000e0: 8f5f cabc 3e44 1bbe c64b 143e 2230 0fbe
000000f0: f115 dd3e 535c 223d df3d 833d 9e49 b93e
00000100: 5383 60bc c511 a23c 7036 79be 7dcf 60be
00000110: 21a9 143e 8033 47be eb43 003e f75f 83be
00000120: 4777 2f3e b6e2 71bd 4b89 2e3d 0e50 24be
00000130: c919 fd3d 03b5 8ebe 799c 723d 247d 7cbe
00000140: 2d7e 60bb bcb3 f13d 077e be3d 87ac 48bd
00000150: 6c5d 10bd af1c 673e 4921 963e c05f f0bc
00000160: 61d1 ea3e 9d8b a8be fb9f 59bd 89cd 893e
00000170: adbc 703e 8cd9 953e 656b cc3e 0627 dc3c
00000180: 2c9b ac3e 1ceb 0fbe bab8 86bc b654 59be
00000190: ada9 bdbd 779b 1a3c 58bd 3d3e cea1 863c
000001a0: ea08 0a3e 187b 363e 7b4f 9f3e 678c 58bd
000001b0: f080 3b3e faba 33be 4e79 9a3e c371 05be
000001c0: bfcf 9fbe ef51 693e f04a cebd f13d 55bc
000001d0: 8f90 40bd a3a0 ebbb aebb 2abe 6037 a33c
000001e0: 98f9 59bc b288 c0be 7ffa 8fbe c716 e8bc
000001f0: 0fc6 91be a002 2c3e 0a42 833e fca8 7a3e
00000200: 7524 37bd bf34 b13d cfa0 0cbe b768 e73d
00000210: 2cae 883d b734 54bd ea73 003e 5828 14bc
00000220: 50ce abbd 6ea6 ec3d cd5d 28be 0029 9bbd
00000230: 0854 39bd 5755 dabc d4aa f43d a90f 0f3e
00000240: af4b 4ebe 1bf3 39bc 1d8c 6e3e 5f1c 46be
00000250: 78dd 313e 1ccf c53c cb10 553d 63ec e0bd
00000260: 9b79 0fbe 08ce 883d 96ab c93e 0334 583c
00000270: a89d 153d efd1 01bd 0bed be3d 3899 a9be
00000280: 805b 92bc a317 a2bd c825 813e a3fa 63bc
00000290: a23f c93d 1a50 153e 8605 963d c8a7 d13d
000002a0: 7d48 4bbd 13a6 13bd be49 5c3c 78dc aa3c
000002b0: 5b82 8dbd 47a9 f5bd fdd9 d9bd ba61 603d
000002c0: b0ca 42be 604b 813e e719 743d aae5 bd3d
000002d0: 8f58 23bd 0ca8 91bd e27c 913e f467 6d3d
000002e0: 3533 813d add8 733e be31 0fbe 2c88 e43b
000002f0: 4a59 dabe aff0 d13d 9938 5a3e e532 6a3e
00000300: 59d6 723e 9d6e a8bd 229b b0bd 9873 8ebd
00000310: fcca 6dbd 768c a4be 030e 16be 2137 0cbf
00000320: eeec e4bb 3640 e8bc 06ac 7cbe daa8 84be
00000330: ec0f 8ebe ec28 a0be 05d1 66be 2113 483d
00000340: 224d b7bd c379 e13c 1408 e8bd 5511 46be
00000350: 65f7 7f3e e5d7 3ebe ce1b 4c3e d93c 7f3e
00000360: d979 06be c01e 193d 24d0 973e a0bf e4bd
00000370: e3b2 78bd 05d5 42be e2f7 cf3d 42c1 0cbd
00000380: 07a9 c73d 4e2b 793d 924a 8d3c 6792 1ebd
00000390: 9a76 a5bd 9966 d2bc 69f3 9dbe 6294 ddbc
000003a0: 847b 013d 3d5f 073d c54f 0dbd 4b90 303e
000003b0: 0450 df3e 6ad4 e4bc 5a08 2a3e f37b 7dbe
000003c0: dfa7 433d 464c 2b3e 88da 11bf 20f9 c8bd
000003d0: f5c5 723c 4aad 0a3d bc67 62be 64bc cabd
000003e0: 5a2c 90be 035a b4bd 5341 4a3e af10 463e
000003f0: b68d d6bd d4f9 2a3e 5685 cebe a1e1 f83d
-0.102029175 0.3084042 0.11341578 0.05793372 -0.016391441 -0.0868658 -0.1639078 0.124591574
-0.19536549 -0.19782609 0.3711563 0.114271894 -0.07659626 -0.20731503 0.009532047 -0.21185155
-0.109015144 -0.26766855 0.21558152 -0.14640574 -0.04248696 0.055346835 0.3276184 0.27183717
-0.07504493 0.08088384 -0.064480565 -0.037813574 -0.1283271 0.33710817 0.2979271 -0.19339457
0.08235438 0.40005115 -0.14518066 0.14666803 -0.073091455 0.1337224 -0.100641996 -0.4156295
-0.12453618 -0.23137973 -0.008600335 0.046180684 -0.24914755 0.104520895 -0.007515236 0.19556944
0.008359642 -0.027945286 -0.029167427 -0.110079594 -0.15973412 0.43136755 -0.033576086 -0.17307477
-0.024703769 -0.15162751 0.1448203 -0.13983205 0.43180802 0.03963883 0.06408285 0.36188978
-0.013703185 0.019783864 -0.24337173 -0.2195415 0.14517643 -0.1945324 0.12525909 -0.25659153
0.17135344 -0.0590541 0.0426114 -0.16046163 0.12358434 -0.27872476 0.059231255 -0.24657112
-0.0034254894 0.1180186 0.093013816 -0.04899266 -0.035245344 0.22569536 0.2932227 -0.029342532
0.45862868 -0.32919016 -0.053131085 0.26914623 0.23509474 0.29267538 0.39925686 0.026874077
0.33712137 -0.14054531 -0.016445506 -0.21223721 -0.09260879 0.00943648 0.1852926 0.016434576
0.13479963 0.17820394 0.31115326 -0.052868273 0.18310905 -0.17551795 0.30170673 -0.13031678
-0.31213185 0.22785161 -0.10072887 -0.013015256 -0.04701286 -0.0071907802 -0.16673157 0.019923866
-0.013304137 -0.3760429 -0.281208 -0.028331174 -0.2847142 0.16797876 0.2563632 0.24478525
-0.044712503 0.08652639 -0.13733219 0.1129927 0.06673846 -0.051808085 0.12544218 -0.009042822
-0.0838896 0.115551814 -0.16442032 -0.075761795 -0.045246154 -0.026652021 0.119466454 0.13970818
-0.20146058 -0.011349465 0.23295636 -0.1934676 0.1736964 0.024146609 0.05201797 -0.10982587
-0.14011233 0.06679922 0.39388722 0.013195994 0.036527306 -0.03169435 0.09322556 -0.3312471
-0.017865896 -0.079146646 0.25224137 -0.013914737 0.0982659 0.14581338 0.07325272 0.1023708
-0.049629677 -0.036047053 0.013445316 0.02085708 -0.06909629 -0.11995178 -0.10637281 0.0547807
-0.19022632 0.2525282 0.059595015 0.092723206 -0.039879378 -0.071121305 0.2841559 0.057960466
0.06308595 0.23813124 -0.13983819 0.0069742408 -0.42646247 0.10250985 0.21310653 0.22870977
0.2371458 -0.08224223 -0.08623339 -0.069556415 -0.05805491 -0.32138413 -0.14653783 -0.5477162
-0.006986252 -0.02835093 -0.24674997 -0.25910074 -0.27746522 -0.3128122 -0.22540672 0.048846368
-0.08950259 0.02752388 -0.11329666 -0.19342549 0.24996717 -0.18637045 0.19932482 0.24925555
-0.13132419 0.03738284 0.29650986 -0.11169362 -0.060717475 -0.19026573 0.10154702 -0.034363993
0.09749036 0.060832314 0.017247472 -0.03871384 -0.08079262 -0.025683688 -0.3084977 -0.027048294
0.031611934 0.03304981 -0.034499902 0.17242543 0.43615735 -0.027933318 0.16604748 -0.24754314
0.047767516 0.16728315 -0.5697408 -0.09813142 0.014817704 0.033856668 -0.22109884 -0.09899214
-0.28158838 -0.08806231 0.19751482 0.19342302 -0.10476248 0.16696864 -0.40336102 0.1215241

network_body._body_endoder.seq_layers.0.bias f4 [256]
00000000: 6557 b2bc 5b55 9b3c 0a33 4ebc 07c8 31bc
00000010: 4b29 1a3d 9cc8 e2bc 3cba 1ebd 7143 b13d
00000020: a186 32bc c5f0 a7bd 189c 84bd b4ad 1c3d
00000030: 9ee6 98bc cd3a 19bd 42be a7bb 16d7 313c
00000040: adf3 9fbc d5fb 2fbd ebd5 173d 40df 13bd
00000050: af09 28bc ecfd 853d 4cdd 513a 06dc 12bd
00000060: 47f9 94bd 3c62 6a3b 8279 733d e308 a5bc
00000070: 43d3 46bd de7f 9ab9 eb07 9f3d 816a a53d
00000080: 587d b23b 376c 2f3d d28d 743d 49d2 663d
00000090: b4d7 77bc 61bd 33bd 978e 37bb 3ade 85bc
000000a0: fe27 1abc 2904 143d 1b0e 823c a3b4 ff3c
000000b0: b74f f7bc a684 c2bb b1f6 dabb 1dfc ba3c
000000c0: 9ebd 6bbb 072d 073d 6be7 11bc bbdd af3b
000000d0: 29af 07bc 9257 7bbc 17e5 2bbd 9b53 e6bc
000000e0: e10f 84bc 2153 393d ece5 b5bd 9e2a 92bc
000000f0: a16a c03b 71ee 50bb 22a8 85bd 5e82 f1bc
00000100: 5d50 7a3d cc49 c83c bd6f b53c 1ffa 233b
00000110: ff52 103d 14f3 3e3d aeae 18bc 6fd2 493d
00000120: 48e4 cf3c 61ae 783b e1b2 04bd d0a1 1ebd
00000130: 84eb 213d e568 95bc d434 e4bc 2ca8 92bc
00000140: dcd7 003d 593b 1abd b793 4a3d acfb 44bc
00000150: 2037 2f3d c181 1bbc 862a 00bc fab8 a2bb
00000160: 05b8 1f3d afde 4c3d 24c3 8e3a 82f8 af39
00000170: a03a b73b 02e3 cdbb 69ac c4bc b037 1f3d
00000180: ca4d 953d a3b8 e33c ad3f 2c3d 5d07 90bd
00000190: d29a 713d 35e0 5cbc 92ad 383c 6d23 343d
000001a0: 59f9 983d 8cd9 7c3c e698 253d b565 a03c
000001b0: 3b4f fe3c 7f77 1a3b c8d8 26bb b7cf a1bd
000001c0: ed06 5b3d b158 853a 9afb c7bc 295d 513d
000001d0: 4bb6 5b3d 9566 1cbc 2a8a 813b 646a 103c
000001e0: 6fdb 4cbd 31f0 44bb b6c5 733c dd3f 3f3c
000001f0: 3ff2 3abb 546c ddbc 3bc4 0b3d 8d3a 4d3c
00000200: dd67 d5bc 5feb 713c 01b1 d8bc 1bf4 bcbb
00000210: 3590 9f3c 6410 0bbc 7db8 593c aeba 7a3b
00000220: f207 0dbb a3c9 443d bfd8 763c 4635 843d
00000230: fc1c d13c 5de9 d6bc b00b 74bc d763 d23c
00000240: 4803 303d 4323 95bc 3ab6 bcbc b869 64bc
00000250: 60f2 3dbd 3174 913d 5140 933d 7053 88bc
00000260: 6c5d 32bc 64c6 0abd 06bc 16bd 8885 7e3d
00000270: c73a 2c3d 23cf c83c b559 8f3c 5798 e73c
00000280: f2e8 d53c 24bd 6b3c 1092 b03c 9acc bbba
00000290: 3d4f d03c 1ba7 e3bc c14a 223c 1002 ec3c
000002a0: 8aad ab3c bc9e 263c 20d6 d4bc 1aca f5bc
000002b0: 6222 563d 52e5 95bc 652b 00bd d655 55bc
000002c0: 9acc 953c 4c67 c13c 3bc2 29b9 6ba8 84bc
000002d0: 89de e0bb c97c 693c b1ab a03b 34c8 483d
000002e0: 510b 91bc 9c90 1d3d c806 263c 57c0 bfbb
000002f0: dcc5 08bd 638b f13b ada0 1bbd 9ab1 803d
00000300: e9ab 8d3d 5e30 693b e4be 84bc 8bda fcba
00000310: 81e9 ccbb 2a36 5d3d 0054 c43c 328f f13b
00000320: a364 c4bc ac06 0abc f17e 6dbc 18bc 453d
00000330: 081d 57bc 0391 493c 89e3 aabb ec53 82bc
00000340: 9339 5cbc 12e4 d1bc 64e8 cc3c 71ba cfbc
00000350: 9028 95bc 14df 56bc 039e fb3c 9934 003d
00000360: 68a6 873c 989f abbc c9b8 0fbd 2d93 41bd
00000370: ac02 c8bc 7ba1 363d bd4e 2e3b 0e75 f6bc
00000380: 7afa de3c 874b f23d 876a 30bd fdd1 dd3c
00000390: 0068 363c 8336 d13c 38e9 3e3d 0498 913b
000003a0: 4381 693c 435e 243c 01e7 603c e2f2 c9bc
000003b0: 09bb 9dbc 525d 0d3d 047c bbbc c6bd 82bc
000003c0: 8ecc 10bb 4c2d 403c 377c c9bb b150 ce3c
000003d0: fae8 033d 68f4 44bc 5cc6 103d a62e 13bd
000003e0: c27e 453c 8231 b23c 27a7 0f3d c495 8abd
000003f0: c3c0 48bc 43bf fabb 1637 cdbb 2a72 09bc
-0.021770189 0.0189616 -0.012585411 -0.010850913 0.037637036 -0.027683549 -0.038751826 0.086554416
-0.010896356 -0.0820022 -0.06475085 0.038251594 -0.018664654 -0.037409592 -0.005119116 0.010854503
-0.019525373 -0.042964775 0.037069242 -0.03610158 -0.010256215 0.065425724 0.0008005693 -0.035854362
-0.072741084 0.0035764119 0.05944205 -0.02014584 -0.04854132 -0.00029468437 0.07765182 0.08076955
0.005447071 0.04282781 0.059705563 0.056352887 -0.015127111 -0.043881778 -0.0028008574 -0.016341317
-0.009408949 0.03613678 0.015875867 0.031214064 -0.030189378 -0.005936223 -0.00668224 0.022825295
-0.0035971175 0.033001926 -0.008905272 0.0053670085 -0.0082815075 -0.015340703 -0.041966524 -0.028116038
-0.016120853 0.045245294 -0.08881745 -0.017842587 0.005872086 -0.0031880403 -0.065262094 -0.02948111
0.061111797 0.024449252 0.022148008 0.002502091 0.0352354 0.046618536 -0.009318991 0.04927295
0.025377408 0.0037945735 -0.032397155 -0.038728535 0.039531246 -0.018238494 -0.027857222 -0.017902456
0.03145586 -0.037654255 0.049457278 -0.012022894 0.04277718 -0.009491385 -0.007822638 -0.0049658986
0.038993854 0.050017055 0.0010891897 0.00033563754 0.0055917054 -0.006283165 -0.024007993 0.038871467
0.07290228 0.027798003 0.042052913 -0.070326544 0.05898554 -0.0134811895 0.011271851 0.043979097
0.07469434 0.015432727 0.04042902 0.019579748 0.03104364 0.002356976 -0.0025458802 -0.079009466
0.0534734 0.0010173527 -0.024411965 0.051114235 0.053640645 -0.009545942 0.003953238 0.008814428
-0.050013956 -0.0030050392 0.014878681 0.011672941 -0.0028525738 -0.027029194 0.034122687 0.012526167
-0.026050502 0.0147655895 -0.02645159 -0.0057664043 0.019477943 -0.008487795 0.013288614 0.0038258242
-0.0021519628 0.04804386 0.015066325 0.064554736 0.025526516 -0.026234323 -0.014895365 0.025682373
0.04297188 -0.01820529 -0.023036111 -0.013941221 -0.046373725 0.0710224 0.07190002 -0.016641349
-0.010886531 -0.033880606 -0.036800407 0.062139064 0.042048242 0.024512833 0.01749883 0.028270883
0.026112054 0.014388356 0.021554023 -0.0014327944 0.025428409 -0.027789643 0.009905518 0.028809577
0.020956773 0.010169681 -0.025981009 -0.030003596 0.052278884 -0.018297825 -0.031291384 -0.013020953
0.018286038 0.023608826 -0.00016189452 -0.01619359 -0.0068624658 0.0142509425 0.0049032797 0.049019054
-0.017705591 0.03846799 0.010133453 -0.005851786 -0.03339182 0.0073713525 -0.03799503 0.06283875
0.06917555 0.0035581808 -0.016204305 -0.0019291205 -0.006253422 0.054006733 0.023965836 0.0073718065
-0.023973769 -0.008424442 -0.014495597 0.048275083 -0.01312948 0.01230264 -0.0052151126 -0.015909158
-0.013441461 -0.025621448 0.025013156 -0.025357457 -0.018207818 -0.013114709 0.030714994 0.03130016
0.01655884 -0.020950124 -0.035088334 -0.0472595 -0.024415337 0.044587594 0.0026597225 -0.030085113
0.027219046 0.11830812 -0.043070342 0.02707767 0.011133194 0.025538689 0.046609133 0.0044431705
0.01425201 0.010032239 0.013726951 -0.024651948 -0.019254224 0.034512825 -0.022886284 -0.015959632
-0.002209458 0.01172955 -0.0061488408 0.025184961 0.032204606 -0.012021162 0.03534542 -0.03593316
0.012054147 0.021752123 0.03507152 -0.06766847 -0.012252989 -0.0076521947 -0.0062626703 -0.008389035

network_body._body_endoder.seq_layers.2.weight f4 [256, 256]
00000000: f4e4 e93d b3ff a53d e780 9e3d d34f ea3c
00000010: b700 d93d 4c63 a83c 8816 50bd 1c7f 92bd
00000020: 9a14 ea3c 69c4 d93c 50cc 813d 369c fe3b
00000030: 0c03 e03c 3a83 233c 36ff 8d3c 4470 6a3d
00000040: dea5 b93d 151d 5fbd 3d6e bebd 9eaa 643d
00000050: d539 213d 60f0 1d3d cec1 b2bd 3ffb d23d
00000060: e264 dfbd 5282 a1bd fedd 7f3d 72a2 66be
00000070: 8ce0 853d 1a35 4e3d 8533 13be 0186 7abc
00000080: eafb c63c 3c18 ac39 ff0b 94ba a7e9 673d
00000090: d88a 83bd 683e efbc 5953 0abe 907d 37bd
000000a0: bd02 db3d fc0a 113d 2c8f 8abc 3a66 99bd
000000b0: dcf0 58bd a0b9 5ebd 2e24 1ebc 29bf 083e
000000c0: f55d 063e 134c b2bd 24d2 ccbd 3c2d c3bd
000000d0: facb adbc 908e 173e d56e a9bb 821b e23b
000000e0: 3f55 b9bd d18c 8c3d 0226 3f3d 3fa2 8c3d
000000f0: f242 a6bc c375 513c bfaf 043e 4979 84bc
00000100: 479c 523c 7e68 6b3d d294 503d b241 33bd
00000110: 8d60 cf3d 6de1 513c d2e7 69be dfb2 3ebd
00000120: f456 823c b83c 443d f46d f03b abc9 17bc
00000130: f3f6 78bd bf5c 08bd 5292 86bd 257b 58bd
00000140: dbee c53a 15b2 c6bd da21 3cbd 7c6e d63d
00000150: 1375 ae3c dbdf 823d 0d87 13bc 9d27 5c3d
00000160: a539 90bd a56f 7abd f697 89bd f7c9 9cbd
00000170: 7077 f1bc e5d6 873c a7d5 e3bb c937 aabd
00000180: 7b99 a13a ec89 b23c cee6 8a39 94bb 463d
00000190: 2670 ec3b b5ff 063c e107 6d3d b4f5 123e
000001a0: a3fa 37bd 472f 0f3b 89a9 b73d 7dd6 b73c
000001b0: aeea 0f3c 8a25 41bd a14d 19bd 20e0 693c
000001c0: 9ec7 a1bd a28e 2bbd 8931 a93c 7373 763d
000001d0: 511f a93d b9e1 d73c 9f33 dc3d 98ed 25bd
000001e0: 4e2f c83c 2bb4 4dbd 78ab 74bb 0556 be3c
000001f0: 205b 333d 1a09 9b3d fd43 1dbd f0fd 043c
00000200: 0ff5 cebc 6c7f 9cba c907 083d 7574 55bd
00000210: 6eb4 82bd 0210 053c 3fb7 cdbc b784 00be
00000220: 2b5c e7bc 643d c5bd 251a 3fbc 579a 7bbd
00000230: 4105 bc3c 8808 023c 2694 3a3d 9bc3 a83c
00000240: 265a 9abd 5b77 9e3d 5e2e c53d d11e 3f3b
00000250: 7d40 36bd 2e8c a13d b4ba ab3d 3a04 61bd
00000260: 949c 6bbd 4f03 87bd 9e10 b9bc d0ec 48bd
00000270: c0b7 16bd 2007 773d 97dd 11be 48b1 5e3d
00000280: 5444 d8bc ea1c f6bd 794c 60bd 4752 4cbd
00000290: 1804 9bbd c9a6 8cbc 09b7 7ebb 95e8 823c
000002a0: 4ca7 793c b257 1d3d 12c3 35bd d171 d53d
000002b0: 5c17 1ebd 45db 8fbc b054 0abd 660e a73b
000002c0: 4851 223d 5ab6 b1bd 6a05 0dbd cac8 dc3d
000002d0: ae58 9e3d 22f2 b33d e750 db3c a8ca 4bbc
000002e0: a8c8 323d 978f cd3c 44a8 18bd 255b 943b
000002f0: ca5a bcbc 8209 313d 11d7 603d 26d1 7d3d
00000300: d6ab e93c 9153 9c3d 7753 bc3b 7f93 683d
00000310: 11a6 273b 8263 b0bc dd8f 553d 8ae8 103d
00000320: d53d 07bc 3342 bebb 1e72 e5bd a659 24bd
00000330: 5433 d6bd 1bd1 d03c 95b9 533d b1b0 2e3d
00000340: 6e33 ab3d 760f 3abd aede acbd 37e4 a5bb
00000350: 2521 a23c 0739 3bbb 7625 d7bc 90e3 fa3c
00000360: e1e1 64bd f82b 813d f8fc 1fbd 1352 33bd
00000370: f86c e2ba f903 65bd 9c13 913c fd0e ce3d
00000380: 06b0 cbbc 2ea9 4e3d 5bde ab3d 86b1 353d
00000390: 4896 d13c 3a1a ff3b 5d39 fabb ed43 27bc
000003a0: 0922 1dbd a74e b1bd 5eb1 7c3c ea87 733d
000003b0: 79d6 ca3d 6b4a 6ebc 1c90 2dbd 17fb 103d
000003c0: 492c 0ebe 7d85 1bbd 637d 1f3d 9150 dc3c
000003d0: ffc1 cb3d 8019 e4ba 1a57 d13d 30da a83b
000003e0: cb8e 0dbd a885 013d 153f 4fbc c5b3 b3bd
000003f0: 196c 27bd 1135 0d3e 7420 833d 9490 023d
0.114206225 0.081054114 0.0773943 0.028602516 0.105958395 0.020555161 -0.050802737 -0.071531504
0.028574277 0.026582913 0.06337798 0.0077700866 0.027345203 0.009980017 0.017333608 0.05723597
0.0906484 -0.054471094 -0.0929837 0.055826776 0.039361794 0.038559318 -0.087283716 0.10301828
-0.10907914 -0.07886185 0.062467568 -0.22522905 0.065369695 0.05034361 -0.14375122 -0.015290738
0.024290044 0.00032824453 -0.0011295079 0.056619313 -0.06422967 -0.029204562 -0.13508357 -0.04479748
0.10693882 0.035410866 -0.016913973 -0.07490201 -0.052964076 -0.054376245 -0.009652181 0.13354172
0.1312178 -0.08705916 -0.10001019 -0.09530112 -0.021215428 0.14800477 -0.005170683 0.006900252
-0.090494625 0.06862796 0.046667106 0.068668835 -0.020295594 0.012784424 0.12957667 -0.016171115
0.012854642 0.0574727 0.050923176 -0.043763824 0.101258375 0.012810093 -0.22842339 -0.046557304
0.015910603 0.04790947 0.007337326 -0.00926439 -0.060782384 -0.033291575 -0.06570877 -0.052851815
0.0015101092 -0.09701935 -0.04593072 0.10470292 0.02129606 0.06390353 -0.009004367 0.053748716
-0.07042245 -0.06114163 -0.067184374 -0.07655709 -0.029475898 0.016581962 -0.0069529596 -0.083114214
0.0012329066 0.021794282 0.00026493374 0.048518732 0.0072155176 0.008239676 0.057868842 0.14351541
-0.04491676 0.0021848248 0.08967883 0.022441143 0.008783979 -0.04715494 -0.03742755 0.014274627
-0.07899402 -0.041884072 0.020653503 0.060168695 0.08257926 0.02635275 0.107520334 -0.04050979
0.02443662 -0.05022065 -0.0037333649 0.023234377 0.043788075 0.07570095 -0.038394917 0.008117184
-0.025263337 -0.001193983 0.03321055 -0.052113015 -0.063820705 0.008121492 -0.025111793 -0.12550627
-0.028242191 -0.0963085 -0.011663948 -0.061426487 0.022951724 0.007936604 0.04555144 0.020601084
-0.07536726 0.07737609 0.096279845 0.0029162655 -0.044495095 0.07888065 0.0838522 -0.05493567
-0.05752237 -0.06592428 -0.022590932 -0.049053967 -0.03679633 0.06030953 -0.14244686 0.054368287
-0.026399769 -0.12017234 -0.05476043 -0.049883153 -0.0756914 -0.017169373 -0.0038866422 0.015980044
0.015237641 0.03841371 -0.044375487 0.104220994 -0.038596496 -0.01756061 -0.03377217 0.005098152
0.039628297 -0.08677359 -0.03442899 0.10780485 0.07731758 0.087864175 0.026771976 -0.012438454
0.043648392 0.025092883 -0.037269846 0.004527467 -0.02299251 0.043221958 0.054892603 0.061967038
0.02852432 0.076331265 0.0057472545 0.05678129 0.002558116 -0.021531824 0.05213915 0.035378017
-0.008254488 -0.0058062314 -0.11203407 -0.040124558 -0.10459009 0.025490334 0.051690657 0.042648975
0.08359419 -0.0454249 -0.0844091 -0.0050626057 0.019791195 -0.0028567926 -0.02626298 0.030626088
-0.055879477 0.063072145 -0.03905961 -0.043779444 -0.0017274907 -0.05591199 0.017709546 0.100614525
-0.024864208 0.05045431 0.0839202 0.044358753 0.025584355 0.007785109 -0.007636233 -0.010209066
-0.038362537 -0.0865758 0.015423147 0.05945579 0.09904189 -0.01454411 -0.04237376 0.035395708
-0.13884081 -0.0379691 0.038937937 0.026893886 0.09949111 -0.0017402619 0.102216914 0.005152963
-0.034560006 0.031621605 -0.012649317 -0.08774523 -0.040874574 0.13789774 0.06402674 0.03187616

network_body._body_endoder.seq_layers.2.bias f4 [256]
00000000: 8094 603b d073 8f3c 9747 5b3c 546b 083c
00000010: e0b0 94bb 159f 1f3c db39 d63b 8c9c 14bc
00000020: 8b43 89bb c6a3 15bc 4692 903c 46b0 cebb
00000030: 9d5c c83b 2198 233c 04b2 70bc f692 62bc
00000040: 2e88 883b 218c 963c 886a f7bb 2388 323c
00000050: 8508 e63b a5a3 743b 451f 8abc 95d6 ddba
00000060: 2dd4 36bb 00ee 28bc 2b23 103c c547 2ebc
00000070: 0738 ef3c f9e7 fe3c 2361 103a 5e03 c0bc
00000080: 9147 053b 36f6 1fbb 7812 a3bb 26bc 26bc
00000090: b776 dcba 8ecd bcba 597d a23c dd40 393b
000000a0: 9d5a 3a3b 235e 553c 0597 903c ce19 483b
000000b0: 925d 7bbc 8bda d1bc c0e4 ee3b 5e8d 123b
000000c0: 565b 67bc cf63 01b9 a533 5abc 3c68 f43b
000000d0: a8ca b23a cf30 a2bc 1c45 e0bb 68de 93bc
000000e0: 8e5c 05bc 3e89 d1bc 72ac 29bc 9543 8ebc
000000f0: 1708 83bb b768 eb3c fc27 ff3b 7699 15ba
00000100: 3839 b7bb 61a5 33bc 6176 933c 5651 83bc
00000110: d920 663c 95a3 52bc ed03 53bb e218 89bc
00000120: 48e0 943c d6cb 38bc 87e1 a0ba 8a06 23bc
00000130: 7f0a 573c 8d44 793c 328c 6f3c 2909 883c
00000140: 2590 edbb 985f 80bc 7c9a 563c 0690 0b3c
00000150: 38c2 0db9 b2af afbb 186c 03bc 381a 96bc
00000160: 3b28 44b9 7873 e2bb 3760 80bc b3f8 ddbc
00000170: d259 41bb 78c7 f7b9 d845 8c3b 144b e73c
00000180: 5de1 d03b 7b7f f1bc 538a c23c 5679 963b
00000190: fbfc 673b 4bb1 25bc 9958 8e3c 10a6 feba
000001a0: 26ad 48bc 5d34 e53b 99f2 343c 157e b13b
000001b0: ace5 46bc 6bd1 c3bc 115e cf3c b249 593a
000001c0: d3e3 06bc 838a 99bc b4bd 083c c372 c4bc
000001d0: 5a42 053c 199a a2bb 94be bfbb baf7 103c
000001e0: fcd7 e0bb a217 76bc 1512 2ebc f49b edbc
000001f0: 10e8 ce3b c684 acbc b1cb 63bc 6de4 523b
00000200: bb7f 59bc 7d32 71bc 8c82 44bc 5ac6 983b
00000210: 5807 83bb b21f babb 33d2 af3b fada aeba
00000220: e1d3 b73c dfe3 1dbc fa95 733c 31c8 8d3c
00000230: 675f 1f3b 9e47 4a3c ed1b 813c a227 0abd
00000240: 95ce 263c 1b98 90bc 7873 4ebc 63d4 433c
00000250: f48d 363c 5e73 983a 94b7 0b3c 309d bcbb
00000260: 0e9d cb3b 7b55 43bc ae3a d8bc 9a7d 97bc
00000270: effc 933b 5c9b c4bb 7e16 3e3c c1cc f13c
00000280: dac4 e2bb f605 ee3a 9be9 8dbc 7b34 4a3d
00000290: ace5 b83c bab2 8d3a 7bfa 00bb c5fd 84bb
000002a0: 92ed 26bc aa56 cbbc 3bb4 c0ba c204 dfbb
000002b0: 9067 8a3c 3d8d b3bc ba39 6abb 05c3 fcbb
000002c0: 2917 cfba bedf 493b d742 6dbb 8415 9a3c
000002d0: 7282 c0bb e6b0 903c b214 34bb 5818 d1bc
000002e0: 2344 bb3c 9a3f 90bb f4f5 5ebc 4782 be3c
000002f0: 3f84 b1bc 9d86 ca3b 5b76 3abc cdb4 113b
00000300: 196f 043c fde2 2b3c 2d92 a23c 2327 22bc
00000310: be5d ab3c b9b8 55bb 9901 baba ab81 8bbc
00000320: 47a9 1cbc 374c 69bc b8c6 633b 4e85 53bc
00000330: b748 363c d29c b53c a14b 98bc d034 89bc
00000340: 2ff6 5a3b 3414 3cbc adad ccbc a206 ed3c
00000350: 5b78 9ebc f969 c23b ee58 aa3b d0f5 853c
00000360: 768d 983c af0f 9d3a 0825 53bb 3524 723c
00000370: d21e 7f3b 2e7b 913c 0a33 e63c c82d 33bc
00000380: bc90 833a 8718 1b3c b442 84ba 997a 9a3c
00000390: 4c17 423a 2540 f33c 1acd 3cbc d7b6 2f3b
000003a0: 6225 ba3b fca5 abb9 ce53 84bc a129 8f3c
000003b0: b373 9dbb 94a0 d1bb 145f 3d3c 475a 8ebc
000003c0: 7eaa 86bb 340b dfba 5ebb 493c d2db 183a
000003d0: 9146 983b 4f64 2fbc 9c0c 29bc be60 873c
000003e0: f112 00bc a4a8 d5bb 09aa 9e3b c658 0d3c
000003f0: ef24 c23b dfa6 043d 75af 193d bc2b a1bc
0.00342682 0.017511278 0.013383768 0.00832637 -0.0045376867 0.009742518 0.0065376586 -0.009070527
-0.00418896 -0.009133285 0.017647874 -0.0063076345 0.006114556 0.009985001 -0.01469088 -0.0138289835
0.0041666245 0.018377366 -0.0075505413 0.010896715 0.0070200586 0.0037328985 -0.016860614 -0.0016924912
-0.0027897463 -0.01031065 0.008797447 -0.010637228 0.02920152 0.031116473 0.00055076386 -0.023439106
0.0020336846 -0.0024408228 -0.004976567 -0.010176694 -0.0016820048 -0.0014404522 0.019835161 0.0028267421
0.0028435357 0.013022932 0.017650137 0.003053296 -0.015342133 -0.025616905 0.0072904527 0.0022362093
-0.014120897 -0.0001233958 -0.013317977 0.007458715 0.0013640719 -0.019798664 -0.006844176 -0.018050388
-0.008139743 -0.025578137 -0.010356056 -0.01736621 -0.003998767 0.028736455 0.007786749 -0.00057067664
-0.005591538 -0.010964722 0.018000783 -0.016029995 0.014045917 -0.012856384 -0.0032198385 -0.016735498
0.018173352 -0.011279067 -0.0012274244 -0.0099502895 0.013125061 0.015214098 0.0146208275 0.01660593
-0.0072498494 -0.015670583 0.013098355 0.008518225 -0.0001351916 -0.0053615207 -0.008021377 -0.018323049
-0.00018707004 -0.0069107376 -0.015670879 -0.027096128 -0.0029503 -0.00047260127 0.004280787 0.028234042
0.0063745216 -0.029479733 0.023747599 0.004592101 0.003539859 -0.010113071 0.017376231 -0.0019428153
-0.012248313 0.0069947676 0.011044168 0.0054166415 -0.012139719 -0.02390357 0.025313409 0.00082888745
-0.008233028 -0.018742805 0.00834601 -0.023980504 0.008133495 -0.0049622175 -0.005851576 0.008848125
-0.006861685 -0.015020283 -0.010624428 -0.029005028 0.006314285 -0.021059405 -0.013903544 0.003217961
-0.013275082 -0.01472151 -0.011994015 0.004662317 -0.003998678 -0.005680048 0.005365634 -0.0013340407
0.022439899 -0.009636848 0.0148673 0.017307373 0.002431834 0.012346176 0.015760386 -0.033729203
0.010181089 -0.017650655 -0.012600772 0.011952492 0.011142243 0.0011631062 0.008527655 -0.005756043
0.0062137907 -0.011922236 -0.026395168 -0.018492509 0.004516236 -0.0059999656 0.011602042 0.02951658
-0.006920439 0.0018159735 -0.017323306 0.049366456 0.022570454 0.0010810711 -0.0019680548 -0.004058572
-0.010188477 -0.024821598 -0.001470215 -0.006805987 0.016895086 -0.021917934 -0.0035739974 -0.007713678
-0.0015799749 0.0030803527 -0.003620317 0.018809088 -0.0058749253 0.017662477 -0.0027478156 -0.025524303
0.022859639 -0.004402113 -0.0136084445 0.02325548 -0.021669505 0.006180598 -0.011380757 0.002223301
0.008083128 0.01049113 0.019845093 -0.009897026 0.020918723 -0.0032611324 -0.001419115 -0.017029604
-0.009561843 -0.014239362 0.0034755897 -0.0129102 0.011125735 0.022169504 -0.01859075 -0.016748816
0.0033410897 -0.011479426 -0.024985159 0.028933827 -0.0193445 0.005933043 0.0051985895 0.016352564
0.018622141 0.0011982823 -0.0032218117 0.01477914 0.0038928282 0.017758932 0.02810051 -0.010936208
0.0010037641 0.009466297 -0.001009068 0.018857287 0.0007403984 0.029693672 -0.011523509 0.0026811862
0.005680726 -0.0003273933 -0.016153242 0.017475905 -0.004805052 -0.006397316 0.011558313 -0.017377032
-0.0041096797 -0.0017016889 0.012312738 0.00058310956 0.004647084 -0.010705068 -0.010317948 0.016525622
-0.007817016 -0.0065203477 0.004842047 0.008627122 0.005924813 0.032385703 0.037520844 -0.019674174

action_model._discrete_distribution.branches.0.weight f4 [4, 256]
00000000: 428d 8b3a 82d9 fe39 68f0 6d3c 4a89 f43b
00000010: ffcf 6cbc 77d8 063d a58e 5a3c 3ffc 953c
00000020: 2a1b c83b b74c 08bb 163f b33b f7a0 8a3b
00000030: 158e 07bc 25aa 47ba ccce b13c 1bfb a338
00000040: af8c 06bd b0b3 d93c 0af4 893b 334a 07bd
00000050: 56df 4ebb f3d8 cabc 45d7 403c 4fa0 7a3c
00000060: 1743 dcbc 8bd0 a83c 42f1 b63b 5f3a 0f3d
00000070: ee3b acbc 1d53 b0bc 1c74 58bb ccd0 9b3c
00000080: 739f 763b 6a23 45bc a3eb 183c 3c31 f43b
00000090: b6c6 4e3b 64aa 333c ad86 e23c d98e 063c
000000a0: c7dc 98b9 9634 c5ba 0718 803c 3193 653c
000000b0: e0da 5b3c 1d53 b1bb b8d1 d83b 149c ebbc
000000c0: 8911 953c df39 24bc 644e 033b 264d 8b3c
000000d0: ad37 2a3c e9c0 9e3b fde3 3238 ed7d f23b
000000e0: 734a 87bc df1c 4a3c b884 db3b fcb1 d73b
000000f0: 0b93 513c 5279 b2bc 3766 88bb b18b 9cbc
00000100: 8376 803c 8cab b13c 6b38 253d 0d2c ca3a
00000110: 3bfb 6cbc c7fa 963c 939e d43b 2f63 ddbb
00000120: ee9e f23a 60fb 91bb f078 88bc b229 f83b
00000130: dfb5 19ba 27f1 82bc b189 8f3b 00ef 22ba
00000140: 2787 da3b ec76 a8bb a8b7 123c 425c 5fbc
00000150: da4c 973c 0522 aebc 27dd 803b 3eec 04bc
00000160: 9a40 12ba 89d1 52bc 1bd0 3bbc 511b 86bb
00000170: 2207 753c 415c dbbb c074 84bc e975 683c
00000180: ddce b03c cb90 e1bb c49e b8bb fbde b0bb
00000190: b8d8 b0bb 8556 63bc 0ffd 1fbb 0f6a 3e3c
000001a0: d084 febb 67e6 c0bc a1ba 9d3b adfb 2cbc
000001b0: 431a 443c 3242 7dbc d98b ec3b ff8c 1f3c
000001c0: 7cd8 ec3c 7432 0d3a d2b2 f3bb 7461 683c
000001d0: bc7f 293c 3d00 ca3c 46eb 043d ecb0 5fba
000001e0: cd04 43bc 844e 243c 1a41 693c 7bd9 223b
000001f0: 4dad 273c c075 8c3a 1af2 083c 6f90 813c
00000200: 111d d63b 0e48 eb3c c778 093d 2dc4 d8bc
00000210: 393e abbc c0d9 2a3b 6d37 9f3c 357d 9fbb
00000220: 1b75 7b3a 5484 c6b9 edd6 013c aebd 7e3c
00000230: 2093 84bc eeed 243c d9c3 c639 3c9a 16bc
00000240: dbae 96bb 45d5 edba 2495 133c 627d 5bba
00000250: 4bac 10bc 63a4 c73b b551 b43c aadd 8ebc
00000260: 4fcf 283c 2316 69bb 5bd2 a83c 7b0e 3fbb
00000270: 5968 efbb 386c 30bc b290 89bc 8465 173c
00000280: a467 923c b531 86bc 50cd 0fbb e2ba 08bc
00000290: dcc5 413c 3061 abbc 1406 493c 725a 71bc
000002a0: 92ef 933b 9fe3 533c 1abc 02bc f971 9f3b
000002b0: dc02 d83c 3809 f43b 90e9 f93b 4098 67bc
000002c0: 98c3 d0bc f457 6a3c 5658 92bc 60c5 dc3a
000002d0: bf71 05bc 671f e53b fbd7 a1bb 0c04 64bc
000002e0: f568 0fbd 02a2 a13c 9547 a13b 175f 973a
000002f0: 3588 05bb 752a 0dba d8b5 32bc 17ec c63c
00000300: 4e85 b43c d361 01bd ff27 75bc e45c f83b
00000310: c683 5539 4433 9cbb 1aca c4bc edda 813c
00000320: 8ad7 113c 7d71 23bc a3dd ecbc a0c8 1d3c
00000330: 471d 753c 735b 9b3b 6cfb cf3b 5e4f 853c
00000340: c7ca 7d3b aa23 263c 5e3c b4bb d6d2 9cbc
00000350: d816 a13c dc95 4cbb d411 37bc a5e0 793b
00000360: 3f25 c5bb 3a14 c03c 1f0b a4bc 3b80 a8ba
00000370: 96b7 c1bb 001f e03b dda5 f3b9 d193 9cbb
00000380: 4209 7c3c 7b52 ee3b 6e96 9439 905f ecbb
00000390: 2ba1 34bc 897c 353a 931c 1e3c fd18 a53b
000003a0: 1ed9 afbc 3351 8ebb 4499 a43b 2a2b 4c38
000003b0: 621f 853c f699 d7bc 79f8 993c e69b b73c
000003c0: ed25 85bc cd9f 153c 0536 67bb 3026 1c3c
000003d0: 939a f9ba 5bf9 233b 709e 0dbb 7866 ff3b
000003e0: 3aa9 a23c c05a f23b ad15 3bbc 5f6e bfbc
000003f0: ab23 acbc 09fe 8cbc 0541 383c 8945 c2bc
0.0010646957 0.0004860871 0.014522649 0.007462655 -0.014453887 0.03292128 0.013339673 0.018308757
0.006106754 -0.0020797679 0.005470167 0.0042306143 -0.008273621 -0.0007616601 0.021705054 7.819218e-05
-0.03284901 0.02657494 0.00421 -0.033029746 -0.0031566224 -0.024761653 0.011770074 0.01529701
-0.02688746 0.020607254 0.0055829594 0.034967776 -0.02102467 -0.021524007 -0.003302819 0.01902046
0.003763166 -0.012032369 0.009333524 0.0074521583 0.0031551546 0.010965917 0.027652109 0.0082127685
-0.0002915619 -0.0015045579 0.015636457 0.014012144 0.013418883 -0.005411519 0.0066167973 -0.028760947
0.018196838 -0.010023563 0.0020035738 0.01700456 0.010389251 0.004844774 4.2650838e-05 0.0074002654
-0.016514992 0.012335985 0.006699171 0.0065824967 0.012791405 -0.021786366 -0.0041625756 -0.019109579
0.01568151 0.021688245 0.040337007 0.0015424505 -0.014464195 0.018430127 0.00648863 -0.0067562084
0.00185105 -0.004455015 -0.01665923 0.00757333 -0.0005863588 -0.015984131 0.0043804278 -0.00062154233
0.0066689434 -0.0051411297 0.00895492 -0.013632836 0.018469263 -0.021256456 0.0039326134 -0.008112965
-0.00055790844 -0.01286734 -0.01146319 -0.004092612 0.014955314 -0.006694347 -0.016168952 0.014188268
0.021583015 -0.0068837157 -0.0056341607 -0.005397675 -0.0053969286 -0.013875608 -0.002441231 0.011621966
-0.0077672973 -0.023547364 0.0048135077 -0.010558051 0.011969152 -0.015457677 0.0072188196 0.009738206
0.028911822 0.0005386241 -0.0074370885 0.014183391 0.010345396 0.024658317 0.032450937 -0.00085331383
-0.011903 0.010028485 0.014236713 0.0024848867 0.010234189 0.0010716245 0.008358503 0.015815942
0.0065342267 0.028720882 0.033562448 -0.026460731 -0.020903694 0.002606973 0.019435609 -0.0048672208
0.000959234 -0.00037864095 0.007924777 0.015548153 -0.016183436 0.0100664925 0.0003791142 -0.009192046
-0.004598481 -0.0018145224 0.009007726 -0.00083728705 -0.00883014 0.0060925945 0.022011617 -0.017439682
0.0103033325 -0.0035566173 0.020608118 -0.0029152918 -0.0073061404 -0.010767989 -0.016792629 0.009240512
0.017871685 -0.016381124 -0.0021942444 -0.008345338 0.0118269585 -0.020920366 0.012269516 -0.0147310365
0.004514643 0.012932687 -0.007979417 0.0048658815 0.026368551 0.007447388 0.00762672 -0.01413542
-0.025483891 0.014303196 -0.017864387 0.001684349 -0.008144795 0.006992269 -0.004939077 -0.0139169805
-0.035012204 0.019730572 0.0049218633 0.0011548725 -0.0020375375 -0.000538505 -0.010907613 0.024282498
0.02203622 -0.031587433 -0.014963149 0.007579433 0.00020362352 -0.0047668535 -0.02402215 0.015851462
0.008901486 -0.009975788 -0.028914278 0.009630352 0.014960594 0.004741126 0.0063471105 0.016273197
0.00387256 0.010140339 -0.0055003604 -0.019143503 0.019664213 -0.0031217253 -0.011173684 0.0038128283
-0.006016403 0.023447145 -0.020024834 -0.0012855598 -0.0059117777 0.006839633 -0.0004647215 -0.0047783633
0.015383067 0.007273016 0.0002834084 -0.0072135404 -0.011024754 0.0006923159 0.009650367 0.005038379
-0.021465834 -0.004343176 0.0050231535 4.867759e-05 0.016250316 -0.026318531 0.018795239 0.022413205
-0.016253436 0.009132338 -0.003528 0.009530589 -0.0019043259 0.0025020454 -0.0021609329 0.0077941976
0.019856084 0.007396072 -0.011418742 -0.023368059 -0.021013102 -0.017210977 0.011245971 -0.023714798

action_model._discrete_distribution.branches.0.bias f4 [4]
00000000: c2e1 ee3b fafd d83c ca10 0839 2141 05bd
0.007290096 0.026488293 0.00012976225 -0.032532815

action_model._discrete_distribution.branches.1.weight f4 [15, 256]
00000000: 64d8 a4ba 5d47 06bd 18a2 4038 a5c7 0c3c
00000010: a333 5c3c ef7a 073c 1a3f 943b fe56 943c
00000020: acaf 9b3c 03f4 8e3a dd7d 103a 9bd4 e8bc
00000030: 04bc 883c e5d7 dabc 4f4f 8bbb 2ce8 0a3d
00000040: f25e 68bd 6147 0a3d 4694 e13c b384 55bc
00000050: 4008 c53c abc1 aabc 27bf b43b 6f42 653b
00000060: 6b51 1cbc 1103 81bb 55fd 123c 9e96 1c3d
00000070: 22c2 de3c 5b92 773b f3bf 9dbb ca9c 4b3b
00000080: 9821 dd3b 113d 0e3d 710a 963c 48ef a83b
00000090: 49b3 ca3c 1e6b 69bc 185f 9c3c 99c5 b7bb
000000a0: 2115 7fbb e0e1 2e3c b2e7 13bc 5fa9 8f3b
000000b0: 354a 2cba eba6 123d bcdf 073a 36dd ec3a
000000c0: 0fac abbc e6c9 9ebb 89b9 a03c 5c2d 2e3c
000000d0: 3d01 19bc ccf3 e13c f499 2f3b 341d 003d
000000e0: 7548 62bc 184f 853b 85df 273d 1043 2e3c
000000f0: 8d66 163d e610 88bc 4ba2 18bd 4e6c 15bd
00000100: a51e aa3c 4f59 583c 40e6 9e3c 79de 293c
00000110: 1f31 d33b 3740 173d 167c 193b 1945 15bc
00000120: 962b 0a3b 355a 78bc 2d8d 1fbd c23d b63c
00000130: 72e7 4d3c 4d49 dcbc fe08 0fbd 93b7 8d3c
00000140: 496e b33b 3906 663c 4559 44bb 97bb 623c
00000150: 9d92 b43c 5b75 063c c21e dc3c 5fb0 8bbc
00000160: 2049 98bc 0071 a4bc 0a9f fa3b 0e75 dcbc
00000170: 2258 c83b 645a 97bb 4cf4 e13c c327 afbb
00000180: bbba 9d3b df95 47bc d5b0 c9ba 3692 c13b
00000190: e9f8 083d af66 d63c 29a3 46bc 7c56 073c
000001a0: 288f 223c b9d4 b03b 9e18 64bc 993a 8b3c
000001b0: 605f 5c3c 3643 30bc 94ba 113c 497f 4dbc
000001c0: 3e29 c03b 19dd f3bc d6fb 013c 9ca0 3f3b
000001d0: 5a3c 49bd 1e2d 263c fdb9 6e3c 6d12 5fbc
000001e0: e82a 20bd f9e3 d93c b5f2 9a3c 9947 713c
000001f0: d137 c13b 86a2 123a ee79 42bc d2a7 b53c
00000200: dc01 183d 2c1b 2bbb 6b0b 9dbc bd6e 15bc
00000210: 5457 993a 3e53 9fbc 2cef bf3c af47 483c
00000220: 8247 1d3b 04f3 84bc a505 693c 46b2 e1bb
00000230: 78e5 5c3c 27c4 2cbc 828f 693c 5f02 823c
00000240: 40fd 893c 51d3 f23b 5d56 f2b9 d313 dc3c
00000250: c69d 0dbd 7dbe 263c 3dcf 283c 2800 ffbc
00000260: 65b2 3f3c f05a debc 6f71 51bc 4663 b13a
00000270: 6d41 7abc 2fdc b1bb cfd4 ec37 23c8 453c
00000280: 9b35 fcba c937 9fbc ffe1 e7bc d0cc 003c
00000290: 1999 453c 79aa 87bc b511 4d3c 3fc8 f1bc
000002a0: b3f5 5a3c 0efb 423c b25e 87bc 4a23 713b
000002b0: 7631 de3c 4bee 23bc 3ade 3e3c c54a 05bb
000002c0: b90d 7e3b 6c1d 073c 40b2 97bb 9d12 e5bc
000002d0: 162a f2bb 545a 563c e455 a93b 0093 12bc
000002e0: 6618 92bb 7902 bb3c 7f3c 35bc ba7f 9a3b
000002f0: 3deb acbc 1261 f33b a9ff 803c 5252 043d
00000300: 4bad 473c 76b2 6bbc 9394 253c ee31 173c
00000310: 8654 4b3b 57bf f93b 4455 c1bc e334 be3c
00000320: 5406 bc3c d76a 7d3c 83ff 96bc 5754 863b
00000330: d2bf 973b e49d 183c 698d f8bb c152 903c
00000340: 52b5 81bc fd7a afb9 98e5 66ba 619f 403c
00000350: 1b1d 203b d6e3 b8bb a165 293c b6e1 97ba
00000360: 7463 3738 6efa 963c 0ba6 d2ba ce16 e43b
00000370: 5d2d 50bc e37b 89bc 3f9a 5fbc 12cb 833b
00000380: b892 48bb b516 273a 8f3b a6bc 158a ddba
00000390: cd8d 2bbc 5c16 fdba 51ea 6abc fa06 e43c
000003a0: 1bf3 5bbd afc9 cd3c f642 31bc 4f25 e3bb
000003b0: c490 3b3b 0b8f 063c 4213 78bb 9894 5e3c
000003c0: c525 ed3a 9f91 8b3c b484 843a 7455 1a3b
000003d0: 9cbe c9bc 3901 a4bb efdc bc3c 7078 7fbc
000003e0: 8097 303c 0529 b03c fb20 a43b 2b4b e8bc
000003f0: 30e8 053c 89a0 83bc cfc0 6ebc e076 03bd
-0.0012576696 -0.0327829 4.592733e-05 0.008592521 0.0134400455 0.008269056 0.004524124 0.018107887
0.019004665 0.0010906461 0.0005511919 -0.02842169 0.016691215 -0.026714275 -0.0042513977 0.033912823
-0.056731172 0.03375948 0.027536523 -0.013032126 0.024051785 -0.020844301 0.005515951 0.0034982224
-0.009540896 -0.003937133 0.008971532 0.038229577 0.02719218 0.0037776444 -0.004814142 0.0031068795
0.0067483895 0.034726206 0.018315526 0.0051554777 0.024743693 -0.01424673 0.019088313 -0.0056082723
-0.0038922506 0.01067397 -0.009027408 0.0043842043 -0.0006572337 0.035803717 0.00051831803 0.0018071297
-0.020956067 -0.0048458455 0.01961972 0.010630932 -0.009338674 0.027582072 0.0026794644 0.03127785
-0.01381122 0.0040682666 0.04098465 0.010636106 0.036718894 -0.01660962 -0.03726415 -0.03648024
0.020766566 0.013204887 0.019396901 0.010367983 0.0064450647 0.036926474 0.0023419908 -0.009110712
0.0021083108 -0.015158226 -0.038952995 0.022246245 0.012567388 -0.026890421 -0.034920685 0.01729945
0.0054757935 0.01403957 -0.0029960435 0.01383867 0.022042567 0.008206691 0.026870135 -0.017051874
-0.018589556 -0.020073414 0.0076483535 -0.026911285 0.006114022 -0.0046189297 0.02758231 -0.005345316
0.00481352 -0.012181728 -0.0015387783 0.0059073223 0.033440504 0.02617201 -0.012123861 0.008260366
0.009921826 0.0053964523 -0.013921885 0.016995715 0.013450474 -0.010758212 0.008894581 -0.012542554
0.0058642915 -0.029768514 0.0079335775 0.0029240018 -0.04912982 0.010142593 0.01457071 -0.013615233
-0.03910342 0.026597964 0.01891456 0.014726543 0.0058965464 0.0005593676 -0.011869891 0.02217475
0.03711115 -0.0026108725 -0.019170484 -0.00912064 0.0011699 -0.019448873 0.023429476 0.012224122
0.002399892 -0.01622916 0.014222537 -0.006887707 0.013482444 -0.010544813 0.014255406 0.015870271
0.016844392 0.007410445 -0.00046222183 0.026864922 -0.034574293 0.010177252 0.010303316 -0.031128004
0.011700247 -0.027142972 -0.012783392 0.0013533614 -0.015274388 -0.0054278593 2.8232489e-05 0.012071642
-0.001924205 -0.01943578 -0.028306006 0.007861331 0.012060427 -0.01656078 0.012516429 -0.02951443
0.013364243 0.011900676 -0.016524646 0.0036794716 0.027123194 -0.010005544 0.011649663 -0.0020338756
0.0038765504 0.008246761 -0.0046294034 -0.027962977 -0.007390271 0.013083059 0.0051677097 -0.00894618
-0.004458475 0.022828327 -0.011061787 0.004714933 -0.021108264 0.007427343 0.015746908 0.03230507
0.012187312 -0.01438581 0.010106224 0.009228213 0.0031025722 0.0076216864 -0.023600228 0.023218578
0.022952236 0.015467367 -0.018432384 0.0040994096 0.004631021 0.009314988 -0.007585217 0.017617585
-0.01583353 -0.00033470234 -0.0008808016 0.011756749 0.002443141 -0.0056423945 0.010339172 -0.0011587653
4.3723223e-05 0.018429961 -0.0016071213 0.0069607263 -0.012706128 -0.016782707 -0.013647615 0.0040220106
-0.003060503 0.0006373928 -0.020292072 -0.0016902114 -0.01047082 -0.0019309032 -0.014338092 0.027835358
-0.05369864 0.025120584 -0.010819187 -0.0069319378 0.0028620223 0.008212815 -0.0037853275 0.013585232
0.0018092921 0.017037211 0.0010110349 0.002354947 -0.024627022 -0.0050050286 0.023054568 -0.015592679
0.010778308 0.021503935 0.0050088144 -0.028356155 0.008173034 -0.01606776 -0.014572336 -0.03209579

action_model._discrete_distribution.branches.1.bias f4 [15]
00000000: 53d7 49bc 556d 663c c0d2 b03b 479f ddbb
00000010: 1b0e dd3c 7a0d 8c3c a5c8 05bd 7a47 1c3c
00000020: 9ed6 203c 0bc5 86bc b858 843c 1c18 e13b
00000030: 359d f2bb 356f cbbc 89ac 69bb
-0.012319404 0.014064153 0.005396217 -0.006763372 0.026984265 0.01709627 -0.032662053 0.009538526
0.009816794 -0.01645138 0.016155586 0.006869329 -0.0074039944 -0.024833301 -0.0035655817

action_model._discrete_distribution.branches.2.weight f4 [15, 256]
00000000: 3d3d 0fbc 4428 b83c ab5c d53c 6180 a13c
00000010: 6486 813b 1831 433d 9fcf 0a3d 7655 b1bc
00000020: 1e9d cebb cc54 cdbb 4ab6 2cbd 7a0b 103d
00000030: bc04 f7bc c029 6e3d 7aa0 cc3c 380f ee3b
00000040: e7eb b63b 83da b2bc 6860 0f3c bf28 f1bb
00000050: e2d1 b3bc b22d 383d cedd 213d 0676 38bc
00000060: f848 333c 9c38 3d3d 7bd5 30bc b69d 08bc
00000070: 3d69 2bbc 5baf 3fbc 3c07 2b3d d367 c43c
00000080: a8ca eab9 6a68 82bc d3fa 743b 668f 0cbc
00000090: 0d50 9fbb 1fb6 12bd 89e1 b2bb aaf4 703d
000000a0: 0aae 10bc fdd4 173c 3c14 6d3c 007b b2bc
000000b0: f3b6 df3c 0707 a53c b6d2 f63b c52d d4bb
000000c0: 8989 f63c 8490 0ebc 0ead 323d d21f a3bb
000000d0: 8c6a 31bc f31a bebc 2183 d9bb 6012 0ebd
000000e0: 918a 133c 6718 da3c 0b6d 8fbc f371 6fbb
000000f0: 516f 5fbb 2ff8 163d 17b2 263d 5484 a93b
00000100: dc7f 55bd 283c d539 71ed f73c e2fb 05bc
00000110: 21ee a7bc 3e30 8a3c e9ff fdbc d81d 683c
00000120: c37d 173c e051 a03c 49bb 683c d95e 95bb
00000130: ca71 4bbd 1478 f43c a87a 1f3d f316 7dbd
00000140: 3994 8d3c f643 53bb fcf1 043d f8a5 09bd
00000150: d181 2dbd 3c8d 013b d59e cb3b 1b6a 7b3c
00000160: b1bb d03c 3e40 43bc a3c6 923c fc0b c03c
00000170: 4050 d93c e265 da3c bd7a 1b3c 47c4 493d
00000180: 49d6 a73b 3f84 a43b 6039 d1bc 479e 173b
00000190: 1633 9bbb 8010 bcbc 6192 d7bc ed03 593c
000001a0: aa35 e73c 0e16 95bb 7501 a23c b009 b6bc
000001b0: f979 a8bb f424 1b3d 91b8 933b 15b2 f5bc
000001c0: 20a8 e63a 40f8 793d 3fa4 dbbc bcc4 ff3b
000001d0: 5fda d2bc 4dca b53c 2dc7 813b 3a2b 2f3b
000001e0: 947f 2b3d 0415 bc3b 03b5 353a 2e4c b73c
000001f0: add8 cbbc a149 1c3d 86a6 c53c cf5d d7bc
00000200: 594d 57bd dd90 1b3d aaae 263d a4f9 9cbb
00000210: d45d a9bc 01dc be3c 20c4 103c 4f82 37bc
00000220: 1a8b 333c 00c3 2ebd 40d8 e93a b15f 28bd
00000230: fcd0 ebbc 9372 d63c 5068 dc3c 0db0 d93c
00000240: 923c fbbc 2751 7ebc 4517 24bc caa0 37bc
00000250: 3bcf 1e3d a85f 9fbc 5aec 63ba 1bab 053d
00000260: f014 38bd e8c1 d13a 86f9 7a3b 2686 0f3d
00000270: b259 693b 9e1a 823c cb68 d8bc 20a4 8bbc
00000280: c8a9 213d d9c8 a03b d6f5 6a3d 340a 2aba
00000290: 827b 01bc f41e 67bc c001 a4bc 10e9 28bd
000002a0: 58eb c73c fde2 e23c bdcb 183c 05f6 f5bc
000002b0: 7125 6fbc 3340 9f3c bce8 0b3d fd7f e53c
000002c0: da84 123d 8c27 f9bb c884 343d 58d6 bdbc
000002d0: 0329 e4bc 08e9 14bd 9724 753c 10e8 863c
000002e0: 0732 95bc 5cb3 99bc bf03 813d f20d ddbc
000002f0: e37f 083d 99af 58bc 4d2d babc b3f0 d83b
00000300: 3fc1 f03b f805 283d ec8b 1cbd 6dd0 e53b
00000310: 1c8c 67bc a3e0 b33c 4eaa 9f3c 9c5d fd3b
00000320: 06df 22bc 291c d83b 97fe 22bc c5d8 833d
00000330: 83a6 573c 5409 28bc 888c 3cbc 3344 b03c
00000340: 2529 083d 1833 b43c d3be 0f3d 27fc 733c
00000350: 2b80 0ebc 44f2 953d 7ebe 8c3b 65a8 4abc
00000360: 0b90 4c3d 5188 6839 68d1 c5bc ff03 803c
00000370: e073 6ebd 8d7d fe3b f1f4 3b3c 71b8 4bbc
00000380: b8b4 e33c b015 19bc a404 a23c a241 3a3d
00000390: 68b2 c63c 8935 d63b 3681 cd3c 1bd2 2fbd
000003a0: 6683 8e3c 78a1 0dbd 1338 5e3d 8f2d 26bc
000003b0: 7d47 8a3c 33f1 183b c565 da3c 6a96 843c
000003c0: aeff ea3b 67d0 a9bb a226 0d3d 2a5b 38bd
000003d0: e966 2d3d 36c6 b03c 2e31 8ebc c066 8dba
000003e0: f351 a43b 2178 583c f111 27bc 9108 a6bb
000003f0: f591 76bc 332e 663b e7e7 9b3a 3ac1 263d
-0.008742628 0.022480138 0.026045164 0.019714536 0.003952788 0.04765424 0.03388941 -0.021647196
-0.006305351 -0.006266212 -0.042166032 0.035167195 -0.030153625 0.058145285 0.024978865 0.007264998
0.005582321 -0.02183271 0.008751012 -0.0073595936 -0.021950666 0.044965453 0.03951817 -0.011258608
0.01094269 0.046196565 -0.010793085 -0.0083383825 -0.0104621025 -0.011699523 0.041754946 0.023975288
-0.0004478295 -0.01591893 0.0037380948 -0.008579111 -0.0048618377 -0.035818215 -0.005459015 0.05882708
-0.008830557 0.009267089 0.014470156 -0.021787167 0.027308917 0.020144952 0.007532443 -0.0064751827
0.030094879 -0.008701447 0.04362207 -0.0049781585 -0.010828625 -0.02320621 -0.0066379462 -0.034685493
0.009005205 0.026622964 -0.01750805 -0.0036536425 -0.003409345 0.03685778 0.040697183 0.0051732454
-0.05212389 0.00040671346 0.030264588 -0.008177729 -0.02049929 0.016868707 -0.031005817 0.014167272
0.0092462925 0.019570291 0.0142048085 -0.004558426 -0.049669065 0.029842414 0.038935333 -0.061789464
0.017282592 -0.0032236553 0.032457337 -0.033605546 -0.04236013 0.001976802 0.0062140026 0.015345122
0.025480123 -0.011917172 0.017916983 0.023443215 0.026527524 0.02665991 0.009489712 0.04925945
0.0051219803 0.005020648 -0.025540054 0.0023135112 -0.0047363145 -0.022957087 -0.026314916 0.013245565
0.028223831 -0.0045497483 0.019776085 -0.022221416 -0.0051414934 0.037877038 0.004508086 -0.029992143
0.0017597713 0.061027765 -0.026811717 0.007805435 -0.025738893 0.022191191 0.003960511 0.0026728646
0.041869715 0.00573981 0.0006931575 0.022375192 -0.024883593 0.038156155 0.024127256 -0.026289849
-0.052564 0.03797995 0.040693916 -0.0047905017 -0.020674624 0.023298265 0.008835822 -0.011200502
0.010958457 -0.042666435 0.0017840937 -0.041106883 -0.028786175 0.02617768 0.026905209 0.026573205
-0.03066853 -0.015522278 -0.0100153135 -0.011207769 0.03877185 -0.019454792 -0.0008694582 0.032633882
-0.044941843 0.0016003223 0.00382957 0.035040043 0.003560644 0.015881833 -0.026417157 -0.017046034
0.039468557 0.0049067554 0.057363354 -0.0006486506 -0.007902982 -0.014106501 -0.020020366 -0.04123789
0.024404213 0.027696127 0.009325919 -0.030024538 -0.014596329 0.019439792 0.0341575 0.028015131
0.03577123 -0.0076035913 0.044071943 -0.023173496 -0.027851587 -0.03635505 0.014962337 0.016468078
-0.018212331 -0.018762283 0.06299543 -0.026984189 0.033325087 -0.0132254595 -0.02272668 0.0066204905
0.0073472555 0.041021317 -0.038219377 0.0070133717 -0.014132526 0.021957701 0.019490387 0.0077321064
-0.009940868 0.006595154 -0.009948394 0.0643783 0.013162258 -0.01025613 -0.011508115 0.021516895
0.033242363 0.02199702 0.035094094 0.014891661 -0.00869755 0.07321599 0.0042951694 -0.01236925
0.049942058 0.00022176026 -0.024147704 0.015626905 -0.058215976 0.0077664317 0.011471973 -0.012434111
0.027796134 -0.00934355 0.019777603 0.04547275 0.024254993 0.0065371436 0.025086027 -0.04292498
0.01739664 -0.034577817 0.054252695 -0.010142698 0.016879791 0.0023337125 0.026659856 0.016185004
0.0071715927 -0.005182314 0.03446067 -0.045008816 0.04233447 0.02157889 -0.017357435 -0.0010788068
0.005014652 0.013212235 -0.010197149 -0.005066939 -0.015049447 0.0035122752 0.0011894674 0.04071162

action_model._discrete_distribution.branches.2.bias f4 [15]
00000000: 0d31 cf3b a2b6 1ebc 059f 64b9 27af 17bc
00000010: b3a2 90bc a1c1 c53c 16be b03b de52 a63b
00000020: 791f 7ebc 0c41 0bbb 1859 8b3c 5ada 203d
00000030: af34 c6bb 01bb 95bc d5f4 8cbc
0.006322986 -0.009687098 -0.00021803014 -0.009258068 -0.017655706 0.024140181 0.0053937538 0.0050757965
-0.015510433 -0.0021248488 0.017010257 0.039270736 -0.006048761 -0.018277647 -0.017206589
